saved_models/simple_net_model.pth (torch, 176822 bytes, 37 tensors)

module.NodesEncoding.A1.weight f4 [50, 2]
000000 2b a0 13 bf de b3 c0 3e 3b 61 13 bf 35 69 14 bf
       -0.5766627 0.37637228 -0.57570237 -0.57973033
000010 89 df ca 3e 06 4e 82 3e 89 f2 c6 be a1 e4 2e bf
       0.3962367 0.25450152 -0.38856915 -0.6831761
000020 df 65 59 be 84 36 3d 3e c8 c9 b3 3e 49 99 0d be
       -0.21230267 0.18477827 0.35114884 -0.13828005
000030 f7 87 02 3f f1 1f 6c be 7b 7d 08 3e be 1f da be
       0.50988716 -0.2305906 0.13329117 -0.42602342
000040 70 f4 94 bd b9 a9 e6 3e e1 80 c3 be 1f 3e 11 3f
       -0.07273185 0.45051363 -0.38184264 0.56735414
000050 9c 15 24 bf 9f cb 10 3e cd db f2 3e 92 71 2a 3f
       -0.64095473 0.14140175 0.4743332 0.66579545
000060 9c 58 20 3f b9 1e 33 3f f4 7b 55 3e 0c 96 71 3d
       0.6263521 0.69968754 0.20848066 0.058980986
000070 03 2c ab 3e 14 36 b8 be 04 98 c0 3e 62 84 ed be
       0.33432016 -0.35978758 0.3761598 -0.46390063
000080 e6 fe 72 be db ae f5 be ec 2d 27 3f 9f 88 ac 3e
       -0.23730049 -0.47984967 0.65304446 0.33697984
000090 5e b5 3a be 5e c1 a1 be 95 0c 32 3e 39 e0 dd be
       -0.18233249 -0.3159284 0.17387612 -0.4333513
0000a0 34 c5 13 be 92 48 a1 3e 7b 26 0e 3f 4c f6 cb be
       -0.14430696 0.3150068 0.55527467 -0.39836347
0000b0 ff e7 95 be 7e b2 01 3f f4 1f 36 3f eb cc 4a 3e
       -0.2927856 0.5066298 0.71142507 0.19804733
0000c0 10 31 35 bf d5 ff f4 be a2 53 fc bd e1 dd 10 3f
       -0.7077799 -0.47851434 -0.12320639 0.5658856
0000d0 04 f0 ce be 8f 33 f0 be 85 d0 e2 be b4 7c 61 be
       -0.40417492 -0.46914336 -0.44299713 -0.22020227
0000e0 ac ba c3 3d a6 5b 13 3f cd 72 c4 be f7 65 13 3f
       0.09557089 0.5756172 -0.38368836 0.5757746
0000f0 f9 e0 95 be 44 78 18 bf 22 5c 23 bf 15 46 2c 3f
       -0.29273203 -0.5955851 -0.6381246 0.67294437
000100 be b9 32 bf 4e 21 3d bc 20 15 87 3d 31 3d 97 3d
       -0.6981467 -0.011543585 0.06595826 0.07384718
000110 a8 a4 b8 3d e9 34 0a 3f 4b d1 54 be 8a b5 da 3e
       0.09015781 0.53986984 -0.20782964 0.42716628
000120 4c 35 95 3e 5e e8 7d 3c b0 d9 ee bd cd aa a4 be
       0.29142225 0.015497295 -0.11662614 -0.3216156
000130 77 fe 13 bf a6 58 f4 3e 83 94 b7 3e aa 15 20 3f
       -0.5781016 0.47723883 0.35855493 0.62533057
000140 87 4b ad 3e 80 2c 7d be c9 57 b7 3e 38 48 28 3f
       0.33846685 -0.24724007 0.35809162 0.657352
000150 5c f2 29 3f d8 15 68 3d 7a 21 f8 3d 0e f4 cb be
       0.66385436 0.056661457 0.1211576 -0.39834636
000160 27 19 b1 3e 92 c6 96 be 5a df 34 3f 36 14 03 3f
       0.34589502 -0.29448372 0.7065331 0.51202714
000170 dd 2f 3a 3e 3a 01 1e be c8 2d 95 be 61 3f 1e 3e
       0.18182321 -0.15430155 -0.2913649 0.15453865
000180 45 87 28 3f 92 62 5b 3e b2 cb 0c 3e 28 8a 9c be
       0.65831405 0.2142432 0.13749579 -0.30574155

module.NodesEncoding.A1.bias f4 [50]
000000 a9 2d 84 3e 87 19 0f 3f 22 3f 24 3f 67 f0 75 3e
       0.25816086 0.55898327 0.64158833 0.24017487
000010 02 29 ca bd 71 5c 9b 3e 0a 0b 14 3f 0f f3 9d be
       -0.09871103 0.30343965 0.57829344 -0.30849501
000020 48 9f 37 be a1 47 91 be 9a 39 d5 3b 30 2f ea 3e
       -0.17931855 -0.2837496 0.006507111 0.45739126
000030 e7 7c b7 3e 32 9e 33 3f 57 72 0b bf 94 a6 9d 3e
       0.3583748 0.7016326 -0.54471344 0.30791152
000040 9f a6 ad be 33 a4 1e 3f c6 1a a2 3d 91 53 90 be
       -0.33916184 0.619693 0.07915263 -0.28188756
000050 03 7a e6 be 5e 7f ef be 93 29 78 be e9 19 d8 be
       -0.45014963 -0.4677686 -0.2423461 -0.42207268
000060 ad e0 b4 3e ff 8d 77 be 7f e7 06 bf ad 52 18 3d
       0.35327664 -0.24175261 -0.52696985 0.03718822
000070 97 e0 07 be 65 4c cc 3e 44 d6 b4 be 74 ed fa bd
       -0.13269268 0.39902034 -0.35319722 -0.12252322
000080 79 ec bb be 65 f2 c2 be 28 77 42 be 7c b4 e5 3e
       -0.36703852 -0.38075557 -0.18990767 0.4486426
000090 c3 da 09 bd 50 9b 91 be 80 a2 29 3d a4 3e 03 3f
       -0.033655893 -0.28438807 0.041414738 0.51267457
0000a0 8c 88 1e 3f 82 4d 77 3c 91 15 33 3f 91 04 25 3e
       0.61927104 0.015094163 0.6995478 0.16115023
0000b0 bc 2d ff 3e 3d 42 32 3f 30 a3 ed be e8 d5 88 3e
       0.4983958 0.6963232 -0.46413565 0.26725698
0000c0 16 ef 20 bd 4c df 3b 3e
       -0.03929051 0.183469

module.EdgesEncoding.A2.weight f4 [25, 1]
000000 41 83 a9 3d d8 31 3c bf 91 d6 70 3f 42 66 26 bf
       0.08276988 -0.73513556 0.940774 -0.64999783
000010 73 7b 80 bf ae 65 56 bf 35 0a 90 3e d6 5d 62 bd
       -1.0037674 -0.837489 0.28132787 -0.05526527
000020 e1 3c 1f 3f a0 b4 09 be 23 34 d5 3c 94 ad 16 3f
       0.6220227 -0.13447809 0.026025837 0.5885861
000030 d2 84 5a 3f 49 47 90 3d 2c 5f 8f be 64 16 52 3f
       0.8535892 0.070448466 -0.28002298 0.82065415
000040 78 e9 31 3f f1 0b 13 3f f0 60 c5 3d 47 45 f3 3e
       0.6949687 0.57440096 0.0963763 0.47513792
000050 62 a7 37 3f 1b 0c 66 3f 72 98 20 3e e9 9e c8 be
       0.7173978 0.8986222 0.15683153 -0.3918374
000060 3c c9 be 3e
       0.37262905

module.EdgesEncoding.A2.bias f4 [25]
000000 9e 5f 16 be 27 fc 6a 3d fc cb 66 bf 9c e6 3d be
       -0.14684913 0.057369377 -0.90155005 -0.18545002
000010 98 8c 1b 3f 43 7a 13 3f 05 dd 53 be 61 28 b5 3d
       0.60761404 0.5760843 -0.20689781 0.08845592
000020 b3 52 3c bf ea 5d 1b 3e 08 ff e8 be 0f 38 3d 3f
       -0.7356369 0.15172544 -0.45507073 0.73913664
000030 a0 bd 47 be 44 f5 03 be 8a bd a1 3e 8b e3 36 3f
       -0.1950593 -0.1288653 0.3158992 0.71440953
000040 4d a8 41 3f 0d ce 9d be 95 6a 1b 3f ae d9 18 3e
       0.7564743 -0.30821267 0.60709506 0.14926788
000050 e3 72 2f 3e 6a 94 a1 be 18 ee d7 3e 8f c3 25 3e
       0.1713367 -0.31558543 0.4217384 0.16187881
000060 8a c9 ce 3e
       0.40388137

module.EdgesEncoding.A3.weight f4 [25, 1]
000000 2a 1e e4 be 48 e9 44 3d 81 6e 6c bf 33 54 79 3d
       -0.44554263 0.048074037 -0.92356116 0.060871314
000010 ed 13 66 bf 9f 06 43 3e 5c 89 fa bd 62 c2 0a bf
       -0.89874154 0.19045494 -0.122332305 -0.54202855
000020 fc 9d 63 3f 25 46 2e bd 9f 2d 42 3e 89 fb 91 bd
       0.8891294 -0.042547364 0.18962716 -0.07128055
000030 94 7a 28 3f b2 66 cc 3e 25 49 42 3c 8c 9a aa be
       0.6581204 0.399221 0.011858259 -0.33321035
000040 dd ef 23 3f 35 b0 82 3e d0 cc 6c 3e 6d 44 68 be
       0.6403788 0.2552506 0.23125005 -0.22682352
000050 5a f8 2d bf 20 b4 23 bd 7b 26 b5 3e ae 23 e0 be
       -0.6795708 -0.039966702 0.3538092 -0.4377722
000060 56 aa c5 3e
       0.38606519

module.EdgesEncoding.A3.bias f4 [25]
000000 d6 90 25 3f fb 00 2d 3f 5e 5f 0c be 53 f1 8e 3e
       0.6467413 0.6757962 -0.13708255 0.2791849
000010 5d 83 9c be 02 57 9d be 3e 54 25 3f e4 e8 51 bf
       -0.30568972 -0.30730444 0.6458167 -0.8199599
000020 70 d4 20 3f bf e7 7d be c3 86 6d bf 59 42 35 3f
       0.62824154 -0.24795435 -0.92783755 0.70804363
000030 47 c6 62 3f 76 2a 3e bf 28 50 7a 3e 1c 0e 06 bf
       0.885838 -0.7428354 0.2444464 -0.5236528
000040 56 a7 81 be 9e 93 7c bf 3d 84 9e be 26 24 75 3e
       -0.2532298 -0.98662746 -0.30960265 0.23939571
000050 eb cc 7f 3f 36 4e 3b 3e 2d 0b 4d bf 50 d4 41 bf
       0.99922055 0.18291554 -0.8009518 -0.7571459
000060 20 69 82 be
       -0.2547083

module.gcn_layers.0.bnNodes.W1.weight f4 [50, 50]
000000 9e df 15 3e 6a f1 30 3c 76 76 3c bd c2 b1 df bb
       0.14636084 0.010799745 -0.04601141 -0.0068266103
000010 65 2d f1 3d 20 ba a2 bd 89 8e 00 be 8c 0a 17 be
       0.117762364 -0.07945657 -0.12554373 -0.14750117
000020 c1 c4 99 3d 45 4e e5 3d 4b de 17 3e b7 07 c7 bd
       0.07508231 0.11196569 0.14830892 -0.09718268
000030 f2 03 b0 bc 8a 26 ab 3c 3b dc 81 3d 62 2a 02 bc
       -0.021486256 0.0208924 0.06340834 -0.007944675
000040 46 01 0c be 56 3d c5 bd d4 2a 7c 3d f8 a4 fa 3c
       -0.13672361 -0.096308395 0.06156428 0.030596241
000050 4b 43 03 3e fc a8 62 3d 99 cc b0 bc b2 3d c9 bd
       0.12818639 0.055336937 -0.021581935 -0.098262206
000060 6e ea 3b bc 00 53 46 bd fc cc a8 3c 6a ed c3 bd
       -0.011469467 -0.048419 0.020605557 -0.095667675
000070 4c cf 8b bd bb b0 fa bc 9e ec 06 3e 6b 94 87 bd
       -0.06826648 -0.03060185 0.131762 -0.06620105
000080 f0 84 af bd 90 73 a0 3d 32 75 3f bd bf 7e dc bd
       -0.08570278 0.07834542 -0.046742626 -0.107663624
000090 a9 8e 0e bd d5 be 26 bd 61 79 0e 3d 3e f6 90 3d
       -0.03480402 -0.040709335 0.034783725 0.07078217
0000a0 35 3e 1a 3d a8 81 19 3d 58 8d 94 3d d7 74 87 3d
       0.03765698 0.037477165 0.07253522 0.06614082
0000b0 f0 0f fc 3d 7e a5 09 be 92 62 15 3d 26 5a ab bd
       0.12307727 -0.13442037 0.036470957 -0.08366804
0000c0 e6 87 78 bd f7 bb bb bd 1b 59 05 bc c8 08 ec bd
       -0.060676478 -0.09166711 -0.00813892 -0.115251124
0000d0 41 d3 09 3e ca 28 57 bd e1 3e 49 bc 65 fc 17 3d
       0.13459493 -0.052529134 -0.012283058 0.037105937
0000e0 b2 81 00 3d 14 48 9e 3d 79 4d e8 bd 84 06 cc bd
       0.031373687 0.077285916 -0.11342902 -0.0996218
0000f0 7f 7b 9d 3d 9b eb ec 3c 9e 51 f9 3d fb e5 09 3e
       0.07689571 0.02892094 0.1217377 0.13466637
000100 ca 29 26 bc 0d 9f 96 bc 1f 5e bd bd c0 95 fd bd
       -0.010141799 -0.018386388 -0.09246468 -0.12382078
000110 8c 57 0d be 85 88 a3 bd 30 7d f7 3c 4f e3 f2 bd
       -0.13802928 -0.079850234 0.030211061 -0.11859762
000120 d6 6c 5b 3d ac 75 1c 3c 42 28 86 bc e7 5d 0b 3d
       0.05357059 0.00954954 -0.016376618 0.0340251
000130 e5 d5 ef 3d 20 09 68 3c e7 8f 0c be c3 de 09 bd
       0.11710719 0.014162332 -0.1372677 -0.033659708
000140 2d 53 b9 bd 10 c4 73 3c 90 2a bf 3d 11 de c5 3d
       -0.09049068 0.014878288 0.0933429 0.096614964
000150 21 10 8a 3d dc 1c 96 bd ce 35 bc bd d5 9a f8 3d
       0.067413576 -0.07329723 -0.0918995 0.12138907
000160 6d ba aa bd 6b 6f 10 3e b5 fc f0 3d 71 25 fa 3d
       -0.08336339 0.14105003 0.1176695 0.12214173
000170 00 14 0f bd 60 ba 0f bd 1a 8a 0e be 86 b4 0a be
       -0.034931183 -0.03508985 -0.13919869 -0.13545427
000180 4b c0 88 bd 37 5f 31 3c 73 7f 09 3e 7f 96 4a bd
       -0.06677302 0.010825924 0.13427524 -0.04945993
000190 c3 9d f9 bd 89 4c 30 bd 53 6b e0 bb 1f 4a 12 3d
       -0.12188294 -0.04304174 -0.0068487315 0.03571522
0001a0 5c f9 d8 bc a8 69 52 3d b9 ea ad 3d 91 7c ee bd
       -0.026486091 0.051370293 0.084920354 -0.11644853
0001b0 ea af 85 bd f1 e2 02 be 16 8f 20 3d a7 a7 3b bd
       -0.065276936 -0.12781884 0.039198957 -0.045814183
0001c0 38 c1 7a 3d e9 35 51 bd 4b 00 a4 3d fa 92 c5 3d
       0.061219424 -0.051076803 0.080078684 0.09647174
0001d0 e6 71 e9 3d 3b 4c 53 bc 56 4f 09 bc c3 bf 2c bd
       0.113986775 -0.012896593 -0.008380732 -0.042175066
0001e0 84 96 12 be 7e 55 ca bd c3 9b da bd 3f bd f8 3c
       -0.1431523 -0.098795876 -0.106742404 0.030363677
0001f0 b7 a4 9e bd 66 5a 0a 3e 66 51 e9 bd 02 c3 f7 3d
       -0.077462606 0.13511047 -0.11392479 0.12097742
000200 7b 83 ea bd fb 44 88 bd 95 ab 4d 3d 3f 6b 20 bd
       -0.11450859 -0.06653782 0.05021246 -0.039164778
000210 22 22 a1 bd 14 1f 79 3b 12 f4 87 3d 9c d5 e4 3d
       -0.078678384 0.0038012909 0.066383496 0.11173555
000220 a1 65 01 3e d1 37 f8 bd af c3 02 3d f1 65 58 3c
       0.12636425 -0.12120021 0.0319249 0.0132078985
000230 5f d4 0f bd 98 dd cd bd 37 9a 50 3d a7 bf af 3d
       -0.035114642 -0.10052031 0.05092832 0.08581477
000240 f2 30 d8 bd 22 93 59 bd d2 92 22 bd 67 08 84 3d
       -0.105562106 -0.053118832 -0.0396908 0.06446915
000250 d5 5c a7 bd bd 34 d2 bd af 60 e2 bd 00 31 a6 bd
       -0.08172003 -0.10263965 -0.11053597 -0.08114815
000260 57 25 a9 3d 5d 9e 5b bc 9a 16 c8 3b bf a5 b7 bd
       0.08259075 -0.013404456 0.00610621 -0.089671604
000270 4d 86 92 3c 0f 79 64 3d b6 c4 81 bd 8d 49 fa 3d
       0.017886305 0.055779513 -0.06336348 0.1222106
000280 da ad 8c 3d 8f a5 cc bd db c1 93 3b fa 34 b4 3d
       0.06869097 -0.09992515 0.0045091934 0.08799167
000290 9b f4 88 3d 36 6b b9 bd c5 94 a1 3d 92 7b d8 3c
       0.0668728 -0.09053652 0.07889704 0.02642611
0002a0 c0 c2 13 3e 64 55 81 bd f1 ac 17 3d 28 d2 ef 3d
       0.1442976 -0.06315115 0.037030164 0.11710006
0002b0 96 d5 c3 3d 4b 07 12 3c e2 78 b2 3d 29 05 b8 3d
       0.09562223 0.008912872 0.08714463 0.08985359
0002c0 c2 ca 91 bb f5 72 54 bd df 83 f9 3d 01 02 16 bb
       -0.0044492194 -0.051867444 0.121833555 -0.0022889378
0002d0 f3 32 1f 3d aa 9e 91 bc bf 53 cb bd 16 d7 ec 3d
       0.03886695 -0.017775852 -0.09928083 0.11564462
0002e0 98 b4 0c be f0 ac cc bd 02 73 9b 3c 3e 9c cb 3b
       -0.13740766 -0.09993923 0.018975738 0.006213694
0002f0 6b da 86 bd 4a 7f c0 3d 0c 23 dc bd 2e eb 23 3d
       -0.06584629 0.093992785 -0.10748872 0.040019207
000300 7f d8 b7 bd e6 c4 e7 3d c9 a9 0f be 88 dd 25 3d
       -0.0897684 0.11316852 -0.14029612 0.04049447
000310 03 1c 8a 3d 02 00 02 3e 9d a4 13 be aa 7e 9b bd
       0.06743624 0.12695315 -0.14418264 -0.07592519
000320 ad 8e eb 3c 7c 7e 2f bd 43 ce fe bd cd 11 d7 bd
       0.028754557 -0.042845234 -0.12441685 -0.10501442
000330 b7 6f e6 bd 2b bd d1 3d 37 da 2b bb 80 f1 0b be
       -0.11251777 0.10241159 -0.0026222595 -0.13666344
000340 99 8a 03 be 87 21 3d bd a5 fe 9b 3c 04 64 24 bd
       -0.1284584 -0.046174552 0.019042322 -0.040134445
000350 bb f9 91 ba d4 1a a5 bd 85 40 81 bd 11 15 bb bd
       -0.0011137048 -0.08061758 -0.06311134 -0.091348775
000360 43 b5 d9 3d e3 7d 2d bd f1 22 39 bc f0 e4 cb 3d
       0.10630276 -0.042356383 -0.011299835 0.09955776
000370 93 4c 31 bd 19 7a 0c bd e3 7b 8e 3d cb 97 09 3e
       -0.043285917 -0.03429613 0.06957223 0.1343681
000380 05 0b 00 ba 5d d1 f4 3c 8d df dd bd 54 92 da 3d
       -0.00048844545 0.029884988 -0.108336546 0.10672441
000390 cf 3f 83 bd 0e 0f ce 3d 89 29 01 be d6 92 82 bd
       -0.06408655 0.10061465 -0.126135 -0.06375663
0003a0 4e a6 e9 bd a0 67 a7 3d e3 21 e4 bc 94 0f 9b bd
       -0.11408673 0.08174062 -0.02784819 -0.07571331
0003b0 dc 2b ad bd 10 d3 53 3d 12 64 36 bd 25 c4 68 3d
       -0.08455631 0.051714957 -0.04452903 0.056827683
0003c0 9c 88 8d 3d a4 87 3b 3d 1d bb 83 bd 50 df 09 3e
       0.06910822 0.045783654 -0.064321734 0.13464093
0003d0 ef 82 e1 bd 46 a2 34 3d 20 34 03 3e d8 bb 97 bd
       -0.11011302 0.04410007 0.12812853 -0.07408875
0003e0 63 12 96 bc 2c 85 b0 3d 51 c0 1e bd 0c b2 03 be
       -0.018319314 0.086191505 -0.038757626 -0.12860888
0003f0 d0 4f a3 3d 3a e8 cd 3c 72 5e 02 3b dd 6c f7 3d
       0.079742074 0.025135148 0.001989272 0.12081311

module.gcn_layers.0.bnNodes.W2.weight f4 [50, 50]
000000 90 f0 cb bd 9b be e1 3d 29 04 e4 bc 61 13 08 3e
       -0.09957993 0.11022683 -0.027834015 0.13288642
000010 68 2c c4 bd 14 fb 2c 3d 79 d3 23 bc 9d 29 d7 bc
       -0.09578782 0.042231634 -0.0099991495 -0.02626496
000020 da cd e1 3d b7 7d a6 bc 9c bc 5b 3c 58 39 d3 bd
       0.11025591 -0.020323617 0.013411667 -0.10313672
000030 31 2d fc bd a5 7a 0a 3e 7d 16 1e bd 9b 49 67 3d
       -0.12313307 0.13523348 -0.038595665 0.05646668
000040 89 47 30 bc 59 33 dc bd ca 36 04 3e 45 fd 35 3c
       -0.010759243 -0.10751981 0.12911525 0.011107747
000050 8f 49 88 3d d0 05 16 3d b1 ff e5 bd b3 8c 46 bd
       0.06654655 0.036626637 -0.1123041 -0.048474025
000060 ae 66 bb 3d 48 3c 87 bd 0d cd a4 bd 08 68 cc bd
       0.09150444 -0.066032946 -0.08046923 -0.0998078
000070 2a 10 a8 bb e7 7b 21 3d 7f 54 f8 bd 59 80 97 3d
       -0.00512888 0.039424803 -0.12125491 0.07397527
000080 56 8f 6f bd b9 a4 1c 3d 7a 62 9c bd 26 1b 01 3e
       -0.058486305 0.03824303 -0.076359704 0.12608013
000090 0d 45 cd bd b2 d7 54 3d b5 06 a9 bd 59 a9 86 bc
       -0.10022936 0.051963516 -0.082532324 -0.016438173
0000a0 8e 1f e9 3d b1 1a 95 3d 07 62 5c bd 3a a2 83 3d
       0.11382972 0.072804816 -0.053804424 0.06427427
0000b0 52 68 39 bd 9d 72 8e bd 5f 57 e7 bc e1 a7 e8 3d
       -0.045265503 -0.069554545 -0.028239904 0.11360145
0000c0 d2 19 95 3d da 7e f4 bd ca 19 e2 3d 98 46 0a 3c
       0.072803155 -0.119382575 0.11040075 0.008439682
0000d0 18 98 fb 3d 85 0d 56 3c 01 e7 bd bc 23 01 99 bd
       0.12284869 0.013064747 -0.02318144 -0.0747092
0000e0 83 c9 0d bd cc ea 38 bd a0 02 4a 3d 33 19 8e bd
       -0.034616005 -0.045145795 0.04931891 -0.069384
0000f0 6c ca 08 be 60 06 be bd f7 1e c0 3d 34 b6 55 3c
       -0.13358468 -0.0927856 0.09380906 0.013043929
000100 ab 44 aa bc 33 71 94 bc b5 2b 0f 3e 47 92 99 3d
       -0.020784697 -0.018120384 0.13981517 0.07498603
000110 ac 6f 12 3a 0e 29 d8 3d 18 75 06 3e 6c 54 0c 3e
       0.00055860984 0.105547056 0.13130605 0.1370408
000120 1e 3e 10 3b e5 6d a6 3d 15 d6 20 bd 3d 16 02 3d
       0.002200968 0.081264295 -0.039266665 0.03175949
000130 fc c8 02 3e 53 37 ff bd 15 97 a5 bc f6 2e ed 3d
       0.12771982 -0.12461724 -0.020213643 0.11581223
000140 2d 92 e4 bd bb ee be bc 34 78 38 bd ff 58 8a 3d
       -0.11160693 -0.023307195 -0.04503651 0.06755256
000150 2d 90 fc ba 92 74 0e be 94 a8 dc bd 6c ae a0 3d
       -0.0019269042 -0.13911656 -0.10774341 0.07845768
000160 c4 3e 66 3b d4 ab 03 3e c2 14 91 3c 4d fe df 3d
       0.0035132626 0.12858516 0.017710093 0.10937176
000170 cf 2b 65 3d ef 0a 00 be f4 f3 c4 3d 1f a0 c0 3c
       0.055949982 -0.12504171 0.09616843 0.023513852
000180 b4 86 55 bd e3 35 25 3d ee 75 7f bd 98 0f 40 bd
       -0.052130416 0.040334594 -0.062368326 -0.04688987
000190 8a 23 cd bc 8c d9 ad 3d 05 94 00 be 18 6d 98 bd
       -0.02504136 0.084887594 -0.12556465 -0.07442683
0001a0 b6 fe 0a 3e 19 f2 d7 3d 37 e0 0c 3e 16 8e 54 bd
       0.13573727 0.10544223 0.13757406 -0.051893316
0001b0 c5 10 da bc 2f 94 0d be 76 17 e9 bd 47 ac 73 3c
       -0.026619324 -0.13826059 -0.11381428 0.014872617
0001c0 b6 ee cd bb 2d 13 09 bd d0 00 72 bd 18 e3 ac bd
       -0.00628456 -0.033465553 -0.059082806 -0.08441752
0001d0 91 57 c0 3d 29 f3 48 3d 3f 87 89 bc 4f c9 0d 3e
       0.09391702 0.04906002 -0.016788123 0.13846324
0001e0 b4 a5 46 39 51 57 e4 3d dc 12 62 bc d0 75 44 bd
       0.0001894448 0.11149467 -0.013798442 -0.047963917
0001f0 6d d6 df bd 0a 34 a6 bd 62 f2 99 bd 14 d4 8b bd
       -0.1092957 -0.081153944 -0.07516934 -0.0682756
000200 92 e2 05 3e 1a e9 0b be 17 32 fa 3d 90 07 be bd
       0.13074711 -0.1366314 0.12216585 -0.09278786
000210 46 6a 0d be 94 7a 6b 3d 1d 4d dc bd 76 e3 60 bd
       -0.13810071 0.057489946 -0.10756896 -0.054904424
000220 0c ed 43 3d c0 75 7a bd a5 0a 03 3d f2 ba b8 3d
       0.047833487 -0.06114745 0.031992573 0.09020032
000230 38 6c b7 bb 79 32 93 bd 0b 4b a2 bd f1 1a f5 3c
       -0.0055976175 -0.07187361 -0.079244696 0.029920073
000240 86 92 85 bd 26 92 88 bd 3d 80 93 3d 67 60 0f 3c
       -0.06522088 -0.066685006 0.07202194 0.008751011
000250 ae 44 60 3d 90 2a 90 3d 63 90 11 be e2 df 8f 3c
       0.054752998 0.07039368 -0.14215235 0.01756281
000260 7b 5b 57 3c c2 5e da 3b 67 75 dc bb 86 e6 cd bc
       0.013144369 0.006664128 -0.0067278626 -0.025134336
000270 82 49 f2 bd 3e ce ed 3d be 49 86 bc 43 72 06 bd
       -0.11830427 0.11611603 -0.016392585 -0.032823812
000280 ad 01 ea 3d 30 ce 82 bd b0 63 ab bd cf e6 d2 bc
       0.11426101 -0.063869834 -0.08368623 -0.025744824
000290 d8 d1 ba bd 3b 85 8e bd eb 4f 4f bd df 11 06 3e
       -0.09122056 -0.069590054 -0.050613325 0.13092755
0002a0 36 c1 de bc 7a 2b fe bd cd 38 e5 bc a8 8b 6b bd
       -0.02719174 -0.12410636 -0.027981186 -0.057506233
0002b0 02 29 cf bd 8e a8 63 bd 73 60 05 be 6c 32 82 bd
       -0.101152435 -0.05558067 -0.13025074 -0.063572735
0002c0 28 ae f4 bd ca 25 4c bd 77 02 13 be e3 ef 78 3c
       -0.1194728 -0.049840726 -0.14356409 0.015193912
0002d0 46 56 02 3d 69 23 a9 bd c5 a6 75 bb 0c db cd bd
       0.031820558 -0.08258707 -0.0037483436 -0.100515455
0002e0 23 1f f5 bd 28 64 c1 bb 68 ae 0a bd 01 42 e4 bd
       -0.119688295 -0.005901832 -0.033857733 -0.11145402
0002f0 31 50 97 3d 76 a3 d9 3c 8e 6a 0f be 68 77 e1 bd
       0.07388342 0.026567202 -0.14005491 -0.11009103
000300 5c fe 73 3d 12 28 eb 3c ae 64 bc 3d 36 10 3d bb
       0.059568748 0.02870563 0.091988906 -0.0028848774
000310 32 57 1d 3c 3e 3d 95 bd e0 6c 86 bd e5 fd cb bd
       0.0096033085 -0.07287072 -0.06563735 -0.09960536
000320 6f a2 47 3d e2 55 f0 3d 1d b1 46 3d 87 30 f2 bc
       0.048738893 0.11735131 0.048508752 -0.029564155
000330 fa 70 74 3c b1 19 16 be c2 99 cc bc f7 7b f8 3d
       0.014919514 -0.14658238 -0.024975661 0.121330194
000340 3b 91 c2 bc 40 b6 a2 3b d6 04 10 3e 3b 49 d1 3d
       -0.023750892 0.0049655735 0.14064345 0.10219046
000350 67 a8 a9 bc 48 3c 12 be 9b b9 fd 3d e4 d3 7a 3d
       -0.020710183 -0.14280808 0.12388917 0.06123723
000360 70 a9 da b9 46 3f ee 3d 43 5a 60 3d 5d 08 7f bc
       -0.0004170644 0.11633162 0.05477358 -0.015565959
000370 7b a1 f8 3d 3c 77 ef 3c 80 1e 99 3d 37 a1 ad bb
       0.12140175 0.02923166 0.074765205 -0.0052987593
000380 61 9a 99 3d 65 16 03 bd c5 51 19 3d ae 88 0c be
       0.075001486 -0.03200378 0.037431497 -0.13724014
000390 b9 16 c7 3d a5 9b e1 3c d7 46 a9 3d eb a6 ab bd
       0.09721131 0.027540037 0.08265465 -0.083814465
0003a0 38 ee 0c bb ee 31 d2 3c c9 61 8f bc d8 f3 29 bd
       -0.0021504294 0.025658574 -0.017502682 -0.041492313
0003b0 81 22 70 3d 75 0b 09 3d 12 e3 06 be 25 95 9a 3c
       0.058626655 0.033458192 -0.13172558 0.018869946
0003c0 3d 50 b4 3d 8e 28 e6 3d b4 a8 bb 3d ae a0 ab 3d
       0.08804367 0.11238204 0.09163037 0.083802566
0003d0 2a d1 30 bb 24 38 fe bd 47 1a bd bd 94 a4 0d 3d
       -0.002698014 -0.12413052 -0.09233528 0.034580782
0003e0 86 38 53 bd 7d d6 7b bd 7f 61 e7 bc fc c5 93 3d
       -0.051567577 -0.06148385 -0.028244732 0.07215497
0003f0 2a 14 63 bd 22 82 8f bd 86 6f 8e bb 29 e2 10 3e
       -0.05543915 -0.07007243 -0.0043467907 0.14148773

module.gcn_layers.0.bnNodes.batch_norm.weight f4 [50]
000000 aa 13 7f 3f 34 c7 7d 3f 7f dc 7d 3f 9e 1b 7e 3f
       0.9963938 0.99132085 0.99164575 0.9926089
000010 af e5 80 3f 5c b7 80 3f 65 22 80 3f 7d 2b 7e 3f
       1.0070094 1.0055957 1.0010496 0.9928511
000020 62 ea 7d 3f 87 b9 7e 3f 44 f4 7e 3f 04 11 81 3f
       0.99185765 0.9950184 0.9959147 1.0083318
000030 47 6a 80 3f c5 5f 80 3f a7 97 80 3f 1a 72 80 3f
       1.0032433 1.0029227 1.0046281 1.0034821
000040 b6 b9 80 3f f0 42 80 3f 5b a1 7d 3f 33 da 7d 3f
       1.0056674 1.0020428 0.99074334 0.9916107
000050 b0 ab 7e 3f f9 1b 81 3f 9a 05 80 3f e8 cf 7d 3f
       0.99480724 1.0086662 1.000171 0.99145365
000060 d5 8a 80 3f 37 ab 7e 3f 7c 09 81 3f 09 ab 7d 3f
       1.0042368 0.99480003 1.0081019 0.99089104
000070 09 14 81 3f af d0 7f 3f 32 bc 80 3f cf 00 7f 3f
       1.0084239 0.999278 1.0057433 0.9961061
000080 7c af 80 3f db 7c 80 3f b2 2c 80 3f 90 a5 80 3f
       1.0053554 1.0038103 1.001364 1.0050526
000090 01 e6 80 3f 92 e8 7f 3f 5f 40 80 3f 0f 1a 80 3f
       1.0070192 0.9996425 1.0019644 1.0007952
0000a0 16 ae 80 3f ab e8 7e 3f 40 b0 7f 3f d5 bf 7d 3f
       1.0053127 0.99573773 0.9987831 0.9912084
0000b0 f1 d5 7d 3f 51 14 80 3f b3 12 7e 3f ec b4 7d 3f
       0.99154574 1.00062 0.9924728 0.9910419
0000c0 87 88 7d 3f 5f 30 7f 3f
       0.9903645 0.99683183

module.gcn_layers.0.bnNodes.batch_norm.bias f4 [50]
000000 fe 12 5e bb 60 4a 17 bc f2 4a 00 bc 4e b5 da bb
       -0.0033885832 -0.009234041 -0.007830368 -0.0066744452
000010 56 5c ec 3b 9a 12 0b 3c 83 70 0d 3a f8 50 06 bc
       0.0072131557 0.008488322 0.00053954887 -0.008198015
000020 f1 18 05 bc 5a db 9a bb 63 a2 a4 bb e8 5e 0c 3c
       -0.008123622 -0.004725856 -0.005024241 0.008567549
000030 ed 76 ad 3b 5e 70 ae 3b 6a 72 89 bb d2 38 fd 3b
       0.005293718 0.005323454 -0.0041945474 0.007727721
000040 ed 5e 7f 3b 1f 96 b5 3b 1d 75 10 bc 34 cb a7 bb
       0.0038966492 0.0055415775 -0.0088169845 -0.0051206592
000050 ab 3a b1 3b 34 e7 1f 3c 59 d4 e3 3b 1d e3 0d bb
       0.005408605 0.009759713 0.006952804 -0.0021650263
000060 a4 d1 b9 3a 62 1e 8b bb d1 a8 da 3b 5a b6 fa bb
       0.0014176858 -0.0042455653 0.0066729565 -0.0076511325
000070 45 7e 10 3c 8f 56 96 bb 81 ad fd 3b 54 ae 9f 3b
       0.0088191675 -0.0045879553 0.0077416305 0.0048730765
000080 f5 0d ad 3b 7f 91 b5 3b 91 01 c7 ba 5d 60 e5 ba
       0.005281205 0.005541026 -0.0015182962 -0.0017500032
000090 b1 dc 07 3c 97 10 de 3b 8e 88 b3 3a 9c ca a9 bb
       0.008292363 0.00677688 0.0013697313 -0.0051816236
0000a0 cb 87 d9 3b 3b 5a a4 bb 79 67 a3 bb 82 25 ea bb
       0.0066385022 -0.005015639 -0.0049867 -0.0071455846
0000b0 f4 d7 07 bc 7b 42 eb bb 1b 5f e3 bb ab 75 17 bc
       -0.008291233 -0.007179556 -0.0069388277 -0.009244363
0000c0 f8 78 13 bc 4e 44 4f 3b
       -0.009001009 0.0031626406

module.gcn_layers.0.bnEdges.W3.weight f4 [50, 50]
000000 e6 e7 b2 3c 6b 05 4f 3d ce 44 d7 bc aa da d7 3c
       0.021839093 0.050542276 -0.026277926 0.026349384
000010 86 38 5d 3c 41 0f 7b bd 2e e4 8f 3c ab a9 aa 3d
       0.013502246 -0.061293844 0.01756486 0.08333143
000020 ce 3e 1d 3d 69 a0 ff 3d 95 ab d6 3d 98 22 e2 bc
       0.038389973 0.12481768 0.104819454 -0.027604386
000030 cc a5 67 3c 29 77 97 3d 4a 49 84 bd 21 8f 80 bd
       0.01413865 0.07395775 -0.06459291 -0.062773
000040 fe 8c 11 be d6 5b bb bd 74 05 60 bc 1f 39 06 be
       -0.1421394 -0.09148376 -0.013673175 -0.13107727
000050 7c e6 04 3e c3 42 cc bb b9 18 71 3d 00 8e b9 3d
       0.12978548 -0.0062335446 0.058861468 0.090602875
000060 92 ff 10 be b9 4a b7 bd 8c e4 2d bd 29 e9 62 3c
       -0.14159992 -0.08949799 -0.042454287 0.013849535
000070 b7 aa ce bd ec 73 df bd b5 c9 8a bb 72 85 1e 3d
       -0.10091155 -0.10910782 -0.004235471 0.038701482
000080 8d 95 f7 bd 92 0a 26 3d 4b 5b 81 bd c1 69 0a bc
       -0.120890714 0.040537424 -0.06316241 -0.008448065
000090 34 a5 04 3b 32 88 84 bd 8d 1f 06 bd 17 8c a9 bd
       0.002024007 -0.0647129 -0.032744933 -0.08278673
0000a0 6c fd b2 3d 96 30 c3 bd aa 4a 6f bd 80 36 f3 bd
       0.08739743 -0.095307514 -0.058420815 -0.118756294
0000b0 0b 59 cb 3d b6 0f a0 bd c8 bb b0 bd ce de cb bd
       0.09929093 -0.078154966 -0.086295664 -0.09954606
0000c0 4d 22 57 3d 81 a5 b2 bd 1e 8c e7 3d c1 bc 25 bd
       0.052522946 -0.087229736 0.11306022 -0.040463213
0000d0 a7 61 f7 bd 30 a1 99 bd 01 9d 1f bd be cb 94 bd
       -0.120791726 -0.07501447 -0.03896809 -0.07265423
0000e0 a3 d4 83 3c 2b d6 89 bd 45 34 a8 3c 7e a6 45 bd
       0.016092604 -0.067303024 0.020532737 -0.048254482
0000f0 e5 c0 1e bd 8a 78 98 3d e6 b2 0f 3c 08 e1 13 3e
       -0.038758177 0.07444866 0.00877068 0.14441311
000100 2f ee f5 bd 17 d4 25 bd 7b e1 06 3e c2 39 fa bd
       -0.120083205 -0.040485468 0.13171951 -0.12218048
000110 1b 02 91 bd 40 96 12 bd ec 78 01 be 2b d5 d7 3d
       -0.0708048 -0.03578782 -0.12643784 0.105387054
000120 2b 6a d9 bd c7 30 38 3d 27 f5 44 3d c9 0f 37 3d
       -0.10615953 0.044968393 0.048085358 0.04469279
000130 d3 97 02 3e 5f a6 2a 3d 57 3e b3 3d 25 00 c5 bb
       0.12753229 0.04166257 0.08752125 -0.00601198
000140 cb f3 81 3c fa 2c a1 bd 2c e2 16 be c9 dc 15 3e
       0.01586332 -0.07869907 -0.14734715 0.14635004
000150 de 4f 0c 3c 50 99 c6 bd e0 52 53 3d cc 7d fc 3d
       0.008563964 -0.09697211 0.051592708 0.12328681
000160 c8 5a 58 3d e4 69 ff 3c eb c1 d8 3d e8 27 00 3e
       0.05282095 0.031178422 0.10583862 0.12515223
000170 05 99 fe 3d 33 3f a3 3c 8b e1 00 be 51 f2 48 bd
       0.1243153 0.019927597 -0.12586038 -0.049059216
000180 6a 5a ea 3d 92 01 80 3d 56 70 59 bd f2 32 51 3c
       0.11443026 0.062502995 -0.053085648 0.012768494
000190 69 1b bc bd cc 9e bf bc d3 1f ff 3d 62 56 a7 3c
       -0.091849156 -0.02339115 0.12457242 0.020426933
0001a0 7a 8b 0d bd 68 61 60 bc 0d 70 e6 bd e3 ab a3 3d
       -0.034556843 -0.013695098 -0.11251841 0.07991769
0001b0 40 0f 00 be b2 fd a8 bd b6 7c a5 3b 8b 68 69 3d
       -0.12505817 -0.082515135 0.005050267 0.056984466
0001c0 d5 10 82 3d 7f 26 42 bc 01 16 e3 3d eb 58 11 be
       0.06350867 -0.0118499985 0.11088181 -0.14194076
0001d0 47 ab d9 bd 2b f0 3f bd 83 2e d5 3d cd d9 83 3d
       -0.10628372 -0.0468599 0.10409262 0.064380266
0001e0 96 b7 01 be f0 57 03 be 12 c5 0c be 04 43 03 be
       -0.12667689 -0.12826514 -0.13747051 -0.12818533
0001f0 8c a1 cb 3d ac cd 8c bb 44 79 1e bc 2f c0 04 bc
       0.09942922 -0.004296979 -0.009672467 -0.008102461
000200 e6 93 8b bd b7 85 a9 3d 64 5f 03 bd eb 4e ce 3d
       -0.06815319 0.08277457 -0.032073393 0.10073646
000210 81 c1 fb bd d1 e3 b3 bd c6 54 b6 3d 16 7c 77 3c
       -0.12292767 -0.08783687 0.08902888 0.015105268
000220 4e 62 06 be 74 7a 2a 3d 50 f0 58 bc 9e a4 60 bd
       -0.13123438 0.041620687 -0.013240889 -0.05484449
000230 ca 3c 06 3e ad 6d d5 bd cc b5 74 3d 20 ef 50 bd
       0.13109127 -0.104213096 0.059743688 -0.051009297
000240 19 66 55 3d 3c 49 01 be ba db 7a bd f2 34 21 3d
       0.05209932 -0.12625593 -0.061244704 0.039357133
000250 8d b3 a9 bd 4e 92 10 3d 32 e3 d0 3d 0f 16 99 bd
       -0.082862 0.035295777 0.10199584 -0.074749105
000260 7e f4 5b 3d 52 b4 5b 3d 25 20 96 3c 6a 3c bc bd
       0.053699963 0.053638764 0.018325875 -0.091912106
000270 5a 9b 2a bd 17 b5 af bc bc 10 87 3a 0a 8c e5 bd
       -0.04165206 -0.021448655 0.001030467 -0.11208351
000280 0d 5a de 3d 14 14 0e 3d 44 e5 19 bd fc af 7c 3d
       0.108570196 0.034687117 -0.03757216 0.06169127
000290 4d 66 5f bc f5 8d 98 3d f8 4d 09 3e 6a 1a 0b bd
       -0.01363523 0.07448951 0.13408649 -0.033960737
0002a0 9d e1 42 bd 7f 93 bc 3d e7 ec 1b bd bf b1 d8 3d
       -0.047578443 0.0920782 -0.038067725 0.105807774
0002b0 d0 f8 66 3b 64 32 91 bd a4 f1 05 3e 34 09 91 bc
       0.0035243519 -0.070896894 0.1308046 -0.017704584
0002c0 14 49 d8 3d 19 7d 7c 3d 0d 00 06 be 83 88 c3 3c
       0.105608135 0.06164274 -0.13085957 0.023868805
0002d0 d0 d7 dc 3d e3 3e c8 3d 27 38 0f 3e 0f 4e f1 bd
       0.107833505 0.0977762 0.13986264 -0.117824666
0002e0 a5 4e 91 3d 84 86 04 be 37 d8 05 be 43 0f 99 bd
       0.070950784 -0.12941939 -0.1307076 -0.07473614
0002f0 72 d1 08 bd 1c ed 48 3d d9 99 a3 bd ef 78 30 bd
       -0.033402868 0.04905425 -0.079883285 -0.04308408
000300 39 e9 f3 bd 9b 5b 51 3d 1c 4b 96 3b 27 ea 33 3c
       -0.11909718 0.051112752 0.0045865905 0.010981119
000310 70 9b 3c 3d d6 fa 77 bb 90 71 ab 3d e7 e8 a9 bd
       0.046046674 -0.003783872 0.0837127 -0.08296376
000320 2c ce 2b 3d 0a 31 00 3e 52 70 80 3d 97 90 8a 3b
       0.041944668 0.12518707 0.062714234 0.0042286622
000330 a8 e4 d7 bd 81 f9 09 3e 03 b9 e9 bd 4e 3e 19 3e
       -0.105416596 0.13474084 -0.11412241 0.14965174
000340 53 b2 30 3d af 82 01 3e 3b b0 a6 3d cd 86 c1 3d
       0.043138813 0.12647508 0.08139082 0.09449539
000350 d3 9f 04 be 2b 0a a2 bd c9 20 81 bd 33 10 5d 3d
       -0.12951593 -0.07912096 -0.063050814 0.053970527
000360 41 21 48 bd 18 89 a8 bc 8b 51 17 be fb 83 7c 3d
       -0.04885984 -0.020573184 -0.147772 0.061649304
000370 7f 34 8e bd 1a 4b 9a 3d 16 a2 90 bd 3a f2 13 3e
       -0.069436066 0.07533856 -0.070621654 0.14447871
000380 71 c3 bf ba e9 41 44 3c d7 14 f0 3c fd e6 08 be
       -0.001463039 0.011978605 0.029306812 -0.13369365
000390 74 f8 88 bb 9f 7c a2 3d 96 01 80 bc e8 16 fa 3b
       -0.0041800085 0.07933926 -0.015625756 0.007632125
0003a0 5f 63 c7 3d 4f 1a 04 3e aa 1f 0d be 82 44 ab 3d
       0.097357504 0.12900661 -0.1378161 0.08362676
0003b0 8a 1f e1 3c b0 ee 2c 3d 70 e3 30 bd 1f de 96 bd
       0.02748086 0.042219818 -0.04318565 -0.07366585
0003c0 e8 f6 c3 bd dd 39 99 bc c5 06 bc 3c e7 d5 7c bd
       -0.09568578 -0.01870435 0.022952447 -0.06172743
0003d0 82 d5 8a 3d 1d d8 05 3e 60 97 27 3d 13 d8 c4 3d
       0.06779005 0.13070722 0.040915847 0.096115254
0003e0 12 b0 bf 3d 52 79 39 bd f1 70 fc 3d 55 fc be bd
       0.093597546 -0.045281716 0.12326229 -0.09325472
0003f0 0d 66 e6 bd 43 83 cc bb da 1b 74 bd a6 04 0c 3d
       -0.112499334 -0.0062412336 -0.059596874 0.03418412

module.gcn_layers.0.bnEdges.W4.weight f4 [50, 50]
000000 7e a5 0e bd 5c 22 d4 3d 85 51 dd 3d 8e d5 71 3c
       -0.034825794 0.10358116 0.10806564 0.014760388
000010 ea 6e 75 3d e0 9b 75 3d d4 8d a8 3d ed 15 40 3d
       0.05992023 0.059963107 0.082301766 0.04689591
000020 2b 2f ec bd 02 ca 83 bc 1d b1 e0 bd a6 92 ae 3d
       -0.11532434 -0.016087536 -0.10971282 0.08524065
000030 be 69 15 3d b6 a1 85 bd b2 0d f4 3d c3 8c 8c bd
       0.036477797 -0.065249845 0.11916675 -0.06862786
000040 79 c2 bd bd 95 13 fb bd b6 c3 31 bd 80 e1 e6 3c
       -0.09265608 -0.12259594 -0.043399535 0.028183699
000050 ef 9d 0c 3e b7 34 b4 3c 44 68 8b bd d4 01 b4 3d
       0.13732122 0.021997793 -0.068069965 0.08789411
000060 de 0e f2 3d 48 d7 a1 3d b2 0c 52 bd 38 37 c1 3d
       0.11819242 0.0790239 -0.05128164 0.0943436
000070 e8 27 40 bd 84 de e6 bc 56 04 9a 3b 43 d6 86 bd
       -0.046913058 -0.028182276 0.004700224 -0.06583836
000080 43 f9 05 be db 9d e0 bd 70 46 fe bd b1 7e b7 3d
       -0.13083367 -0.109676085 -0.12415779 0.08959711
000090 a5 d9 46 3d d4 da 34 3d 20 00 a4 bd 8f d0 bc bd
       0.048547406 0.044154003 -0.08007836 -0.09219467
0000a0 a6 0d e2 bd 6c 24 55 3d 02 aa fa bc e4 f9 97 3d
       -0.110377595 0.052036688 -0.030598644 0.0742071
0000b0 a7 3a 96 3d 50 6c d4 bd a0 cb f6 3c 4e 94 04 3e
       0.07335406 -0.103722215 0.030126393 0.12947199
0000c0 62 b4 83 3b a9 57 6a bd 85 73 9e 3d 6b bf 0b 3e
       0.004019306 -0.057212505 0.07736877 0.13647239
0000d0 91 a3 d2 bd ea b0 80 3d c5 4c f6 bc f3 d1 c0 3c
       -0.10285104 0.06283744 -0.030065903 0.023537612
0000e0 1f 8e ce 3d 8d a7 ca 3d d0 6c 01 be 25 54 c2 ba
       0.10085701 0.09895239 -0.12639165 -0.0014826102
0000f0 0a 65 c8 3d bc 13 02 3e 2e c2 94 3d 92 9e 08 3d
       0.09784897 0.1270284 0.07263599 0.03335435
000100 21 ca 79 3c 2c 5b 07 be e4 b3 5f 3d 1f 11 aa bd
       0.015245945 -0.13218373 0.054614916 -0.08304047
000110 8e 41 c1 3c fb 47 01 3e cd f5 37 3d 82 37 3f bd
       0.02359083 0.12625115 0.04491215 -0.046683796
000120 0d 03 83 bb 57 a8 03 bd 27 17 bb 3d 7d 7d ca bc
       -0.0039981664 -0.032142963 0.09135275 -0.02471804
000130 df 6d 25 3d 9a df a4 3b 37 3b 07 3e db c0 35 bd
       0.040387984 0.005031538 0.13206182 -0.044373374
000140 9d ab b2 bd 1c cf 2c bd 00 83 44 3d 35 b1 0c be
       -0.08724139 -0.042189702 0.047976494 -0.13739474
000150 b3 7b d7 bd 90 ef dc 3c 73 77 ae bd 58 1e 8e bd
       -0.10521641 0.026969701 -0.08518877 -0.06939381
000160 0a 20 2e 3d 23 07 bd 3d c9 a0 91 3d 20 59 e1 bd
       0.042511024 0.09229877 0.071107455 -0.11003327
000170 c0 47 c9 3d 1a d1 aa bd f9 da 03 3e 48 c0 e8 3d
       0.09828138 -0.08340664 0.128765 0.113648
000180 f1 be a2 bc d9 78 2a 3d 94 36 d2 3c f4 f0 32 bd
       -0.019866439 0.041619156 0.02566079 -0.043686822
000190 ee d5 02 3a c6 17 ac bd e0 4e 34 3d c3 eb 87 3d
       0.00049909845 -0.08402972 0.044020534 0.06636765
0001a0 4a 68 88 bd b1 9f 54 bd f1 38 ed bc 82 0f ad bd
       -0.066605166 -0.051910106 -0.028957816 -0.084502235
0001b0 a4 f2 cd bd e1 57 a0 3d 2e 78 2a bd 95 85 99 bd
       -0.10056046 0.078292616 -0.04161852 -0.07496182
0001c0 6f e9 f9 3d 64 1b 95 bd 2d d1 06 3e 60 5b e7 bd
       0.12202727 -0.07280615 0.13165732 -0.11296725
0001d0 c4 2e 96 3d 76 10 95 3d 8b 1d 0e 3e 95 eb 07 be
       0.073331386 0.0727853 0.13878457 -0.13273461
0001e0 6e 6c bd 3d 85 32 f0 bd 1e 94 28 bd 29 e4 e9 bd
       0.09249197 -0.11728386 -0.04115688 -0.11420471
0001f0 2c db 92 3c 6f af 6e 3c 3e 5d 29 3d 95 61 ec 3c
       0.017926775 0.014568194 0.04134869 0.028855124
000200 06 32 2d 3d b9 38 17 bd a8 d2 c3 3d e8 f7 b4 38
       0.042284034 -0.03691933 0.09561664 8.629245e-05
000210 b2 4f dd bd 04 2e 08 3e a5 a1 bb 3d 4d e6 6f bc
       -0.10806216 0.13298804 0.091616906 -0.01464231
000220 35 c1 81 3d eb 2b 27 bd 03 5b e4 3d 7d 20 ff bd
       0.063356794 -0.040813368 0.111501716 -0.124573685
000230 f5 ba 02 be 6c 5d 92 bd 6c 65 e3 bd 5b ea b6 3d
       -0.12766631 -0.07146725 -0.11103329 0.089314185
000240 9e 36 41 bb c7 a4 7f bd 90 52 93 bd c7 8b e1 bd
       -0.0029482017 -0.062413003 -0.07193482 -0.110129885
000250 23 99 fb 39 46 e0 07 be 99 70 ee bd 6a 41 07 3d
       0.00047988546 -0.13269147 -0.1164257 0.033021368
000260 66 2b b7 3b 73 fd a7 3d 4a ff 3d 3c 88 3b e8 bd
       0.0055898903 0.082026385 0.01159651 -0.1133948
000270 80 62 ab 3d ca 5b ca 3d 3a af 1f 3d 8c bd b1 3c
       0.08368397 0.098807886 0.03898547 0.021696828
000280 11 fb 13 3d 97 5e f8 3c e5 a8 94 bd 4b 30 80 bd
       0.036128107 0.030318541 -0.072587766 -0.06259211
000290 da 80 e2 3c 26 a8 0c 3e ca 06 b9 39 d2 0f e3 3b
       0.027649332 0.13736019 0.00035291008 0.006929376
0002a0 4d bb c2 bd 38 80 7e bd 70 7c 42 3d e6 70 13 3c
       -0.09508381 -0.062133998 0.047481954 0.008999085
0002b0 0d ae 0a 3e 3b 57 8f 3d c0 92 92 bc 2b 6e 47 bd
       0.13542958 0.0699906 -0.017892241 -0.04868905
0002c0 4b ce d1 bd 6d c9 e2 3b e8 87 b6 bb 36 9f 99 3d
       -0.102444254 0.0069209845 -0.0055704005 0.0750107
0002d0 7a 21 4a 3d ee b2 4c 3c e6 eb bd 3d 69 4b f4 3c
       0.049348332 0.012493832 0.0927351 0.029821115
0002e0 af c9 85 3d e8 13 d2 bd 24 b4 55 bd 45 da ae 3d
       0.06532609 -0.10257703 -0.05217375 0.08537725
0002f0 78 bd b4 3d ab e3 ae 3d 73 e7 46 3d a6 83 49 3b
       0.08825201 0.08539518 0.04856057 0.0030748635
000300 29 11 13 be 10 ed b0 bd d9 86 d2 3d de 0f 34 bd
       -0.14362015 -0.08638966 0.102796264 -0.043960445
000310 c1 8a e4 3d 51 ab ea bd 46 87 50 bd 9e 9e 9e 3b
       0.11159278 -0.11458457 -0.050910257 0.004840686
000320 06 76 a9 bd 5f 10 ce 3d cf 59 da 3d 88 fe 53 bd
       -0.08274464 0.10061716 0.10661661 -0.05175641
000330 91 fb 08 3e 56 2c b9 3d 1b aa ea 3d 7e 47 cd bd
       0.13377215 0.090416595 0.11458226 -0.10023402
000340 5c 23 f7 bd f9 47 28 3c 16 cc 33 3c db a1 81 3d
       -0.12067291 0.010271066 0.010973951 0.063296996
000350 d3 dc ec bd d0 39 ff 3d 03 c1 da 3b 66 49 c9 3d
       -0.115655564 0.12462199 0.006675841 0.09828453
000360 f7 1d 86 3d 07 0f a3 3d 77 85 6d bd 07 37 b9 bb
       0.06548684 0.079618506 -0.05798861 -0.0056523117
000370 02 25 01 be f8 11 12 3c 8b ad 80 bd da 1e c9 bd
       -0.12611774 0.008915417 -0.06283101 -0.098203376
000380 ca 55 2a 3d ff 79 d4 bd b6 78 a6 3d 23 67 ce bd
       0.04158572 -0.103748314 0.081284925 -0.100782655
000390 5a 77 2e 3c d1 bb 10 3d c6 d2 05 3e d9 1b 7c bd
       0.010648573 0.035335366 0.13068685 -0.061549995
0003a0 4a e0 f7 bd 1b 9e ae bd 3d 15 8b bd 73 69 92 bd
       -0.121033266 -0.0852625 -0.0679116 -0.07149019
0003b0 44 fb c8 bd be 5d 12 3e e0 f2 d1 ba 5b c7 ea bd
       -0.0981355 0.14293572 -0.0016017817 -0.11463805
0003c0 93 14 16 3d 8f c5 83 3c 04 86 ac 3c ac 4c 0a 3d
       0.036640715 0.016085414 0.021059997 0.033764526
0003d0 45 85 1c 3d ce 3c b9 3d 3d 7b 8d 3d bb 1b a0 3c
       0.038213033 0.09044801 0.069082715 0.019544473
0003e0 d7 ad df 3d 71 95 1a 3c 2b b5 65 bd 8f 4a 12 bd
       0.10921829 0.009435044 -0.05608098 -0.035715636
0003f0 60 b5 93 3a a4 30 67 bd 71 f3 0b 3e b5 51 06 3d
       0.0011269264 -0.05644287 0.13667084 0.032792766

module.gcn_layers.0.bnEdges.W5.weight f4 [50, 50]
000000 9f 51 bf 3d 4b aa ab bd 3f 81 7a bc 8e 66 27 3c
       0.0934174 -0.0838209 -0.015289604 0.010217322
000010 37 53 09 3e 0c 3e 58 bd a9 43 82 bd 35 fb 24 3d
       0.1341065 -0.052793548 -0.063605614 0.040278632
000020 19 33 bc 3c 8d d6 32 3d 0b 64 eb 3d f0 d5 ed bd
       0.022973584 0.043661643 0.11493691 -0.11613071
000030 a8 10 06 3c f1 64 e9 bc 30 06 f7 bd 88 da 99 bc
       0.008182682 -0.028490515 -0.12061727 -0.018780962
000040 4f de 20 3d 61 ae 96 3d f3 50 0c 3c 59 ee cb bd
       0.03927451 0.07357479 0.008564222 -0.099575706
000050 94 86 16 bd ce 8b a6 3d 90 37 4a 3d ea 6b e3 bd
       -0.036749437 0.081321344 0.049369395 -0.11104567
000060 74 8e 17 3d e3 8b 00 bd d8 80 9a 3c 1b 8a cc 3d
       0.03700109 -0.031383406 0.018860266 0.09987279
000070 31 fe 9e bd fb fc 51 bc 1c 6e e4 3d 0e a5 ab bc
       -0.07763327 -0.012816663 0.11153814 -0.020952728
000080 a6 fa 16 3e 6b 46 97 bc 0f 51 ba 3c c0 a0 d7 bc
       0.14744052 -0.018466195 0.02274373 -0.026321769
000090 0c 66 1f 3d cb e0 2e bd bf d8 07 3e c5 8d fa 3d
       0.03891568 -0.042694848 0.13266276 0.12234072
0000a0 40 29 dc 3b 50 74 a4 bd 09 af 16 3d 26 42 8e bc
       0.0067187846 -0.08029997 0.03678802 -0.017365526
0000b0 d9 9b f2 bd 7b 56 e9 3b a7 38 ce bd 85 3a 3f bd
       -0.11846132 0.007120905 -0.10069399 -0.046686668
0000c0 06 f8 e4 bd a9 bc e8 3d 03 d0 80 3d 78 0e 94 bd
       -0.11180119 0.11364109 0.06289675 -0.07229322
0000d0 1c 5b a8 3d 29 e1 c7 bd 97 98 9b 3c f4 a1 f9 bd
       0.08220503 -0.09759743 0.018993659 -0.12189093
0000e0 cf 5c 92 3d 49 94 9f bd 37 9c 56 bd fb fc 26 3d
       0.07146608 -0.07791955 -0.05239507 0.040768605
0000f0 de 7d 06 be 44 63 94 3d 7d b2 02 3a 12 88 d1 bd
       -0.13133952 0.07245496 0.0004985703 -0.102310315
000100 41 cb da bc 74 8c c3 bd cd 86 29 3d 32 c3 2c 3d
       -0.026708247 -0.09548274 0.04138832 0.04217834
000110 f3 6c dc bd de f5 b9 3d a8 fd 43 bd 0d 09 f8 3d
       -0.10762968 0.090800986 -0.047849327 0.12111101
000120 a0 9c e2 bb 74 70 bd 3c ba 93 4f bd 03 72 5b bb
       -0.006915644 0.02312491 -0.050677992 -0.0033484704
000130 e5 59 f7 bb bd 41 0d bd 43 12 aa bd 74 a0 14 3c
       -0.007548558 -0.03448652 -0.083042644 0.009071458
000140 0a d7 f4 bd 40 8e 9b bd 9a 93 42 bd ec 6c a3 bb
       -0.11955078 -0.075954914 -0.047504045 -0.0049873497
000150 3a 51 bf bd 12 89 84 bd bb 9b 07 3b 5f 85 1d 3c
       -0.093416646 -0.064714566 0.0020692188 0.009614318
000160 ea aa 1c 3c e3 e2 ab bd 40 e1 d2 3d c2 6b 32 bd
       0.009562233 -0.083928846 0.10296869 -0.043559797
000170 7d 41 f1 bd 6d 6c 9e 3d 2e 05 37 3c 94 fe 6c bc
       -0.11780069 0.07735524 0.0111706685 -0.014464993
000180 f7 86 09 be 21 ec a9 bd d6 0a 9d 3d 0d 85 41 bd
       -0.13430391 -0.08296991 0.076680824 -0.047246028
000190 5a 63 c1 bd 4f a2 a5 3d a5 94 ed bd 11 11 a4 3d
       -0.09442778 0.080875985 -0.11600617 0.08011068
0001a0 c1 8d 34 bd f3 ba 5f 3d c4 f1 76 3c 38 35 0a 3e
       -0.0440805 0.054621648 0.01507229 0.13496864
0001b0 9f 5d 73 3d b0 48 cb bb be cf 0b 3e a7 28 e8 bd
       0.059415456 -0.0062037334 0.13653466 -0.11335879
0001c0 dc 70 8e 3c 69 9a 35 3d cf 16 ea bd 4f 55 a1 bd
       0.0173878 0.04433671 -0.11430132 -0.078775994
0001d0 d8 83 84 bd 9d 71 96 bd 30 76 91 bc 73 76 b9 bd
       -0.0647046 -0.07345889 -0.017756552 -0.090557955
0001e0 4d e1 0b 3e c3 84 00 bc 4c 1c 13 3e da 43 08 3d
       0.13660164 -0.007844153 0.14366263 0.033267833
0001f0 6b 64 b3 bc 99 52 72 3c b2 ca a6 bd 8b a1 bc bd
       -0.021898469 0.014790201 -0.0814413 -0.092104994
000200 b6 b6 68 3d 99 1a 76 bc e3 65 3d 3c 95 d6 45 bc
       0.05681487 -0.01502099 0.011559936 -0.012075086
000210 8e 34 e8 3d 57 35 10 be e1 cf b6 bd 35 c4 91 bd
       0.11338149 -0.14082848 -0.089263685 -0.07117502
000220 63 93 44 bd 39 17 e3 3d ca 5b cc 3d 1b 3c d5 bd
       -0.04799212 0.11088414 0.09978445 -0.10411855
000230 73 2e 38 bd 1d b9 ef 3d bd 1b e6 bd 33 99 45 3c
       -0.044966172 0.117052294 -0.112357594 0.012060451
000240 34 f6 49 3d 23 3d 88 3d 33 82 c1 3d 50 d9 c6 3d
       0.049307063 0.06652286 0.09448662 0.09709418
000250 ff c8 0e 3d 66 84 0b be 6d b6 83 bd 1b 54 e1 bc
       0.034859654 -0.13624725 -0.06431279 -0.027505925
000260 1a 92 cd bd 7c bd 9b bd 9a 10 ef 3c f9 7f 58 bd
       -0.10037632 -0.07604501 0.02918272 -0.05285642
000270 02 55 d2 3c 77 bf 41 3d 06 98 98 3d 27 20 de bd
       0.0256753 0.047301736 0.07450871 -0.10845976
000280 5d b0 ff 3d 74 6a 75 3d 62 2b 82 3c 99 71 17 bd
       0.124848105 0.059915975 0.015889827 -0.03697357
000290 cb 50 2f bd 74 0c 0f 3c b3 9f 76 bc ff 8a 04 be
       -0.04280166 0.008730996 -0.015052724 -0.12943648
0002a0 66 28 a8 3c 1c 94 c5 bd d1 a0 ec bd a7 4a ae 3d
       0.020527076 -0.0964739 -0.11554111 0.085103326
0002b0 fc d3 a4 bc 62 e2 0c bd 63 c0 b6 bc 3b c7 61 bd
       -0.020120613 -0.034395583 -0.022308534 -0.05512164
0002c0 74 05 92 3d f2 76 d8 bb 34 ee 6d bd 75 1a 0d 3e
       0.07129946 -0.0066059763 -0.058088496 0.13779624
0002d0 50 da d5 3d 58 c2 e3 3d 8f 02 13 be 2a 09 f8 3c
       0.104420304 0.111210525 -0.14356445 0.030277807
0002e0 47 49 89 3c 34 9c 07 3e 6f 0e 35 3d 96 fa ea 3c
       0.016758574 0.1324318 0.044203218 0.028683942
0002f0 cd fe bc 3d be e7 89 3d 71 08 ff bd d3 7b 09 be
       0.09228287 0.067336544 -0.12452782 -0.13426141
000300 3e a8 90 bd 10 4f eb bc 6e 53 17 3d 8f f5 c3 3d
       -0.0706334 -0.028724223 0.0369448 0.09568321
000310 61 ae ff bd 61 f6 b3 bc 64 63 dd bd fb da f4 3d
       -0.12484432 -0.021968069 -0.10809973 0.1195583
000320 80 d7 9f 3d 5f d3 b3 3d cb 6e 4b bc 66 33 a7 bd
       0.07804775 0.0878055 -0.012416552 -0.081641
000330 b9 1d a4 bd 9c 3e fd 3b eb 3e 31 3c 40 e9 09 3c
       -0.08013482 0.007728411 0.0108182235 0.008417428
000340 df 16 ec 3d 28 5e a4 bd d9 89 c7 3d bf 31 61 3d
       0.115278 -0.080257714 0.09743089 0.054979082
000350 a2 fa ee bd dd 9a 5f bd 42 49 97 bd e6 d6 fb 3b
       -0.11668898 -0.05459105 -0.0738702 0.00768553
000360 f0 1d ab 3d ff a3 b4 3d 0a f6 96 bc 74 0f 0c 3e
       0.083553195 0.08820342 -0.018427867 0.1367777
000370 90 72 72 3d 1d 71 1a 3d f5 87 fd bd da 4e df bd
       0.059191287 0.03770553 -0.12379447 -0.109037116
000380 55 c3 b6 3d ec 85 88 3d 07 f6 79 bd f4 aa dd bd
       0.089239754 0.066661686 -0.061025646 -0.10823622
000390 be 32 b6 ba 82 c2 0d be 97 55 d4 3d cc fe 85 3d
       -0.001390062 -0.1384373 0.103678875 0.06542739
0003a0 26 ce f7 3c b7 83 d9 bd f0 c5 dc bc 07 3c 9b bd
       0.030249666 -0.10620826 -0.026949853 -0.07579809
0003b0 50 9a a0 3d 9f e3 12 3e 50 d9 02 bb a9 7d 36 bd
       0.07841933 0.14344643 -0.0019965954 -0.044553433
0003c0 6d a0 de 3d ca 20 28 bd e9 1a 71 bd 57 fe dc bd
       0.108704425 -0.041046895 -0.058863554 -0.10790699
0003d0 5d 05 ee 3c 3e fb df 3d 40 f8 cd 3d 2b 48 41 3d
       0.029055292 0.109365925 0.100571156 0.047187965
0003e0 fa c9 da 3d de 4a d4 bd 25 52 06 3e bf 00 2e bd
       0.10683055 -0.10365842 0.13117273 -0.04248118
0003f0 b0 07 06 be 37 8f 8b 3d d6 50 f8 3c 5a ff c3 bc
       -0.1308887 0.068144254 0.030311983 -0.023925472

module.gcn_layers.0.bnEdges.batch_norm.weight f4 [50]
000000 eb 46 80 3f b5 48 81 3f 99 28 81 3f 10 be 7d 3f
       1.0021642 1.0100313 1.0090514 0.9911814
000010 d8 3b 7e 3f 62 36 81 3f bd 34 80 3f 77 e4 80 3f
       0.99310064 1.0094721 1.0016094 1.0069722
000020 cc 55 7f 3f 75 3e 81 3f f5 66 80 3f ec 0b 7f 3f
       0.9974029 1.0097185 1.003142 0.99627566
000030 06 fc 7f 3f 4c 8f 7e 3f b0 ee 7d 3f 30 1b 81 3f
       0.9999393 0.99437404 0.99192333 1.0086422
000040 1d e2 7d 3f 2a 60 7e 3f f7 c6 7d 3f 4e 31 81 3f
       0.99173146 0.99365485 0.9913172 1.0093172
000050 9c cd 80 3f ab 11 7f 3f 92 12 81 3f c6 41 81 3f
       1.0062747 0.99636334 1.0083792 1.0098197
000060 3b d6 80 3f 48 d8 7e 3f 5c ca 7e 3f 48 04 7e 3f
       1.0065378 0.9954877 0.99527526 0.9922528
000070 a8 33 81 3f c5 d1 7f 3f a9 f8 7f 3f 3b 76 80 3f
       1.0093889 0.9992946 0.999888 1.0036081
000080 c2 29 7e 3f 0b 0c 81 3f 54 e6 80 3f 64 0b 81 3f
       0.9928247 1.00818 1.007029 1.0081601
000090 44 e0 7e 3f b0 26 81 3f 4a cc 80 3f 2b ee 7f 3f
       0.9956095 1.0089931 1.0062344 0.9997279
0000a0 91 ad 7e 3f f0 33 81 3f 30 c8 7e 3f a9 34 81 3f
       0.9948359 1.0093975 0.9952421 1.0094196
0000b0 72 37 81 3f ab 22 81 3f 6d 3e 80 3f f9 68 7e 3f
       1.0095046 1.0088705 1.0019051 0.99378926
0000c0 90 9d 7f 3f f4 f0 80 3f
       0.99849796 1.0073533

module.gcn_layers.0.bnEdges.batch_norm.bias f4 [50]
000000 96 7b 27 3b cc d5 21 3c 3f 9e 73 bb a1 4b 11 bc
       0.002555584 0.009877633 -0.003717318 -0.008868129
000010 65 8c 04 bc 2b 17 17 3c 4d 25 9c bb 36 28 a6 3a
       -0.008090113 0.009221832 -0.004765189 0.0012676779
000020 3e 3d c8 bb bd ad c5 3b b0 d3 ea 3b 30 d0 ee b8
       -0.0061108163 0.006032674 0.0071663484 -0.00011387502
000030 cb 14 fb ba 56 2f fb 3a 80 48 05 bc 57 6d 14 3c
       -0.0019155977 0.0019163887 -0.008134961 0.009059272
000040 96 32 09 bc fd 3e c2 bb 7a 82 04 bc c4 7f d1 3b
       -0.008373877 -0.005927919 -0.008087749 0.0063934047
000050 ec 6c ee b9 d0 0c a1 bb 5a c5 dc 3b 4e 23 20 3c
       -0.0004547605 -0.0049148574 0.0067373933 0.009774042
000060 ea 25 a6 ba 6a 6a 86 3b a4 55 ca ba 56 a4 12 bc
       -0.0012676094 0.004102041 -0.00154369 -0.008950314
000070 3b d1 1b 3c 99 e8 e3 bb 71 35 0a bb 38 74 e8 3b
       0.009510334 -0.006955218 -0.0021088982 0.0070939325
000080 6f 32 80 3b c9 09 08 3c f8 40 d7 3b 12 73 95 3b
       0.003912262 0.008303114 0.006569024 0.0045608366
000090 ad b4 e8 bb c9 a6 13 3c 2d 2c 9c 3b 76 77 65 3b
       -0.0071016164 0.009011933 0.0047660084 0.0035013831
0000a0 f7 fa db bb 0a 0b 1d 3c d6 57 00 bc db eb 11 3c
       -0.006713267 0.009585151 -0.007833442 0.00890633
0000b0 90 c3 b3 b7 d9 a7 0b 3c 5e 89 c6 3a 36 7d 41 bb
       -2.1429529e-05 0.008523905 0.001514714 -0.0029524094
0000c0 5b e5 c9 ba 1f 67 d7 3b
       -0.0015403436 0.0065735723
