tsp50_default.pth (torch, 176822 bytes, 37 tensors)

module.NodesEncoding.A1.weight f4 [50, 2]
00000000: d640 15bf e878 c33e 24d7 13bf daaf 17bf
00000010: 16c0 c73e a57f 7e3e 04d3 d4be db81 29bf
00000020: 5d7a 52be fdd8 443e b3ac ab3e ca6b 12be
00000030: 5acd 063f 5a44 5dbe da16 1b3e 5b31 d7be
00000040: 49de 7abd a5a9 ef3e 6999 b7be 8065 0d3f
00000050: faa1 1fbf 494f 0c3e aede f03e b1db 283f
00000060: 6f6f 1b3f b413 323f 9d1b 523e 1716 773d
00000070: 72c5 a53e 32b8 c4be a8f6 bc3e 0886 f0be
00000080: 7ce4 70be 6336 e6be f982 1f3f ef06 b33e
00000090: c833 2abe 90bf a1be a0a4 453e aafe dabe
000000a0: af67 21be 27d2 9a3e b88a 0c3f e39a d0be
000000b0: fc38 9cbe c6d7 053f b0ba 3b3f 01cb 413e
000000c0: 2cde 2abf b70e efbe 6170 d5bd e607 143f
000000d0: b4d8 c5be 5af2 ebbe 492e e0be 5fa9 50be
000000e0: 7837 da3d 0c77 133f e571 babe 2d30 0d3f
000000f0: 2f29 9fbe 8364 14bf 341c 1bbf 302e 263f
00000100: 886e 34bf a1c1 0bbd a01e 793d d02f a13d
00000110: 0cae 653d 2fec 093f c9de 44be a630 db3e
00000120: ac83 9b3e eb71 6b3c 5cf7 fabd 0f5f a1be
00000130: 4f75 11bf c40f f43e ee17 ae3e dab5 1c3f
00000140: c5e6 9f3e 2875 75be 096c b83e a361 283f
00000150: 6706 2c3f 9e34 a63d e15b e93d b84b cfbe
00000160: 45e6 ad3e 4cb9 93be 1907 373f fea2 023f
00000170: 40ea 413e 6937 03be 8370 98be 0073 303e
00000180: 6d32 1e3f 32bd 6b3e 7e60 143e 3e4e 98be
-0.58302057 0.38178182 -0.57750154 -0.59252703 0.39013737 0.2485338 -0.41567242 -0.6621377
-0.2055449 0.192234 0.33530197 -0.14298931 0.5265709 -0.21608105 0.15145436 -0.42029843
-0.061247144 0.46809116 -0.3585923 0.55233 -0.6235653 0.1370212 0.4704489 0.6596022
0.6071691 0.69561315 0.20518346 0.0603238 0.323772 -0.3842178 0.36906934 -0.46977258
-0.2352466 -0.4496337 0.62309223 0.34966227 -0.16621315 -0.31591463 0.1930108 -0.42772418
-0.15762208 0.3023846 0.5489917 -0.4074317 -0.30512226 0.5228237 0.7333174 0.18925096
-0.6674526 -0.46690914 -0.10421825 0.5782455 -0.38641894 -0.46083337 -0.43785313 -0.2037711
0.10655111 0.57603526 -0.3641502 0.55151635 -0.31086108 -0.5796587 -0.6058991 0.64914227
-0.7048116 -0.034120206 0.060820222 0.07870448 0.056074187 0.5387601 -0.19225611 0.42810553
0.30373895 0.014370422 -0.12254211 -0.31517836 -0.56819624 0.47668278 0.34002632 0.61214983
0.3123075 -0.23970473 0.36019924 0.6577398 0.6719727 0.08115505 0.11394478 -0.40487456
0.33964744 -0.28852308 0.71495205 0.51029956 0.18937016 -0.12814106 -0.2977334 0.17231369
0.61795694 0.23021391 0.14489934 -0.29747194

module.NodesEncoding.A1.bias f4 [50]
00000000: 1f66 843e 3226 0e3f cd7b 243f cd59 773e
00000010: 8e67 cebd 102f 9c3e 0485 133f 655b 9cbe
00000020: 0f09 38be d9d3 90be 5766 3e3c 2648 e93e
00000030: ee2c b83e 78bc 343f 1c7a 0cbf 639b 9e3e
00000040: 807c abbe dab7 203f 8aac a73d 50a1 8ebe
00000050: 6e40 e9be f788 f1be c719 76be 3cfb dbbe
00000060: fb6e b23e 9f04 76be 238e 09bf 06f8 103d
00000070: 4a82 00be 0e84 ca3e 5bf5 b5be 7bbe f8bd
00000080: 8d25 bcbe a584 c0be 3801 43be 99fd e43e
00000090: 72ab 27bd 032d 91be 7f96 1e3d 60cb 033f
000000a0: 01ba 1d3f 2cda 2b3c 5224 323f d75c 293e
000000b0: 9ed2 003f 3ded 303f 985c eebe b6ef 893e
000000c0: a9f4 1ebd c055 3b3e
0.25859162 0.5552703 0.64251405 0.2415535 -0.10078345 0.30504656 0.5762484 -0.30538478
-0.17972206 -0.28286627 0.011621079 0.45562857 0.3597178 0.7060008 -0.54873824 0.30977926
-0.33493423 0.62780535 0.08187206 -0.27857447 -0.45556968 -0.47174808 -0.24033271 -0.42965114
0.34850296 -0.240252 -0.5373251 0.035392784 -0.12549701 0.39553875 -0.35538754 -0.12145706
-0.367474 -0.376012 -0.19043434 0.4472473 -0.040934987 -0.28354654 0.038717743 0.514822
0.61611944 0.010489028 0.6958667 0.16539322 0.50321376 0.69111997 -0.46555018 0.26940697
-0.038807545 0.1829443

module.EdgesEncoding.A2.weight f4 [25, 1]
00000000: b0ce b73d a318 3fbf 5da5 6f3f 1294 2ebf
00000010: 9561 83bf 4045 5dbf d108 873e 4588 54bd
00000020: 1407 1b3f c1c3 20be 91e3 243d fe7e 173f
00000030: 1e10 613f cc47 cf3d 49ba 98be 64b7 543f
00000040: 0071 2f3f 96fc 0f3f 85af b23d a7d6 023f
00000050: 10b0 3a3f 91b3 6f3f e015 343e 158a c9be
00000060: 0d60 b83e
0.089749694 -0.7464697 0.936117 -0.6819469 -1.0264155 -0.8643379 0.26373914 -0.05188777
0.60557675 -0.15699674 0.040256087 0.5917815 0.8791522 0.10121116 -0.29829624 0.8309233
0.685318 0.5624479 0.08724884 0.51108783 0.729249 0.9363337 0.1758647 -0.3936316
0.3601078

module.EdgesEncoding.A2.bias f4 [25]
00000000: b046 21be 9fc3 7b3d 76a5 69bf aa58 56be
00000010: 0781 143f 6e5f 0d3f 5877 69be 8413 df3d
00000020: 0f26 40bf e7be 053e febc dcbe 49aa 403f
00000030: dc71 21be 2ca9 c6bd 2a74 983e 0ccf 3d3f
00000040: d418 3d3f 71a7 a4be 9c12 173f edcd 353e
00000050: c3c6 433e 4798 a8be bdc8 e13e f75d 3b3e
00000060: fcbf c53e
-0.15749621 0.061465856 -0.912681 -0.2093226 0.5800938 0.5522374 -0.22799432 0.10892394
-0.7505807 0.13061105 -0.4311294 0.75259835 -0.1576609 -0.09700236 0.29776126 0.74144053
0.7386601 -0.32158998 0.5901277 0.17754336 0.1911879 -0.32928678 0.44098464 0.18297563
0.38623035

module.EdgesEncoding.A3.weight f4 [25, 1]
00000000: 3879 ebbe 7b00 953d 9d99 6cbf 1274 843d
00000010: d497 68bf dc3c 5f3e 1a3f 09be dae2 0bbf
00000020: c3fa 623f 9f5c 5dbd 4024 4e3e 46c2 7cbd
00000030: c02f 2a3f b4a4 d33e 2e9d 5d3b eb5a a4be
00000040: a1f3 263f 272f 7f3e 76b0 6d3e 65e1 74be
00000050: 19d3 2fbf c7cb cbbb 3f84 bd3e 9ff6 d5be
00000060: f43a d03e
-0.4599092 0.07275482 -0.92421895 0.06467451 -0.9085667 0.2180056 -0.13402978 -0.54643023
0.8866388 -0.05404341 0.20131016 -0.06170871 0.6647911 0.41336596 0.003381561 -0.32100615
0.652155 0.24920331 0.23211846 -0.23914106 -0.68681484 -0.0062193605 0.37014958 -0.4178972
0.40669978

module.EdgesEncoding.A3.bias f4 [25]
00000000: cccd 2b3f e513 2f3f 6155 e1bd 5673 993e
00000010: 65ed 86be fd03 95be a136 2b3f d13e 4bbf
00000020: e9a8 183f 168a 89be fa20 73bf 9296 3f3f
00000030: fc7f 673f f46c 38bf 9f77 7f3e 95f4 02bf
00000040: e087 68be a9c3 7ebf 6328 94be af36 883e
00000050: c97a 813f c090 363e 817f 51bf e105 42bf
00000060: 3719 67be
0.67110896 0.6838973 -0.11002613 0.29970807 -0.26352993 -0.29104605 0.6688023 -0.79392725
0.59632736 -0.26863164 -0.94972193 0.7483913 0.90429664 -0.7204125 0.24947976 -0.5115445
-0.22708082 -0.99517304 -0.28937063 0.2660422 1.0115596 0.17828655 -0.8183518 -0.7579022
-0.22568212

module.gcn_layers.0.bnNodes.W1.weight f4 [50, 50]
00000000: af44 1c3e bee8 873c a6c3 8bbd e0b9 61bb
00000010: a5cf fa3d 3ccf b3bd b8f6 08be e2d7 18be
00000020: e35b 9b3d 94dd eb3d 72be 233e 90fe cebd
00000030: b377 d5bc 633e 8fbc 6402 733d 6e62 3ebc
00000040: f83e 09be 4bfa febd 5c10 843d f4d3 e93c
00000050: c1ed 053e 0282 4b3d b12c 9abc 6e68 0dbe
00000060: 4d2b e43b 2293 41bd 3219 ca3c c5a9 84bd
00000070: 1e4b 8dbd 6b7a e0bc cfb2 093e 3597 7dbd
00000080: 7ad3 7fbd 9e2b 953d 89aa 41bd 45b7 d7bd
00000090: 7563 76bd 8a33 1fbd 3d86 233d 5ff1 8a3d
000000a0: 7f7e 033d 7800 0d3d ef17 333d 5c52 843d
000000b0: 1980 f13d 2fa3 19be 1405 f83c 50cf 9dbd
000000c0: ba7b c4bd 8f61 c0bd 933b 07bc 5b3c 1dbe
000000d0: 6eef 1b3e fa2b 98bd ef6b 3dbc 322a 1d3d
000000e0: 5b3e 053d 6a5a 963d ad24 ddbd 56eb c7bd
000000f0: 4e8c 983d e0b0 723d a8af 243e 6f80 123e
00000100: ddfc 39bc 924f a4bc 7d20 e8bd e8a5 e1bd
00000110: d57e 25be 9c7c aabd 80e9 063d d426 f3bd
00000120: 9ecb 653d 9c29 893c dd2a 15bd 8d85 1f3d
00000130: 94b7 a63d bf25 203b affa 01be d8a2 01bd
00000140: 2d6f e2bd 3a23 823c 4d1c b63d f798 023e
00000150: 4c41 9d3d acec 8fbd e7bc b2bd c1b5 d73d
00000160: 25cb a9bd dbab 273e 61d0 f03d 4bf2 133e
00000170: f3aa f4bc 7f56 21bd 98da 0ebe 193b e9bd
00000180: 6d46 88bd 0b2c 2d3c 2179 123e c091 56bd
00000190: 4073 01be 9f88 04bd 52d4 88bc 1633 3f3d
000001a0: 1860 16bd 0629 4c3d 826c aa3d 6bfe c5bd
000001b0: 5110 adbd c233 18be ae03 353d 0e9e 68bd
000001c0: 0dac 4e3d 2389 74bd 3ad2 c43d 5ebf eb3d
000001d0: 97ce ff3d 8856 b8bc 5d37 2b3b eae0 aabc
000001e0: 3da2 28be e396 bcbd 9260 04be 8a83 b03c
000001f0: e842 8abd e019 ed3d 7763 d3bd 46a6 053e
00000200: cf3c 02be 2ba3 b4bd 53e6 7a3d 180a 5cbd
00000210: c90a 92bd bd3f edbb ea10 5b3d 55cb b63d
00000220: 20d6 f23d 876e e0bd c5a5 ba3c 7932 0e3b
00000230: d952 e3bc e085 e4bd 592c 303d 509e da3d
00000240: 2dc4 c4bd c6a0 81bd c707 06bd 5d40 7d3d
00000250: 54a8 b9bd db7c a6bd cdc9 aebd af76 9fbd
00000260: 109f 9e3d 4198 41bc 0c88 d03c d32c e8bd
00000270: cadf dabb f888 513d da06 74bd e043 083e
00000280: b471 b33d 6ee7 d0bd 59af db3a 6b6c a33d
00000290: d418 543d 0787 d4bd e5f1 a33d b73a a93c
000002a0: f11f 153e c30e 8cbd a73d 2f3d 72af bf3d
000002b0: 5dcb d63d c9bb cd39 911a bc3d 50c6 bf3d
000002c0: 4ac5 e4ba 8525 3bbd 2ac2 fa3d 1858 0f3c
000002d0: c9c7 233d b0a4 d7ba d49a b1bd d4cd e73d
000002e0: 4abb 0bbe ba7b c1bd ed13 eb3b 8ef5 d63b
000002f0: d95c 38bd c786 bd3d d109 05be ce89 1e3d
00000300: 3dd5 cebd 6d28 df3d 324a 24be 02ec 123d
00000310: 4f53 373d 3319 1d3e 2561 1bbe 2ea6 a6bd
00000320: 56ed 433d eb8f 81bd 5373 e6bd 8732 06be
00000330: 1599 bdbd 3659 ad3d 4940 a9bc 687e 21be
00000340: c2dd d5bd 9443 d4bc a507 093d 70cd 7ebc
00000350: 901f aa3c 93de 9fbd 043c aabd 3a1b e4bd
00000360: 6ab7 a13d 5f93 07bd bd80 1dbd 3705 a13d
00000370: 41ea bcbc 2abb 5bbd b942 b83d 4745 0b3e
00000380: 1235 7dbc 9071 583d 12fe 05be 7cf4 c93d
00000390: 9cc5 11bd 629c f73d ce3a 1dbe 232d 34bd
000003a0: 4c94 ddbd 2bef d63d b614 1fba 1e0b 60bd
000003b0: ede0 b6bd 9b80 b83c 0d30 cdbc f68e ab3d
000003c0: 9f3c 4b3d c3c7 953d 1f06 8cbd 1b2d e63d
000003d0: 817c 04be 7a25 743d df30 e03d cb6d 61bd
000003e0: cf1c 70bc 1e17 863d 7982 04bd f4c8 0abe
000003f0: 6888 af3d e710 8d3c 076e a23c 284a f43d
0.15260576 0.016590472 -0.06824426 -0.0034443066 0.12246636 -0.08779761 -0.13375366 -0.14926103
0.075858854 0.11516872 0.15990618 -0.10107148 -0.026058054 -0.017485803 0.05932845 -0.011620147
-0.13402927 -0.12450083 0.06448433 0.02854345 0.13078977 0.049684532 -0.018820139 -0.13809368
0.0069631697 -0.047259457 0.024670217 -0.064776935 -0.06899093 -0.027402123 0.13447116 -0.06191178
-0.06245754 0.0728371 -0.047281776 -0.10533003 -0.060153443 -0.03886751 0.03992294 0.06784319
0.032103058 0.034424275 0.043723997 0.06461021 0.11792011 -0.15003656 0.030275859 -0.07705557
-0.095939115 -0.09393608 -0.00825395 -0.15355055 0.15228054 -0.07430263 -0.011561378 0.03837032
0.03253017 0.07341464 -0.10798011 -0.09761684 0.07448636 0.059250712 0.16082633 0.14306806
-0.011351791 -0.020057473 -0.11334322 -0.11017972 -0.16161664 -0.083245486 0.032937527 -0.1187264
0.056102388 0.016743474 -0.03641783 0.038945723 0.081404835 0.002443656 -0.12693284 -0.03164944
-0.11056361 0.015885938 0.08892117 0.12753664 0.0767847 -0.070275635 -0.087274365 0.10532714
-0.082907 0.16374151 0.11758495 0.14447896 -0.029866671 -0.03938913 -0.13950574 -0.11388225
-0.06654058 0.010569583 0.1430402 -0.05238509 -0.1264162 -0.032356855 -0.016702805 0.04667958
-0.036712736 0.04984381 0.083214775 -0.09667667 -0.08450378 -0.14863494 0.044192962 -0.056791358
0.05045705 -0.059701096 0.0961041 0.1151111 0.12490576 -0.022502199 0.0026125528 -0.0208592
-0.16468139 -0.09208467 -0.12927464 0.021547098 -0.067510426 0.11577201 -0.10321706 0.1305171
-0.12718509 -0.08820184 0.06125481 -0.053720564 -0.07130963 -0.007240264 0.053482927 0.08925501
0.11857247 -0.109585814 0.022784123 0.0021697565 -0.027749466 -0.11158347 0.043011043 0.10674727
-0.0960773 -0.06329493 -0.03272226 0.06182896 -0.09065309 -0.08129283 -0.08534584 -0.07786309
0.077451825 -0.011816085 0.025455497 -0.113366745 -0.0066795098 0.051156014 -0.059576847 0.13307142
0.087619215 -0.10200392 0.0016760632 0.079796635 0.05178149 -0.10377317 0.08005122 0.02065788
0.14562966 -0.06838753 0.042783406 0.093596354 0.10488007 0.00039240558 0.09184755 0.09363997
-0.0017453816 -0.04569008 0.12244065 0.0087490305 0.03998545 -0.0016452279 -0.08672109 0.113185555
-0.13645664 -0.09447427 0.007174006 0.006560034 -0.04501042 0.09254222 -0.12992026 0.03870564
-0.10099266 0.108963825 -0.16043928 0.035869606 0.044757184 0.15341644 -0.15173776 -0.08137165
0.047833763 -0.06326278 -0.11252465 -0.13105212 -0.09257714 0.08464281 -0.020660536 -0.15770876
-0.104426876 -0.02591113 0.033454556 -0.01555191 0.020767003 -0.078061245 -0.08312228 -0.111380056
0.078963116 -0.03309953 -0.038452853 0.07862323 -0.02306092 -0.05364529 0.08997101 0.13600646
-0.0154545475 0.052842677 -0.13085201 0.09861085 -0.035588846 0.120903745 -0.15354463 -0.04398836
-0.10819301 0.104948364 -0.0006068455 -0.054698102 -0.0892962 0.022522261 -0.025047326 0.08376877
0.04961836 0.07313492 -0.06837105 0.11239072 -0.1293812 0.059606053 0.109468214 -0.055036347
-0.014655306 0.06547378 -0.03235099 -0.1355322 0.08570939 0.017219974 0.019827856 0.11928207

module.gcn_layers.0.bnNodes.W2.weight f4 [50, 50]
00000000: 39e2 eebd c261 9a3d 96fb 8d3b 8cc3 c63d
00000010: b17a e1bd 7323 7d3d 6378 233c 9f8e ffbc
00000020: 942d fd3d f8b5 e9bc c59f 15bc 20a2 89bd
00000030: 7f04 b4bd 6c89 2a3e 2c48 ddbc 85d1 883d
00000040: 8f0f 3fbd 8aa6 9abd a115 be3d 598d 323c
00000050: 3b86 823d 870b 573d ca13 f1bd e479 8cbc
00000060: 72e0 703d c48c 64bd 3221 edbd e638 06be
00000070: 5b3d c33c 789c 003d 73ed 20be 2d51 7c3d
00000080: 1154 aebd cf74 973d e225 45bd a1af fc3d
00000090: 2014 96bd 69b7 8b3c 3461 c7bd dfe7 9f3c
000000a0: c459 043e 771a df3d da89 d5bc 62a6 703d
000000b0: bb6b fbbc 7c31 16bd 4725 43bc 84a0 c33d
000000c0: f5dd d83d 54e5 f0bd 5fb0 ce3d 0c18 883d
000000d0: 137a 8d3d 9cf5 8d3d 5cbb 26bd 2e63 99bd
000000e0: d45b 10bd d863 0dbc 6343 d53b 57ad c6bd
000000f0: 8447 fabd 85f5 19be 7aa3 123d 8129 e5bc
00000100: 9432 1e3b b930 eb3b c302 483e 2e5a bb3c
00000110: 228e 6b3d be9f 0e3e c2cd c93d b84a 193e
00000120: b7f4 f0bc 7cbc 2a3d 5086 813c 1c26 13bc
00000130: 2bdf 3d3e f9ed 98bd 6401 90bd f7ab b33d
00000140: 3e80 65bd ef26 35bd 9a1b 8fbc 65a5 0b3c
00000150: f7e7 53bd 9349 31be f6d5 0bbe 471b 073e
00000160: 3538 4bbc d4a1 933d 3660 003d a86a 583d
00000170: 55bc c93c c0e1 b1bd d703 e53d bada 02bd
00000180: dd3a 2bbd d95b 083d 3f60 d8bd 58a9 4cbc
00000190: 8047 903c 57a2 2f3d be46 bcbd 6b9b fabd
000001a0: ce28 3e3e a28c 983d c3b8 d83d a8db e0bd
000001b0: 87b5 063d 503e a9bd 1eae cebd e831 7b3d
000001c0: d33b 183d 4279 2dbc accb e7bd 1ebf 0ebe
000001d0: 056f 363d fd44 a43d 67c3 87bd 5b86 a43d
000001e0: 6402 693d e400 873d baa1 343d f67b dfbc
000001f0: 68f3 13be fcab b5bc 75fc f3bd e361 c6bd
00000200: 57cf 3e3e 6f55 a5bd 594b 943d 9ef2 26bd
00000210: 1e72 16be 3b75 d33d b93b 52bd 8a9e 643b
00000220: 27c9 6e3d ed76 e8bd 3e62 a43d e393 0e3e
00000230: df6d 53bd b7d0 b5bc 102c 87bd 2d19 f0bc
00000240: 3128 e8bd 043c fdbc 395b ea3c 0f2b 463d
00000250: 7e21 a23d 7ec2 533c 8108 f0bd ccf4 c13c
00000260: 53d8 a53b 3953 243c 0a01 9f3c 008b 41bd
00000270: 21c0 10be 473c bc3d 2a05 573a 44bf 77bb
00000280: 60d7 093e 7b6c 8bbd fa83 b6bd 0309 15bd
00000290: 26d7 f2bd fdf1 c8bd bb9d 46bd 8945 fa3d
000002a0: 1209 cabc 37bd 1cbe 7c1a e63a 357f a9bd
000002b0: f4a0 91bd fddb 88bd a72b fbbd e620 36bd
000002c0: 5b16 eabd 4cee 26bd 1cdd 0ebe 4dff 343d
000002d0: ea6d 0b3d 1894 62bd e65f 303c 813e d7bd
000002e0: a851 eabd 2546 bf3c cdbf 41bd 5d43 e4bd
000002f0: 931f cd3d 6da8 c33c 03d2 28be a7d8 e6bd
00000300: e44c 3e3d a5d8 af3b 49a2 863d abcf 2dbc
00000310: 0b16 86bc 35b7 47bd b478 9bbd 77f6 03be
00000320: 7c18 673d f051 da3d 54e3 453d 9273 41bd
00000330: 42aa c03c 4625 1dbe d2a3 02bd 22b0 e03d
00000340: d1da 2abc 6237 723c 9009 163e 3168 f23d
00000350: ede1 07bc 7e63 14be 5959 eb3d 66dc 533d
00000360: 5018 95bc f338 ea3d f273 193d 6c75 dbbc
00000370: a309 073e 3872 ad3c 4e1d ae3d 5505 fabb
00000380: f571 933d a5b9 9ebc 70e8 c43c 6249 0abe
00000390: 42a2 e83d c71b 193d 9246 843d 0d88 99bd
000003a0: 6c0e 0d3b 0239 293d d617 c7ba ff4c fbbc
000003b0: 0ec0 603d 3d2e 7e3c 8e94 fcbd 0900 153d
000003c0: 887d a33d 5550 053e f1df b33d 2cc0 923d
000003d0: 7c6b 32bc debb f5bd 5f7f cdbd d5a8 2b3d
000003e0: 4728 5bbd 58df 93bd 7526 91bd 0214 4f3d
000003f0: 4f9f 00bd 9274 b3bd c23b 39bd aef6 393e
-0.11664242 0.07538177 0.00433297 0.09705266 -0.1100973 0.061801385 0.009977433 -0.031195937
0.12362209 -0.028529152 -0.00913233 -0.06720376 -0.0878992 0.16653985 -0.027011953 0.06680588
-0.046645697 -0.07551296 0.09281469 0.010897958 0.06373259 0.052501228 -0.117713526 -0.017147966
0.058807798 -0.055798307 -0.11578597 -0.13107643 0.023832968 0.03139922 -0.1571558 0.061600853
-0.08512128 0.07395326 -0.04813183 0.12338186 -0.07328057 0.01705523 -0.09735337 0.019519744
0.12924868 0.1089372 -0.02606671 0.058752425 -0.030691018 -0.036668286 -0.011910743 0.095521
0.1058921 -0.11762491 0.10092234 0.066452116 0.069080494 0.06931612 -0.040706024 -0.0748962
-0.035243824 -0.008629762 0.0065082773 -0.09701031 -0.12220672 -0.15035065 0.035800435 -0.027973892
0.0024139034 0.007177439 0.19532304 0.02287015 0.057508595 0.13928124 0.09853698 0.14969909
-0.029413564 0.04168366 0.015811116 -0.008981254 0.18542163 -0.07467265 -0.07031515 0.08773034
-0.056030504 -0.044226583 -0.017469216 0.00852332 -0.05173489 -0.17313223 -0.13655838 0.13193999
-0.0124035375 0.07208601 0.031341754 0.05283609 0.024625937 -0.086856365 0.11182373 -0.031946875
-0.041804183 0.033290718 -0.105652325 -0.012491547 0.017612219 0.04287943 -0.091931805 -0.12236675
0.18570253 0.074486986 0.105821155 -0.10979396 0.03288796 -0.08263838 -0.10091804 0.06132689
0.037166428 -0.010587992 -0.11318144 -0.13940093 0.04453947 0.08020971 -0.06629067 0.08033439
0.056887046 0.06591967 0.044099547 -0.027280789 -0.14448321 -0.022176735 -0.11913387 -0.09686639
0.18633781 -0.08072936 0.07240934 -0.04075872 -0.1469197 0.10325094 -0.051326487 0.0034884536
0.058297303 -0.11350808 0.08026551 0.13923602 -0.051618453 -0.02219425 -0.06600201 -0.02930888
-0.11335791 -0.030912407 0.028607951 0.048380908 0.079165444 0.0129247885 -0.11720372 0.023676299
0.0050611882 0.010029607 0.019409675 -0.0472517 -0.14135791 0.091911845 0.00082023686 -0.0037803212
0.13461065 -0.068078004 -0.08911891 -0.036385547 -0.118574426 -0.098117806 -0.048490267 0.12220294
-0.024662528 -0.15306555 0.00175555 -0.08276216 -0.071107775 -0.066825844 -0.122641854 -0.04446497
-0.11430045 -0.0407546 -0.13951534 0.044188786 0.03404037 -0.055317014 0.0107650515 -0.105099685
-0.11441356 0.023348877 -0.047302056 -0.11145661 0.10015788 0.023884023 -0.16486363 -0.11271792
0.046460047 0.005366402 0.06573922 -0.010608594 -0.016367933 -0.048758704 -0.07591382 -0.12886988
0.056419834 0.106601596 0.0483125 -0.047229357 0.023518685 -0.1534625 -0.031894512 0.10971095
-0.010428146 0.014783712 0.14652085 0.11836279 -0.008293611 -0.14491078 0.11491651 0.05172386
-0.01820007 0.114366435 0.03746409 -0.02678939 0.1318727 0.021172628 0.08501683 -0.00763003
0.0719947 -0.019375632 0.024036616 -0.13504556 0.11359073 0.037380006 0.06458773 -0.07496653
0.0021523489 0.041314133 -0.0015189599 -0.030676363 0.054870658 0.015513954 -0.12333022 0.036376987
0.079829276 0.13018925 0.08782948 0.0716556 -0.010889884 -0.119987234 -0.1003406 0.041909058
-0.05350521 -0.07220334 -0.07087413 0.05055619 -0.03140193 -0.087624684 -0.045223005 0.18160507

module.gcn_layers.0.bnNodes.batch_norm.weight f4 [50]
00000000: 8e12 7e3f 58db 7d3f 07eb 773f a1ef 743f
00000010: 2959 7e3f f698 813f 8d9f 7f3f b1be 783f
00000020: 5ada 7a3f 2e14 813f b89c 753f 7156 823f
00000030: db86 7e3f 0d69 7c3f 9ed8 7d3f a84a 7a3f
00000040: d8ba 753f af45 803f 73bb 783f 0301 7b3f
00000050: 6c85 793f 6774 7e3f 01a0 7d3f c9fe 7c3f
00000060: f53a 753f c6ba 7f3f 6c3e 7c3f 8e8e 773f
00000070: 6596 7d3f f14d 7b3f 6401 823f c414 7d3f
00000080: 341e 813f f826 7e3f e800 803f 71f2 793f
00000090: 76c7 7c3f 9107 7a3f ccf5 7f3f 15c7 803f
000000a0: 20c4 7f3f 357b 7d3f 85bf 7b3f 537f 793f
000000b0: eaea 7b3f ceda 773f 5638 763f 235c 7d3f
000000c0: 6d40 7a3f 8b8b 793f
0.9924706 0.99162817 0.96843 0.95678145 0.993548 1.0124805 0.9985283 0.9716597
0.9798943 1.0084283 0.9594226 1.018263 0.99424523 0.98597795 0.99158657 0.97770166
0.95988226 1.0021266 0.97161025 0.9804842 0.9746921 0.99396366 0.9907227 0.9882627
0.95793086 0.9989437 0.9853275 0.96701896 0.9905761 0.98165804 1.0156674 0.9885981
1.0087342 0.9927821 1.0000277 0.9763556 0.98741853 0.97667795 0.9998443 1.0060755
0.9990864 0.99016124 0.9833911 0.97459906 0.98405325 0.96818244 0.9617971 0.98968714
0.97754556 0.9747855

module.gcn_layers.0.bnNodes.batch_norm.bias f4 [50]
00000000: 7356 d73c 9bd8 bebc cd36 d4bb ad0e a7bc
00000010: 9503 283c 41e5 353b c540 4bbc 72d5 75bc
00000020: 5d28 b6bc 34da 1e3c ee5e 3cbd a14b fe3b
00000030: fa00 ebbc c22b a13c a69a 87bb b934 31bd
00000040: 54d1 5abc b2db 443c 3934 febc e3c2 03bd
00000050: b3bb afbc a732 47ba 87f7 f7bb 710a e93b
00000060: 8dd2 42bd 4d94 74bc d8b1 67bc 3ab0 21bd
00000070: 1a1a 34b9 c0c0 25bd 5f2c 313c 90c2 5a3c
00000080: a3ef 883c bbab 98ba 7666 343b 28cb 5abd
00000090: 63b0 5ebc 514e 7fbb 88d0 2dbb 396d 893b
000000a0: 0cab 2a3a 1545 6c3b 19fe bd3b f386 31bd
000000b0: 8c8c 9bbc 6a20 33bc f628 32bd a88b 27bc
000000c0: b9e1 95bb 56c5 5abc
0.02628634 -0.023296645 -0.0064762593 -0.02039274 0.01025476 0.0027755054 -0.012405579 -0.015004503
-0.022236044 0.009695578 -0.04598897 0.0077604805 -0.02868699 0.019674186 -0.0041383086 -0.04326317
-0.013355572 0.01201527 -0.031030761 -0.03216828 -0.021451807 -0.00075987953 -0.0075673494 0.0071118404
-0.047564078 -0.014927936 -0.014141522 -0.039474703 -0.00017175861 -0.040467024 0.010813802 0.013352051
0.01671583 -0.0011647859 0.0027526892 -0.0534164 -0.013591859 -0.0038956592 -0.0026522 0.0041939286
0.00065104733 0.0036051918 0.005798113 -0.04334159 -0.018987916 -0.010933021 -0.043496095 -0.010226168
-0.0045740274 -0.013352713

module.gcn_layers.0.bnEdges.W3.weight f4 [50, 50]
00000000: 6e66 21bb 099b 953d 1398 46bd e59f 493d
00000010: 00e3 133d a307 1ebd 3a03 7ebb c393 d73d
00000020: 8490 843c 04e9 183e b43d 963d 9423 4cbd
00000030: 4f73 0cbc ab05 423d 9079 29bd 44bb aebd
00000040: 2122 28be c454 e8bd 52be 0cbd 22d9 1dbe
00000050: ead5 db3d e4fc ecbc 1a81 0e3d 08ec e63d
00000060: 0551 27be cdf2 c5bd 0cb6 18bd 230e dd3b
00000070: 1010 c3bd 7a2e eebd 1f01 1a3b 75dd 033d
00000080: f6ff 02be be31 433d ff12 91bd aa57 c9ba
00000090: 7af0 adbb 7844 6bbd 8d67 d2bc b816 88bd
000000a0: 19f2 a33d 7b8a b4bd f3ca 52bd 2a86 e4bd
000000b0: 8773 bd3d cbc1 aebd 7459 c5bd ba91 bdbd
000000c0: 86ca 383d 6c66 a4bd 184d de3d 9c06 12bd
000000d0: 919c 00be 28c3 8fbd f0f7 0bbd c6fa 8abd
000000e0: 6aec 353c 44e0 78bd 249d 803c d10d 33bd
000000f0: 6d1f 2bbd 288c 8e3d 207e 823b f318 0f3e
00000100: da1c ecbd 7342 39bd 8dee 013e 670b 02be
00000110: 86b3 9bbd 453b 26bd 8f7d 06be 3603 ce3d
00000120: b5c8 e2bd 2511 4c3d ec31 313d c064 ec3c
00000130: 8ba0 143e b166 d43c 01d6 d43d 7f46 b2bc
00000140: 626f 033d bc56 c2bd 3108 27be 9dea 253e
00000150: f103 04bc 4f72 a5bd 0661 123d b54f 0e3e
00000160: 42a5 8c3d 45d2 1c3d cbdb b83d e937 103e
00000170: 7056 0f3e c27c 123d 9d2c 11be 17bc 84bd
00000180: 0230 dc3d 737a a03d 6a89 8cbd 2643 ea3c
00000190: 00df d7bd d28c 2bbc 42da e43d ceda 083d
000001a0: 0523 b1bc 2f8e 41ba e61d 00be ab22 bc3d
000001b0: fc33 0dbe 6c66 8dbd d6ab 34bc e0f3 343d
000001c0: 170b 4f3d c78a d3bc 41e5 fd3d dd9a 1ebe
000001d0: dbd9 f3bd 323e 74bd 8ef8 bb3d 3c48 523d
000001e0: f5d9 0ebe 769d 10be 2d6b 1abe 0757 ecbd
000001f0: 6594 b13d 73fc 89bb f817 53bc 624d 04bc
00000200: 4f10 8fbd 1d71 a93d a1fe 06bd 885b d03d
00000210: 9e8b fbbd 07cf b3bd eb8b b73d 4e98 6e3c
00000220: 9f66 06be ff0b 2b3d 54cb 5abc 6fb6 2bbd
00000230: 1ee8 053e f755 d5bd eb72 743d f223 51bd
00000240: bd45 573d 494e 01be d8fa 8abd 6261 203d
00000250: f59c aabd b291 0f3d ac8b cb3d 9893 95bd
00000260: c783 553d ac25 633d 9069 a43c 0098 b8bd
00000270: 78a3 2fbd 9a76 a9bc f82a 17ba b271 e0bd
00000280: ce52 d23d 3fae 073d 7b32 21bd 0513 703d
00000290: 73ef 3ebc 93f3 943d 69c2 073e 8f35 11bd
000002a0: 83cf 45bd 3fb5 b83d 3771 22bd b10d d53d
000002b0: 3406 913a 2028 8ebd 9083 043e 8681 65bd
000002c0: 863b 1c3e 9708 c43c 9c5a b8bd 9176 63bc
000002d0: 778e 173e cda9 6c3d 7ade d03d 9ee6 a4bd
000002e0: e914 e13c e299 b6bd 71f8 2ebe d335 18bd
000002f0: 7411 983b 8fd0 703d c741 efbd bf0a bbbb
00000300: 08cf a7bd 5b8f b73d 201e 0abd acb9 dbbc
00000310: 45d3 283d a2b4 0b3d 9176 403d 8acf 37bd
00000320: 401e f63b fa00 203e c78f 033d 374f 133d
00000330: 63d5 97bd 9034 2a3e 5eb5 12be 4d4c 373e
00000340: b4c0 4e3c 06e7 243e e580 0e3d 56c8 823d
00000350: acd7 24be 7208 f0bd 27e6 fbbc ca56 ba3c
00000360: a82e a2bd 36e0 4fbd afaf 33be efdf f13c
00000370: 17ba cdbd cdbe 333d d728 d6bd fa2d 333e
00000380: 8e56 00bd 237e 053c 9347 063d a7cd 0cbe
00000390: 316c a0b9 ccbe 9a3d d8ea 43bc 60a1 793b
000003a0: 4e93 bf3d 71f0 073e 896b 11be b03d b33d
000003b0: 3bcd bb3c be91 3c3d 6aee 21bd c762 90bd
000003c0: c3b0 cbbd a252 75bc 18cf da3c c713 6dbd
000003d0: dc1d 833d 57f2 013e 0ded 0e3d a941 cc3d
000003e0: 4013 b83d d44f 2abd 405b c13d 99f4 85bd
000003f0: 658b 0fbe 5381 b23c 15d9 01bd af82 7e3d
-0.0024627703 0.07304961 -0.048484873 0.049224753 0.036105156 -0.0385815 -0.0038759247 0.1052623
0.016182192 0.14932638 0.07335988 -0.049838617 -0.008572414 0.047368687 -0.041375697 -0.08531812
-0.16419269 -0.11344293 -0.03436119 -0.15414861 0.1073416 -0.028929181 0.03479109 0.11275488
-0.163395 -0.09665451 -0.03728299 0.00674607 -0.09524548 -0.116299585 0.0023499203 0.03219362
-0.12792954 0.04765486 -0.07083701 -0.0015361209 -0.005308208 -0.057438344 -0.025684142 -0.06644958
0.08005161 -0.088154756 -0.05146308 -0.11158402 0.09250551 -0.08533057 -0.096362025 -0.09256311
0.045115016 -0.08027348 0.10854548 -0.035650834 -0.12559725 -0.07019645 -0.034172 -0.067861125
0.011103729 -0.06076075 0.01569993 -0.04371435 -0.041778017 0.069603264 0.0039823204 0.13974361
-0.115289405 -0.045229387 0.12688656 -0.12699662 -0.07602601 -0.040583868 -0.13133834 0.10059206
-0.11073438 0.049821038 0.0432605 0.028856635 0.14514367 0.025927873 0.103923805 -0.02176213
0.032088645 -0.094891995 -0.16311719 0.16202779 -0.00805758 -0.08078443 0.03573706 0.13897593
0.06867458 0.038286466 0.09026297 0.14083828 0.13997817 0.03576351 -0.14177175 -0.06481188
0.10751344 0.07835855 -0.06862147 0.028596472 -0.10540581 -0.010470586 0.11174442 0.033411793
-0.021623144 -0.0007383553 -0.12511405 0.091863 -0.13789362 -0.06904301 -0.011027297 0.04417789
0.050547685 -0.02582301 0.12397242 -0.15488763 -0.11906787 -0.059629627 0.091782674 0.05133842
-0.13950332 -0.14122567 -0.15079947 -0.11540037 0.08670882 -0.0042110025 -0.012884133 -0.00807509
-0.069855325 0.08273528 -0.032957677 0.10173708 -0.12282489 -0.08779722 0.08962234 0.014562679
-0.13125084 0.041759487 -0.013354141 -0.04192203 0.13076827 -0.10416787 0.059679907 -0.05105967
0.052556742 -0.1262752 -0.06786126 0.03915537 -0.083307184 0.035051055 0.0993875 -0.07303542
0.052127626 0.05545585 0.020069867 -0.09013367 -0.042880505 -0.020686436 -0.0005766596 -0.10959186
0.102697 0.03312516 -0.039354783 0.05861189 -0.011653769 0.072730206 0.13257755 -0.035451468
-0.0482936 0.09018945 -0.03965875 0.10403002 0.0011064471 -0.06941247 0.12940812 -0.056031726
0.15257081 0.023929877 -0.09001657 -0.013883249 0.1480044 0.057779122 0.10198684 -0.08051799
0.027475791 -0.089160696 -0.1708696 -0.037160706 0.0046407524 0.058792647 -0.11682468 -0.005708068
-0.08193785 0.0896289 -0.033720136 -0.026821934 0.041217107 0.03410781 0.046988074 -0.04487566
0.0075109303 0.15625373 0.03211954 0.035964217 -0.07413747 0.16621614 -0.14326999 0.179002
0.012619186 0.16103753 0.034790892 0.06385867 -0.16097897 -0.11720361 -0.030749394 0.022746462
-0.07919055 -0.050750934 -0.17547487 0.029525725 -0.100452594 0.043883134 -0.10457008 0.17498007
-0.031332545 0.008147749 0.032783102 -0.13750325 -0.00030598187 0.07555923 -0.011957847 0.0038090572
0.09354268 0.13275315 -0.14201178 0.08752 0.02292501 0.046037428 -0.03953401 -0.0705009
-0.09945824 -0.0149733145 0.026710078 -0.05788019 0.064021796 0.12690102 0.034894038 0.09973461
0.08988047 -0.041580036 0.09441233 -0.06540794 -0.14018019 0.021790182 -0.031701166 0.06213635

module.gcn_layers.0.bnEdges.W4.weight f4 [50, 50]
00000000: 601a ebbc a724 c53d e563 e33d 3867 65ba
00000010: 4365 883d b336 613d 02f9 9d3d ff54 0a3d
00000020: 98d7 cdbd c6f7 ebbb 62ea d8bd b2c5 c73d
00000030: 7632 383d 6904 87bd c333 e43d f187 9dbd
00000040: 617c e2bd 4919 f7bd 67d3 71bd 1057 863c
00000050: 70db 173e e84a 7f3c a0da 6dbd d2f6 b23d
00000060: 64b8 ea3d 8d66 be3d a41a 77bd ae9b bd3d
00000070: ad33 a1bc d275 9dbc 858c 63bc 9688 6ebd
00000080: 548c 03be f041 c9bd e64e c6bd 78ff cc3d
00000090: f431 3e3d d49f b13c bc08 96bd 4864 9cbd
000000a0: 3827 efbd 08fb 8b3d eb1e 05bd 9dbb 7b3d
000000b0: 77ae 873d 9d3a ccbd fbca bc3c de3d 0a3e
000000c0: 6f78 893b 22cd 8bbd 5c56 973d 3161 0a3e
000000d0: 160f d1bd 8113 7b3d f072 0abd 6ce5 d53c
000000e0: fff1 d33d 958f c63d 2a43 fabd cbe2 39bb
000000f0: 9d9f c43d f3a2 033e 7c60 973d 1a24 0a3d
00000100: 5172 8b3c 818f 05be f7fd 593d 2ca1 a8bd
00000110: 3914 b93c 95ad 003e be87 373d 3f8a 31bd
00000120: 882f 9fbb cc26 00bd dd2b b93d 32f7 b2bc
00000130: 7ca2 203d faea 823b e6f3 0a3e 94b6 3abd
00000140: c1e8 b5bd c3fd 32bd 9e0d 413d d131 0bbe
00000150: 5a02 d0bd 8ad9 d83c 5f91 acbd 5f6a 91bd
00000160: 1f7a 1f3d 1246 bf3d 2863 983d e6c1 debd
00000170: 03ec ca3d 8d09 aebd ad5a 073e 3f0d eb3d
00000180: daf2 8abc 161f 1c3d f14d d63c a892 32bd
00000190: d4ee 52bc 49c4 babd 7508 673d 9149 843d
000001a0: 277c a2bd 18b1 1abd ca99 70bc 0abf 9bbd
000001b0: 1d16 ddbd c20e 8a3d 5f7a 67bd e259 92bd
000001c0: 6429 033e 9b8e 66bd 60ef 123e 8acb cfbd
000001d0: 1178 943d 4355 b23d 6c57 0c3e acd7 fcbd
000001e0: 03d2 a93d a837 d5bd 46b2 52bd 8b82 c7bd
000001f0: e54d d33b d751 e23b b7db 123d 8e38 693c
00000200: 974d 1d3d 7fae 43bd 48bc c23d 3920 43bc
00000210: ed43 fcbd 8d3d 0c3e b654 b33d 0f41 c8bc
00000220: c621 a13d d3b0 21bd 1540 ca3d a8d4 fbbd
00000230: 27c3 eabd 0bae 8fbd dea2 c3bd 6a25 c83d
00000240: 1896 1b3c 9235 52bd 5995 72bd 7bfb fdbd
00000250: 7057 8b3c e668 fcbd 1224 e4bd 1095 af3d
00000260: 929a 1abd 9a8f 103e d2f8 133c 2997 00be
00000270: 3a17 923d 95f0 093e a786 0cbc e7c8 c93b
00000280: 9c4b 623d b665 dbbc f95c 01be 45a4 c7bd
00000290: 3fc3 133d 586e 183e 2d6b 763d 0976 0cbd
000002a0: b15e 13bd 3394 04bd 40ad bc3c 3ade db3b
000002b0: 17fc e93d 79b6 0f3d b28e d93c 3dc6 bcbd
000002c0: 0eab 45bd edd9 403d c654 89bd 4576 723d
000002d0: 0a44 e13d db6c ca3b 830d f73d d622 e0bc
000002e0: c401 8a3b 5b3c 03be 4001 a6bd f76b 173e
000002f0: 5505 b33d fbd2 d53c da54 403d b451 69bd
00000300: b1e7 31be ba94 47bd 6051 d43d 0c82 b7bd
00000310: 5a7e dd3d 1a85 dbbd ceab b2bd 3336 013d
00000320: 5c9e 37bd e5a9 c53d 2c63 d33d 75b8 80bd
00000330: 2d6c 2d3e c747 693d 87e2 a53d 8c2d 02be
00000340: ceb6 c0bd 47ed 253d 827b 1f3d 043e 943d
00000350: caf9 e0bd f8e6 e53d aa52 cfbc 311f 8b3d
00000360: 3517 563d 93ba 973d 436a 91bd 0f17 09bd
00000370: dc96 c8bd 1891 e4bc a751 0abd fedb e4bd
00000380: 0cc1 323d 780c 9dbd c21c 993d 27da bebd
00000390: b59a 023d f7fa 853d 9b75 f03d ba24 f5bc
000003a0: 1ea3 cebd b6f7 9dbd e1f2 3abd f308 2fbd
000003b0: 262a f1bd 8c2f 013e 4216 0a3d a7f0 d0bd
000003c0: 5f72 f0b9 6faf ec3c 9f2b 443b dc92 c43b
000003d0: 6975 723b 55c4 b53d 1ce1 103d 314c 673d
000003e0: 68c0 c93d b903 9abc f08d 38bd 03d7 eabc
000003f0: 970c 11bc 91fc 7dbd aa51 173e 209b b33c
-0.0286991 0.096261315 0.11103038 -0.00087510375 0.06659939 0.054983806 0.0771351 0.033772465
-0.10050887 -0.0072011678 -0.1059158 0.09754504 0.04497 -0.06592638 0.11142685 -0.076919444
-0.1105888 -0.1206537 -0.0590395 0.016398937 0.14829803 0.015581824 -0.058069825 0.087384835
0.11460951 0.09296904 -0.06032814 0.09258209 -0.019677961 -0.01922122 -0.013888483 -0.058235727
-0.128465 -0.0982703 -0.096830174 0.10009664 0.046434358 0.021682657 -0.07325885 -0.07636315
-0.11677402 0.0683499 -0.03250019 0.06145822 0.066250734 -0.09972117 0.023046007 0.13500163
0.004195265 -0.06826235 0.073895186 0.13513638 -0.102079555 0.061297897 -0.03380102 0.026110373
0.103488915 0.09695355 -0.12219842 -0.002836394 0.09600756 0.12855129 0.0739145 0.033725835
0.017022284 -0.13043024 0.053220715 -0.08233866 0.02259265 0.12566216 0.04480719 -0.043344732
-0.004857961 -0.031287 0.090415694 -0.021846388 0.039217457 0.0039952965 0.13569602 -0.045584276
-0.08882285 -0.043699037 0.047132127 -0.13593222 -0.101566985 0.026470918 -0.08426165 -0.07100367
0.038934823 0.09339537 0.074407876 -0.10876827 0.09908297 -0.084979154 0.13218184 0.11477136
-0.016961504 0.038115583 0.026160212 -0.043596894 -0.012874324 -0.0911947 0.05640455 0.06459344
-0.079338364 -0.037766546 -0.014685104 -0.07604797 -0.107952334 0.06741096 -0.056513187 -0.0714605
0.12808758 -0.056288343 0.14349127 -0.10146244 0.07249463 0.08707669 0.13705224 -0.12345824
0.0829201 -0.10411006 -0.051439546 -0.09741696 0.0064484947 0.0069067287 0.035854068 0.014234675
0.038404074 -0.047773834 0.09508568 -0.011909538 -0.12317643 0.13695355 0.08756392 -0.024445085
0.0786777 -0.039475273 0.09875504 -0.1229642 -0.114630036 -0.07015618 -0.09552549 0.09772761
0.009496234 -0.05132062 -0.05922446 -0.12401482 0.017009467 -0.12324695 -0.11139692 0.08573353
-0.037745066 0.1411728 0.009031491 -0.12557663 0.07133336 0.13470681 -0.0085770255 0.0061579826
0.055247888 -0.026781898 -0.12633123 -0.09748129 0.036074873 0.14885843 0.060160805 -0.034292255
-0.035978977 -0.032367896 0.02303183 0.006709841 0.114250354 0.03508613 0.0265573 -0.092174985
-0.048258834 0.04708283 -0.067056224 0.059194822 0.109993055 0.0061775274 0.12063124 -0.027360361
0.0042116363 -0.12815993 -0.08105707 0.14787279 0.087412514 0.02610158 0.04695592 -0.056962684
-0.1737354 -0.04872582 0.103670835 -0.08960351 0.10815115 -0.107187465 -0.087241754 0.03154583
-0.044828758 0.096515454 0.1032165 -0.062851824 0.16935797 0.056953218 0.08099847 -0.12712687
-0.09409867 0.04050949 0.038936146 0.07238391 -0.109851435 0.112256944 -0.025307972 0.06793059
0.052268226 0.07408633 -0.07100346 -0.033469256 -0.09794399 -0.027901217 -0.033769276 -0.11174773
0.043641135 -0.07668394 0.07476188 -0.09318953 0.03188582 0.06542008 0.117411815 -0.02992474
-0.10089706 -0.07713263 -0.045641784 -0.042733144 -0.11775617 0.12615794 0.033712633 -0.10202151
-0.0004586158 0.028892247 0.0029933227 0.0059989523 0.0036996251 0.08875338 0.03537093 0.056469146
0.09851152 -0.018800603 -0.045057237 -0.028666979 -0.008853099 -0.062008444 0.14777246 0.021924555

module.gcn_layers.0.bnEdges.W5.weight f4 [50, 50]
00000000: 945a 953d d2be edbd 218f 943c 6211 94bc
00000010: c4d8 ee3d b4a1 e5bc 8e8a 20bd 9d73 f83c
00000020: 1a52 213d 2d07 243d 3ef6 af3d 065e aebd
00000030: dd6d 233d ef96 b43b 332c dfbd 9566 29bc
00000040: bdf6 413c 8a81 db3d a294 9abc 00d5 d8bd
00000050: c59a 08bd a8ce cc3d b37d 4b3d ee5f 9dbd
00000060: f4c7 773b 38ef 8abc eee6 4ebc 3be5 863d
00000070: 4e35 5ebd 933c 83bc 0eec ab3d d8aa 0abd
00000080: 3a33 eb3d 748b 583c 3c52 383d 80e5 b3bc
00000090: 596d 933d 8b65 8dbd 97d1 e93d 61ab 193e
000000a0: 87a3 ca3c eb39 57bd 1c1f 8f3d 08f1 edbc
000000b0: 737a cdbd 91cf 253d 93fb a8bd 3c24 8dbd
000000c0: d0b7 9fbd d837 df3d 05ac 7e3d cc7b 77bd
000000d0: a480 933d 9f2b abbd f776 833c c561 f9bd
000000e0: e994 8e3d bc7e 8dbd 9012 80bd 3b88 0c3d
000000f0: d1e8 03be 1306 733d 2007 3fbc a9dd e0bd
00000100: 2d77 b4bc 593c b8bd acd6 633d 8fc4 063d
00000110: f050 c0bd b549 cb3d c8d6 63bd 2cee fa3d
00000120: 12f2 69bc 1096 7e3c a19e 25bd 718a 5abc
00000130: 1749 9f3b 0fdd cebc 11a9 c9bd 313a 273b
00000140: 9b5d d7bd e618 a4bd 83eb 2cbd 9e17 90bc
00000150: 7e2c dabd a480 95bd 36c6 76bb b9f7 ca3c
00000160: 7b99 e83b 9233 c8bd 9f74 d63d 7174 6bbd
00000170: 1e75 fdbd 44dc b13d 37b1 623c d4c3 cdbc
00000180: 43f3 07be 510b a9bd 0de4 8c3d c241 20bd
00000190: dc8f b3bd 586d 7f3d 29a7 cabd e7c8 783d
000001a0: b338 09bd 16e6 603d 04eb 6a3c 8013 ef3d
000001b0: 5fab 9e3d 8d0b 173c e300 073e 20b2 c0bd
000001c0: e98e 143d a130 723d 3678 02be c277 bebd
000001d0: f43f adbd 4ba4 69bd ec4f 1bbd 36b5 ddbd
000001e0: a49b 1d3e 3040 82bc a310 243e ff7c 413d
000001f0: 169b 20bd 6037 073d 5ace cdbd 50dd dcbd
00000200: 7d17 9a3d 1539 cf39 927b 04bc 2d71 303a
00000210: 961b d13d fe88 f9bd c1f1 8fbd 41f9 5dbd
00000220: 5140 15bd 9e05 be3d 6631 e13d 584a acbd
00000230: bbf6 59bd 572f 0c3e d077 ccbd 9464 c2bb
00000240: 8390 1d3d 44c7 ab3d c4c1 ad3d 7192 ce3d
00000250: 0d12 4c3d f43a 1dbe d90b 58bd 98af edbc
00000260: 7f3c ccbd 7022 a1bd 3841 2c3d f72e 7abd
00000270: fb64 873c 83a0 143d 5c3c a83d 8464 c3bd
00000280: 3544 043e 365b 7f3d 41e8 923c 8773 1bbd
00000290: c7f2 65bd d1d6 aebb 94cb 98bc 483d 04be
000002a0: 5c64 8a3c ca2f e0bd 0621 d0bd f6aa 953d
000002b0: 9ffa d2bb 46f6 12bd 2a6c bebc 6ba5 3fbd
000002c0: 1a68 8d3d cfce d7bb 29e5 58bd f0af 1a3e
000002d0: be64 cf3d 0d39 003e 2c1d 10be 0d49 023d
000002e0: 026b bf3c 4296 123e bca6 293d 8dd0 c93c
000002f0: a70f d83d a9cd 903d 8709 0bbe 5c52 06be
00000300: d997 95bd f6a4 15bd f718 bf3c 7e43 c53d
00000310: 5a7b 0dbe 8012 40bc 4182 debd bc3f dc3d
00000320: 3100 a43d e2b5 ad3d 7ccd 2bbc 8330 abbd
00000330: 88a7 a0bd 7917 aa3b 99df 063c 5a00 023c
00000340: e4fb ed3d 2be0 a1bd 02f4 cd3d add0 693d
00000350: cccc e8bd b766 71bd 46fc 99bd 18d8 cf3b
00000360: b501 a83d b621 af3d deb1 a4bc ef16 0b3e
00000370: 29ea 753d dd53 133d 6083 fbbd 1a4d e8bd
00000380: 3ae9 b53d 5acc 8a3d 7049 83bd b82c d8bd
00000390: 5867 29b9 a279 0cbe 445b d13d c6e7 883d
000003a0: edbe 0c3d 9cc9 d6bd b774 d4bc 30f7 98bd
000003b0: 6768 983d 546d 113e 8b80 b5b9 3535 2fbd
000003c0: 6af2 da3d 6520 21bd 5267 81bd 632c dfbd
000003d0: 6fb5 e03c c09d e23d f713 ca3d 70e3 493d
000003e0: 0e5c d13d e635 d6bd 1589 083e f871 17bd
000003f0: 3261 0cbe 6984 963d 0609 fb3c 4c9b e8bc
0.07292667 -0.11608662 0.018134655 -0.018074695 0.116624385 -0.028031208 -0.039194636 0.030328566
0.03938494 0.040045906 0.08591889 -0.08514027 0.039899696 0.0055111567 -0.10897102 -0.010339399
0.011838612 0.10718067 -0.018869702 -0.105875015 -0.033350725 0.10000354 0.049680423 -0.07684313
0.003780839 -0.016959772 -0.0126283 0.06586691 -0.054250054 -0.016020095 0.08394633 -0.033854336
0.1148438 0.013216842 0.0450003 -0.02196002 0.07198591 -0.069041334 0.11416929 0.15006782
0.024736179 -0.05254547 0.069883555 -0.029045597 -0.10033121 0.040481154 -0.08251109 -0.06891677
-0.07798731 0.10899323 0.06217577 -0.060420796 0.072022706 -0.083579294 0.016047938 -0.12176851
0.06961996 -0.06908938 -0.062535405 0.034309607 -0.12881781 0.059331965 -0.011659414 -0.10979778
-0.022029484 -0.089958854 0.05562465 0.032902297 -0.093904376 0.09926168 -0.055624753 0.12252459
-0.0142789055 0.015538707 -0.040434483 -0.013338671 0.004861008 -0.025251893 -0.098467 0.0025516863
-0.10515901 -0.080125615 -0.04221679 -0.017589387 -0.106530175 -0.07299927 -0.0037654764 0.024776326
0.0070983744 -0.09775461 0.104714625 -0.057484094 -0.12375854 0.086845905 0.013836197 -0.025117792
-0.1327639 -0.082541116 0.06879435 -0.03912521 -0.087676734 0.062360138 -0.098951645 0.06073847
-0.03350134 0.054906927 0.014338259 0.11673641 0.0774753 0.0092190625 0.13183932 -0.09408975
0.036269102 0.059128407 -0.1274117 -0.09300186 -0.08459464 -0.057041448 -0.037918016 -0.10825579
0.15391403 -0.015899748 0.16021971 0.047238346 -0.0392104 0.033011794 -0.10049124 -0.107843995
0.07524011 0.00039524646 -0.008086102 0.00067307317 0.1021034 -0.12184332 -0.07028533 -0.054192785
-0.03643829 0.09278415 0.1099575 -0.084126174 -0.053213816 0.13689934 -0.0998379 -0.0059324
0.038467895 0.08387616 0.084842235 0.10086525 0.049821902 -0.1535452 -0.052745674 -0.029014394
-0.09972476 -0.078678966 0.042054385 -0.061079945 0.016527643 0.03628589 0.08214638 -0.09540656
0.12916644 0.062342845 0.017933013 -0.037951972 -0.056139734 -0.0053356667 -0.018651761 -0.12914002
0.016893558 -0.10946615 -0.10162549 0.07307999 -0.006438568 -0.035879396 -0.023244936 -0.046788614
0.069046214 -0.006585933 -0.05295292 0.15106177 0.10126637 0.12521763 -0.14073628 0.031807948
0.023366455 0.14315131 0.041418776 0.024635578 0.105498604 0.070704766 -0.13577853 -0.13117355
-0.07304353 -0.036534272 0.023327334 0.09632014 -0.13816586 -0.011723161 -0.10864688 0.10754344
0.08007849 0.08481957 -0.010486003 -0.08358862 -0.07844454 0.0051907864 0.008232021 0.007934654
0.1162031 -0.07904085 0.100563064 0.057083774 -0.11367187 -0.058935847 -0.075188205 0.006342899
0.082034506 0.08551352 -0.020104345 0.13582967 0.060037766 0.03596865 -0.12280917 -0.11342831
0.08882375 0.06777258 -0.064104915 -0.105554044 -0.00016155594 -0.13718274 0.10222486 0.06684832
0.03436177 -0.10487673 -0.02593456 -0.07469022 0.07441788 0.14201862 -0.00034618782 -0.04277535
0.10690768 -0.039337534 -0.06318535 -0.10897138 0.027430264 0.11065245 0.09867089 0.049289167
0.10222636 -0.10459499 0.13333543 -0.036973923 -0.13708952 0.07349474 0.030643951 -0.028394364

module.gcn_layers.0.bnEdges.batch_norm.weight f4 [50]
00000000: 9205 833f 96a5 843f 0d94 803f 2bf2 773f
00000010: b1c2 7d3f d1e4 823f 0602 783f a8af 843f
00000020: d1e3 803f 71cc 833f 0f77 853f 9a21 853f
00000030: f734 853f 65aa 843f 6aa1 7d3f eea5 833f
00000040: 2508 793f 8365 793f 4721 803f 2c97 823f
00000050: 4996 823f 3ff8 783f 1a0e 833f 7002 843f
00000060: c71d 843f 45f3 823f 0714 803f 9c16 7c3f
00000070: 5f4b 833f 83b6 7e3f 39d3 843f 91f2 833f
00000080: 7a18 823f a037 7d3f 51f1 793f 151e 843f
00000090: ead6 7d3f c7c0 7b3f beec 833f 1ab7 853f
000000a0: 02d1 833f 2d86 853f 5f3c 843f 2df3 823f
000000b0: 10bf 833f a72f 853f 86b0 7e3f f618 783f
000000c0: 6172 7d3f 853a 833f
1.0236075 1.0363033 1.0045182 0.96853894 0.991252 1.0226079 0.9687809 1.0366106
1.0069524 1.0296766 1.0426959 1.0400879 1.0406789 1.03645 0.99074423 1.0285013
0.9727805 0.9742052 1.0010155 1.0202384 1.0202113 0.97253793 1.0238678 1.0313244
1.0321587 1.023049 1.0006112 0.98472 1.0257376 0.9949724 1.037696 1.03084
1.016372 0.98913 0.97633845 1.032168 0.9915606 0.9834103 1.0306623 1.0446503
1.0298159 1.0431572 1.0330924 1.0230461 1.0292683 1.0405167 0.99488103 0.9691309
0.99002653 1.0252234

module.gcn_layers.0.bnEdges.batch_norm.bias f4 [50]
00000000: 5edd a53c 9357 003c ff85 08bc 9b97 26bd
00000010: 6f98 c13a 8fa5 39bb b28b 0cbd 7b3e 353d
00000020: 9ee0 e1bc 66b1 c0bc ec48 363d cf3b 3c3c
00000030: e85e 993c 4f00 363d 0b07 44bc e6e8 f93c
00000040: 4f2f bfbc 9e6b b2bc 580f 9abc a9f6 023d
00000050: 0849 e23c f912 dfbc 1cf4 e73c c18b 033d
00000060: cbdc 46bc e497 483a d1cc c23b 0408 163b
00000070: cdee 3b3d 57f7 1e3c 72ca 4a3c 268d f23c
00000080: 2904 dd3c 0980 4ebb 8535 f4bc 82ae 3f3c
00000090: 40b5 82bc 923d 2f3a 1232 af3c 4a0e f93c
000000a0: 576f 213d cf59 283d 1085 013d 2d50 f63c
000000b0: ab14 193d 604c 153d 7f2c 5aba 90ca 03bd
000000c0: 0e29 17bc c671 183d
0.020247158 0.007833379 -0.008332728 -0.040671926 0.001477016 -0.002832744 -0.03431291 0.04424904
-0.027572926 -0.02352209 0.044503137 0.011488869 0.018722013 0.044433888 -0.01196457 0.030506562
-0.023337988 -0.021779831 -0.018806145 0.031973515 0.027622715 -0.027230727 0.028314643 0.0321157
-0.012137602 0.0007652028 0.005944826 0.0022892961 0.045882035 0.009702525 0.012377368 0.02960832
0.026979523 -0.003150942 -0.029810676 0.011699321 -0.015955567 0.0006684895 0.02138618 0.030402321
0.039412823 0.041101273 0.03162104 0.030067528 0.037373226 0.03644979 -0.00083226705 -0.0321756
-0.009226097 0.037217878

module.gcn_layers.1.bnNodes.W1.weight f4 [50, 50]
00000000: 64c0 adbd de08 b1bd db34 06be fb2d fbbd
00000010: 5f0e 61bc ba98 d2bd 22b7 c1bd 97d8 a0bd
00000020: 93ff a2bd 825b 003e 8fcd 8d3c 8a15 883d
00000030: f70e ad3d d6dd 86bd 134c be3d 2b33 843d
00000040: a954 cf3d 5a46 043e 2c09 a33d 6747 063e
00000050: 28b5 c83d fb0a a93c 5c7e df3d 933d e9bc
00000060: 14ea aebd d8d2 0abb e400 dfbd fe83 2ebe
00000070: 5f3a d03d ad88 543d 1317 7dbc f9ff f73d
00000080: f4bd 01be bcbc f13c 964a f4bd a7b2 f23d
00000090: f678 0cbd 7b1f b63d 35da d0bd 4405 10bc
000000a0: 2e85 8dbd 6daf 97bc 2025 55bd 0bb3 45bd
000000b0: ec5e ec3d bebe cabb 9f0c 9ebd 93e8 973d
000000c0: c64b 8bbd 8d34 bdbd 9783 38bd 119f a93d
000000d0: 7868 f4bd fced 023e f34d 9dbd d99b de3d
000000e0: 8ed6 f2bd d49e 46bd bf63 6bbd cd83 653d
000000f0: f8e8 3b3d 1829 bc3b 2d76 c6bd f7b9 0c3e
00000100: 6b51 003e 970d e13d 045f cb3d 6987 2b3e
00000110: 0aae 86bd 15d6 b5bb 9a94 813c acde c7bd
00000120: cc28 303d 10c0 07be 77c5 073e eba0 223d
00000130: ae87 24bd b246 04be 2962 88bd e198 b2bd
00000140: 78ee fc3d a2e5 5bbc 0aad b2bd d7ab 24bc
00000150: e582 df3d 8816 f1bd 092b f23d b504 e7bc
00000160: edbb 6cbd 9264 cebc af01 7bbd cc9d 24bd
00000170: 773e 3a3d 34ff 033e caae 5ebd 45bf b2bd
00000180: 7b8c 9cbd d81a 9f3c e042 0abe 2b33 ac3d
00000190: a36e dd3d a671 31bd 2449 823a d65f 4e3d
000001a0: 3abd 3d3d ca69 07be 02bd ecbd 41aa 91bd
000001b0: 62dc 873d e397 02bd ed25 ce3d 321f 103d
000001c0: c7be 053d d8b6 adbd 67de f5bb 1308 1b3d
000001d0: 261e cfbb da45 cc3d 9649 7e3d 8301 24bd
000001e0: 7d3a 103c d95f f53b c737 85bd 0f35 87bd
000001f0: 8d3e e4bd 5b94 a13d a400 13be ee0d 05bd
00000200: 3640 dabc 3edd 0f3e e010 e43c 9df9 94bc
00000210: e774 5abd 0a8b 2dbd 8cd4 cd3b a0d4 fc3d
00000220: 3022 a5bd 1d6d 01bb a0de 80bd 25b2 0f3e
00000230: 2a32 02bd 60f4 9f3d e0fc ab3d a6b8 853d
00000240: 02f2 d1bd 9b2c e1bd 780c 23bd b6ff 68bd
00000250: 3608 82bc ff22 5c3d 58af f7bd ba22 233d
00000260: 2fb4 91bd 6dd4 99bd d5b3 5ebd 9ac6 8e3c
00000270: afb6 393d 1445 813d be34 5dbd 9af2 aa3d
00000280: c485 95bd 11f0 db3d d024 e03c 91a7 013e
00000290: 7fc7 40bd 4a79 db3c 01d9 55bd d93c 8c3d
000002a0: e46f 16bd 579e d7bc 9a48 0bbe a5b0 753d
000002b0: 99ca 343c 4a11 4fbd 352e 39bd d15c 10bd
000002c0: bd65 013e 8434 983d 331a 003e 2dc4 bf3d
000002d0: de3c a33d 892a ea3d 26e2 d23d 0906 ab3c
000002e0: 6c27 d53d 7c5d 0bbd edce 093d d332 a53d
000002f0: 68cd 77bd 713a 8c3d bcc7 06bb fde1 263d
00000300: e269 253d a3c0 34bc f4d9 aa3d 0f13 103e
00000310: 7362 523d b0ba 893c 810f 043e a750 3e3c
00000320: 4841 fcbd a3f6 c63d 3f5b f23d 353a 3b3d
00000330: bba9 bdbd de2a df3c 87de 613c fe44 94bd
00000340: be4a 263d 7e74 0fbd 9e40 edbc f6ab 84bd
00000350: efaf 03bd 1a1b 50bd cbe5 d5bb b476 d2bc
00000360: a7f0 553d 2056 e93d b4ea 58bd b378 973d
00000370: 8dff 8e3d 26a2 113a 5ae2 ab3d bffc 1bbe
00000380: 1474 093e 3e04 1bbc 505c ffbc 6d7b 213d
00000390: 35dc 80bd 9af2 153d 3edf 32bc 62a3 b93b
000003a0: 5c3b dcbd 7e61 013c 2ac4 1dbe ed47 e4bd
000003b0: dc3c 9d3d a542 8fbd 5759 c13d a390 8e3d
000003c0: 538f 973d 95bb bdbc f274 eb3d 47c6 f53d
000003d0: f4e0 963d 1082 fb3d f584 e5bd 39e1 493c
000003e0: 5fba 993d a564 62bd bbc4 0e3d e28a b5bd
000003f0: e298 d63c e38b 00be de92 27be 9a31 49bd
-0.08483961 -0.086442694 -0.131061 -0.122646295 -0.0137363365 -0.102830365 -0.09458758 -0.07853811
-0.07958903 0.12534907 0.017309932 0.06644733 0.0845012 -0.065852806 0.09291854 0.06455072
0.101235695 0.12917462 0.07960734 0.13113175 0.09800178 0.020635119 0.10912773 -0.028471744
-0.085407406 -0.0021182802 -0.10888842 -0.17042539 0.101673834 0.051888157 -0.015447396 0.1210937
-0.12670118 0.02950894 -0.11928289 0.118504815 -0.034295045 0.08892723 -0.1019787 -0.008790318
-0.06910168 -0.018516267 -0.05203736 -0.04826645 0.115415424 -0.006187289 -0.07717251 0.07417407
-0.06801562 -0.09238539 -0.04504737 0.08282293 -0.11933988 0.12786096 -0.07680883 0.10869569
-0.11857329 -0.048491314 -0.057468172 0.0560339 0.045876473 0.0057422034 -0.09690509 0.13742815
0.12531058 0.1098892 0.09930232 0.16750874 -0.06576164 -0.005549202 0.015817929 -0.09759268
0.043007657 -0.1325686 0.1325892 0.039704245 -0.040168457 -0.12917593 -0.066593476 -0.087205656
0.12350172 -0.013421448 -0.08724411 -0.010050735 0.10913638 -0.117718756 0.118246146 -0.028200487
-0.057796407 -0.02519444 -0.061280902 -0.04018955 0.045469727 0.12890321 -0.05436591 -0.08727888
-0.07643982 0.01942198 -0.13502073 0.08408197 0.10812118 -0.043321274 0.000994001 0.050384365
0.04632304 -0.13223949 -0.11559488 -0.071125515 0.066338316 -0.03188313 0.100658275 0.035186
0.032652643 -0.0848214 -0.007503319 0.037849497 -0.0063207326 0.09974261 0.062081896 -0.040040504
0.008803007 0.0074882326 -0.06504779 -0.06601917 -0.11144743 0.07889625 -0.14355713 -0.032483988
-0.026641946 0.14049241 0.027840078 -0.018185431 -0.053334143 -0.042368926 0.006281441 0.123452425
-0.080631614 -0.0019748874 -0.06292462 0.140328 -0.03178612 0.07810283 0.083978415 0.065293595
-0.102512375 -0.10994836 -0.039806813 -0.05688449 -0.015873056 0.053744312 -0.12093991 0.03982804
-0.071144454 -0.0751122 -0.05437072 0.017428685 0.045340236 0.06312004 -0.054005377 0.08347054
-0.073009044 0.107391484 0.027361304 0.12661578 -0.047065254 0.026791234 -0.052208904 0.06847543
-0.0367278 -0.02632062 -0.13601914 0.059982914 0.011034631 -0.050553598 -0.045210082 -0.035244767
0.12636466 0.074318916 0.12509994 0.093635894 0.07970594 0.11433894 0.10297041 0.020876901
0.1040791 -0.0340247 0.033644605 0.080663346 -0.060498625 0.06847084 -0.0020565828 0.040742863
0.04038418 -0.011032256 0.083423525 0.1406977 0.05136342 0.016812652 0.1289654 0.011615909
-0.12317139 0.09715011 0.1183381 0.045709807 -0.09260889 0.02724212 0.013785965 -0.07239722
0.040598623 -0.035023205 -0.028961476 -0.064781114 -0.032150205 -0.050807096 -0.0065276376 -0.025691368
0.052231457 0.1139338 -0.052958205 0.073960684 0.06982336 0.0005555473 0.083927825 -0.15233134
0.13423187 -0.009461461 -0.031171948 0.03942435 -0.06292001 0.036608316 -0.010917483 0.0056652287
-0.107535094 0.007896779 -0.15406862 -0.11146531 0.07677624 -0.06995133 0.09440868 0.06961181
0.07400384 -0.023160735 0.11496915 0.12000709 0.07367125 0.12280667 -0.11207 0.012321764
0.075062506 -0.055271763 0.034855586 -0.088643804 0.026195947 -0.12553363 -0.16364619 -0.04911957
