logs/deafult/best_val_checkpoint.tar (torch, 489841 bytes, 103 tensors)

module.NodesEncoding.A1.weight f4 [50, 2]
-0.578064 0.3772401 -0.5771053 -0.573731 0.39640695 0.2570741 -0.38984823 -0.6823454
-0.21658745 0.1865998 0.34552094 -0.13512197 0.5121087 -0.23560886 0.1299687 -0.4254264
-0.08253193 0.45432293 -0.37670714 0.5686129 -0.6343562 0.14149344 0.47064823 0.67081314
0.6277773 0.6989465 0.20888272 0.061049692 0.33963874 -0.3596102 0.37550318 -0.4693673
-0.23878145 -0.4812339 0.6506815 0.32943186 -0.18188828 -0.3145917 0.1718129 -0.43627253
-0.14527655 0.323288 0.55502117 -0.39070317 -0.28526813 0.5016363 0.7062753 0.20201291
-0.70795786 -0.48378748 -0.1193275 0.57016283 -0.40921086 -0.4679782 -0.4439089 -0.22091773
0.10040287 0.5764017 -0.38678068 0.5747758 -0.29191247 -0.5968254 -0.6373869 0.67121893
-0.6986798 -0.014175627 0.06531105 0.07704347 0.08987759 0.53376585 -0.20978133 0.42847392
0.2943966 0.016081894 -0.1197186 -0.3300555 -0.5800249 0.47685823 0.35918733 0.62597954
0.33657762 -0.24906658 0.35905045 0.6592675 0.65747243 0.05829495 0.12351049 -0.401342
0.34319842 -0.29480717 0.7024469 0.50899106 0.1858874 -0.15225933 -0.28876287 0.15590744
0.6517354 0.2120429 0.13189898 -0.310262
00000000: 01fc 13bf 9d25 c13e 2cbd 13bf 09e0 12bf
00000010: daf5 ca3e 379f 833e 309a c7be 30ae 2ebf
00000020: 1ac9 5dbe 0514 3f3e 1fe8 b03e 6a5d 0abe
00000030: 8e19 033f 7343 71be 8416 053e 7dd1 d9be
00000040: 8006 a9bd 049d e83e c2df c0be 9d90 113f
00000050: 2b65 22bf a8e3 103e cef8 f03e 69ba 2b3f
00000060: 03b6 203f 28ee 323f 5ae5 553e 3e0f 7a3d
00000070: 21e5 ad3e d41e b8be f441 c03e e950 f0be
00000080: 2083 74be 4a64 f6be 1093 263f 4bab a83e
00000090: ec40 3abe 2a12 a1be b9ef 2f3e 1d5f dfbe
000000a0: 60c3 14be 0186 a53e de15 0e3f 3f0a c8be
000000b0: aa0e 92be 3d6b 003f 75ce 343f 79dc 4e3e
000000c0: ba3c 35bf feb2 f7be fa61 f4bd 31f6 113f
000000d0: 1684 d1be d79a efbe 0748 e3be 4238 62be
000000e0: 05a0 cd3d 108f 133f 1e08 c6be 8224 133f
000000f0: 8d75 95be 8dc9 18bf ca2b 23bf 01d5 2b3f
00000100: aedc 32bf e440 68bc cdc1 853d f8c8 9d3d
00000110: be11 b83d e1a4 083f ebd0 56be ef60 db3e
00000120: 27bb 963e 2dbe 833c 062f f5bd 09fd a8be
00000130: 837c 14bf c326 f43e 67e7 b73e 3240 203f
00000140: e753 ac3e 4f0b 7fbe 76d5 b73e c1c5 283f
00000150: 1d50 283f afc6 6e3d 11f3 fc3d b37c cdbe
00000160: b4b7 af3e f7f0 96be 8fd3 333f 3d4d 023f
00000170: 4459 3e3e dfe9 1bbe bad8 93be 33a6 1f3e
00000180: 22d8 263f c621 593e 8710 073e a9da 9ebe

module.NodesEncoding.A1.bias f4 [50]
0.25709608 0.56355023 0.64147556 0.24376634 -0.09635129 0.30651915 0.5792629 -0.3074608
-0.18191661 -0.2833476 0.006434857 0.4557213 0.35815048 0.7054788 -0.54597425 0.3066144
-0.33485565 0.6209781 0.076384 -0.27802196 -0.4507464 -0.47134122 -0.24428765 -0.42430356
0.34924734 -0.24043928 -0.52742904 0.037508134 -0.12790509 0.3975765 -0.3527807 -0.1205521
-0.36372432 -0.37741643 -0.1891102 0.44980124 -0.034030072 -0.28347003 0.041932058 0.5122646
0.6208541 0.016209427 0.6995159 0.16137147 0.498232 0.6986214 -0.46301168 0.2657101
-0.04039289 0.1807428
00000000: 19a2 833e d444 103f be37 243f e29d 793e
00000010: d353 c5bd 14f0 9c3e 934a 143f 816b 9dbe
00000020: 5948 3abe f012 91be 7edb d23b 4d54 e93e
00000030: 805f b73e 429a 343f f8c4 0bbf 90fc 9c3e
00000040: 3372 abbe 6cf8 1e3f 376f 9c3d e558 8ebe
00000050: 3bc8 e6be a353 f1be 8b26 7abe 513e d9be
00000060: 8cd0 b23e b735 76be 9705 07bf 21a2 193d
00000070: 8df9 02be 268f cb3e ac9f b4be 05e4 f6bd
00000080: 133a babe ba3c c1be 1ba6 41be 594c e63e
00000090: 1e63 0bbd fc22 91be f3c0 2b3d c623 033f
000000a0: 4bf0 1e3f a2c9 843c 7913 333f 903e 253e
000000b0: 4418 ff3e dad8 323f de0f edbe 270b 883e
000000c0: 0473 25bd a414 393e

module.EdgesEncoding.A2.weight f4 [25, 1]
0.08217739 -0.7350137 0.9408769 -0.64917505 -1.0038576 -0.8378832 0.28230846 -0.05886134
0.62216663 -0.13405818 0.02609767 0.58909774 0.8537402 0.07242148 -0.27993315 0.8196317
0.69615066 0.5740244 0.097972296 0.4637918 0.71919346 0.9034369 0.1570435 -0.39186868
0.3723052
00000000: 9f4c a83d dc29 3cbf 4fdd 703f 5630 26bf
00000010: 687e 80bf 837f 56bf bc8a 903e 9718 71bd
00000020: 5046 1f3f 8c46 09be c8ca d53c 1ccf 163f
00000030: b88e 5a3f b751 943d 6653 8fbe 62d3 513f
00000040: ee36 323f 43f3 123f b3a5 c83d 1e76 ed3e
00000050: 101d 383f a447 673f 03d0 203e 03a3 c8be
00000060: ca9e be3e

module.EdgesEncoding.A2.bias f4 [25]
-0.1454876 0.057389237 -0.9001581 -0.18501589 0.60935163 0.57613117 -0.20659365 0.086442895
-0.7353188 0.15178668 -0.45519647 0.73246425 -0.1948699 -0.12826942 0.3162814 0.71443015
0.75717044 -0.30756775 0.60734403 0.14787075 0.16988178 -0.3147806 0.42073599 0.16002166
0.4045178
00000000: b4fa 14be fa10 6b3d c370 66bf ce74 3dbe
00000010: 78fe 1b3f 557d 133f 498d 53be f908 b13d
00000020: da3d 3cbf f86d 1b3e 830f e9be c782 3b3f
00000030: fa8b 47be 0f59 03be a3ef a13e e5e4 363f
00000040: ecd5 413f 8579 9dbe e67a 1b3f 6e6b 173e
00000050: 7df5 2d3e ec2a a1be b56a d73e b8dc 233e
00000060: f51c cf3e

module.EdgesEncoding.A3.weight f4 [25, 1]
-0.44629148 0.049702495 -0.9222106 0.063217446 -0.8988596 0.19043854 -0.12008489 -0.5441655
0.8826981 -0.04352675 0.19080245 -0.07154254 0.6577362 0.40013602 0.01699006 -0.33201212
0.64064634 0.25778762 0.22368525 -0.2262405 -0.676501 -0.042513374 0.35266837 -0.4366839
0.38587594
00000000: 5180 e4be d894 4b3d fe15 6cbf 2678 813d
00000010: aa1b 66bf 5202 433e 11ef f5bd 6e4e 0bbf
00000020: 81f8 613f 1b49 32bd b861 433e e584 92bd
00000030: 6661 283f a1de cc3e bd2e 8b3c 7efd a9be
00000040: 6601 243f bdfc 833e bf0d 653e 97ab 67be
00000050: 2b2f 2dbf 8122 2ebd f390 b43e 0895 dfbe
00000060: 8891 c53e

module.EdgesEncoding.A3.bias f4 [25]
0.6472873 0.67583007 -0.13684268 0.2790553 -0.30143628 -0.30849925 0.6448632 -0.8248228
0.6338619 -0.24815989 -0.9384285 0.70858055 0.88636166 -0.7408798 0.2448241 -0.5184022
-0.25232193 -0.98645884 -0.31095532 0.23883012 0.9995226 0.18226115 -0.8051211 -0.7579873
-0.25328216
00000000: 9fb4 253f 3303 2d3f 7d20 0cbe 56e0 8e3e
00000010: db55 9abe 9df3 9dbe c115 253f 9627 53bf
00000020: c644 223f a01d 7ebe da3c 70bf 8965 353f
00000030: 99e8 623f 4caa 3dbf 2bb3 7a3e 02b6 04bf
00000040: 5730 81be 9188 7cbf 8935 9fbe e28f 743e
00000050: b7e0 7f3f aba2 3a3e 6b1c 4ebf 750b 42bf
00000060: 33ae 81be

module.gcn_layers.0.bnNodes.W1.weight f4 [50, 50]
0.1426838 0.014180541 -0.047797512 0.0009194137 0.11389604 -0.076134056 -0.1221061 -0.14269109
0.06804951 0.10771051 0.14530854 -0.10439993 -0.025027307 0.021999301 0.067417026 -0.0038091566
-0.12888478 -0.097217344 0.06925788 0.035213448 0.12369529 0.059067406 -0.025933508 -0.09722349
-0.009385664 -0.05541767 0.024292594 -0.094836354 -0.076015994 -0.03482991 0.13963138 -0.0701985
-0.08800908 0.071618855 -0.05447454 -0.112146534 -0.032673106 -0.0327997 0.030926121 0.063050516
0.04140421 0.029709758 0.074614085 0.07094834 0.12694693 -0.13679984 0.040304866 -0.08719875
-0.059953235 -0.08712759 -0.0046328683 -0.11458634 0.13350776 -0.04784074 -0.008797296 0.033607997
0.027877007 0.07423966 -0.11068915 -0.09622211 0.08037504 0.028625987 0.12123569 0.13133575
-0.013605607 -0.02183108 -0.08857168 -0.12700965 -0.13350427 -0.08305246 0.03347479 -0.12210019
0.056933697 0.006217079 -0.015317406 0.036852106 0.1175247 0.017358443 -0.13648875 -0.030253636
-0.08687546 0.018350214 0.096764304 0.09634251 0.06825518 -0.070004165 -0.09529902 0.12281095
-0.07986865 0.13638368 0.114167266 0.11767567 -0.038338806 -0.038128667 -0.14269018 -0.13646406
-0.07025552 0.014333078 0.13096699 -0.052710123 -0.11549942 -0.04163089 -0.0096680755 0.03469901
-0.019848507 0.045394488 0.07883056 -0.12304147 -0.059061155 -0.12085046 0.044824105 -0.04579959
0.06011899 -0.05527083 0.07326507 0.089570515 0.11228079 -0.016174572 -0.009202737 -0.048989695
-0.13623387 -0.10527053 -0.09976313 0.026221456 -0.074840136 0.14141764 -0.113003075 0.12426738
-0.11011222 -0.05955828 0.04828705 -0.032369282 -0.07368135 0.0033647867 0.070812635 0.118656315
0.12150657 -0.12442894 0.03852962 0.01419691 -0.041597426 -0.09935167 0.04612596 0.079227716
-0.1121978 -0.05556824 -0.04631434 0.07065767 -0.08570915 -0.109511346 -0.117621556 -0.09321196
0.09442994 -0.024771946 0.00011572923 -0.08104577 0.026114048 0.05460218 -0.05838247 0.11916253
0.05920402 -0.08811951 0.016570633 0.09914469 0.07186833 -0.08640541 0.06789314 0.038081955
0.13281761 -0.0630471 0.036072485 0.123860374 0.0934876 0.020089045 0.07524234 0.0943771
-0.016486201 -0.06351816 0.12965305 -0.005441253 0.02800714 -0.022845313 -0.10970221 0.12751032
-0.12965928 -0.10106719 0.029539742 -0.0036113258 -0.07195659 0.10536913 -0.10080787 0.051321905
-0.079142496 0.11192901 -0.13431662 0.052433386 0.07355963 0.11911499 -0.13290818 -0.075282365
0.025929678 -0.041733265 -0.12632032 -0.102173865 -0.1157655 0.10453193 -0.00032732496 -0.13234597
-0.13283113 -0.050109006 0.017396875 -0.042396143 -0.0024845009 -0.08188565 -0.059542257 -0.08759025
0.10943634 -0.043985963 -0.008569888 0.1037958 -0.047438707 -0.031326 0.06551261 0.13308746
-0.00042449986 0.025518138 -0.10679991 0.10835619 -0.06825909 0.09669462 -0.1229029 -0.06728528
-0.11521889 0.07963584 -0.03203701 -0.07987245 -0.08347853 0.05541217 -0.047760263 0.053991973
0.07209806 0.042881504 -0.0633021 0.13896401 -0.10684819 0.043912232 0.1313409 -0.07655929
-0.019653859 0.090378225 -0.03865028 -0.13177812 0.082400806 0.021327153 0.0022270593 0.12104511
00000000: b41b 123e 8055 683c 53c7 43bd cf04 713a
00000010: 5442 e93d 2cec 9bbd c312 fabd 9d1d 12be
00000020: 8b5d 8b3d 5497 dc3d c3cb 143e a1cf d5bd
00000030: 1106 cdbc e137 b43c f011 8a3d 0ba3 79bb
00000040: 5ffa 03be e319 c7bd 13d7 8d3d fa3b 103d
00000050: f553 fd3d aaf0 713d 8272 d4bc 1c1d c7bd
00000060: 54c6 19bc a4fd 62bd 4301 c73c 9039 c2bd
00000070: 46ae 9bbd cfa9 0ebd 87fb 0e3e 3bc4 8fbd
00000080: 1b3e b4bd e8ac 923d b220 5fbd 15ad e5bd
00000090: 3cd4 05bd fa58 06bd c758 fd3c a120 813d
000000a0: 7697 293d e161 f33c 45cf 983d 5d4d 913d
000000b0: 60fe 013e 4215 0cbe b716 253d 4295 b2bd
000000c0: 8691 75bd f36f b2bd 51cf 97bb 3eac eabd
000000d0: 42b6 083e a7f4 43bd 8922 10bc 8aa8 093d
000000e0: 525e e43c f60a 983d feb0 e2bd 1910 c5bd
000000f0: ab9b a43d 0c81 ea3c 6b4a f83d e17c 063e
00000100: 0dea 5ebc 18d7 b2bc 1265 b5bd d10e 02be
00000110: 58b5 08be 6817 aabd dd1c 093d aa0f fabd
00000120: 4f33 693d a3b8 cb3b dbf5 7abc 3cf2 163d
00000130: cab0 f03d 4b33 8e3c b5c3 0bbe 79d6 f7bc
00000140: c3eb b1bd 3053 963c 5d2c c63d 394f c53d
00000150: 5fc9 8b3d 585e 8fbd 222c c3bd 4f84 fb3d
00000160: 2d92 a3bd 2aa8 0b3e 87d0 e93d f1ff f03d
00000170: 2709 1dbd ce2c 1cbd 601d 12be 3cbd 0bbe
00000180: 20e2 8fbd 49d5 6a3c 361c 063e 92e6 57bd
00000190: f68a ecbd 2785 2abd d966 1ebc 8d20 0e3d
000001a0: 5699 a2bc 92ef 393d eb71 a13d 2bfd fbbd
000001b0: 1cea 71bd 7280 f7bd 7b99 373d 5a98 3bbd
000001c0: 543f 763d aa63 62bd ff0b 963d bf70 b73d
000001d0: 79f3 e53d 8980 84bc 14c7 16bc 6ba9 48bd
000001e0: e480 0bbe 1398 d7bd 9d50 ccbd 61ce d63c
000001f0: c945 99bd c9cf 103e 286e e7bd e57f fe3d
00000200: 8482 e1bd 62f3 73bd a4c8 453d a795 04bd
00000210: 3fe6 96bd c183 5c3b 3706 913d 1502 f33d
00000220: 70d8 f83d 9ad4 febd 3cd1 1d3d 289a 683c
00000230: 1062 2abd e378 cbbd 93ee 3c3d 2442 a23d
00000240: f6c7 e5bd 869b 63bd 1bb4 3dbd f8b4 903d
00000250: 4788 afbd 7c47 e0bd 92e3 f0bd e9e5 bebd
00000260: 7c64 c13d 89ee cabc a8b3 f238 53fb a5bd
00000270: 21ed d53c 89a6 5f3d 7522 6fbd 7c0b f43d
00000280: ea7f 723d 0078 b4bd 23bf 873c 5f0c cb3d
00000290: b42f 933d 52f5 b0bd 8f0b 8b3d d3fb 1b3d
000002a0: 5701 083e d71e 81bd bec0 133d 82aa fd3d
000002b0: 6d76 bf3d c891 a43c a818 9a3d c848 c13d
000002c0: 120e 87bc cf15 82bd c5c3 043e 8a4c b2bb
000002d0: 3b6f e53c 1826 bbbc 8dab e0bd 1192 023e
000002e0: 67c5 04be 51fc cebd 54fd f13c feab 6cbb
000002f0: fa5d 93bd c5cb d73d 5b74 cebd eb36 523d
00000300: 7615 a2bd 093b e53d 4c8a 09be 64c4 563d
00000310: 6ea6 963d 8ff2 f33d 1519 08be a42d 9abd
00000320: 7a6a d43c 80f0 2abd 1d5a 01be 8840 d1bd
00000330: 7616 edbd d614 d63d d09c abb9 b485 07be
00000340: e204 08be 1a3f 4dbd e483 8e3c 94a7 2dbd
00000350: 02d3 22bb aab3 a7bd 95e2 73bd 8462 b3bd
00000360: 2920 e03d a02a 34bd b768 0cbc e492 d43d
00000370: 174f 42bd b14f 00bd 7a2b 863d 1448 083e
00000380: 688f deb9 6a0b d13c e9b9 dabd dae9 dd3d
00000390: 6ccb 8bbd d407 c63d 84b4 fbbd ddcc 89bd
000003a0: e2f7 ebbd 1e18 a33d 3d39 03bd 2b94 a3bd
000003b0: cbf6 aabd dff7 623d 44a0 43bd b026 5d3d
000003c0: 26a8 933d 84a4 2f3d 88a4 81bd 954c 0e3e
000003d0: 39d3 dabd 50dd 333d 3b7e 063e 1ecb 9cbd
000003e0: 2101 a1bc 3818 b93d c24f 1ebd d8f0 06be
000003f0: c1c1 a83d 48b6 ae3c dbf3 113b 80e6 f73d

module.gcn_layers.0.bnNodes.W2.weight f4 [50, 50]
-0.09973719 0.10849209 -0.025501862 0.1314623 -0.09577381 0.04279637 -0.009565718 -0.026976205
0.11101021 -0.019935811 0.012320165 -0.101643026 -0.121457845 0.14177534 -0.0387474 0.056186404
-0.012132909 -0.104334556 0.12766258 0.010505025 0.06706845 0.036716606 -0.11183662 -0.04188227
0.08937168 -0.06524496 -0.08211574 -0.102969505 -0.0040173098 0.039767552 -0.12261238 0.07413385
-0.06381807 0.03970806 -0.07524985 0.12660503 -0.09470542 0.050697595 -0.08249002 -0.015017471
0.11392725 0.0742229 -0.04825031 0.06358173 -0.04531797 -0.06749622 -0.02822626 0.11327616
0.079908505 -0.11994968 0.10864716 0.008451361 0.12278832 0.013140734 -0.026951592 -0.072943635
-0.032855384 -0.04145779 0.046036653 -0.07326814 -0.13533692 -0.09278482 0.093843 0.014917263
-0.01696665 -0.014283537 0.13994046 0.07487376 0.0005918392 0.10936212 0.12742513 0.13882433
-0.0016841552 0.083093606 -0.039207406 0.028364884 0.1276973 -0.1244904 -0.021454284 0.11195209
-0.11140963 -0.027118864 -0.04680728 0.06740527 -0.0032132883 -0.14297213 -0.105992734 0.07893829
-0.0002864779 0.1285163 0.019466864 0.10931481 0.05773927 -0.121399015 0.09998152 0.023450548
-0.048319735 0.03861067 -0.060524374 -0.043019805 -0.031948756 0.0830983 -0.120712444 -0.07444785
0.12895276 0.11246657 0.14456028 -0.04652733 -0.031567473 -0.14453195 -0.12086073 0.015601894
-0.00471936 -0.026069453 -0.052448604 -0.0779597 0.09436065 0.054317318 -0.016941786 0.14415804
-0.00569137 0.11837903 -0.01992033 -0.040804207 -0.11398296 -0.086184114 -0.076607764 -0.07356152
0.12782161 -0.14295724 0.12273664 -0.09941556 -0.14716075 0.058540817 -0.110561006 -0.060824107
0.056901667 -0.059610423 0.02522132 0.090229705 0.001278528 -0.07195898 -0.070230104 0.035298705
-0.058459226 -0.062135484 0.07884493 0.0018011257 0.06130718 0.07618325 -0.13712303 0.014855179
0.015525185 0.0036684126 -0.0016064901 -0.030197946 -0.12333886 0.112609945 -0.012852848 -0.02741086
0.11901341 -0.0609343 -0.08091423 -0.024239494 -0.09648189 -0.07491136 -0.053660903 0.13310729
-0.030163482 -0.12962632 -0.02244884 -0.06256528 -0.09568936 -0.054027162 -0.13270758 -0.06007762
-0.12226804 -0.052030087 -0.1402773 0.020614345 0.028761372 -0.07733496 -0.0033096608 -0.09759127
-0.116388 -0.0004137447 -0.033309124 -0.11462406 0.07898322 0.029570377 -0.14513184 -0.10708346
0.060195904 0.025191633 0.08684657 -0.00040129057 0.0044660578 -0.06785652 -0.06393865 -0.10512718
0.049924925 0.118098214 0.047934104 -0.028810922 0.016163047 -0.14760742 -0.026059095 0.12199563
-0.024400737 0.00628432 0.14143585 0.10145119 -0.0214605 -0.14199558 0.12259974 0.059938356
0.0003326655 0.115723856 0.055551473 -0.016895851 0.122741364 0.028016597 0.07609302 -0.004460907
0.075571194 -0.0326659 0.038183406 -0.13667169 0.09652946 0.028857782 0.083398014 -0.08253587
-0.0020735818 0.025049156 -0.018184239 -0.04017502 0.058767743 0.034210138 -0.13048406 0.018124225
0.08682491 0.11162091 0.0918056 0.08447404 -0.0039540813 -0.12477062 -0.093577914 0.035694625
-0.050625857 -0.06282698 -0.031317804 0.06672147 -0.05127318 -0.07516666 -0.0072013964 0.14647326
00000000: 0343 ccbd 1a31 de3d 48e9 d0bc 0e9e 063e
00000010: 0f25 c4bd 3f4b 2f3d 87b9 1cbc 34fd dcbc
00000020: 5259 e33d 6d50 a3bc 84da 493c 382a d0bd
00000030: e4be f8bd 8e2d 113e 98b5 1ebd b723 663d
00000040: 1cc9 46bc 5bad d5bd fbb9 023e 451d 2c3c
00000050: 2f5b 893d 2764 163d 990a e5bd be8c 2bbd
00000060: 8008 b73d 269f 85bd 4c2c a8bd ade1 d2bd
00000070: a3a3 83bb 4de3 223d 331c fbbd 7dd3 973d
00000080: 0cb3 82bd eba4 223d 981c 9abd c0a4 013e
00000090: eaf4 c1bd 48a8 4f3d 87f0 a8bd d70b 76bc
000000a0: b152 e93d 2d02 983d 1ea2 45bd 2337 823d
000000b0: 569f 39bd 753b 8abd c23a e7bc 55fd e73d
000000c0: 12a7 a33d 2ea8 f5bd 6782 de3d 9477 0a3c
000000d0: 7178 fb3d 3c4c 573c 96c9 dcbc 7963 95bd
000000e0: 5e93 06bd a5cf 29bd ee90 3c3d 9b0d 96bd
000000f0: c395 0abe f805 bebd c230 c03d 8967 743c
00000100: a5fd 8abc 7f05 6abc 8d4c 0f3e 6a57 993d
00000110: a825 1b3a 3ff9 df3d bc7b 023e f727 0e3e
00000120: dfbe dcba fb2c aa3d f297 20bd 795d e83c
00000130: 15c3 023e d3f4 febd e5c0 afbc 2347 e53d
00000140: bb2a e4bd 6128 debc feb8 3fbd c60b 8a3d
00000150: 0896 52bb 4967 12be b812 d9bd 66aa a13d
00000160: 6a32 96b9 c799 033e f978 9f3c 71e0 df3d
00000170: 0380 6c3d 0ca0 f8bd 1cc3 cc3d 5d1b c03c
00000180: eaea 45bd 3926 1e3d 68e8 77bd 8935 30bd
00000190: b3dc 02bd 712f aa3d 1638 f7bd 1d78 98bd
000001a0: 310c 043e e054 e63d 9c07 143e 7193 3ebd
000001b0: e54c 01bd 2f00 14be d585 f7bd 169f 7f3c
000001c0: dca4 9abb 9b8f d5bc 59d4 56bd 56a9 9fbd
000001d0: 2840 c13d d67b 5e3d 80c9 8abc 2a9e 133e
000001e0: ac7e babb b470 f23d f62f a3bc 5022 27bd
000001f0: e66f e9bd 4c81 b0bd 88e4 9cbd 6ca7 96bd
00000200: abe3 023e 6263 12be 595d fb3d 639a cbbd
00000210: 4fb1 16be 7fc8 6f3d cf6d e2bd b322 79bd
00000220: b911 693d 0f2a 74bd f19c ce3c 5aca b83d
00000230: 4894 a73a 3b5f 93bd cdd4 8fbd 6095 103d
00000240: f172 6fbd c781 7ebd 7379 a13d c013 ec3a
00000250: 3d1d 7b3d f705 9c3d fb69 0cbe 2363 733c
00000260: 585d 7e3c c069 703b dd90 d2ba af61 f7bc
00000270: 1699 fcbd 0ba0 e63d c094 52bc bd8c e0bc
00000280: 4dbd f33d 3f96 79bd 5cb6 a5bd e791 c6bc
00000290: 4c98 c5bd 216b 99bd 89cb 5bbd 474d 083e
000002a0: 6819 f7bc c3bc 04be a1e6 b7bc 3a22 80bd
000002b0: c8f8 c3bd 964b 5dbd 7fe4 07be f313 76bd
000002c0: ab67 fabd 801d 55bd daa4 0fbe 6adf a83c
000002d0: f89c eb3c cb61 9ebd e5e6 58bb efdd c7bd
000002e0: d55c eebd e0eb d8b9 266f 08bd 05c0 eabd
000002f0: f4c1 a13d 933d f23c 719d 14be 934e dbbd
00000300: fb8f 763d af5e ce3c 9ddc b13d 4f64 d2b9
00000310: 0258 923b 5cf8 8abd 44f2 82bd eb4c d7bd
00000320: 147e 4c3d 7add f13d 8d56 443d e204 ecbc
00000330: 5e68 843c 6626 17be e279 d5bc d8d8 f93d
00000340: 0ee4 c7bc b2ec cd3b 8fd4 103e a4c5 cf3d
00000350: eecd afbc 4a67 11be 9315 fb3d ec81 753d
00000360: 9c69 ae39 a100 ed3d f189 633d 2b69 8abc
00000370: d35f fb3d 1083 e53c a8d6 9b3d cd2c 92bb
00000380: 12c5 9a3d aecc 05bd 3466 1c3d aaf3 0bbe
00000390: 3db1 c53d 2867 ec3c 94cc aa3d 9108 a9bd
000003a0: eee4 07bb e333 cd3c 1df7 94bc 908e 24bd
000003b0: 72b6 703d ee1f 0c3d 9d9d 05be 4179 943c
000003c0: 42d1 b13d 8199 e43d 9304 bc3d ba00 ad3d
000003d0: 3d91 81bb bd87 ffbd c7a5 bfbd 8734 123d
000003e0: 0f5d 4fbd 6fab 80bd 1947 00bd 44a5 883d
000003f0: d303 52bd faf0 99bd b1f9 ebbb 16fd 153e

module.gcn_layers.0.bnNodes.batch_norm.weight f4 [50]
0.9962947 0.99480283 0.9912901 0.99137056 1.0076284 1.0078098 0.9950605 0.9926254
0.9917026 1.0036286 0.9931173 1.00683 1.0047169 0.9986293 1.0035893 1.001394
1.0048823 1.0008024 0.9959756 0.9948052 0.9926499 1.0077894 0.99793553 0.9963935
1.0035322 0.9935924 1.0079157 0.9920172 1.0061878 0.9989026 1.0042189 1.0008833
1.0077431 1.0040903 1.0049999 0.9967982 1.0087698 0.9983137 0.99866223 0.99588066
1.0083159 0.9954852 0.9965481 0.99027354 0.99087346 1.0043315 0.9903715 0.9913059
0.99449986 0.9918296
00000000: 2b0d 7f3f 66ab 7e3f 30c5 7d3f 76ca 7d3f
00000010: f8f9 803f e9ff 803f 49bc 7e3f b31c 7e3f
00000020: 39e0 7d3f e776 803f ef3c 7e3f cedf 803f
00000030: 909a 803f 2ba6 7f3f 9d75 803f ae2d 803f
00000040: fc9f 803f 4b1a 803f 42f8 7e3f 8eab 7e3f
00000050: 4e1e 7e3f 3eff 803f b478 7f3f a513 7f3f
00000060: be73 803f 125c 7e3f 6203 813f d7f4 7d3f
00000070: c3ca 803f 15b8 7f3f 3f8a 803f f21c 803f
00000080: bafd 803f 0886 803f d6a3 803f 2b2e 7f3f
00000090: 5e1f 813f 7d91 7f3f 54a8 7f3f 09f2 7e3f
000000a0: 7f10 813f 1ed8 7e3f c71d 7f3f 9182 7d3f
000000b0: e2a9 7d3f ef8d 803f fd88 7d3f 39c6 7d3f
000000c0: 8b97 7e3f 8be8 7d3f

module.gcn_layers.0.bnNodes.batch_norm.bias f4 [50]
-0.0046428144 -0.008286333 -0.006223051 -0.00649867 0.007994368 0.008062527 -0.00317015 -0.0073370333
-0.008755477 0.0054303403 -0.0072212256 0.0067383633 0.00015088364 0.0010830676 -0.0024547519 -0.00025048899
0.00390921 0.0018071856 -0.0050124587 0.0025465465 -0.0043641264 0.008002547 0.0033530728 0.0021138703
0.002060316 -0.0052728117 0.007925099 -0.0076367767 0.0052068625 -0.0031722235 0.006177226 0.0029659208
0.007702543 0.0041663917 0.0026678129 -0.0031390348 0.009751695 0.0022469733 -0.0014055141 -0.005048803
0.008586663 -0.0038470617 -0.0030184602 -0.008119586 -0.0042852405 -0.00031909806 -0.004984026 -0.0090374835
-0.006322026 -0.008197192
00000000: c022 98bb 66c3 07bc bcea cbbb ccf2 d4bb
00000010: cffa 023c b018 043c 4bc2 4fbb 7f6b f0bb
00000020: 2273 0fbc fff0 b13b 08a0 ecbb 7dcd dc3b
00000030: 8536 1e39 b8f5 8d3a e7df 20bb 1054 83b9
00000040: d518 803b 16df ec3a 8d3f a4bb f6e3 263b
00000050: f200 8fbb 1d1d 033c 3abf 5b3b dc88 0a3b
00000060: 5e06 073b 8dc7 acbb 46d8 013c ed3d fabb
00000070: 549e aa3b 14e5 4fbb 546a ca3b e55f 423b
00000080: 9d65 fc3b 3a86 883b 79d6 2e3b 44b8 4dbb
00000090: 93c5 1f3c f541 133b 3a39 b8ba 6e70 a5bb
000000a0: 13af 0c3c fc1e 7cbb 5cd1 45bb 0308 05bc
000000b0: 346b 8cbb 9e4c a7b9 0a51 a3bb f411 14bc
000000c0: ff28 cfbb 844d 06bc

module.gcn_layers.0.bnEdges.W3.weight f4 [50, 50]
0.023782417 0.048606664 -0.02434959 0.024413073 0.011567777 -0.063228734 0.019486485 0.08141517
0.040326044 0.1228621 0.106876664 -0.025678342 0.016073588 0.075888306 -0.06653554 -0.06083793
-0.14021276 -0.08955768 -0.0117725395 -0.12914035 0.13171576 -0.0043038335 0.06081152 0.0886794
-0.1396765 -0.08615037 -0.045902092 0.017203774 -0.10434078 -0.10575803 -0.0075981803 0.04206867
-0.11753295 0.03718699 -0.05984959 -0.0118232975 0.005449146 -0.06805633 -0.036103632 -0.08607561
0.09074594 -0.09865211 -0.061782256 -0.12212224 0.102643415 -0.07480531 -0.08298096 -0.10289671
0.05588194 -0.09057188 0.112721495 -0.040111814 -0.12114439 -0.07466324 -0.03861657 -0.0723025
0.01574136 -0.06691046 0.020180855 -0.047905628 -0.03907067 0.07409587 0.008418871 0.14403218
-0.11973244 -0.040836893 0.13136667 -0.122533254 -0.07116473 -0.03613034 -0.12679163 0.10503361
-0.10650992 0.045321837 0.047732648 0.04422627 0.12799048 0.041195992 0.08797979 -0.006478626
0.01632433 -0.07915326 -0.14781442 0.14681637 0.008108498 -0.09650745 0.05113525 0.123755276
0.053288486 0.03163387 0.105373755 0.12562044 0.12478367 0.02039229 -0.126324 -0.049527615
0.113930136 0.06296858 -0.053553335 0.0132363355 -0.09194396 -0.023280697 0.12446207 0.02053737
-0.034446266 -0.01358438 -0.11262607 0.08009895 -0.12516887 -0.082404755 0.0049537234 0.05687387
0.06339797 -0.012026979 0.11099268 -0.14205104 -0.106394574 -0.04697001 0.10397831 0.06428815
-0.12679276 -0.12837923 -0.13758172 -0.12807514 0.09931924 -0.005513879 -0.008528735 -0.009317294
-0.06699433 0.08155855 -0.030857285 0.09949041 -0.12413618 -0.086616 0.08779555 0.016300803
-0.1324033 0.042839423 -0.012031641 -0.05411161 0.12986663 -0.10299384 0.060945127 -0.049765237
0.050867286 -0.12747735 -0.06235123 0.04058167 -0.08408016 0.036519576 0.10187636 -0.074652456
0.05361445 0.053736042 0.018420605 -0.09181618 -0.041727886 -0.02134385 0.0009323862 -0.111953944
0.10825178 0.034605034 -0.03766809 0.06158513 -0.013526538 0.074394226 0.13400286 -0.03404262
-0.047634136 0.09199103 -0.038155604 0.105719045 0.0034020795 -0.07081847 0.13072728 -0.01534799
0.103173904 0.06400621 -0.13327794 0.026228093 0.10546155 0.100144744 0.14222753 -0.120184645
0.07327505 -0.13179946 -0.12828536 -0.077089414 -0.035767745 0.04658992 -0.07752585 -0.04543815
-0.12146339 0.04875627 0.006943595 0.013334307 0.04838343 -0.0061406507 0.08607052 -0.08531532
0.042009782 0.12514006 0.062760845 0.0041814707 -0.105463415 0.13469423 -0.11407415 0.14965461
0.043185517 0.1264268 0.08144968 0.09454161 -0.12946928 -0.07911536 -0.06309779 0.05401774
-0.048813965 -0.02052653 -0.1477324 0.06171255 -0.06939232 0.075382985 -0.07057487 0.14443238
-0.001416256 0.011232468 0.030158823 -0.13444932 -0.0033511703 0.078588046 -0.014878377 0.0068995333
0.09659503 0.12975812 -0.138473 0.08440487 0.026657078 0.042968154 -0.042420253 -0.073073894
-0.09642947 -0.01795616 0.023723012 -0.060975034 0.067049384 0.12995642 0.040099528 0.09686175
0.09284194 -0.044537697 0.12227249 -0.09226593 -0.11348623 -0.0052522966 -0.05860817 0.03517279
00000000: 58d3 c23c c817 473d cb78 c7bc edfd c73c
00000010: c686 3d3c 117e 81bd 1fa2 9f3c ffbc a63d
00000020: ec2c 253d 209f fb3d 27e2 da3d 635b d2bc
00000030: c2ac 833c 546b 9b3d c943 88bd 3131 79bd
00000040: ef93 0fbe 046a b7bd 9ce1 40bc 5e3d 04be
00000050: 7fe0 063e 2c07 8dbb 8015 793d 8c9d b53d
00000060: 5b07 0fbe 9b6f b0bd d503 3cbd eeee 8c3c
00000070: 9eb0 d5bd ab97 d8bd 28fa f8bb 3350 2c3d
00000080: 1eb5 f0bd 6351 183d d824 75bd 81b6 41bc
00000090: c08e b23b 1e61 8bbd 67e1 13bd 6948 b0bd
000000a0: 02d9 b93d 1e0a cabd 640f 7dbd 3a1b fabd
000000b0: b636 d23d 8733 99bd ecf1 a9bd 83bb d2bd
000000c0: 76e4 643d c07d b9bd 87da e63d 494c 24bd
000000d0: 8d1a f8bd 0ae9 98bd 692c 1ebd 5513 94bd
000000e0: 06f4 803c 5a08 89bd 5252 a53c b138 44bd
000000f0: 9108 20bd 93bf 973d 4eef 093c 2c7d 133e
00000100: 4836 f5bd 9644 27bd fc84 063e b7f2 fabd
00000110: d0be 91bd 68fd 13bd aad5 01be dc1b d73d
00000120: df21 dabd 64a3 393d 4f83 433d 9b26 353d
00000130: f00f 033e 21bd 283d c02e b43d a74a d4bb
00000140: 9aba 853c 1b1b a2bd aa5c 17be 0857 163e
00000150: 81d9 043c b3a5 c5bd 3273 513d 6873 fd3d
00000160: 0745 5a3d 8492 013d 32ce d73d a5a2 003e
00000170: 958e ff3d bb0d a73c 145b 01be 78dd 4abd
00000180: 3454 e93d acf5 803d be5a 5bbd 37dd 583c
00000190: 1d4d bcbd 29b7 bebc f8e5 fe3d fd3d a83c
000001a0: 8717 0dbd 0591 5ebc 7fa8 e6bd eb0a a43d
000001b0: 452c 00be d3c3 a8bd d852 a23b 93f4 683d
000001c0: cbd6 813d ce0c 45bc 2150 e33d d475 11be
000001d0: 66e5 d9bd a063 40bd 95f2 d43d 81a9 833d
000001e0: f6d5 01be d875 03be 39e2 0cbe 2126 03be
000001f0: e367 cb3d c5ad b4bb 1bbc 0bbc 90a7 18bc
00000200: 5334 89bd 2b08 a73d 6bc8 fcbc a1c1 cb3d
00000210: 1c3b febd bb63 b1bd 27ce b33d 4389 853c
00000220: bb94 07be 6478 2f3d 5c20 45bc 23a4 5dbd
00000230: c2fb 043e 6fee d2bd 99a1 793d a2d6 4bbd
00000240: 375a 503d 6c89 02be 0164 7fbd f738 263d
00000250: 3832 acbd 8d95 153d 8ea4 d03d 63e3 98bd
00000260: d39a 5b3d 531a 5c3d cfe6 963c 1f0a bcbd
00000270: dcea 2abd 4cd9 aebc 616b 743a 1c48 e5bd
00000280: 1cb3 dd3d 02be 0d3d db49 1abd b040 7c3d
00000290: 6a9e 5dbc 005c 983d 0c38 093e 4670 0bbd
000002a0: 031c 43bd cb65 bc3d 0d49 1cbd 3a83 d83d
000002b0: 6cf5 5e3b 4609 91bd 5fdd 053e 2376 7bbc
000002c0: d74c d33d b015 833d 037a 08be 4cdc d63c
000002d0: 3afc d73d b018 cd3d 18a4 113e 5e23 f6bd
000002e0: 3b11 963d 70f6 06be 3d5d 03be 0ee1 9dbd
000002f0: 3381 12bd 12d5 3e3d dfc5 9ebd 5b1d 3abd
00000300: ccc1 f8bd a8b4 473d 1987 e33b 2378 5a3c
00000310: b42d 463d 8337 c9bb be45 b03d ccb9 aebd
00000320: 7312 2c3d b724 003e c288 803d b804 893b
00000330: 34fd d7bd 49ed 093e b59f e9bd 0f3f 193e
00000340: 4ce3 303d 0776 013e 17cf a63d 089f c13d
00000350: 9893 04be 3c07 a2bd 6a39 81bd b541 5d3d
00000360: 27f1 47bd 4127 a8bc 2a47 17be 4dc6 7c3d
00000370: 901d 8ebd 6562 9a3d 8f89 90bd 15e6 133e
00000380: aaa1 b9ba 6308 383c a30f f73c 15ad 09be
00000390: 4f9f 5bbb c5f2 a03d 70c4 73bc 7b15 e23b
000003a0: 9dd3 c53d 50df 043e decb 0dbe 76dc ac3d
000003b0: f25f da3c 60ff 2f3d dcc0 2dbd c4a7 95bd
000003c0: d07c c5bd cc18 93bc c356 c23c f5c0 79bd
000003d0: 3051 893d 4c13 053e 673f 243d 745f c63d
000003e0: ea23 be3d 296d 36bd 006a fa3d ebf5 bcbd
000003f0: 786b e8bd 751b acbb 1f0f 70bd 5811 103d

module.gcn_layers.0.bnEdges.W4.weight f4 [50, 50]
-0.03546964 0.10192039 0.1097931 0.013572475 0.059539285 0.060936064 0.08319885 0.045972157
-0.114476874 -0.015790384 -0.11089216 0.0866713 0.038084123 -0.063631184 0.119287185 -0.06869271
-0.093663655 -0.12086934 -0.044610262 0.027369691 0.13799833 0.022556817 -0.0675835 0.08952483
0.11645334 0.07987494 -0.052864026 0.09261698 -0.045402095 -0.027897745 0.003736052 -0.06599455
-0.13227314 -0.1080702 -0.12267082 0.09026082 0.05002442 0.04170892 -0.08047845 -0.09099604
-0.10983143 0.053166445 -0.029109128 0.07327946 0.073723026 -0.10198815 0.030520562 0.12864985
0.0056715985 -0.057935923 0.076625034 0.1383716 -0.10475864 0.06542052 -0.033822425 0.022951765
0.10061245 0.10366153 -0.13116749 -0.0052344957 0.09915355 0.12479017 0.07073549 0.031248346
0.017872082 -0.1289928 0.05743526 -0.0850867 0.026064204 0.13079673 0.04048004 -0.04561888
-0.0080787875 -0.034336377 0.09328786 -0.029487187 0.042340823 0.0071182074 0.12789339 -0.048050415
-0.08431316 -0.044774525 0.04994515 -0.13968822 -0.10942187 0.022642318 -0.087235674 -0.065918006
0.03882611 0.08973213 0.072239876 -0.112643376 0.096213035 -0.078710474 0.13259618 0.11174705
-0.016203439 0.041550178 0.023493335 -0.03920414 0.00053165935 -0.08899023 0.049340945 0.06203151
-0.066103235 -0.051255513 -0.028473135 -0.08685397 -0.09791649 0.07978321 -0.04266495 -0.07039456
0.12690097 -0.068876535 0.13075764 -0.114157595 0.06910684 0.07810654 0.13441473 -0.13486394
0.09445492 -0.11747012 -0.039443523 -0.110154875 0.01265152 0.017147562 0.03653263 0.023582648
0.04578618 -0.03546833 0.09144592 0.000981258 -0.108830124 0.13752046 0.09512579 -0.01272655
0.064377435 -0.044758357 0.11197647 -0.12023631 -0.12788779 -0.067145094 -0.10992058 0.086948134
-0.003491651 -0.057160098 -0.07238702 -0.110427245 0.005007402 -0.13472076 -0.11607742 0.033661664
0.00496044 0.08290145 0.011754692 -0.11399282 0.08316398 0.098493144 0.03957778 0.021605553
0.03682434 0.02955838 -0.073233835 -0.0632844 0.027620263 0.1374291 0.0013084079 0.0062691737
-0.094236515 -0.06225499 0.04748033 0.008698418 0.13537784 0.06926864 -0.017239239 -0.048172373
-0.1017813 0.0075993943 -0.0042817667 0.07494005 0.05033828 0.012509482 0.093478255 0.028993411
0.06663774 -0.102562316 -0.05291748 0.08645306 0.088431835 0.08452017 0.048289917 0.0021867324
-0.14436613 -0.08671134 0.10264568 -0.044594683 0.111380406 -0.11412204 -0.051612582 0.004804289
-0.08248172 0.10123469 0.10600449 -0.051180556 0.13396396 0.090019494 0.11421034 -0.09999188
-0.120849684 0.010580456 0.0114527 0.062711746 -0.11625899 0.12402341 0.0064533846 0.09710317
0.0660492 0.079000525 -0.05742294 -0.0054380638 -0.12634115 0.008678933 -0.06295536 -0.098801345
0.04219635 -0.10400231 0.0818907 -0.10016597 0.010177728 0.035917673 0.13124982 -0.06137521
-0.1204714 -0.08582972 -0.06838099 -0.071690574 -0.098712094 0.14348269 -0.0014055709 -0.11520668
0.036412545 0.015518712 0.020488944 0.03396694 0.03802515 0.08982987 0.0688741 0.019883767
0.108615614 0.009706099 -0.05673491 -0.033273607 -0.0005502392 -0.054006305 0.13665867 0.03421382
00000000: 9d48 11bd a3bb d03d 34db e03d 165f 5e3c
00000010: 77df 733d 1898 793d 2964 aa3d 4d4d 3c3d
00000020: da72 eabd d65a 81bc 6e1b e3bd b980 b13d
00000030: 19fe 1b3d 1151 82bd d74c f43d c3ae 8cbd
00000040: bbd2 bfbd 588a f7bd 40b9 36bd 6736 e03c
00000050: 6f4f 0d3e 13c9 b83c 3869 8abd cb58 b73d
00000060: 177f ee3d 7995 a33d f387 58bd f9ad bd3d
00000070: 8cf7 39bd d089 e4bc 8dd8 743b 2728 87bd
00000080: 9c72 07be e953 ddbd d73a fbbd aada b83d
00000090: 68e6 4c3d f9d6 2a3d e3d1 a4bd 225c babd
000000a0: 4def e0bd 0fc5 593d 4476 eebc 8b13 963d
000000b0: 19fc 963d 2adf d0bd 4206 fa3c c9bc 033e
000000c0: d1d8 b93b 384e 6dbd 96ed 9c3d 49b1 0d3e
000000d0: b38b d6bd 32fb 853d 6289 0abd 5705 bc3c
000000e0: e60d ce3d 7f4c d43d c550 06be 2286 abbb
000000f0: 0411 cb3d fd91 ff3d c5dd 903d 88fc ff3c
00000100: 7968 923c b016 04be 3c41 6b3d f041 aebd
00000110: 9984 d53c 94ef 053e 66ce 253d ddda 3abd
00000120: e45c 04bc 4da4 0cbd b50d bf3d 1d8f f1bc
00000130: 926d 2d3d da3f e93b 7cf6 023e 83d0 44bd
00000140: 61ac acbd 7e65 37bd 4993 4c3d 6e0a 0fbe
00000150: 9318 e0bd 627c b93c 9ea8 b2bd 0500 87bd
00000160: 2108 1f3d 7bc5 b73d 80f2 933d 92b1 e6bd
00000170: 570b c53d f532 a1bd 4bc7 073e a3db e43d
00000180: 13bd 84bc 8530 2a3d 1875 c03c 8594 20bd
00000190: 0e5f 0b3a 8240 b6bd bb19 4a3d c114 7e3d
000001a0: 2261 87bd 4df1 51bd 7e40 e9bc 7fe0 b1bd
000001b0: 7188 c8bd 6165 a33d 71c1 2ebd 062b 90bd
000001c0: 54f2 013e 240f 8dbd 55e5 053e 75cb e9bd
000001d0: e387 8d3d 52f6 9f3d 04a4 093e c619 0abe
000001e0: 9571 c13d 2d94 f0bd 888f 21bd e198 e1bd
000001f0: 5248 4f3c 0b79 8c3c 3da3 153d 6630 c13c
00000200: 4a8a 3b3d 3d47 11bd 0048 bb3d 8e9d 803a
00000210: 54e2 debd 2ad2 0c3e 4fd1 c23d 0583 50bc
00000220: 51d8 833d 8a54 37bd eb53 e53d 743e f6bd
00000230: 04f5 02be 5e83 89bd 0b1e e1bd dd11 b23d
00000240: 2fd4 64bb b520 6abd a53f 94bd ae27 e2bd
00000250: 2215 a43b 3df4 09be 00ba edbd d0e0 093d
00000260: 308b a23b 3cc8 a93d c096 403c 1175 e9bd
00000270: e051 aa3d c6b6 c93d 4f1c 223d 21fe b03c
00000280: 1ed5 163d 6a24 f23c 9ffb 95bd 409b 81bd
00000290: e443 e23c 37ba 0c3e e27e ab3a a46d cd3b
000002a0: 13ff c0bd 17ff 7ebd bc7a 423d cf83 0e3c
000002b0: 7da0 0a3e b7dc 8d3d 4e39 8dbc 6550 45bd
000002c0: b772 d0bd 5704 f93b 104e 8cbb 2b7a 993d
000002d0: 832f 4e3d 92f4 4c3c 8771 bf3d 9783 ed3c
000002e0: 5e79 883d 310c d2bd 00c0 58bd 4d0e b13d
000002f0: c01b b53d e918 ad3d a6cb 453d 484f 0f3b
00000300: b7d4 13be b795 b1bd e637 d23d eaa8 36bd
00000310: 691b e43d d1b8 e9bd b767 53bd 4c6d 9d3b
00000320: 2dec a8bd 2254 cf3d e218 d93d b4a2 51bd
00000330: d92d 093e 245c b83d 1ce7 e93d 8bc8 ccbd
00000340: 0a80 f7bd a659 2d3c 1ba4 3b3c 046f 803d
00000350: 3119 eebd fcff fd3d ea76 d33b 07de c63d
00000360: ce44 873d 07cb a13d 5134 6bbd c931 b2bb
00000370: 935f 01be 1532 0e3c bdee 80bd 5c58 cabd
00000380: 14d6 2c3d 2aff d4bd 50b6 a73d d123 cdbd
00000390: 7cc0 263c 691e 133d 5a66 063e 9264 7bbd
000003a0: b6b9 f6bd 7ec7 afbd 550b 8cbd 82d2 92bd
000003b0: 9129 cabd 20ed 123e 223b b8ba 7bf1 ebbd
000003c0: 5225 153d 3242 7e3c 6ed8 a73c eb20 0b3d
000003d0: 42c0 1b3d b9f8 b73d dd0d 8d3d 48e3 a23c
000003e0: dd71 de3d 5406 1f3c dd62 68bd e849 08bd
000003f0: ed3d 10ba b735 5dbd 40f0 0b3e ca23 0c3d

module.gcn_layers.0.bnEdges.W5.weight f4 [50, 50]
0.09710019 -0.08911853 -0.010088188 0.0069202846 0.13774206 -0.0554701 -0.06663872 0.03703722
0.026237754 0.046947975 0.116216905 -0.11083375 0.013476814 -0.023945276 -0.124113746 -0.022132847
0.03598748 0.07868452 0.0052698934 -0.10281106 -0.033535812 0.077586055 0.05263898 -0.1064569
0.031775933 -0.028134445 0.013560891 0.09477151 -0.07436864 -0.009496155 0.108246244 -0.01748439
0.14437582 -0.01311473 0.02601416 -0.023081405 0.042341694 -0.04596598 0.13630664 0.12564111
0.0029840977 -0.077010505 0.040322274 -0.020603994 -0.12209008 0.012370681 -0.10441905 -0.043356057
-0.10706455 0.11042696 0.0627703 -0.07139144 0.08157884 -0.096327655 0.018762741 -0.119904764
0.07148967 -0.07724841 -0.052966323 0.040241383 -0.13124892 0.071330436 -0.00045023946 -0.10267739
-0.026384657 -0.095041506 0.04273076 0.041637205 -0.10638889 0.09142723 -0.048456363 0.12126534
-0.00749429 0.022759583 -0.05001705 -0.0040757046 -0.006562732 -0.033953965 -0.08465925 0.008597125
-0.11817629 -0.07629564 -0.0472895 -0.006027503 -0.095026635 -0.06530241 0.0018322344 0.01117302
0.009330087 -0.08518625 0.103131674 -0.044843167 -0.11804646 0.077964075 0.01141427 -0.015165385
-0.13410786 -0.08303352 0.076283656 -0.046591673 -0.09363837 0.079710595 -0.1149983 0.079049245
-0.04349713 0.05326094 0.013933062 0.13450167 0.05994711 -0.0058053364 0.14039642 -0.11224254
0.018562313 0.044633824 -0.11478199 -0.07920798 -0.06573158 -0.07267662 -0.018846765 -0.09099376
0.13698323 -0.00855252 0.14407589 0.03353583 -0.022946404 0.015304003 -0.082603015 -0.09286595
0.057584185 -0.014604873 0.010557993 -0.011605192 0.11704506 -0.13970369 -0.088489406 -0.07074564
-0.051352944 0.11000821 0.1003772 -0.10304696 -0.045656726 0.11811377 -0.115620725 0.011578411
0.04875447 0.067606114 0.09388508 0.098101385 0.035150517 -0.13664874 -0.06595559 -0.03305316
-0.09509992 -0.081778005 0.027586708 -0.05097431 0.027473345 0.048699677 0.07619732 -0.1103655
0.12272592 0.06562379 0.02149184 -0.034132723 -0.04107291 0.010557021 -0.020787254 -0.124297224
0.014787609 -0.09516396 -0.11712392 0.08671972 -0.02200977 -0.029533442 -0.027627641 -0.053742178
0.0656831 -0.011742453 -0.053105332 0.13587733 0.09870461 0.109549515 -0.14604293 0.0359061
0.021716997 0.13074283 0.046748936 0.023071377 0.09066056 0.07307211 -0.122919 -0.12851883
-0.068051934 -0.027193528 0.03856155 0.10103885 -0.12322074 -0.023673978 -0.10318344 0.121055484
0.07805907 0.08695218 -0.013792156 -0.08219544 -0.08017165 0.0075877714 0.010726161 0.008453326
0.11524775 -0.08031524 0.09771509 0.05567933 -0.11582669 -0.05622374 -0.073819205 0.007746973
0.08308622 0.083825 -0.018999139 0.13683884 0.059126675 0.03769891 -0.12385376 -0.11077989
0.090216935 0.06663989 -0.061892692 -0.10369145 -0.0012502512 -0.13850327 0.10323472 0.06538098
0.030967116 -0.105542354 -0.026815308 -0.075867325 0.077579215 0.14314581 -0.0020146333 -0.044007726
0.10871501 -0.040526535 -0.059766587 -0.1078553 0.029072952 0.10888601 0.10058544 0.047238287
0.10290275 -0.10360437 0.13183841 -0.04036967 -0.131177 0.06985664 0.031026194 -0.024459187
00000000: 77dc c63d c783 b6bd ed48 25bc 8ec3 e23b
00000010: 410c 0d3e 9e34 63bd e279 88bd 57b4 173d
00000020: 8ff0 d63c 854c 403d 2103 ee3d cefc e2bd
00000030: dbcd 5c3c e228 c4bc 592f febd f24f b5bc
00000040: 9c67 133d 5a25 a13d 12af ac3b 9b8e d2bd
00000050: d95c 09bd 70e5 9e3d f99b 573d 1306 dabd
00000060: 7b27 023d 357a e6bc 802e 5e3c 9117 c23d
00000070: 964e 98bd c395 1bbc 35b0 dd3d 6c3b 8fbc
00000080: 41d7 133e 2adf 56bc a61b d53c 3715 bdbc
00000090: 7c6e 2d3d d346 3cbd f893 0b3e 10a8 003e
000000a0: da90 433b afb7 9dbd f828 253d b5c9 a8bc
000000b0: 5d0a fabd 66ae 4a3c a8d9 d5bd 1f96 31bd
000000c0: a944 dbbd 8827 e23d b78d 803d ad35 92bd
000000d0: cf12 a73d 6f47 c5bd 52b4 993c a190 f5bd
000000e0: 2d69 923d 6a34 9ebd 37f3 58bd 26d4 243d
000000f0: 1e66 06be b115 923d 1e0e ecb9 8648 d2bd
00000100: a324 d8bc 1fa5 c2bd 7306 2f3d c68b 2a3d
00000110: 6be2 d9bd 333e bb3d 2e7a 46bd f659 f83d
00000120: a992 f5bb 4e72 ba3c aede 4cbd 7d8d 85bb
00000130: 300c d7bb 5013 0bbd d461 adbd f5da 0c3c
00000140: 6906 f2bd e340 9cbd a2b2 41bd 5c82 c5bb
00000150: 539d c2bd 45bd 85bd 9627 f03a 0b0f 373c
00000160: 39dd 183c 2176 aebd b336 d33d 78ad 37bd
00000170: 58c2 f1bd a1ab 9f3d eb02 3b3c 3c78 78bc
00000180: 9253 09be 7a0d aabd 9b3a 9c3d e9d6 3ebd
00000190: 79c5 bfbd 4f3f a33d 3b84 ebbd 92e4 a13d
000001a0: 0c2a 32bd 2528 5a3d 7f47 643c ceba 093e
000001b0: 1a8b 753d b13a bebb 14c4 0f3e 6bdf e5bd
000001c0: fe0f 983c f5d1 363d d212 ebbd cb37 a2bd
000001d0: 479e 86bd 7bd7 94bd 8864 9abc f05a babd
000001e0: 5545 0c3e de1f 0cbc a188 133e de5c 093d
000001f0: 19fa bbbc a4bd 7a3c c52b a9bd 8130 bebd
00000200: 65dd 6b3d 4749 6fbc 6ffb 2c3c b423 3ebc
00000210: 52b5 ef3d 7c0e 0fbe ef39 b5bd 17e3 90bd
00000220: 7757 52bd fc4b e13d 9092 cd3d 490a d3bd
00000230: 8c02 3bbd a2e5 f13d 8fca ecbd 60b3 3d3c
00000240: c4b2 473d 1375 8a3d d246 c03d 61e9 c83d
00000250: fdf9 0f3d a6ed 0bbe b913 87bd c062 07bd
00000260: bfc3 c2bd 3a7b a7bd 85fd e13c 70ca 50bd
00000270: c80f e13c 5079 473d 570d 9c3d 4f07 e2bd
00000280: ba57 fb3d c465 863d a80f b03c c1ce 0bbd
00000290: 113c 28bd 5bf7 2c3c 084a aabc 8b8f febd
000002a0: ba47 723c 52e5 c2bd aade efbd 1c9a b13d
000002b0: d54d b4bc 1ef0 f1bc 5d53 e2bc c220 5cbd
000002c0: dc84 863d 6b63 40bc fa84 59bd 6d23 0b3e
000002d0: a425 ca3d 7f5b e03d 478c 15be 4612 133d
000002e0: d8e7 b13c 73e1 053e d07b 3f3d 2f00 bd3c
000002f0: 3eac b93d d5a6 953d f5bc fbbd 719a 03be
00000300: d05e 8bbd f6c4 debc b7f2 1d3d 75ed ce3d
00000310: 285b fcbd eeef c1bc d751 d3bd f0eb f73d
00000320: 6fdd 9f3d fc13 b23d 7ff8 61bc 1556 a8bd
00000330: 0931 a4bd d7a2 f83b c8bc 2f3c d27f 0a3c
00000340: 0307 ec3d 517c a4bd d91e c83d 0210 643d
00000350: 8b36 edbd dd4a 66bd 862e 97bd 52da fd3b
00000360: 1c29 aa3d 71ac ab3d 15a4 9bbc 7b1f 0c3e
00000370: d02e 723d 2c6a 1a3d 0aa7 fdbd 91e0 e2bd
00000380: a8c3 b83d 7f7a 883d 3183 7dbd 2f5c d4bd
00000390: 78df a3ba cdd3 0dbe ba6c d33d 77e6 853d
000003a0: c0ae fd3c 9726 d8bd c7ab dbbc 5460 9bbd
000003b0: dae1 9e3d d194 123e f007 04bb 7241 34bd
000003c0: faa5 de3d 27ff 25bd cfcd 74bd 3de3 dcbd
000003d0: 662a ee3c a1ff de3d bdff cd3d ef7c 413d
000003e0: adbe d23d 872e d4bd a600 073e ab5a 25bd
000003f0: 4353 06be 0011 8f3d a52a fe3c a25e c8bc

module.gcn_layers.0.bnEdges.batch_norm.weight f4 [50]
1.000906 1.0100783 1.005709 0.991724 0.99451613 1.0094323 1.0011227 1.0077821
0.99712104 1.0091809 0.9958042 0.9951972 0.9975514 0.9960664 0.99525493 1.0087966
0.99294615 0.9953553 0.9910196 1.003826 1.000277 0.99841106 1.0066239 1.0097675
1.0047607 0.9991866 0.99693406 0.99173987 1.0023326 1.0032182 0.998924 1.0041082
0.9937726 1.0085493 1.0082412 1.0077498 0.9949174 1.0089345 1.0055672 1.0012705
0.99200433 1.0094522 0.99601215 1.009723 1.0089536 1.0076536 1.0002829 0.99299544
0.9954916 1.0066012
00000000: b01d 803f 3f4a 813f 13bb 803f a0e1 7d3f
00000010: 9c98 7e3f 1435 813f ca24 803f 01ff 803f
00000020: 5343 7f3f d72c 813f 06ed 7e3f 3ec5 7e3f
00000030: 875f 7f3f 35fe 7e3f 07c9 7e3f 3f20 813f
00000040: b831 7e3f 9bcf 7e3f 76b3 7d3f 5f7d 803f
00000050: 1409 803f de97 7f3f 0dd9 803f 1040 813f
00000060: 009c 803f b1ca 7f3f 1237 7f3f aae2 7d3f
00000070: 6f4c 803f 7469 803f 7cb9 7f3f 9e86 803f
00000080: e267 7e3f 2518 813f 0c0e 813f f2fd 803f
00000090: e8b2 7e3f c424 813f 6db6 803f a229 803f
000000a0: fff3 7d3f bb35 813f a7fa 7e3f 9a3e 813f
000000b0: 6425 813f cbfa 803f 4509 803f f334 7e3f
000000c0: 8ad8 7e3f 4fd8 803f

module.gcn_layers.0.bnEdges.batch_norm.bias f4 [50]
0.003212418 0.0095442915 -0.00019472188 -0.008376764 -0.0068479995 0.007729081 -0.0026359495 0.0048600156
-0.0054836962 0.0051088245 -0.0015058671 0.0039536734 -0.0071413084 0.0024395164 -0.0063932594 0.009069228
-0.0067035253 -0.0034697487 -0.0084099015 0.006332119 -0.0016913433 -0.005027327 0.0049038115 0.009625736
-0.0011759452 0.006228964 -0.00091944396 -0.008650533 0.0049937707 -0.003996516 -0.0023178633 0.006049124
0.00023377266 0.008218259 0.0052134707 -0.0022302999 -0.0065311724 0.00928086 0.004172628 0.009108563
-0.0066949753 0.0094960565 -0.007255255 0.009037427 0.00066232914 0.0091408705 0.0017062371 -0.0038444102
-0.0022746264 0.0073475456
00000000: 6e87 523b a95f 1c3c 422e 4cb9 b23e 09bc
00000010: 2f65 e0bb 3b44 fd3b e5bf 2cbb c440 9f3b
00000020: 94b0 b3bb ed67 a73b 8460 c5ba d18d 813b
00000030: a301 eabb 4be0 1f3b 8c7e d1bb 1997 143c
00000040: 3fa9 dbbb b964 63bb afc9 09bc aa7d cf3b
00000050: 10b0 ddba 47bc a4bb 27b0 a03b 43b5 1d3c
00000060: 2c22 9aba 561c cc3b d706 71ba f7ba 0dbc
00000070: c9a2 a33b 35f5 82bb 4be7 17bb bb37 c63b
00000080: df20 7539 e0a5 063c c3d5 aa3b 392a 12bb
00000090: 7203 d6bb c00e 183c 8aba 883b 153c 153c
000000a0: 8661 dbbb 5995 1b3c 7dbd edbb b711 143c
000000b0: 28a0 2d3a 97c3 153c d1a3 df3a 80f2 7bbb
000000c0: e611 15bb aec3 f03b

module.gcn_layers.1.bnNodes.W1.weight f4 [50, 50]
-0.084293224 -0.10513519 -0.1427509 -0.13487911 -0.004648664 -0.088557616 -0.09625946 -0.076776445
-0.08761513 0.11831058 0.021398822 0.08930424 0.07814113 -0.07355255 0.08534154 0.07942932
0.100778915 0.12534201 0.09821819 0.1383316 0.085303955 0.025207968 0.14181893 -0.015099559
-0.084058814 0.0064302604 -0.12243656 -0.13261142 0.09573881 0.054797247 -0.013422223 0.12309614
-0.12329804 0.013494229 -0.12339419 0.11654241 -0.03668577 0.086254016 -0.10213154 -0.0054546897
-0.064760976 -0.022344638 -0.06402086 -0.042461663 0.123540804 -0.0038003963 -0.083745115 0.06534321
-0.06855426 -0.08974481 -0.05768604 0.04387976 -0.11013267 0.13103963 -0.111420415 0.1015349
-0.13417237 -0.03735765 -0.10945348 0.023535823 0.013079536 0.012070461 -0.11629042 0.13161927
0.12724932 0.12616134 0.12462709 0.13616592 -0.06682087 -0.009610405 -0.033838492 -0.11824938
0.052137047 -0.12853467 0.13477279 0.055896923 -0.030971088 -0.1228642 -0.06670901 -0.090407364
0.080723576 -0.03863619 -0.11166137 -0.015374061 0.0711527 -0.126724 0.1273268 -0.04104452
-0.09037153 -0.034392957 -0.062010437 -0.058689367 0.054827794 0.12938847 -0.057747014 -0.09736794
-0.08213118 0.011433258 -0.117302485 0.10542256 0.08395759 -0.015450107 0.020295842 0.031962622
0.07429434 -0.13952325 -0.12575667 -0.077757135 0.06949295 -0.023826983 0.12393491 0.007056114
0.022197377 -0.060619183 -0.00638277 0.050601453 -0.0036754697 0.11378278 0.079931304 -0.02961289
0.0015520493 0.02605828 -0.056516208 -0.053455297 -0.13244571 0.080406316 -0.13270773 -0.03356172
-0.02335147 0.11610483 0.024273096 -0.013724504 -0.048865106 -0.063462846 -0.0004424028 0.105771735
-0.060434945 -0.014510287 -0.07036279 0.113390446 -0.042923428 0.082298644 0.109546214 0.055451117
-0.08779876 -0.14029518 -0.016448554 -0.046628993 -0.0019614627 0.06049689 -0.12430657 0.041754916
-0.122134395 -0.0918028 -0.057739116 0.0005510869 0.035275947 0.055808097 -0.048253812 0.068712726
-0.076738015 0.10103797 0.029139351 0.107821874 -0.07080888 0.014386158 -0.097139 0.08996337
-0.059188895 -0.056864295 -0.13362005 0.06972142 -0.034213018 -0.06236117 -0.07782428 -0.07667313
0.1119766 0.06617954 0.10624253 0.09118477 0.09224499 0.12060049 0.10543972 -0.015737154
0.113514744 -0.0425926 0.010430656 0.065914825 -0.065121226 0.048046418 -0.016789693 0.041888338
0.0064832475 -0.032148845 0.070259325 0.13018037 0.039983276 -0.0028905577 0.09196689 -0.031475686
-0.13497104 0.13752238 0.120091684 0.043373175 -0.022848155 0.051190834 0.026965791 -0.06690111
0.061173543 -0.036646903 0.0076983552 -0.040796276 -0.007576921 -0.07667353 -0.047895636 -0.011132069
0.060475968 0.13539779 -0.099623166 0.045158345 0.12125829 0.009388097 0.1200896 -0.14018951
0.12083815 0.012728678 -0.061149456 0.040488604 -0.09335215 0.03451088 0.018608421 0.02238781
-0.0963575 0.0017734498 -0.12236268 -0.12683591 0.04726534 -0.060409788 0.12712872 0.09087502
0.049763747 0.0046372507 0.10878895 0.11428144 0.06287131 0.12084258 -0.14295745 -0.0010399439
0.08174382 -0.0464744 0.039000534 -0.07028786 0.050716363 -0.13160898 -0.1407545 -0.041623224
00000000: eda1 acbd 1e51 d7bd 4b2d 12be c01d 0abe
00000010: d253 98bb b25d b5bd ae23 c5bd f83c 9dbd
00000020: 906f b3bd d14c f23d 954c af3c 24e5 b63d
00000030: 7508 a03d b8a2 96bd 8cc7 ae3d d7ab a23d
00000040: 2d65 ce3d a859 003e 9e26 c93d cda6 0d3e
00000050: d7b3 ae3d f180 ce3c fb38 113e 2464 77bc
00000060: 0727 acbd efb4 d23b 05c0 fabd 4acb 07be
00000070: b612 c43d 1473 603d e2e8 5bbc d419 fc3d
00000080: af83 fcbd e616 5d3c 18b6 fcbd c9ad ee3d
00000090: d143 16bd f2a5 b03d 572a d1bd 41bd b2bb
000000a0: 67a1 84bd 1a0c b7bc 5e1d 83bd 48ec 2dbd
000000b0: f602 fd3d 1210 79bb 8f82 abbd a9d2 853d
000000c0: 2d66 8cbd 20cc b7bd 3248 6cbd 43bb 333d
000000d0: 3d8d e1bd 412f 063e 6330 e4bd 88f1 cf3d
000000e0: 7b64 09be 5604 19bd 2529 e0bd 33ce c03c
000000f0: 8d4b 563c 2fc3 453c ac29 eebd 34c7 063e
00000100: a54d 023e 7030 013e 7d3c ff3d 146f 0b3e
00000110: 61d9 88bd f674 1dbc 3b9a 0abd bb2c f2bd
00000120: a88d 553d 989e 03be e101 0a3e 2cf4 643d
00000130: 14b7 fdbc 3aa0 fbbd bc9e 88bd 7f27 b9bd
00000140: 6752 a53d fb40 1ebd b7ae e4bd 7ce3 7bbc
00000150: 82b8 913d f0c3 01be f561 023e 4c1e 28bd
00000160: b514 b9bd a1df 0cbd a8fe 7dbd 4364 70bd
00000170: 1c93 603d 697e 043e 2288 6cbd d868 c7bd
00000180: 6434 a8bd 8f52 3b3c 493c f0bd c8e7 d73d
00000190: f5f1 ab3d 7222 7dbc 7743 a63c 3deb 023d
000001a0: a227 983d 2fdf 0ebe 5bc6 00be 223f 9fbd
000001b0: 5252 8e3d ce30 c3bc 96d1 fd3d f936 e73b
000001c0: 46d7 b53c d24b 78bd 8e26 d1bb 7843 4f3d
000001d0: 26e0 70bb f206 e93d 06b3 a33d bb96 f2bc
000001e0: 226e cb3a 2d78 d53c 8a7d 67bd f1f3 5abd
000001f0: d99f 07be 11ac a43d 89e4 07be 0478 09bd
00000200: 954b bfbc 5ec8 ed3d 5fd8 c63c bedc 60bc
00000210: c726 48bd cff8 81bd 4cf2 e7b9 da9e d83d
00000220: a28a 77bd 8ebc 6dbc 5e1a 90bd 4039 e83d
00000230: 7ad0 2fbd 318c a83d c459 e03d b620 633d
00000240: d6cf b3bd 8aa9 0fbe 1ebf 86bc 0bfe 3ebd
00000250: e28b 00bb 96cb 773d 7194 febd 3407 2b3d
00000260: 9921 fabd 1b03 bcbd da7f 6cbd d176 103a
00000270: 837d 103d 0897 643d caa5 45bd 42b9 8c3d
00000280: d228 9dbd ffec ce3d a6b5 ee3c b7d1 dc3d
00000290: 3f04 91bd ecb3 6b3c d0f0 c6bd b73e b83d
000002a0: 0e70 72bd 89ea 68bd b2d3 08be 1bca 8e3d
000002b0: f322 0cbd 6d6e 7fbd 5662 9fbd cd06 9dbd
000002c0: fd53 e53d 2389 873d af95 d93d 15bf ba3d
000002d0: f1ea bc3d 64fd f63d c8f0 d73d 34eb 80bc
000002e0: 6b7a e83d 9475 2ebd 58e5 2a3c 5afe 863d
000002f0: 475e 85bd 52cc 443d 8a8a 89bc 1b93 2b3d
00000300: 6c71 d43b 82ae 03bd 1fe4 8f3d 014e 053e
00000310: 81c5 233d 836f 3dbb 2359 bc3d a6ec 00bd
00000320: d935 0abe abd2 0c3e a1f2 f53d 12a8 313d
00000330: 0e2c bbbc 7bad 513d 5de7 dc3c 7303 89bd
00000340: 1c91 7a3d 101b 16bd 7c42 fc3b ff19 27bd
00000350: d247 f8bb 0307 9dbd 372e 44bd 4863 36bc
00000360: a6b5 773d b8a5 0a3e 3b07 ccbd f5f7 383d
00000370: 4456 f83d 88d0 193c 89f1 f53d d78d 0fbe
00000380: fe79 f73d f28b 503c da77 7abd 61d7 253d
00000390: 692f bfbd 485b 0d3d b070 983c a466 b73c
000003a0: 1557 c5bd 1a73 e83a 4999 fabd 46e1 01be
000003b0: 4d99 413d 4170 77bd 082e 023e af1c ba3d
000003c0: 12d5 4b3d 14f4 973b becc de3d 630c ea3d
000003d0: acc2 803d 517c f73d 7063 12be ba4e 88ba
000003e0: 4e69 a73d f15b 3ebd 06bf 1f3d 15f3 8fbd
000003f0: f6bb 4f3d 81c4 06be f321 10be 1d7d 2abd
