logs/deafult/best_val_checkpoint.tar (torch, 489841 bytes, 103 tensors)

module.NodesEncoding.A1.weight f4 [50, 2]
0	0x3eb747b9	0.35796908
1	0xbea5a798	-0.32354426
2	0xbe0c3af8	-0.1369437
3	0x3ea9e7d3	0.3318468
4	0xbf29824d	-0.6621445
5	0x3ed88c41	0.42294505
6	0xbe0d1644	-0.13778025
7	0x3ebd0ff4	0.36926234
8	0x3dc997bd	0.09843395
9	0xbdb7cde7	-0.0897482
10	0x3e4c0397	0.19923244
11	0x3cf55426	0.029947352
12	0x3e81bde7	0.25340196
13	0xbe8ddb2a	-0.2770627
14	0xbd7973ed	-0.06090157
15	0xbd72bc42	-0.059261568
16	0x3ddf8a56	0.10915057
17	0xba7833a8	-0.00094681466
18	0x3f1e9829	0.6195093
19	0x3e675d5b	0.22594206
20	0xbe8578d4	-0.26068747
21	0xbedc264c	-0.42997968
22	0xbe00cbec	-0.1257779
23	0xbe99f561	-0.30070022
24	0xbe697e0b	-0.22801988
25	0x3cf43f0d	0.029815221
26	0x3ed6c877	0.41949818
27	0x3ebf1d60	0.373271
28	0xbf2f75ab	-0.6853892
29	0x3ee041dc	0.43800247
30	0x3e518149	0.20459475
31	0x3f2d8dd2	0.67794526
32	0x3ef306a4	0.47466004
33	0xbf236d2c	-0.6383846
34	0xbf2dc1cf	-0.67873853
35	0xbeb05c25	-0.344453
36	0x3f2147d3	0.6300022
37	0xbde8a3c5	-0.113593616
38	0x3e9f0c35	0.31064
39	0xbeada811	-0.33917287
40	0x3f30db23	0.69084376
41	0xbe9b6502	-0.303505
42	0x3f0a2745	0.5396617
43	0x3c95cb7c	0.018285505
44	0xbebfa9ca	-0.37434226
45	0x3ebf2c8a	0.37338668
46	0xbec42e5f	-0.38316628
47	0x3e4cca71	0.199991
48	0xbe4c136f	-0.19929288
49	0xbd93dbd3	-0.072196625
50	0xbf2f90df	-0.6858043
51	0xbeadf1a5	-0.33973423
52	0x3ec051b4	0.37562335
53	0xbe37bd76	-0.17943367
54	0x3f3200c6	0.6953243
55	0x3f11481b	0.5675065
56	0xbccdd3f2	-0.025125477
57	0xbef4d8cd	-0.47821656
58	0x3ed92ff8	0.4241941
59	0x3e5c2db0	0.21501803
60	0xbee7d41a	-0.45279008
61	0x3ee67b4f	0.45015952
62	0x3edf6232	0.43629605
63	0x3f20b9cc	0.62783504
64	0xbecfd2de	-0.40590566
65	0xbdeca944	-0.11555722
66	0xbc29f11e	-0.010372428
67	0x3dc12e0e	0.09432612
68	0xbf071b3c	-0.5277593
69	0xbf02293a	-0.50844157
70	0x3ec209dd	0.3789815
71	0xbe208c1e	-0.1567845
72	0x3eb233ba	0.3480509
73	0x3d3e6a79	0.04648826
74	0x3e6fcdbd	0.23418327
75	0x3e1a45af	0.15065645
76	0x3e87f806	0.26556414
77	0x3eb159f9	0.34638956
78	0xbf2609d6	-0.6485876
79	0x3eb8b15b	0.3607281
80	0xbefae11f	-0.4899988
81	0xbf0b0318	-0.54301596
82	0x3d0c1b4e	0.034205727
83	0xbdfe59fa	-0.124195054
84	0x3ed8cea2	0.42345148
85	0xbed34e81	-0.4127083
86	0xbf1e891a	-0.6192795
87	0x3f01c99a	0.50698245
88	0xbddbba0c	-0.10728845
89	0x3ec8d638	0.39225936
90	0x3e7175d3	0.23580103
91	0xbf08ab74	-0.53386617
92	0x3e0a3be3	0.13499407
93	0x3e3313d3	0.17488031
94	0xbef411c8	-0.47669816
95	0xbeaed729	-0.3414853
96	0x3e6e4e96	0.23272166
97	0x3dfc9220	0.12332559
98	0xbe9aaedb	-0.3021153
99	0xbe603288	-0.21894276

module.NodesEncoding.A1.bias f4 [50]
0	0x3f266a7c	0.6500623
1	0xbe09a54f	-0.13441966
2	0x3ecd7794	0.40130293
3	0x3e9d7239	0.30751207
4	0xbee9fb5b	-0.45699582
5	0xbf1ac339	-0.60454136
6	0x3f2cf1b2	0.675563
7	0x3d254e89	0.0403581
8	0x3ef98b95	0.48739305
9	0x3e15270d	0.14565678
10	0x3e67f00c	0.22650164
11	0x3f07b2f6	0.5300745
12	0x3f2ae6c2	0.6675836
13	0xbef0f8ec	-0.47064912
14	0x3db2c4a5	0.08728913
15	0x3f062744	0.52403665
16	0x3f037661	0.51352507
17	0x3ee2233b	0.44167504
18	0xbf030983	-0.5118639
19	0xbf0279f4	-0.50967336
20	0xbed9e6d0	-0.42558908
21	0x3dbca565	0.09211234
22	0x3f3379b1	0.7010756
23	0xbee5c306	-0.44875354
24	0x3ec1913f	0.37806126
25	0xbec8724f	-0.3914971
26	0xbf2ab91c	-0.66688704
27	0xbe179320	-0.14802217
28	0x3ecf4c1c	0.40487754
29	0x3f27b851	0.6551562
30	0xbee21012	-0.44152886
31	0x3e1cbdf4	0.15306836
32	0x3f1c6ebe	0.6110648
33	0x3ef1031e	0.4707269
34	0x3ee2a310	0.44265032
35	0x3efff218	0.4998939
36	0x3ee4b7a8	0.4467137
37	0x3e391923	0.18075995
38	0xbef9253f	-0.4866123
39	0xbf1781cb	-0.59182423
40	0xbea404a7	-0.320348
41	0xbdb0ff1a	-0.08642407
42	0xbedf726d	-0.43641987
43	0x3e8455fa	0.25846845
44	0x3e5ebb1a	0.21751061
45	0xbe2273f0	-0.15864539
46	0x3e8b636f	0.272243
47	0x3e6f7395	0.23383935
48	0x3eddd98f	0.43330047
49	0x3ef25c60	0.47336102

module.EdgesEncoding.A2.weight f4 [25, 1]
0	0xbeb1f45f	-0.34756753
1	0x3f77d4df	0.9680919
2	0xbded1e0f	-0.11577999
3	0xbd302c9a	-0.043011285
4	0xbf741520	-0.95344734
5	0xbf25540b	-0.64581364
6	0xbf133bac	-0.5751293
7	0xbed9f387	-0.4256861
8	0x3f33dcc2	0.70258725
9	0xbead67f3	-0.3386837
10	0xbf3c35df	-0.735197
11	0x3ecaa904	0.39582074
12	0x3eaa255b	0.33231625
13	0x3f28de39	0.65964085
14	0xbf02151b	-0.50813454
15	0x3e587015	0.21136506
16	0xbeb96e11	-0.36216787
17	0xbe5e0c4c	-0.21684378
18	0xbf4ecc3d	-0.8078039
19	0xbee65f98	-0.44994807
20	0xbea14321	-0.31496528
21	0x3edd7fff	0.43261716
22	0x3e466383	0.19373898
23	0x3e813a68	0.25239873
24	0x3f807cff	1.0038146

module.EdgesEncoding.A2.bias f4 [25]
0	0x3f7900d9	0.9726692
1	0x3f2e8067	0.68164676
2	0x3d08e722	0.03342355
3	0xbf313bcd	-0.69231874
4	0x3f461757	0.77379364
5	0xbe833366	-0.2562515
6	0xbd8d4dfb	-0.06899639
7	0xbf5e95e1	-0.8694745
8	0xbe4c368a	-0.1994268
9	0xbf26498f	-0.6495599
10	0x3f6b53bf	0.9192466
11	0xbf5afb9d	-0.8554018
12	0xbf4618d7	-0.7738165
13	0xbd11d726	-0.035605572
14	0xbf09eaf0	-0.5387411
15	0x3eb57d9d	0.35447398
16	0xbec11f93	-0.37719402
17	0xbeecebc3	-0.46273622
18	0x3d6262ae	0.05526989
19	0x3f39a44f	0.7251634
20	0xbf315de9	-0.6928392
21	0x3ef0c611	0.47026113
22	0x3f22b4a3	0.6355688
23	0x3f79560c	0.9739692
24	0xbf3379f7	-0.7010798

module.EdgesEncoding.A3.weight f4 [25, 1]
0	0x3e7f2510	0.24916482
1	0xbf3cecd9	-0.737989
2	0x3f587700	0.8455658
3	0xbeca1ab7	-0.39473507
4	0x3f175e3a	0.59128153
5	0x3ce28624	0.027651854
6	0xbd8e4aa4	-0.0694783
7	0xbcd7c64c	-0.026339673
8	0x3e2466f7	0.16054903
9	0x3ef644fd	0.4809951
10	0x3e1bc632	0.15212324
11	0x3ea10931	0.31452325
12	0xbf683c67	-0.90717167
13	0x3f379de8	0.7172532
14	0x3f5cf450	0.8631029
15	0x3f520ff8	0.82055616
16	0x3f3bb39c	0.7332094
17	0xbf3a6964	-0.72817063
18	0xbebad642	-0.3649159
19	0x3f626ece	0.88450325
20	0xbf446506	-0.7671665
21	0x3f694a1c	0.91128707
22	0xbf4b5e51	-0.7944079
23	0xbf35a298	-0.70951223
24	0x3ef86e36	0.48521584

module.EdgesEncoding.A3.bias f4 [25]
0	0xbf37b316	-0.7175764
1	0xbe5c6ad7	-0.21525131
2	0x3f39a159	0.7251182
3	0x3f4a36a8	0.7898965
4	0x3f73dd15	0.9525922
5	0xbe4f8c4a	-0.2026836
6	0xbf46c3e8	-0.7764268
7	0x3f7c124c	0.9846542
8	0xbe640c0a	-0.22270218
9	0xbed35625	-0.4127666
10	0x3e77807d	0.24170108
11	0xbf332303	-0.699753
12	0x3f28126c	0.6565311
13	0x3f21f38b	0.6326224
14	0xbf4ef1ca	-0.8083769
15	0xbf53e041	-0.8276406
16	0xbdb2997b	-0.0872068
17	0x3ed91e29	0.42405823
18	0xbcc711a7	-0.02430041
19	0xbf00e9e7	-0.50356907
20	0x3cc1b2bd	0.0236448
21	0xbf71f858	-0.9451957
22	0xbf345541	-0.7044259
23	0xbf2a0532	-0.6641418
24	0x3f5274f1	0.8220969

module.gcn_layers.0.bnNodes.W1.weight f4 [50, 50]
0	0x3dffbaef	0.12486827
1	0xbd3e42fa	-0.046450593
2	0x3bbb2f76	0.005712445
3	0x3d848ab1	0.06471766
4	0x3c8cc13d	0.017181987
5	0xbd8b9079	-0.06814665
6	0x3da6bca3	0.08141448
7	0x3da5afba	0.08090158
8	0xbbc6078a	-0.006043379
9	0xbc6875a0	-0.0141882
10	0x3df5c650	0.12000716
11	0x3debbda9	0.11510784
12	0xbda7c73b	-0.08192297
13	0x3e12d645	0.1433955
14	0x3d0cd04c	0.034378335
15	0xbdb073df	-0.08615851
16	0x3d9d6e4c	0.07687053
17	0xbddfd81e	-0.10929893
18	0x3e077bdf	0.13230847
19	0xbdba7080	-0.09103489
20	0x3d282148	0.041047364
21	0x3d396756	0.045264564
22	0x3d0992a5	0.033587117
23	0x3dee8de9	0.11648161
24	0xbd7df573	-0.062001657
25	0xbd81d1e6	-0.06338863
26	0xbdf8e4c0	-0.121530056
27	0xba93ea37	-0.0011285011
28	0xbd93bf8d	-0.0721427
29	0x3c199a0e	0.009375108
30	0xbced1e2c	-0.028945051
31	0x3d625afb	0.055262547
32	0x3df4511f	0.11929535
33	0x3d37f8f8	0.04491517
34	0xbd4f61c0	-0.05063033
35	0xbd8c0398	-0.06836623
36	0xbdf786dc	-0.12086269
37	0x3dfc78d2	0.12327732
38	0xbc98552e	-0.018595304
39	0x3ce33d1b	0.027739098
40	0xb9839da2	-0.00025103713
41	0xbdbc98b1	-0.09208811
42	0x3da32969	0.07966883
43	0x3da1c31a	0.07898541
44	0x3c1ab73b	0.0094431
45	0xbda79ec4	-0.08184579
46	0xbd5e947c	-0.054340824
47	0xbb1f98f9	-0.0024352653
48	0xbd9dcf16	-0.07705514
49	0xbdaa924b	-0.083286844
50	0xbc4b3af4	-0.012404192
51	0xbd1bce99	-0.038038824
52	0x3cd8f066	0.026481818
53	0xbd0d1d1c	-0.03445159
54	0xbc258bc3	-0.010104123
55	0xbd438726	-0.04773631
56	0xbdfe1a50	-0.124073625
57	0x3df163eb	0.11786636
58	0x3d093d39	0.033505652
59	0x3e07acb9	0.13249482
60	0xbce5fee3	-0.028075641
61	0xbd2659fa	-0.040613152
62	0xbe0f13f1	-0.13972451
63	0xbd44f0b8	-0.04808113
64	0x3dad14ff	0.0845127
65	0xbe08c8e6	-0.13357887
66	0xbd467298	-0.04844913
67	0x3da469f3	0.08028021
68	0x3db5027d	0.08838365
69	0x3d6a004e	0.057129197
70	0xbca79725	-0.020457814
71	0xbb8ac4e1	-0.0042348956
72	0xbd0f7502	-0.035023697
73	0xbd75fdd0	-0.060056508
74	0x3d5915a6	0.05299916
75	0xbd5d7180	-0.05406332
76	0xbd932009	-0.071838446
77	0x3d1a9bec	0.037746355
78	0xbddaacba	-0.10677476
79	0xbcc6fe49	-0.024291174
80	0x3d83d704	0.06437495
81	0x3d6e603e	0.058197252
82	0x3dea144e	0.11429654
83	0xbdbd40ce	-0.09240876
84	0xbb8e7f52	-0.004348674
85	0xbd0c4bcc	-0.034251973
86	0xbd950e96	-0.07278173
87	0xbd971ec4	-0.07378915
88	0x3d27fdab	0.0410134
89	0x3be19c50	0.006885089
90	0xbd9f1f87	-0.07769685
91	0xbdd24e37	-0.102688245
92	0xbddf72a7	-0.1091054
93	0x3e050be2	0.12992814
94	0xbca8991f	-0.020580826
95	0xbd106770	-0.035254896
96	0xbd3ebad7	-0.046564903
97	0xbd9c967e	-0.076458916
98	0xbdfcd54f	-0.12345373
99	0xbdb5bbb4	-0.08873692
100	0x3dcaf7b5	0.099105276
101	0x3cbab35c	0.022790603
102	0xbd80aafa	-0.06282611
103	0xbd7c1ef9	-0.061552975
104	0x3dd2f9a6	0.10301523
105	0x3de663d9	0.11249513
106	0x3e18009f	0.14843987
107	0x3d1628cb	0.036659997
108	0x3da3e0c9	0.08001859
109	0xbb0e3454	-0.002169867
110	0xbdaf11a5	-0.08548287
111	0xbe0f24b3	-0.13978843
112	0x3d9745af	0.07386338
113	0xbc7567da	-0.014978373
114	0x3d38ff2f	0.045165237
115	0x3befc9a0	0.0073177367
116	0xbdf758c1	-0.12077475
117	0xbd9e977b	-0.07743736
118	0x3d55e9bb	0.052224856
119	0xbc86d78d	-0.016460204
120	0xbdfd3987	-0.12364488
121	0x3d7a3bbb	0.06109212
122	0xbbe5ef62	-0.007017062
123	0xbd6f4b12	-0.058421202
124	0x3d44cd87	0.04804757
125	0x3cb1e008	0.021713272
126	0xbd20a913	-0.03922374
127	0x3e085791	0.13314654
128	0x3d94bbc8	0.07262379
129	0x3cd3b7cb	0.025844475
130	0xbd21eca4	-0.03953232
131	0xbdee8ce7	-0.11647969
132	0x3dcbb87f	0.09947299
133	0xbd240d68	-0.040051848
134	0xbdc6119d	-0.09671328
135	0x3dd41c66	0.10356979
136	0x3d7a1dfe	0.06106376
137	0x3d2c4551	0.042058293
138	0xbcc7b55a	-0.024378467
139	0xbd69df13	-0.057097506
140	0x3c9e0a38	0.019291982
141	0x3defa298	0.11700934
142	0x3d05d049	0.03266934
143	0xbda30ad9	-0.079610534
144	0x3e08ecb2	0.13371542
145	0x3c3b4591	0.01143016
146	0x3ded3e44	0.11584142
147	0x3ce3bebc	0.02780091
148	0x3e09f26c	0.13471383
149	0x3d999684	0.07499412
150	0xbd98cd60	-0.07461047
151	0x3dd04b30	0.10170591
152	0x3b62dc7e	0.0034616287
153	0xbde3a071	-0.11114586
154	0xbd035a73	-0.03206868
155	0xbe00af15	-0.12566788
156	0xbd9b1715	-0.07572762
157	0xbdd1a189	-0.102358885
158	0x3dca1c57	0.09868687
159	0xbce24be7	-0.027624084
160	0xbcda6fae	-0.026664581
161	0x3d8632b6	0.06552641
162	0x3d687766	0.056754492
163	0xbdbab0ea	-0.09115775
164	0x3d600d6d	0.054700304
165	0x3d7f6851	0.062355343
166	0xbdeb2c86	-0.114831015
167	0x3df76e98	0.12081641
168	0xbdb1b3d6	-0.08676879
169	0xbd6c8d71	-0.057752077
170	0xbdf456fd	-0.11930654
171	0x3e063aea	0.13108411
172	0x3cf0d2ae	0.029397335
173	0x3df92780	0.12165737
174	0x3bebdc9c	0.0071979295
175	0x3d990ae3	0.074727796
176	0xbd4474d4	-0.04796298
177	0xbde29b62	-0.11064793
178	0x3ca72c62	0.020406906
179	0xbc2c10f5	-0.01050209
180	0xbc42187b	-0.011846657
181	0xbd89aa1c	-0.06721899
182	0x3a645afd	0.0008711068
183	0x3d2f8d5c	0.04285942
184	0x3d47f2a9	0.048815403
185	0xbdeee902	-0.116655365
186	0x3d8ffd85	0.07030777
187	0x3c88b8e1	0.01668972
188	0x3dcc54fd	0.09977148
189	0x3dd21700	0.10258293
190	0xbde89e7b	-0.11358353
191	0x3e089be7	0.13340722
192	0xbe10eee3	-0.14153628
193	0x3dab92c4	0.08377603
194	0x3c494f1c	0.012286928
195	0x3d843895	0.06456105
196	0xbd980ddf	-0.07424521
197	0x3da9a75e	0.08283876
198	0xbd8b04e7	-0.067880444
199	0xbe023d3f	-0.12718676
200	0x3d58f655	0.052969296
201	0x3d925b25	0.07146291
202	0x3e0c4f2c	0.13702077
203	0xbca9be57	-0.020720644
204	0x3e1107da	0.14163151
205	0x3dadd9ae	0.08488785
206	0xbd83db81	-0.064383514
207	0xbdd30e59	-0.10305471
208	0x3d966d65	0.07345084
209	0xbdab06e0	-0.08350921
210	0x3d913fd7	0.070922546
211	0xbdebb0f0	-0.115083575
212	0x3ddd5943	0.10808041
213	0x3d14ca46	0.036325715
214	0xbc9f3500	-0.019434452
215	0x3d70f374	0.058825925
216	0xbdc23622	-0.09482981
217	0xbccbb4b0	-0.024866432
218	0xbb2a374e	-0.0025972906
219	0xbd9b9168	-0.075960934
220	0xbd09d558	-0.033650726
221	0xbd88c314	-0.06677833
222	0x3e042ea9	0.12908424
223	0x3df01bd3	0.11724057
224	0x3e030fbc	0.12798971
225	0x3df91da2	0.12163855
226	0xbe08102b	-0.13287418
227	0x3d28f6c9	0.041250978
228	0x3d6e211e	0.05813705
229	0xbde0d16d	-0.10977445
230	0x3d535726	0.051596783
231	0xbda98e44	-0.08279088
232	0x3ce99653	0.028514063
233	0x3d273fdd	0.04083239
234	0x3e0329f0	0.12808967
235	0xbd92f051	-0.07174743
236	0xbdf0097e	-0.117205605
237	0x3dff9042	0.12478687
238	0x3d5a5a66	0.053308867
239	0x3d86ef36	0.065885946
240	0x3d694c67	0.05695763
241	0xbd34a058	-0.04409823
242	0x3db9ec3a	0.0907826
243	0xbe041e31	-0.12902142
244	0x3c607148	0.013698883
245	0x3d8f186e	0.069870815
246	0x3db97c89	0.09056956
247	0xbd843a9f	-0.064564936
248	0xbdd029b0	-0.10164201
249	0x3d71edab	0.05906455
250	0xbddbe768	-0.107374966
251	0xbdf9e113	-0.122011326
252	0xbe0788f5	-0.13235839
253	0xbd959d62	-0.07305409
254	0xbcb4c0b0	-0.022064537
255	0xbdaf7bf1	-0.08568562

module.gcn_layers.0.bnNodes.W2.weight f4 [50, 50]
0	0x3db59418	0.08866137
1	0xbd8821fe	-0.066471085
2	0xbd9ad3aa	-0.07559903
3	0xbd04e0f2	-0.032441087
4	0x3b619e26	0.003442654
5	0xbbd2c36d	-0.006431988
6	0xbc9e328d	-0.019311214
7	0x3cd4e9a2	0.025990311
8	0x3dc680a6	0.096925065
9	0xbdbdfbe1	-0.09276558
10	0x3da21a24	0.07915142
11	0xbe079554	-0.13240558
12	0x3ad9e477	0.0016623874
13	0xbe0ad805	-0.13558967
14	0x3e03d2c2	0.12873366
15	0xbe02cf56	-0.12774405
16	0xbd91fdae	-0.07128464
17	0x3dc36e90	0.095425725
18	0x3da95d68	0.08269769
19	0x3df3b43b	0.118996106
20	0x3d3ed998	0.046594232
21	0xbdf42953	-0.119219445
22	0xbddb00fa	-0.10693546
23	0x3db645c0	0.089000225
24	0xbe1106da	-0.1416277
25	0x3e03e7da	0.12881413
26	0xbc83ec0b	-0.016103765
27	0x3c9ed4bb	0.019388547
28	0x3ac814d2	0.0015264994
29	0xbd1a0b75	-0.037608583
30	0xbd2ddd50	-0.04244739
31	0x3d0eece2	0.034893878
32	0xbcf76c1a	-0.030202914
33	0x3c856e11	0.016287835
34	0x3e005bfd	0.1253509
35	0x3ca872d9	0.020562576
36	0xbdd349cf	-0.10316812
37	0xbde677b4	-0.112533
38	0x3da95f24	0.082701
39	0x3d2a768f	0.041616973
40	0x3d0be6ac	0.034155533
41	0xbd80c78a	-0.06288059
42	0xbddd434c	-0.108038515
43	0x3de9383d	0.1138768
44	0xbe0fee3b	-0.14055721
45	0xbd807b78	-0.0627355
46	0x3d44fb5a	0.04809127
47	0x3e033c6f	0.12816022
48	0xbd52f532	-0.051503368
49	0xbe067052	-0.13128784
50	0x3d293f2f	0.041320022
51	0xbc380a78	-0.011232965
52	0xbce673bd	-0.02813136
53	0xbe09176b	-0.1338784
54	0x3ddc74f9	0.10764498
55	0x3cdccaf6	0.026952248
56	0x3d49c990	0.04926449
57	0x3db8eef5	0.090299524
58	0x3e0500f8	0.12988651
59	0xbd026375	-0.03183313
60	0x3c9ad42d	0.018900001
61	0xbda8873b	-0.08228918
62	0xbde8c150	-0.113649964
63	0xbd9b0355	-0.07568995
64	0x3c6f42ef	0.014603361
65	0xbdc60b09	-0.096700735
66	0x3db52637	0.088451795
67	0x3d45ec1f	0.048320886
68	0xbd221986	-0.039575122
69	0x3da00070	0.078125834
70	0x3de659ee	0.112476215
71	0xbd24a4e4	-0.040196314
72	0x3d8ffe72	0.070309535
73	0x3da70dc4	0.081569225
74	0x3e043f79	0.12914838
75	0xbdd71e4e	-0.10503827
76	0x3df53410	0.11972821
77	0xbb6862a0	-0.0035459176
78	0x3c8b4b9a	0.017003823
79	0x3a1f919c	0.0006087066
80	0xbdcc2f1a	-0.099699214
81	0xbd6cf648	-0.05785206
82	0xbdf65302	-0.12027551
83	0xbcd69108	-0.026192203
84	0x3d236c90	0.039898455
85	0xbdc02167	-0.09381371
86	0x3d7afdd4	0.061277226
87	0xbe0fc068	-0.14038241
88	0x3d7f0db1	0.062268917
89	0xbe14eebb	-0.14544193
90	0x3a556785	0.0008140731
91	0x3de59969	0.11210901
92	0xbdf5992b	-0.11992105
93	0xbdf17ae7	-0.1179102
94	0xbd9bf4ba	-0.07615037
95	0xbd45bb7f	-0.048274513
96	0xbda90704	-0.08253291
97	0x3e016b69	0.1263863
98	0xbdcf0a43	-0.10109379
99	0x3d886b19	0.06661052
100	0xbde1fbdc	-0.110343665
101	0xbd1ead04	-0.03873922
102	0xbdd49733	-0.103804015
103	0xbe035de8	-0.12828791
104	0xbdaf376b	-0.08555492
105	0xbbe9bdec	-0.007133236
106	0x3d8aacf1	0.06771267
107	0x3d7092eb	0.058733862
108	0x3d377fd7	0.044799652
109	0x3dde483b	0.108536206
110	0xbb958772	-0.0045632655
111	0x3e0d4ada	0.13798085
112	0xbde5cd5f	-0.11220812
113	0xbd92bb37	-0.07164615
114	0xbdd561fa	-0.10419078
115	0xbdc546a8	-0.09632617
116	0xbde7edc5	-0.11324648
117	0xbdfe0c7e	-0.124047264
118	0x3df99450	0.121864915
119	0x3c989d77	0.018629773
120	0x3d7a25c1	0.06107116
121	0xbd6b92db	-0.0575131
122	0x3d27c425	0.040958542
123	0xbd87454b	-0.066050135
124	0xbe04038a	-0.12891975
125	0x3cbc17f3	0.022960639
126	0x3d9d0b20	0.076681376
127	0xbced4e3a	-0.028967965
128	0x3d23d8ea	0.040001787
129	0x3d4b3f19	0.04962072
130	0x3de456f1	0.11149395
131	0xbe0aebc9	-0.13566507
132	0xbd3f90f6	-0.046769105
133	0x3c7a36b0	0.015271828
134	0x3e10ba23	0.14133506
135	0x3e0185c5	0.12648685
136	0xbddc93e4	-0.107703954
137	0xbdcf826f	-0.101323
138	0x3e06daeb	0.13169448
139	0xba452f04	-0.00075219595
140	0xbda0468d	-0.078259565
141	0xbda221ff	-0.079166405
142	0x3d96a60f	0.07355892
143	0x3dc65325	0.09683827
144	0x3e00757a	0.12544814
145	0xbd12a613	-0.035802912
146	0xbd3b366f	-0.04570621
147	0x3a7807fa	0.0009461638
148	0x3dea7991	0.11448968
149	0xbdf2484c	-0.11830196
150	0x3da1e728	0.07905418
151	0xbddba625	-0.10725049
152	0xbcb68b58	-0.022283241
153	0x3de2055b	0.11036178
154	0xbd305007	-0.04304507
155	0xbd589c4b	-0.052883428
156	0x3b315c84	0.00270632
157	0x3d77dae9	0.060511503
158	0x3df58aa2	0.11989333
159	0xbe052262	-0.13001397
160	0x3de55344	0.11197522
161	0xbd269e1e	-0.040678136
162	0x3c61c61f	0.013780146
163	0xbd99f42f	-0.075172774
164	0x3cea4093	0.028595245
165	0xbe16de0c	-0.14733142
166	0xbda92506	-0.08259015
167	0xbd8c9b4b	-0.06865557
168	0x3dc3114c	0.095247835
169	0x3d3771ba	0.044786192
170	0xbdbeaacb	-0.0930992
171	0x3cd773d0	0.02630034
172	0x3e04f8d9	0.12985553
173	0xbe130b47	-0.1435977
174	0x3df2cf0a	0.11855896
175	0x3dd8a859	0.10578985
176	0x3c6f1ed8	0.014594756
177	0xbd8c3586	-0.06846146
178	0x3d9955cb	0.07487067
179	0x3d92365b	0.07139274
180	0xbd8048fa	-0.06263919
181	0xbda373cd	-0.079810716
182	0xbdc9da53	-0.09856095
183	0xbd81cbf6	-0.063377306
184	0x3cda9cd3	0.026686108
185	0x3d8a27be	0.067458615
186	0x3b345384	0.00275156
187	0x3e010f7e	0.12603566
188	0x3d29889b	0.041390043
189	0x3d0d3523	0.034474503
190	0xbd941b3e	-0.072317585
191	0xbd045567	-0.03230801
192	0x3dd0c458	0.101936996
193	0x3d850538	0.06495136
194	0xbcd4279c	-0.025897793
195	0xbdb08865	-0.08619765
196	0xbe061f09	-0.13097776
197	0x3b73c32f	0.0037195196
198	0xbdb0739e	-0.08615802
199	0xbcd49945	-0.02595199
200	0xbcabf5a9	-0.020991163
201	0xbe0a2f06	-0.134945
202	0x3dc2fdc1	0.09521056
203	0xbceae126	-0.028671812
204	0xbe0bebf0	-0.13664222
205	0xbe04b259	-0.12958659
206	0xbde19f06	-0.110166594
207	0xbd5a6518	-0.053319067
208	0xbbc0df12	-0.005885967
209	0x3d6ab44f	0.057300862
210	0xbb27e63e	-0.0025619413
211	0xbe083cf3	-0.133045
212	0xbded1275	-0.11575786
213	0xbd980b0c	-0.07423982
214	0x3dde0e36	0.10842554
215	0xbc0f5e89	-0.008750566
216	0xbe0341e5	-0.12818106
217	0xbd6cf7a2	-0.05785335
218	0xbdcd6cf0	-0.10030544
219	0x3cb34811	0.02188495
220	0xbc1933d5	-0.009350737
221	0xbca00373	-0.019532895
222	0x3ddb7b2f	0.10716855
223	0xbdb4a4f9	-0.088205285
224	0x3c8345f9	0.016024577
225	0xbd4cd8be	-0.05001139
226	0x3ce09169	0.027413087
227	0xbde977a1	-0.113997705
228	0xbd56b3b4	-0.052417472
229	0x3d8606d0	0.06544268
230	0xbdc66670	-0.09687507
231	0xbd88ac34	-0.0667347
232	0xbc917c64	-0.01775951
233	0xbde76829	-0.11299164
234	0xbdb6a8f3	-0.08918943
235	0xbd30b595	-0.04314192
236	0xbc6c4d3f	-0.014422714
237	0xbd03550a	-0.03206352
238	0x3bc099b1	0.0058776964
239	0xbe07682e	-0.13223335
240	0xbcab144d	-0.020883704
241	0xbdf95159	-0.12173719
242	0x3d9d802d	0.07690463
243	0x3e0136c5	0.12618549
244	0xbde9b905	-0.11412243
245	0xbdcb8e5d	-0.09939263
246	0x3e0a559d	0.13509221
247	0x3de47d07	0.111566596
248	0x3d825359	0.063635536
249	0xbdb37563	-0.08762624
250	0x3d1cfb03	0.03832532
251	0x3aa87db4	0.0012854845
252	0x3de65a68	0.112477124
253	0x3dbfffb6	0.09374945
254	0xbcb3ddf4	-0.021956421
255	0x3d4bd9b8	0.04976818

module.gcn_layers.0.bnNodes.batch_norm.weight f4 [50]
0	0x3f7dd1c0	0.9914818
1	0x3f7dcaea	0.9913775
2	0x3f7f654a	0.9976393
3	0x3f7ed8ea	0.99549735
4	0x3f812cf2	1.0091841
5	0x3f7f1417	0.9964003
6	0x3f7e0618	0.9922805
7	0x3f7d1222	0.98855793
8	0x3f80e2fb	1.0069269
9	0x3f81348f	1.0094165
10	0x3f8001ae	1.0000513
11	0x3f804ad3	1.0022835
12	0x3f7ea578	0.99471235
13	0x3f7d584c	0.98962855
14	0x3f7eb0ed	0.9948872
15	0x3f7e2944	0.99281716
16	0x3f7eefbd	0.9958456
17	0x3f8055eb	1.002622
18	0x3f8171ce	1.0112855
19	0x3f7e52be	0.99345005
20	0x3f80107f	1.0005034
21	0x3f7ddf1e	0.99168575
22	0x3f7df9ed	0.9920948
23	0x3f807785	1.0036474
24	0x3f80801a	1.0039093
25	0x3f7cdf25	0.9877799
26	0x3f808b0c	1.0042434
27	0x3f8000cf	1.0000247
28	0x3f80e02d	1.0068413
29	0x3f80b76c	1.0055976
30	0x3f80123b	1.0005563
31	0x3f800dcb	1.0004209
32	0x3f7da49f	0.99079317
33	0x3f8144c8	1.0099115
34	0x3f8026b1	1.0011808
35	0x3f8145a3	1.0099376
36	0x3f7d5fac	0.9897411
37	0x3f8129de	1.0090902
38	0x3f7ddd01	0.9916535
39	0x3f7e4ba6	0.9933418
40	0x3f7fefad	0.9997509
41	0x3f80fb06	1.0076606
42	0x3f7dae12	0.99093735
43	0x3f814637	1.0099553
44	0x3f7d8b63	0.9904081
45	0x3f809b8d	1.004747
46	0x3f7dbf68	0.9912019
47	0x3f814b12	1.0101035
48	0x3f7d5bee	0.989684
49	0x3f814ec5	1.0102164

module.gcn_layers.0.bnNodes.batch_norm.bias f4 [50]
0	0xbc3dd0f3	-0.011585462
1	0xbc19fcc7	-0.009398646
2	0xbbd9f565	-0.0066515678
3	0x3c086a46	0.008326119
4	0x3c134d06	0.008990532
5	0xbbb6852a	-0.0055700736
6	0xbc0dcc39	-0.0086546475
7	0xbc40475f	-0.011735766
8	0x3c25032b	0.010071556
9	0x3c1c909c	0.009555962
10	0x3b8bf2bb	0.004270879
11	0xbbc51ae7	-0.00601517
12	0xb957fdc9	-0.0002059854
13	0xbc050d86	-0.0081209
14	0xbc0ce8ec	-0.008600455
15	0xbb8f5945	-0.0043746554
16	0x3972a719	0.00023141167
17	0xb9fd21c3	-0.00048281075
18	0x3c48658a	0.01223124
19	0x3c057b3b	0.008147056
20	0xbb4a1ef1	-0.0030841196
21	0xbbc781e3	-0.0060884818
22	0xbb15c135	-0.0022850756
23	0x3bc25a45	0.005931171
24	0xbc2094b9	-0.009801083
25	0xb9e64fe8	-0.00043928553
26	0x3b45beec	0.0030173613
27	0x3b624fc2	0.0034532403
28	0x3c537d57	0.012908301
29	0x3c07a865	0.0082798945
30	0xbb90f9ff	-0.004424333
31	0x3b0fb5f9	0.0021928533
32	0xbbdfde20	-0.0068318993
33	0x3c1d7e8b	0.00961269
34	0x3b52d134	0.0032168152
35	0x3be9729d	0.0071242587
36	0xbbac007c	-0.005249081
37	0x3c2266b4	0.009912182
38	0xbc1138af	-0.008863612
39	0xbb85314b	-0.004064714
40	0x3b659689	0.0035032353
41	0x3a906cd1	0.0011018758
42	0xbc0e1a81	-0.008673311
43	0x3bfd401f	0.007728591
44	0xbbe19362	-0.0068840245
45	0x3ac8e4f0	0.0015327018
46	0x3abd7645	0.0014454803
47	0x3c4fb747	0.012677974
48	0xbc470efd	-0.01214957
49	0x3c393794	0.011304755

module.gcn_layers.0.bnEdges.W3.weight f4 [50, 50]
0	0xbdc1c00d	-0.09460459
1	0xbce77c1c	-0.028257422
2	0x3bbbd548	0.005732212
3	0xbe096196	-0.13416132
4	0x3dc6a808	0.09700018
5	0x3dd547e0	0.104141
6	0xbe113398	-0.14179838
7	0xbce70d1c	-0.028204493
8	0x3d02700c	0.031845137
9	0x3da024e2	0.07819535
10	0x3d5307c8	0.051521093
11	0xbbce7ac7	-0.0063012573
12	0x3e05a0e9	0.13049664
13	0xbcc131d0	-0.023583323
14	0x3a0eb1b1	0.0005443348
15	0xbdab1507	-0.0835362
16	0xbdb465ca	-0.08808477
17	0xbd4354b1	-0.04768819
18	0xbe0b5c52	-0.13609436
19	0xbcd26773	-0.025684094
20	0x3cbc4e1c	0.022986464
21	0xbdb9e52f	-0.090769164
22	0xbde417ad	-0.11137328
23	0x3e0746ae	0.13210556
24	0xbd60ca4d	-0.05488043
25	0xbddf480e	-0.10902415
26	0xbcfb090d	-0.030643964
27	0xbd923108	-0.07138258
28	0xbe054169	-0.13013233
29	0xbcc2b0ea	-0.023766
30	0xbd8d9dc1	-0.06914855
31	0xbd1e666c	-0.038671896
32	0x3d8ba9ea	0.06819518
33	0x3ae8922e	0.001774376
34	0x3de7fd06	0.11327557
35	0xbe155c59	-0.14586009
36	0x3df3a82a	0.11897309
37	0x3da8ece1	0.08248306
38	0xbd338820	-0.04383099
39	0x3dbe5790	0.09294045
40	0x3e029da7	0.12755452
41	0x3c15db7e	0.009146569
42	0x3d34d70d	0.0441504
43	0xbd0fb755	-0.03508695
44	0xbc7ba783	-0.015359762
45	0xbafae2cc	-0.0019141077
46	0xbd9cb048	-0.076508105
47	0x3cf01327	0.029306008
48	0xbd632483	-0.055454742
49	0x3d89d1a7	0.06729441
50	0x3d07853f	0.033086058
51	0xbdf7ad13	-0.12093558
52	0x3e0d7d00	0.13817215
53	0x3d5d1296	0.053972803
54	0x3da1410d	0.078737356
55	0xbe03d1c1	-0.12872984
56	0x3e07edfc	0.13274378
57	0x3d5d9571	0.054097597
58	0xbcb7ad86	-0.02242161
59	0xbda6366c	-0.08115849
60	0x3d1f6104	0.03891088
61	0x3d2e70f2	0.04258818
62	0x3d0117e1	0.031516913
63	0x3dbb0987	0.091326766
64	0xbdf0cf70	-0.117583156
65	0xbdf8ab3d	-0.12142036
66	0x3e179d8d	0.14806195
67	0x3e05da6e	0.13071606
68	0xbaae2d03	-0.0013288561
69	0x3db7efe1	0.089813
70	0x3de65fd7	0.11248749
71	0x3db9a99d	0.09065554
72	0xbda10e54	-0.07864061
73	0xbd822646	-0.06354956
74	0xbdae9b1b	-0.08525678
75	0xbd0c589b	-0.03426419
76	0x3e038a3a	0.12845698
77	0x3adbe0a0	0.0016775317
78	0xbdf0b0f8	-0.11752504
79	0x3de4550a	0.111490324
80	0x3d75e302	0.060030945
81	0x3c9507d8	0.018192217
82	0xbda1f943	-0.07908871
83	0x3ddad6c1	0.10685492
84	0xbde28968	-0.110613644
85	0x3d9941d4	0.07483259
86	0xbc4d6e52	-0.012538509
87	0xbd656cf8	-0.056012124
88	0xbdfb68a8	-0.12275821
89	0x3cc3f0b1	0.023918482
90	0xbd7e51c6	-0.062089704
91	0xbd53101d	-0.05152904
92	0x3d9a6818	0.075393856
93	0xbdc32def	-0.095302455
94	0x3e0da4bb	0.13832371
95	0x3de195dd	0.11014912
96	0x3ddc1ffe	0.107482895
97	0x3c2674ce	0.010159684
98	0xbde6e293	-0.11273684
99	0xbce5962d	-0.028025711
100	0xbd9f100a	-0.07766731
101	0xbc2d516f	-0.010578497
102	0xbe10781b	-0.14108317
103	0xbd95a18e	-0.07306205
104	0xbd0a5df3	-0.033781003
105	0xbc185b00	-0.00929904
106	0xbd3b7a21	-0.045770768
107	0x3ca6c4f4	0.020357586
108	0xbd8ad49c	-0.06778833
109	0xbdd86cf1	-0.10567654
110	0xbde605ce	-0.11231576
111	0x3e0f84ec	0.1401555
112	0x3dbeea6c	0.09322056
113	0xbdec8022	-0.11547877
114	0xbe03f26b	-0.12885444
115	0x3b6f60aa	0.0036526122
116	0xbdae5c36	-0.085136816
117	0x3d1e67c2	0.03867317
118	0xbd74979d	-0.059714902
119	0x3b8e7f9a	0.0043487074
120	0xbd38f46e	-0.04515498
121	0xbdcdf421	-0.100563295
122	0xbb7fb18a	-0.0039015734
123	0x3e0d7a98	0.13816297
124	0x3df47ef5	0.11938278
125	0xbdcca3c6	-0.09992175
126	0x3d39e34a	0.045382775
127	0x3df4ae29	0.11947281
128	0x3c41c5fa	0.011826986
129	0xbc8bb73f	-0.017055152
130	0x3df054a0	0.11734891
131	0x3baaa245	0.0052073323
132	0xbcbad07f	-0.022804497
133	0x3e024fda	0.12725773
134	0x3d659ffd	0.05606078
135	0xbdbe6b0f	-0.092977636
136	0x3dce9841	0.10087634
137	0x3df5e842	0.1200719
138	0x3de0ea8a	0.10982235
139	0xbd8feeff	-0.07028007
140	0xbd68a0ad	-0.056793857
141	0x3db2d78f	0.08732521
142	0x3ddef0d2	0.108857766
143	0xbde6ceec	-0.11269936
144	0x3dea5a02	0.11442949
145	0x3d975c2c	0.07390627
146	0x3d1f7ea7	0.038939144
147	0xbd19d2d0	-0.037554562
148	0xbc77028f	-0.015076294
149	0x3da9b12d	0.08285747
150	0x3cf3bfc9	0.029754536
151	0x3dd81f55	0.10552851
152	0xbda5d5dd	-0.08097432
153	0xbd2fd3ae	-0.042926483
154	0xbc1e6339	-0.009667211
155	0x3d82e214	0.06390777
156	0x3d64c7fd	0.055854786
157	0x3da735fb	0.08164593
158	0xbdae02ef	-0.08496653
159	0xbc972ebe	-0.018454906
160	0x3d7c819b	0.06164704
161	0xbd8d9b54	-0.06914392
162	0x3dc163db	0.09442874
163	0x3dbe9095	0.093049206
164	0x3dadfabe	0.08495091
165	0x3d8d0f9f	0.06887745
166	0x3dbc553d	0.091959454
167	0xbde7e478	-0.11322874
168	0xbd15ab73	-0.03654046
169	0x3de69b5d	0.11260102
170	0xbd551b04	-0.052027717
171	0x3baa9b67	0.0052065137
172	0xbd606241	-0.054781202
173	0xbc4901ac	-0.012268465
174	0xbcfd9ae8	-0.030957654
175	0xbd21fb44	-0.039546266
176	0x3cc4299a	0.023945618
177	0x3e0632d2	0.13105324
178	0x3ad23b89	0.0016039471
179	0xbd2188e6	-0.039437197
180	0x3deea0e4	0.11651781
181	0xbd86fc2e	-0.06591068
182	0x3d0f0236	0.034914218
183	0x3b7e4968	0.0038801078
184	0x3d2ebe93	0.042662214
185	0x3dac14e4	0.08402422
186	0x3d1dd1df	0.038530227
187	0xbc3691ff	-0.011143207
188	0x3d7d337c	0.061816677
189	0x3cb19c95	0.02168111
190	0xbcbe0ec6	-0.023200404
191	0x3d01c3b2	0.03168077
192	0xbd9532f7	-0.072851114
193	0x3c3c380b	0.011487971
194	0xbda990bc	-0.08279559
195	0x3d8024ad	0.06256995
196	0x3e0db54a	0.13838688
197	0xbd413ddb	-0.04717813
198	0xbe02b5d9	-0.12764682
199	0x3df0efc0	0.11764479
200	0xbda57cf5	-0.08080474
201	0x3dcfd1f9	0.10147471
202	0x3db8bc6f	0.09020316
203	0xbd6c5931	-0.057702247
204	0xbb8b6ef0	-0.004255168
205	0xbd8ab3ba	-0.06772561
206	0x3de2251e	0.11042236
207	0xbde08ffa	-0.10964961
208	0x3cc12b2d	0.023580158
209	0xbdb2ef83	-0.087370895
210	0x3dd42768	0.10359079
211	0x3d9cbc5e	0.07653116
212	0x3e052819	0.13003577
213	0xbd69bc67	-0.05706444
214	0x3d23cb9d	0.039989103
215	0xbde6eac1	-0.112752445
216	0x3d9c1022	0.076202646
217	0xbd6056e2	-0.054770358
218	0x3d2101c2	0.039308317
219	0x3d793f8e	0.060851626
220	0xbdc5b2be	-0.09653233
221	0x3db2ce01	0.087306984
222	0xbd4cb975	-0.049981553
223	0x3d7f7ef2	0.062376924
224	0xbd25b527	-0.040455963
225	0xba517fe5	-0.0007991775
226	0x3caf7985	0.02142025
227	0x3deb3cd2	0.1148621
228	0x3d4255e1	0.04744518
229	0x3c8fcc9e	0.017553624
230	0xbd07a84b	-0.03311948
231	0xbe0908cb	-0.1338226
232	0xbd649a7b	-0.055811387
233	0xbd620362	-0.055179007
234	0x3d3c25d1	0.045934502
235	0xbc8dbe06	-0.017302524
236	0x3d189e78	0.037260503
237	0xbd87d183	-0.06631758
238	0xbe175cc1	-0.14781477
239	0x3d375ed3	0.044768166
240	0x3d8deba0	0.069297075
241	0x3d8a9ed5	0.06768576
242	0x3dfe916c	0.12430081
243	0xbe0606d9	-0.1308855
244	0x3d0f6a87	0.0350137
245	0x3df46ac2	0.11934425
246	0xbda265ec	-0.07929596
247	0x3dafe3de	0.08588384
248	0x3da42a68	0.08015901
249	0x3cbceab0	0.023061126
250	0xbe0922b1	-0.1339214
251	0x3d8519f9	0.064990945
252	0x3e034ec1	0.12823011
253	0xbc9194f1	-0.017771216
254	0x3d6c5dd1	0.057706658
255	0x3ddf5a54	0.109059006

module.gcn_layers.0.bnEdges.W4.weight f4 [50, 50]
0	0x3d0d2b3d	0.034465063
1	0xbc1275e3	-0.008939239
2	0xbd9883dc	-0.07447025
3	0xbd8e9523	-0.06962039
4	0xbd6bd0ed	-0.057572294
5	0x3daf0b26	0.08547048
6	0xbd4e2f02	-0.0503378
7	0x3df95852	0.12175049
8	0xbe04cbd7	-0.12968384
9	0xbe0f743f	-0.14009188
10	0x3e126344	0.1429568
11	0x3dc2e80e	0.09516917
12	0xbdee6ac9	-0.116414614
13	0xbdcc2364	-0.09967688
14	0x3e155992	0.1458495
15	0xbdc29b7f	-0.09502315
16	0x3c185c60	0.009299368
17	0x3d4754f0	0.048664987
18	0xbc85dbd2	-0.01634017
19	0xbc884e00	-0.016638756
20	0x38ed0168	0.000113013026
21	0xbd309bdb	-0.043117385
22	0x3dc3c2c4	0.09558633
23	0x3ae13312	0.0017181358
24	0x3e0bf3b3	0.13667183
25	0x3e064784	0.13113219
26	0x3c7003de	0.0146493595
27	0x3d7f5ff2	0.06234736
28	0x3c903464	0.017603107
29	0x3bf18897	0.007371019
30	0x3dde458e	0.1085311
31	0xbdaf62c7	-0.08563762
32	0x3e0bee84	0.13665205
33	0x3c23bbbf	0.009993493
34	0xbdfec060	-0.12439036
35	0x3d89768c	0.06712064
36	0x3d8ed85d	0.06974862
37	0xbd4415d1	-0.04787237
38	0xbd80bea7	-0.06286364
39	0xbe039434	-0.12849504
40	0x3de995d0	0.114055276
41	0xbd8b4b3e	-0.06801461
42	0xbdcda56b	-0.100413166
43	0xbd47ca58	-0.048776954
44	0xbd354741	-0.044257406
45	0xbcdf72a9	-0.027276354
46	0xbe04cdc4	-0.12969118
47	0xbd6c1f4f	-0.057647046
48	0xbd0af628	-0.03392616
49	0xbde8da9a	-0.1136982
50	0x3cb8acca	0.02254333
51	0xbb68e93d	-0.0035539411
52	0x3ceb137b	0.028695812
53	0xbcf4927d	-0.029855007
54	0xbdb3e151	-0.0878321
55	0x3d8fc008	0.07019049
56	0x3dcd0226	0.100101754
57	0x3d908a15	0.07057587
58	0xbd502993	-0.0508209
59	0xbd2227d5	-0.039588768
60	0xbdc389f9	-0.095478006
61	0x3cad1df7	0.021132452
62	0xbdc8128b	-0.09769162
63	0x3d2db2b9	0.04240677
64	0xbb813649	-0.003943239
65	0xbbac7b47	-0.0052637192
66	0xbd5e9ce6	-0.05434885
67	0xbde8c590	-0.11365807
68	0xbde2d99b	-0.11076661
69	0x3d9913b2	0.0747446
70	0xbd64230c	-0.055697486
71	0xbd0c5d01	-0.034268383
72	0xbdbe1f7c	-0.09283349
73	0x3bfa4c16	0.0076384647
74	0xbde05dae	-0.10955368
75	0xbbb75000	-0.0055942535
76	0xbe0bc7e8	-0.13650477
77	0x3cfc3053	0.030784762
78	0x3de27ed2	0.11059345
79	0xbdf0ab89	-0.11751468
80	0x3d912e7f	0.070889466
81	0xbd9923a6	-0.074775025
82	0x3d891aa8	0.066945374
83	0xbddacfc6	-0.10684161
84	0x3d9cae7a	0.07650466
85	0x3d79f755	0.06102689
86	0x3e0ce66b	0.13759772
87	0x3d129ecc	0.03579597
88	0x3cc98291	0.024598392
89	0xbdbaa3ac	-0.09113249
90	0x3de50275	0.11182109
91	0xbbb707b0	-0.005585633
92	0x3dc91a07	0.098194174
93	0x3da31600	0.079631805
94	0xbde630d2	-0.112397805
95	0x3dea3f87	0.11437898
96	0x3c446951	0.011988
97	0x3ccbe1e1	0.02488798
98	0xbdb6b9ec	-0.089221805
99	0x3d3cc8bf	0.046089884
100	0xbd0601e7	-0.032716658
101	0xbd48e5e2	-0.04904736
102	0xbc6c9502	-0.014439823
103	0x3d6bc5f3	0.057561826
104	0x3d47f3f0	0.04881662
105	0x3c4e66d4	0.012597758
106	0x3dba351c	0.09092161
107	0x3e0db81f	0.13839768
108	0xbc51c3fb	-0.012803073
109	0x3da3d9fa	0.0800056
110	0x3d8a4c28	0.06752807
111	0xbd5ca05e	-0.053863876
112	0xbe05b991	-0.13059069
113	0x3b317e5a	0.0027083368
114	0xbda263e5	-0.079292096
115	0xbdbe25a3	-0.092845224
116	0xbdb5210a	-0.08844192
117	0xbe0a4207	-0.1350175
118	0xbda7f264	-0.08200529
119	0xbd2702b0	-0.040774047
120	0xbaef8673	-0.0018274322
121	0x3db6f148	0.089327395
122	0x3d14936b	0.0362734
123	0x3d7be0c5	0.061493654
124	0xbd298a63	-0.04139174
125	0x3ca9f8c1	0.020748498
126	0x3e180bdf	0.14848278
127	0x3d899b97	0.067191295
128	0x3dbb2835	0.09138528
129	0xbd00ee9c	-0.031477556
130	0x3de0f820	0.10984826
131	0xbd6d8b19	-0.057993982
132	0xbbe588ba	-0.0070048245
133	0xbda63ed3	-0.081174515
134	0xbe0962f1	-0.1341665
135	0x3dc626f1	0.09675396
136	0x3de07376	0.109595224
137	0x3d69b67d	0.0570588
138	0x3c83d782	0.016093973
139	0xbe1415b1	-0.144614
140	0xbdcb58f2	-0.09929074
141	0x3c22215f	0.009895652
142	0x3dab43a1	0.083625086
143	0xbd2123d1	-0.039340798
144	0xbde39435	-0.111122526
145	0x3c9a6a55	0.018849531
146	0x3d894ae9	0.06703741
147	0xbd117088	-0.03550771
148	0x3dadb9d6	0.08482711
149	0xbd7205a4	-0.05908741
150	0xbd946bfb	-0.07247158
151	0x3d3d887c	0.04627274
152	0xbe03b2d3	-0.12861185
153	0x3d341ab1	0.043970767
154	0x3cb9b78b	0.022670528
155	0x3e0c1194	0.1367858
156	0xbd935db0	-0.07195604
157	0xbd243d1d	-0.040097345
158	0xbd8da06e	-0.06915365
159	0x3d146855	0.03623231
160	0xbe03b109	-0.12860502
161	0xbde4aab0	-0.111653686
162	0xbd05c206	-0.03265574
163	0x3e19cbf0	0.15019202
164	0xbce5af36	-0.028037649
165	0xbafbfcfa	-0.0019225173
166	0xbe01d6f4	-0.12679654
167	0xbe0b1d03	-0.13585286
168	0x3c49893d	0.012300787
169	0xbcd3d30b	-0.025857469
170	0x3d9bb483	0.07602789
171	0xbd925421	-0.071449526
172	0xbb8857c7	-0.0041608545
173	0xbc6f417f	-0.014603018
174	0xbdc6753f	-0.09690332
175	0xbc7ddf1a	-0.015495086
176	0xbd93a0ac	-0.0720838
177	0x3d49b871	0.049248163
178	0x3ce38358	0.02777259
179	0xbdbd0759	-0.09229917
180	0xbdd8aebe	-0.105802044
181	0xbdd00bd1	-0.10158504
182	0x3d3874fe	0.045033447
183	0x3ddb6a73	0.10713663
184	0xbdce9779	-0.10087485
185	0xbd80670a	-0.06269653
186	0xbe072274	-0.13196737
187	0xbddc0d7c	-0.107447594
188	0x3d90b58f	0.070658796
189	0x3d0b66b1	0.03403348
190	0x3e05f7e2	0.13082841
191	0x3db3c79d	0.087783076
192	0xbda6e5fa	-0.08149333
193	0x3cb65de6	0.022261571
194	0x3df4bd36	0.119501516
195	0x3b4860f6	0.0030575371
196	0xbcdc8a76	-0.026921492
197	0xbbac092a	-0.005250116
198	0xbcd33be6	-0.025785398
199	0x3d87527d	0.0660753
200	0xbd97f07b	-0.07418915
201	0xbd983730	-0.07432401
202	0xbd185f26	-0.037200116
203	0xbd2f79ef	-0.042840894
204	0x3da540a4	0.0806897
205	0xbd97fd95	-0.07421414
206	0xbdebcc09	-0.11513526
207	0x3bbf92c1	0.005846352
208	0xbce28907	-0.02765323
209	0xbc93fa95	-0.018063823
210	0x3dcf33dd	0.10117314
211	0xbdc902bb	-0.09814974
212	0xbd856233	-0.06512871
213	0xbcac1baa	-0.021009285
214	0xbd38e23e	-0.045137636
215	0x3de1fca6	0.11034517
216	0x3e04a519	0.12953605
217	0xbd8a4115	-0.06750695
218	0xbbf4cc07	-0.007470611
219	0x3b24999c	0.0025115972
220	0xbdef4033	-0.11682167
221	0x3e17869e	0.14797446
222	0x3e0412ae	0.1289775
223	0xbd464458	-0.04840502
224	0x3dfe2ea8	0.12411243
225	0xbd9db018	-0.07699603
226	0xbe024f30	-0.1272552
227	0x3dd9e25f	0.1063888
228	0x3d8f69a7	0.070025735
229	0xbcdbed96	-0.026846688
230	0xbdd44deb	-0.10366424
231	0x3db0eaf0	0.08638561
232	0xbda54157	-0.08069103
233	0xbe039cf0	-0.12852836
234	0xbd39b9ff	-0.045343395
235	0xbd86689f	-0.06562924
236	0xbd79d965	-0.06099834
237	0x3c36a0d1	0.01114674
238	0x3db639ea	0.08897765
239	0xbe0ae5f7	-0.13564287
240	0x3cdced86	0.026968729
241	0x3d8ccaf4	0.06874648
242	0xbc405856	-0.011739811
243	0x3d9e7ee1	0.07739044
244	0x3d9f1f6a	0.07769664
245	0xbdd4b5bd	-0.10386226
246	0xbcc9b184	-0.024620779
247	0x3d9a3640	0.075298786
248	0x3daeb06c	0.085297436
249	0x3d1bd6fd	0.038046826
250	0x3dbf7ebd	0.09350345
251	0x3d985d0a	0.07439621
252	0xbcf4a68e	-0.029864576
253	0xbdb89a65	-0.090138234
254	0xbe0cf60b	-0.13765733
255	0xbd9ef058	-0.07760686

module.gcn_layers.0.bnEdges.W5.weight f4 [50, 50]
0	0xbd83c837	-0.06434672
1	0x3c349813	0.011022585
2	0x3dab8dac	0.08376631
3	0x3d336cf0	0.043805063
4	0xbd0f8e5a	-0.035047866
5	0x3dccf42e	0.10007511
6	0xbdd11991	-0.102099545
7	0xbd7a0bfb	-0.06104658
8	0x3c106436	0.008812955
9	0x3e0c7329	0.13715805
10	0x3d07c788	0.033149272
11	0xbd237c17	-0.039913263
12	0x3c515262	0.012775989
13	0xbca66dcb	-0.020316025
14	0xbca4b251	-0.02010456
15	0xbdd99078	-0.10623258
16	0x3dae617a	0.08514686
17	0xbe0bc785	-0.1365033
18	0x3db6e71b	0.089307986
19	0xbd85cfc5	-0.065337695
20	0xbd8ddb4e	-0.06926595
21	0xbc55b6b6	-0.01304405
22	0xbe0e44bf	-0.13893412
23	0xbdb5d46a	-0.088784054
24	0x3d7708e4	0.060311213
25	0xbe09bec0	-0.13451672
26	0x3e0ecff9	0.13946523
27	0x3cc5a2f2	0.02412555
28	0x3e09720b	0.1342241
29	0xbd16ebe8	-0.03684607
30	0xbd6c6396	-0.05771216
31	0xbdad2d7b	-0.0845594
32	0x3c0b2ee8	0.00849507
33	0x3b70e00c	0.0036754636
34	0x3d8bbb15	0.068227924
35	0xbdfe40fa	-0.12414737
36	0x3d46a034	0.048492625
37	0x3c0a23c9	0.008431383
38	0x3d3cb8a4	0.046074525
39	0xbd8d304b	-0.06893977
40	0xbdedd303	-0.11612513
41	0xbe0638c3	-0.1310759
42	0x3d710d85	0.058850784
43	0xbda403c2	-0.08008529
44	0xbdd9fcf1	-0.10643948
45	0xbd9f8242	-0.077885166
46	0x3c959fe9	0.018264728
47	0xbd1cb1a3	-0.038255345
48	0x3d263aa4	0.040583268
49	0xbd3ca5d6	-0.04605659
50	0xbde73cdc	-0.11290905
51	0xbe129b47	-0.14317046
52	0x3d721476	0.059101544
53	0x3d2f5fb7	0.04281589
54	0x3d8ba9c7	0.06819492
55	0xbde079cc	-0.10960731
56	0xbcf805ca	-0.030276198
57	0xbdaced3b	-0.084436856
58	0xbc6f5b43	-0.014609161
59	0xbe097fb6	-0.13427624
60	0xbe047d2a	-0.12938371
61	0xbe03451c	-0.12819332
62	0xbdd9d3e7	-0.1063612
63	0xbde37727	-0.11106711
64	0xbdac1cf3	-0.08403959
65	0x3deec540	0.11658716
66	0x3c045c3b	0.00807863
67	0x3e17ee7a	0.14837065
68	0x3b3f303f	0.0029173044
69	0x3c961491	0.018320354
70	0x3dc16d88	0.094447196
71	0xbe03adab	-0.12859218
72	0x3d449705	0.047995586
73	0x3e0a0f4b	0.13482396
74	0xbd9875c1	-0.07444335
75	0xbdbcccf4	-0.09218779
76	0xbd431d06	-0.0476351
77	0x3deffdb1	0.1171831
78	0x3e1691f9	0.14704122
79	0x3d8ddbcf	0.06926691
80	0xbdae8a0d	-0.08522425
81	0xbd954eb1	-0.072904
82	0xbdf541bc	-0.119754285
83	0x3c710ef2	0.014713036
84	0x3d2d9f5d	0.04238831
85	0xbc350bb0	-0.01105015
86	0x3dad95c4	0.08475831
87	0x3d82469a	0.063611224
88	0xbe142ff4	-0.14471418
89	0x3de44e74	0.11147776
90	0x3df0f2d4	0.11765066
91	0x3e090a88	0.13382924
92	0x3e074901	0.13211443
93	0xbcf5bf9f	-0.029998599
94	0x3de6c7d1	0.11268581
95	0x3db4fc76	0.088372156
96	0x3d15f674	0.03661199
97	0xbcd19c2e	-0.025587168
98	0xbb289bb9	-0.0025727584
99	0xbcedc17e	-0.029022928
100	0x3d838f6c	0.0642384
101	0xbdbd2a80	-0.09236622
102	0x3d845e51	0.06463302
103	0x3ded07e5	0.115737714
104	0x3ded43c7	0.11585193
105	0x3dbc33a6	0.09189539
106	0xbc0267a6	-0.007959282
107	0x3da3359d	0.0796921
108	0x3d9ff51b	0.07810422
109	0x3c2d09e6	0.010561442
110	0xbdaddba3	-0.08489158
111	0xbdf0ca8d	-0.117573835
112	0x3d96db1b	0.0736601
113	0x3e058f8e	0.13043043
114	0xbcf3bbe2	-0.029752675
115	0x3d841b9e	0.0645058
116	0xbcd4bbe9	-0.025968509
117	0x3d5cd4a1	0.053913716
118	0x3d9e9067	0.07742386
119	0xbdb03a17	-0.0860483
120	0x3cf766b5	0.030200342
121	0xbcddbd9c	-0.027067952
122	0xbd20472c	-0.039130375
123	0x3bcc869d	0.006241633
124	0x3dcb1e45	0.09917883
125	0x3dc71aee	0.09721933
126	0xbd89f421	-0.06736017
127	0x3de0ccbd	0.10976551
128	0xbd8925da	-0.06696673
129	0x3d4314c8	0.04762724
130	0x3dd01bce	0.10161553
131	0xbc0d3e48	-0.008620806
132	0xbc427cab	-0.0118705435
133	0x3d7c2c7c	0.06156586
134	0x3e0e261d	0.13881727
135	0xbd4747c6	-0.048652433
136	0x3d5c000f	0.053710993
137	0xbd513f41	-0.051085714
138	0xbe05791c	-0.13034481
139	0x3cd29f97	0.025710864
140	0x3d7ad25a	0.061235763
141	0xbe0a64b7	-0.13514982
142	0xbdf998c0	-0.12187338
143	0xbdf731f7	-0.12070077
144	0xbc2efb2e	-0.010680003
145	0xbde9e725	-0.114210404
146	0xbd8ab295	-0.06772343
147	0xbe09af59	-0.13445796
148	0x3d2ee607	0.04269984
149	0x3d73155e	0.05934655
150	0xbd8ce910	-0.06880391
151	0x3db5dc5b	0.0887992
152	0x3cf0fd6e	0.02941772
153	0xbdfc4aa4	-0.12318924
154	0x3e0fcfce	0.14044115
155	0x3e0361d8	0.12830293
156	0x3d029d70	0.031888425
157	0xbd05e7d6	-0.0326918
158	0xbe00364c	-0.12520713
159	0x3d07d2cf	0.033160027
160	0x3df56db0	0.11983812
161	0xbe07b086	-0.13250932
162	0xbd86aa46	-0.06575446
163	0x3ce833e8	0.028345063
164	0xbe0cbe4d	-0.13744469
165	0x3db530de	0.08847211
166	0x3dfbb234	0.12289849
167	0x3dead300	0.11466026
168	0x3b910b68	0.0044264086
169	0xbe073246	-0.13202772
170	0xbd09d9da	-0.033655025
171	0xbbe11a12	-0.006869563
172	0x3c56c2c3	0.013107958
173	0x3de6023a	0.112308934
174	0xbc866228	-0.016404226
175	0x3e03f0c0	0.12884808
176	0x3e1742a8	0.14771521
177	0xbdccf9f9	-0.10008616
178	0xbe13c03e	-0.14428803
179	0xbd907180	-0.070528984
180	0xbdfe630a	-0.12421234
181	0xbcbd3743	-0.02309764
182	0xbdf7e5b1	-0.12104357
183	0xbd35237b	-0.04422329
184	0xbdfd9975	-0.12382785
185	0x3db41284	0.08792594
186	0xbbc25844	-0.0059309322
187	0x3db3f611	0.08787168
188	0x3d0aa2da	0.033846714
189	0x3d768827	0.06018844
190	0x3b9a25db	0.0047042198
191	0xbc9f1a74	-0.019421794
192	0xbd644096	-0.055725656
193	0xbd9cfd71	-0.076655276
194	0xbc942103	-0.018082147
195	0x3db04aad	0.08607993
196	0x3dc404ef	0.095712535
197	0xbe0fde2a	-0.14049593
198	0xbd0b99ad	-0.034082104
199	0x3d2f7276	0.042833768
200	0xbdc3c644	-0.095593005
201	0x3dd97ca3	0.10619476
202	0x3da13cb5	0.07872907
203	0xbd27c657	-0.040960636
204	0xbdf44ab7	-0.11928313
205	0x3cced9d4	0.025250353
206	0x3df38df8	0.11892313
207	0x3dee0feb	0.1162413
208	0x3e04935e	0.12946841
209	0x3b31b414	0.0027115392
210	0x3e0b7b66	0.13621292
211	0xbd95668c	-0.0729495
212	0xbd1c399f	-0.03814089
213	0xbcbd21d8	-0.023087427
214	0xbdacef44	-0.08444074
215	0xbd1bb44b	-0.038013738
216	0xbde1cfd1	-0.11025966
217	0x3e01f328	0.12690413
218	0x3d114759	0.035468433
219	0xbd3d21e4	-0.0461749
220	0xbcc7209a	-0.024307538
221	0xbdb8241f	-0.089912646
222	0xbe113471	-0.14180161
223	0xbd505cff	-0.050869938
224	0x3da85339	0.082189985
225	0x3c02abef	0.0079755625
226	0xbbc3d7c4	-0.005976649
227	0x3d98266a	0.07429202
228	0xbca703c5	-0.02038754
229	0xbd92fbb8	-0.07176918
230	0x3cb0606e	0.021530356
231	0xbce113af	-0.027475206
232	0xbcc5c240	-0.024140477
233	0x3cbd9662	0.023142997
234	0x3b26a62e	0.002542864
235	0xbcaddcf2	-0.021223519
236	0x3d2a1d10	0.041531622
237	0xbd158496	-0.036503397
238	0x3d8011f2	0.06253423
239	0xbccf4688	-0.025302187
240	0x3d00f78b	0.031486075
241	0x3e040fc4	0.12896639
242	0xbd4fc036	-0.050720416
243	0xbda1b894	-0.078965336
244	0x3cdbbc09	0.02682306
245	0xbcf32288	-0.029679552
246	0xbddbf18c	-0.10739431
247	0x3da92b14	0.082601696
248	0x3dc0a8d5	0.09407202
249	0x3d7bd440	0.061481714
250	0xb918efc8	-0.00014585175
251	0x3c72f243	0.0148282675
252	0xbe07d57f	-0.13265036
253	0xbd575182	-0.052567966
254	0x3c8795e6	0.01655097
255	0x3d5d3721	0.054007653

module.gcn_layers.0.bnEdges.batch_norm.weight f4 [50]
0	0x3f7f3aa0	0.9969883
1	0x3f808547	1.0040673
2	0x3f7e8c2c	0.99432635
3	0x3f7fc8ee	0.9991597
4	0x3f7dbc96	0.99115884
5	0x3f7f28e9	0.996718
6	0x3f7df891	0.9920741
7	0x3f7c57e1	0.9857159
8	0x3f811cc5	1.0086905
9	0x3f7cfc58	0.98822546
10	0x3f7fed1f	0.99971193
11	0x3f816d30	1.0111446
12	0x3f7fc19f	0.9990482
13	0x3f808de9	1.0043308
14	0x3f81dd3b	1.0145639
15	0x3f7ef28a	0.99588835
16	0x3f80044e	1.0001314
17	0x3f81a66f	1.0128917
18	0x3f7f7ed7	0.9980292
19	0x3f81deb5	1.014609
20	0x3f7eb60a	0.9949652
21	0x3f7fdaf3	0.99943465
22	0x3f7f55a7	0.9974007
23	0x3f7c86ff	0.9864349
24	0x3f811a8b	1.0086225
25	0x3f813aa2	1.0096018
26	0x3f813425	1.0094038
27	0x3f7f1894	0.9964688
28	0x3f7e7ab0	0.99405956
29	0x3f801514	1.0006433
30	0x3f7daf4b	0.990956
31	0x3f81f0c9	1.0151607
32	0x3f7c1427	0.9846825
33	0x3f7d1599	0.9886108
34	0x3f80cb9a	1.0062134
35	0x3f80419b	1.0020021
36	0x3f811599	1.0084716
37	0x3f804c57	1.0023297
38	0x3f7d821c	0.99026656
39	0x3f7df1e1	0.991972
40	0x3f7cb359	0.9871116
41	0x3f81d35e	1.0142629
42	0x3f81e0a9	1.0146686
43	0x3f7f7a1f	0.99795717
44	0x3f7ff0c4	0.99976754
45	0x3f7ff261	0.99979216
46	0x3f7c4cb5	0.98554546
47	0x3f81d7b2	1.014395
48	0x3f8182d4	1.011805
49	0x3f80d019	1.0063506

module.gcn_layers.0.bnEdges.batch_norm.bias f4 [50]
0	0xbb8e48f5	-0.0043421932
1	0x3b1b354b	0.0023682888
2	0xb9f54778	-0.0004678329
3	0x3ba64791	0.0050744493
4	0xbc086a04	-0.008326057
5	0xbbee4985	-0.007271948
6	0xbbd82e65	-0.0065973275
7	0xbc687691	-0.014188425
8	0x3bcbff31	0.0062254895
9	0xbc44cdf9	-0.012011998
10	0x3aecb760	0.0018060021
11	0x3c478c43	0.012179437
12	0xbb928ae3	-0.004472123
13	0x3bb09920	0.0053893477
14	0x3c70bc73	0.014693367
15	0xbb9ff488	-0.0048814453
16	0x3c06f53d	0.00823718
17	0x3c48b79e	0.012250809
18	0x3bf387c2	0.007431955
19	0x3c6f34b6	0.01459997
20	0xbc187cb6	-0.009307077
21	0xbb1c5b64	-0.0023858184
22	0xbbb5bd7a	-0.005546269
23	0xbc67fb27	-0.0141590005
24	0x3c0ac3bf	0.008469521
25	0x3c13e823	0.009027514
26	0x3be5da1c	0.007014526
27	0xbbaee38f	-0.0053371857
28	0xbb8a9a77	-0.0042298394
29	0x3b5ca0b3	0.003366512
30	0xbc1b0a7a	-0.009462947
31	0x3c445279	0.011982554
32	0xbc500eae	-0.012698812
33	0xbc25acb7	-0.010111979
34	0x3bb2e694	0.005459616
35	0xbb1dee97	-0.002409851
36	0x3c214615	0.009843369
37	0x3aff4218	0.0019474654
38	0xbbd81f68	-0.006595541
39	0xbc18c5f9	-0.009324544
40	0xbc6552c6	-0.0139967855
41	0x3c6de8b3	0.014520812
42	0x3c3d5b9b	0.011557485
43	0x3b3f1b5e	0.00291606
44	0x3beebf97	0.007286023
45	0xba06a7e8	-0.00051367143
46	0xbb6b8e98	-0.0035943147
47	0x3c769f76	0.015052667
48	0x3c62264e	0.013803078
49	0x3bd1bf96	0.0064010127
