logs/deafult/best_val_checkpoint.tar (torch, 489841 bytes, 103 tensors)

module.NodesEncoding.A1.weight f4 [50, 2]
-0.57810163 0.37448883 -0.5760678 -0.5848434 0.39462075 0.25548586 -0.40023583 -0.675096
-0.21403806 0.18999206 0.33967823 -0.14742127 0.5204331 -0.22625174 0.12979966 -0.4218679
-0.0697305 0.4606008 -0.3868667 0.56507325 -0.6375131 0.14106002 0.47234854 0.66480225
0.6223671 0.7029425 0.20187739 0.060977675 0.32985365 -0.36908206 0.3765601 -0.46838096
-0.24179678 -0.46904278 0.64580244 0.34398496 -0.17906033 -0.3157831 0.1764849 -0.43421426
-0.1477101 0.30963656 0.5510014 -0.40768114 -0.28934118 0.5098672 0.7175376 0.19107638
-0.69028825 -0.4763393 -0.12171745 0.5675841 -0.39648122 -0.47123483 -0.44842768 -0.21491575
0.09220025 0.5788923 -0.38328508 0.574349 -0.30047956 -0.5960195 -0.6286514 0.66571903
-0.70433426 -0.014409099 0.061824515 0.07661285 0.07316144 0.54476297 -0.20450906 0.4232178
0.2971007 0.016066218 -0.11978831 -0.330338 -0.573786 0.48343372 0.34636337 0.62301403
0.32421413 -0.24710035 0.3569183 0.65584695 0.6714137 0.060881104 0.117533445 -0.4050102
0.33881563 -0.29087335 0.71538085 0.51537263 0.18638024 -0.14304651 -0.29161304 0.16255441
0.64623004 0.21601325 0.13673767 -0.29687858
00000000: 78fe 13bf 00bd bf3e 2e79 13bf 4cb8 15bf
00000010: bb0b ca3e 0bcf 823e b6eb ccbe 17d3 2cbf
00000020: cb2c 5bbe 478d 423e 4eea ad3e 9af5 16be
00000030: 1b3b 053f 89ae 67be 34ea 043e 12ff d7be
00000040: ddce 8ebd ded3 eb3e 6413 c6be a4a8 103f
00000050: 0f34 23bf 0a72 103e abd7 f13e 7b30 2a3f
00000060: 7353 1f3f 0af4 333f f2b8 4e3e bac3 793d
00000070: 94e2 a83e 53f8 bcbe 7ccc c03e a1cf efbe
00000080: 9399 77be 6026 f0be 4f53 253f cc1e b03e
00000090: 975b 37be 53ae a1be 75b8 343e 5551 debe
000000a0: 5141 17be af88 9e3e 6e0e 0d3f 95bb d0be
000000b0: 8724 94be a886 023f 8bb0 373f 87a9 433e
000000c0: bbb6 30bf bfe2 f3be 0047 f9bd 314d 113f
000000d0: 96ff cabe b145 f1be 5098 e5be e012 5cbe
000000e0: 7cd3 bc3d 4932 143f f13d c4be 8908 133f
000000f0: 75d8 99be bc94 18bf 4cef 20bf 906c 2a3f
00000100: 404f 34bf 2414 6cbc b43b 7d3d 33e7 9c3d
00000110: aad5 953d 9675 0b3f d36a 51be 01b0 d83e
00000120: 951d 983e 4d9d 833c 9353 f5bd 1022 a9be
00000130: a4e3 12bf a084 f73e 8a56 b13e d97d 1f3f
00000140: 65ff a53e e007 7dbe ffbd b63e 96e5 273f
00000150: c5e1 2b3f 775e 793d 60b5 f03d 7f5d cfbe
00000160: 3e79 ad3e 5aed 94be 3323 373f 76ef 033f
00000170: 76da 3e3e c97a 12be 4e4e 95be aa74 263e
00000180: 556f 253f 9432 5d3e f604 0c3e 7800 98be

module.NodesEncoding.A1.bias f4 [50]
0.2599174 0.5588622 0.6438362 0.24128202 -0.10012713 0.3034066 0.577821 -0.30907413
-0.18030447 -0.28551733 0.005256293 0.45367792 0.35991213 0.70614773 -0.54702324 0.3070465
-0.3373606 0.624382 0.0776828 -0.28007942 -0.45269918 -0.47247204 -0.24416634 -0.4255704
0.34937662 -0.23837513 -0.5294745 0.03494437 -0.1277015 0.39759782 -0.3552101 -0.12230831
-0.3687664 -0.37954402 -0.18965685 0.4490972 -0.035979293 -0.28235802 0.041324582 0.51449895
0.6182134 0.013688578 0.6980997 0.16376756 0.49756157 0.6939528 -0.4651109 0.2683103
-0.039599337 0.18303347
00000000: e513 853e 9811 0f3f 73d2 243f a212 773e
00000010: 740f cdbd 1c58 9b3e 14ec 133f f73e 9ebe
00000020: bca1 38be 542f 92be fb3c ac3b 7948 e83e
00000030: 6746 b83e 19c6 343f b709 0cbf 3335 9d3e
00000040: 87ba acbe 80d7 1f3f 2918 9f3d 9266 8fbe
00000050: 30c8 e7be dbe7 f1be be06 7abe 5de4 d9be
00000060: 7ee1 b23e 9c18 74be a48b 07bf d421 0f3d
00000070: 2fc4 02be f191 cb3e 19de b5be c77c fabd
00000080: f3ce bcbe 9853 c2be 6835 42be 11f0 e53e
00000090: 065f 13bd 3b91 90be f743 293d 34b6 033f
000000a0: 3c43 1e3f 0f46 603c a9b6 323f afb2 273e
000000b0: 64c0 fe3e e4a6 313f 0423 eebe f85f 893e
000000c0: ea32 22bd 206d 3b3e

module.EdgesEncoding.A2.weight f4 [25, 1]
0.088893704 -0.7330344 0.93648905 -0.6553833 -1.0076392 -0.84244126 0.27420878 -0.045564793
0.60960376 -0.13979341 0.032863203 0.58900535 0.8590884 0.083669536 -0.2837989 0.82437706
0.69056714 0.5695425 0.09174177 0.4868966 0.71212757 0.91676736 0.16375925 -0.38976607
0.36784723
00000000: e70d b63d 24a8 3bbf bfbd 6f3f 33c7 27bf
00000010: 52fa 80bf 3baa 57bf 1865 8c3e 26a2 3abd
00000020: fe0e 1c3f 0126 0fbe 919b 063d 0ec9 163f
00000030: 38ed 5b3f ef5a ab3d 174e 91be 600a 533f
00000040: 02c9 303f 8acd 113f 1ce3 bb3d 834a f93e
00000050: fe4d 363f 44b1 6a3f 81b0 273e 6b8f c7be
00000060: 7956 bc3e

module.EdgesEncoding.A2.bias f4 [25]
-0.15182684 0.0576587 -0.9092834 -0.19114864 0.60218644 0.57048404 -0.21469378 0.10005593
-0.7441063 0.14579716 -0.44804084 0.73646325 -0.17041421 -0.11738327 0.30956805 0.72515607
0.74664134 -0.31572995 0.602571 0.15831639 0.17966075 -0.32286447 0.42947257 0.16905889
0.39516756
00000000: 7f78 1bbe 872b 6c3d ccc6 68bf 78bc 43be
00000010: e428 1a3f 3e0b 123f b0d8 5bbe 20ea cc3d
00000020: c07d 3ebf da4b 153e 9c65 e5be db88 3c3f
00000030: 1081 2ebe a466 f0bd b47f 9e3e d4a3 393f
00000040: e323 3f3f 5ba7 a1be 1842 1a3f b11d 223e
00000050: fdf8 373e 7e4e a5be d4e3 db3e c61d 2d3e
00000060: 6753 ca3e

module.EdgesEncoding.A3.weight f4 [25, 1]
-0.44294298 0.052212857 -0.9269735 0.06607663 -0.89379 0.20177108 -0.13099971 -0.54434973
0.89892054 -0.038612545 0.18227959 -0.056442905 0.6552906 0.40545064 0.002103449 -0.32501248
0.6528976 0.26021984 0.22217855 -0.23965707 -0.673948 -0.027510589 0.36713904 -0.41816375
0.40554735
00000000: 6cc9 e2be 26dd 553d 234e 6dbf 2f53 873d
00000010: 6ccf 64bf 149d 4e3e ca24 06be 815a 0bbf
00000020: a81f 663f 3028 1ebd 80a7 3a3e ad30 67bd
00000030: 20c1 273f 3a97 cf3e 05da 093b 0968 a6be
00000040: 4c24 273f 893b 853e c682 633e aa68 75be
00000050: db87 2cbf e35d e1bc a6f9 bb3e 8f19 d6be
00000060: e7a3 cf3e

module.EdgesEncoding.A3.bias f4 [25]
0.6592589 0.6761005 -0.12478229 0.28028974 -0.29181853 -0.30624855 0.6538323 -0.81139743
0.6222725 -0.25376233 -0.92844886 0.72107124 0.89715767 -0.7302963 0.24824166 -0.5281001
-0.24417976 -0.99019194 -0.30180928 0.25231767 1.0035683 0.17323181 -0.80813825 -0.7574986
-0.24316537
00000000: 31c5 283f ec14 2d3f db8d ffbd 2382 8f3e
00000010: 3d69 95be 9ccc 9cbe 8e61 273f beb7 4fbf
00000020: 404d 1f3f 23ed 81be d3ae 6dbf 2098 383f
00000030: 20ac 653f b3f4 3abf 1033 7e3e 9131 07bf
00000040: 420a 7abe 387d 7dbf bf86 9abe c82f 813e
00000050: ed74 803f ae63 313e 26e2 4ebf 6eeb 41bf
00000060: 5800 79be

module.gcn_layers.0.bnNodes.W1.weight f4 [50, 50]
0.15017805 0.0065288707 -0.052117523 -0.0102873305 0.121451445 -0.083482206 -0.12953377 -0.15087327
0.078411825 0.11549513 0.1526326 -0.093432955 -0.016825242 0.013969998 0.05979728 -0.011510703
-0.14012681 -0.10541977 0.05803769 0.02718501 0.13164757 0.05157467 -0.018106831 -0.1052713
-0.007845227 -0.045068335 0.015834238 -0.08646873 -0.064968735 -0.027074602 0.12838425 -0.062567614
-0.08061295 0.080602944 -0.04344755 -0.10421002 -0.040113486 -0.044024557 0.038485087 0.074259035
0.03389576 0.04092982 0.06712364 0.062769935 0.11937579 -0.13571984 0.032708343 -0.07977903
-0.068196915 -0.09511604 -0.015277054 -0.12854171 0.14491594 -0.04827501 -0.019284459 0.04443773
0.038668748 0.08392389 -0.11992681 -0.10650465 0.069404624 0.03191153 0.13374677 0.14324087
-0.003154036 -0.011484437 -0.08755317 -0.11436933 -0.13437653 -0.073213175 0.023396987 -0.11147418
0.04678667 0.017799374 -0.027041934 0.027481508 0.10870827 0.005154085 -0.14330181 -0.04052863
-0.085368186 0.0078706015 0.085562825 0.100381225 0.061407182 -0.08001751 -0.0840832 0.1269892
-0.090440296 0.13689099 0.12480178 0.11780728 -0.02702682 -0.028511167 -0.13207425 -0.12449287
-0.05957181 0.003676122 0.14282182 -0.042682875 -0.12958051 -0.045007296 -0.0049214326 0.033339135
-0.034906354 0.05566359 0.08952054 -0.11349464 -0.0671734 -0.13522033 0.03601219 -0.04367919
0.06320777 -0.048974562 0.088798136 0.10475322 0.11140844 -0.010947817 -0.010692839 -0.03806233
-0.14825831 -0.090770476 -0.113190524 0.03244058 -0.07938328 0.13297196 -0.11594741 0.11903534
-0.11226361 -0.07415338 0.047567796 -0.047777772 -0.08111356 0.0057429066 0.06859351 0.10643054
0.12868738 -0.12401852 0.02362132 0.01555595 -0.02701182 -0.098114654 0.053241648 0.08888184
-0.097184554 -0.051200796 -0.031613722 0.05730716 -0.0796685 -0.09791742 -0.10220116 -0.08128201
0.081997864 -0.014169787 0.013588677 -0.09763137 0.0096566845 0.053747397 -0.06074554 0.12736021
0.07509413 -0.099360175 0.004773242 0.086037524 0.06031684 -0.09636099 0.07802169 0.025507204
0.14352958 -0.064959385 0.03880375 0.10897638 0.10002643 0.0069040405 0.08762447 0.09227377
-0.0047714035 -0.05086024 0.123109974 0.0030063305 0.037962414 -0.011156398 -0.09537224 0.11602098
-0.13609329 -0.0981727 0.0154719725 0.005063957 -0.058257606 0.09475629 -0.11555924 0.040830225
-0.093040556 0.1110605 -0.14772478 0.04012169 0.05964089 0.13536698 -0.14590216 -0.07766698
0.040059086 -0.0505121 -0.119852774 -0.11338018 -0.10135848 0.09165792 -0.013695465 -0.14645547
-0.11882907 -0.035727646 0.027463587 -0.031983443 0.006731567 -0.078994066 -0.07398045 -0.102011904
0.09783472 -0.038485907 -0.019686393 0.089543626 -0.03319521 -0.045577757 0.07988134 0.13586222
-0.007242587 0.039525747 -0.1162535 0.10302236 -0.055070627 0.11110125 -0.13462852 -0.052867297
-0.11177633 0.089636736 -0.018793115 -0.06555945 -0.08609604 0.04295716 -0.033397045 0.065190814
0.057852063 0.054208394 -0.0656018 0.12481547 -0.12121557 0.051034782 0.11703561 -0.06280803
-0.016196864 0.07614812 -0.038466576 -0.13094972 0.08189885 0.022590129 0.0045921574 0.1215937
00000000: 46c8 193e 23f0 d53b 2f79 55bd 318c 28bc
00000010: 89bb f83d b8f8 aabd 80a4 04be 867e 1abe
00000020: 6196 a03d b688 ec3d b84b 1c3e c759 bfbd
00000030: 17d5 89bc 6be2 643c feed 743d 6397 3cbc
00000040: 677d 0fbe 52e6 d7bd eeb8 6d3d 19b3 de3c
00000050: 9fce 063e f63f 533d c754 94bc 7b98 d7bd
00000060: 4489 00bc 9399 38bd ceb6 813c 8416 b1bd
00000070: 540e 85bd 8ecb ddbc 2977 033e 7323 80bd
00000080: 6718 a5bd 2813 a53d 0ff6 31bd 106c d5bd
00000090: 0a4e 24bd 1853 34bd 8aa2 1d3d 1f15 983d
000000a0: 48d6 0a3d 07a6 273d 1e78 893d 868d 803d
000000b0: 4b7b f43d 24fa 0abe 2ff9 053d 3063 a3bd
000000c0: d3aa 8bbd 33cc c2bd 9c4c 7abc 70a0 03be
000000d0: d864 143e 04bc 45bd 71fa 9dbc 5604 363d
000000e0: 1f63 1e3d 4ae0 ab3d 309c f5bd 1c1f dabd
000000f0: 0324 8e3d aab5 023d eaf4 083e bcad 123e
00000100: f1b3 4ebb 3829 3cbc 144f b3bd 783a eabd
00000110: 009a 09be caf0 95bd 0aab bf3c 934c e4bd
00000120: 61a3 3f3d fecf 913c 0c87 ddbc e620 e13c
00000130: 71a2 de3d 99e3 a83b b6bd 12be 5901 26bd
00000140: 84d5 aebd b2f3 003c 903b af3d ac94 cd3d
00000150: 1986 7b3d 38e0 a3bd d033 acbd 7509 023e
00000160: c338 b9bd 272d 0c3e 1398 ff3d f144 f13d
00000170: 5a67 ddbc 4090 e9bc 793e 07be 1ef6 febd
00000180: 9201 74bd 18eb 703b e23f 123e 3dd4 2ebd
00000190: c1b0 04be 9259 38bd f843 a1bb 9e8e 083d
000001a0: f7f9 0ebd 81ff 633d 8b56 b73d e16f e8bd
000001b0: 3592 89bd 3377 0abe 8581 133d f3e8 32bd
000001c0: 1373 813d 8d99 48bd ccdb b53d db88 d63d
000001d0: 1c2a e43d 795e 33bc 0431 2fbc 3fe7 1bbd
000001e0: 07d1 17be dfe5 b9bd 6fd0 e7bd 6ae0 043d
000001f0: b393 a2bd cd29 083e d675 edbd cdc8 f33d
00000200: 77ea e5bd badd 97bd 73d6 423d a0b2 43bd
00000210: de1e a6bd fe2e bc3b c17a 8c3d 41f8 d93d
00000220: a0c6 033e 6cfd fdbd 8081 c13c 62de 7e3c
00000230: e447 ddbc 56f0 c8bd ea13 5a3d af07 b63d
00000240: b208 c7bd edb7 51bd 647d 01bd eaba 6a3d
00000250: 3d29 a3bd ee88 c8bd d74e d1bd 2f77 a6bd
00000260: 7fee a73d 6528 68bc 0ba3 5e3c f5f2 c7bd
00000270: 1237 1e3c 3b26 5c3d 51d0 78bd b76a 023e
00000280: f4ca 993d 597d cbbd db68 9c3b 7134 b03d
00000290: ca0e 773d e958 c5bd d6c9 9f3d 7cf4 d03c
000002a0: 6bf9 123e 6d09 85bd aef0 1e3d 022f df3d
000002b0: a8da cc3d 4a3b e23b 7574 b33d 08fa bc3d
000002c0: 6f59 9cbb d452 50bd 1521 fc3d db05 453b
000002d0: 7a7e 1b3d 53c9 36bc 8552 c3bd 689c ed3d
000002e0: 0a5c 0bbe c50e c9bd 287e 7d3c 8def a53b
000002f0: 879f 6ebd 960f c23d 53aa ecbd 983d 273d
00000300: 0c8c bebd b073 e33d 2a45 17be a456 243d
00000310: 024a 743d a49d 0a3e 6067 15be de0f 9fbd
00000320: ff14 243d c7e5 4ebd 5f75 f5bd de33 e8bd
00000330: 0995 cfbd 26b7 bb3d f262 60bc 6cf8 15be
00000340: a85c f3bd 2757 12bd 51fb e03c 1201 03bd
00000350: 7a94 dc3b a4c7 a1bd 1083 97bd 9eeb d0bd
00000360: 925d c83d 66a3 1dbd 5c45 a1bc a662 b73d
00000370: b3f7 07bd beaf 3abd d498 a33d 771f 0b3e
00000380: 3953 edbb c0e5 213d 5116 eebd 63fd d23d
00000390: bd91 61bd 0d89 e33d 0fdc 09be 618b 58bd
000003a0: fdea e4bd 7793 b73d 05f4 99bc 0844 86bd
000003b0: 1f53 b0bd d9f3 2f3d 57cb 08bd c382 853d
000003c0: 49f6 6c3d 9f09 5e3d 3d5a 86bd 419f ff3d
000003d0: de3f f8bd d909 513d 5eb0 ef3d 7fa1 80bd
000003e0: 49af 84bc 8cf3 9b3d 218f 1dbd af17 06be
000003f0: 96ba a73d ef0e b93c cf79 963b 1e06 f93d

module.gcn_layers.0.bnNodes.W2.weight f4 [50, 50]
-0.11188682 0.10054915 -0.017764922 0.124006264 -0.107908 0.05441873 0.0023187513 -0.02042322
0.10738851 -0.031266373 0.0012866328 -0.09389015 -0.11353748 0.14870127 -0.026850054 0.06798048
-0.0193678 -0.09676753 0.120172255 0.01893713 0.057495017 0.048835736 -0.12236116 -0.034844156
0.08155707 -0.070009425 -0.08999966 -0.11057596 -0.0013283249 0.028564032 -0.12977391 0.06214677
-0.0705798 0.047437716 -0.07264863 0.11685425 -0.08809093 0.044225276 -0.094696715 -0.0075918883
0.1259889 0.08163244 -0.04157639 0.070248805 -0.033186853 -0.059625007 -0.015953217 0.10128776
0.08702289 -0.11071151 0.11150863 0.00623129 0.123211704 0.008522844 -0.021589248 -0.07535078
-0.03537432 -0.05134996 0.055587187 -0.06626698 -0.13315704 -0.08902328 0.0965646 0.013875
-0.022847062 -0.020737339 0.13485873 0.0747282 -0.004106079 0.09948201 0.13510603 0.13583675
0.005669014 0.08186012 -0.039838202 0.03808612 0.124722056 -0.12409067 -0.013867088 0.11883678
-0.11662958 -0.021266878 -0.045001544 0.070833996 0.004439446 -0.13528098 -0.10769552 0.07268171
0.005041387 0.13328044 0.016493153 0.11419184 0.056041326 -0.13130817 0.09461821 0.024219695
-0.05358524 0.04125148 -0.06149587 -0.05084086 -0.016988778 0.07636479 -0.1174957 -0.08349511
0.1449439 0.099791296 0.13139093 -0.062054254 -0.016462544 -0.1282289 -0.11534853 0.02375366
0.0023376585 -0.02485577 -0.06883627 -0.09431056 0.0847588 0.056984697 -0.025845349 0.12823714
0.010342169 0.10292992 -0.0035911433 -0.03952963 -0.117406495 -0.071061715 -0.08383491 -0.07617646
0.14041844 -0.12652478 0.11296237 -0.08313049 -0.14598696 0.06627284 -0.09786874 -0.044693448
0.056306437 -0.07060536 0.04104529 0.0992502 -0.014261296 -0.062778376 -0.07063118 0.019718615
-0.07439129 -0.05850314 0.06323413 0.015862886 0.06288508 0.060238063 -0.13283196 0.01720596
0.013330475 0.0061492017 0.0034843402 -0.033309944 -0.1266989 0.10742879 -0.010491051 -0.020814072
0.12138085 -0.06341203 -0.083312176 -0.026303485 -0.10219023 -0.0810453 -0.051177155 0.1309942
-0.027678005 -0.13619718 -0.015490007 -0.067143925 -0.08874928 -0.0560788 -0.13046156 -0.057067767
-0.11984711 -0.049902864 -0.14219117 0.027214268 0.03122147 -0.07170872 -0.0012338851 -0.100098655
-0.11823531 0.0065836883 -0.035353657 -0.112305686 0.08398184 0.027057044 -0.14975677 -0.1095838
0.05816858 0.020009227 0.081763744 -0.0026260233 -0.00039636416 -0.06410931 -0.065993465 -0.1120076
0.056570984 0.118918136 0.039218515 -0.034018047 0.022747934 -0.15439036 -0.032786045 0.11380399
-0.016232928 0.012677621 0.14843385 0.10498245 -0.021021802 -0.15036671 0.11613725 0.053479914
-0.0055210246 0.106512904 0.050299715 -0.023224268 0.12899818 0.02143637 0.08246208 -0.013052221
0.081627175 -0.024456829 0.037025817 -0.1273072 0.10428144 0.03524855 0.07736671 -0.076077625
0.0054865847 0.027948456 -0.010348953 -0.03378404 0.05103538 0.02711394 -0.12394439 0.023443313
0.08026516 0.11715992 0.084061995 0.07615133 -0.010426837 -0.13006635 -0.1000677 0.04245369
-0.05932206 -0.06907297 -0.032964353 0.063540086 -0.04879286 -0.07939014 -0.0074757175 0.14623268
00000000: eb24 e5bd b6ec cd3d be87 91bc fff6 fd3d
00000010: dffe dcbd 2de6 5e3d 31f6 173b 994e a7bc
00000020: 82ee db3d 2b11 00bd 3ca4 a83a 7b49 c0bd
00000030: 5786 e8bd 2545 183e a5f4 dbbc 5a39 8b3d
00000040: 38a9 9ebc 0e2e c6bd df1c f63d 0a22 9b3c
00000050: e57f 6b3d fb07 483d 7d98 fabd bfb8 0ebd
00000060: 6507 a73d 1a61 8fbd be51 b8bd a675 e2bd
00000070: 301b aeba 1eff e93c 74e3 04be 9d8d 7e3d
00000080: 248c 90bd 0d4e 423d cec8 94bd 4851 ef3d
00000090: 0469 b4bd 9025 353d 5af0 c1bd 60c5 f8bb
000000a0: 3c03 013e e92e a73d 014c 2abd 9bde 8f3d
000000b0: f0ee 07bd 5a39 74bd 52b0 82bc f56f cf3d
000000c0: 0f39 b23d b7bc e2bd a35e e43d d92f cc3b
000000d0: 6b56 fc3d 66a3 0b3c efdb b0bc 8251 9abd
000000e0: aae4 10bd 5654 52bd 64af 633d fbb6 87bd
000000f0: 525a 08be d651 b6bd a9c3 c53d f853 633c
00000100: c329 bbbc 5ae1 a9bc 6818 0a3e 190b 993d
00000110: 4a8c 86bb 39bd cb3d 3c59 0a3e ca18 0b3e
00000120: 23c3 b93b 47a6 a73d 622d 23bd 3100 1c3d
00000130: 476e ff3d 4023 febd c832 63bc b360 f33d
00000140: 7ddb eebd e037 aebc 8a53 38bd 6a11 913d
00000150: c678 913b 1987 0abe 788f dcbd 26da 943d
00000160: 3832 a53b ab7a 083e a61c 873c 69dd e93d
00000170: 978b 653d a675 06be 31c7 c13d 6268 c63c
00000180: 327c 5bbd 50f7 283d 18e3 7bbd 813e 50bd
00000190: 0d2c 8bbc 2565 9c3d 96a1 f0bd 7cff aabd
000001a0: 2c6c 143e 615f cc3d 588b 063e 9a2c 7ebd
000001b0: 75dc 86bc 704e 03be da3b ecbd 0997 c23c
000001c0: 6733 193b 549e cbbc 08fa 8cbd e525 c1bd
000001d0: 0696 ad3d c968 693d a0b9 d3bc 9950 033e
000001e0: 3372 293c eccc d23d 6359 6bbb d2e9 21bd
000001f0: d172 f0bd ce88 91bd a3b1 abbd 6702 9cbd
00000200: dac9 0f3e b68f 01be d158 e73d 5140 aabd
00000210: 9b7d 15be 0eba 873d 686f c8bd 7a10 37bd
00000220: 94a1 663d 8b99 90bd 1b1f 283d b043 cb3d
00000230: 36a8 69bc f391 80bd 15a7 90bd ef88 a13c
00000240: 765a 98bd fda0 6fbd e580 813d e2f2 813c
00000250: e5c9 803d 30bc 763d 1a05 08be 83f3 8c3c
00000260: 1168 5a3c 3e7f c93b 8759 643b 0270 08bd
00000270: 5bbd 01be a003 dc3d a8e2 2bbc 4682 aabc
00000280: 8696 f83d 2bde 81bd 939f aabd 687a d7bc
00000290: 1c49 d1bd 14fb a5bd 239f 51bd 5823 063e
000002a0: fcbc e2bc 4677 0bbe ccc9 7dbc c182 89bd
000002b0: 2fc2 b5bd e2b2 65bd b797 05be e4bf 69bd
000002c0: 6772 f5bd f266 4cbd 909a 11be 75f0 de3c
000002d0: 2bc4 ff3c 05dc 92bd 50ba a1ba 8600 cdbd
000002e0: 5b25 f2bd fbbb d73b ffce 10bd 8600 e6bd
000002f0: acfe ab3d bca6 dd3c d759 19be 796d e0bd
00000300: 2d42 6e3d 64ea a33c c073 a73d 5c19 2cbb
00000310: 19cf cfb9 be4b 83bd 9527 87bd 3e64 e5bd
00000320: fab6 673d 5a8b f33d 98a3 203d 8256 0bbd
00000330: e059 ba3c 8218 1ebe a94a 06bd 1112 e93d
00000340: ebfa 84bc ccb5 4f3c 0bff 173e 0a01 d73d
00000350: ea35 acbc bbf9 19be 5ed9 ed3d c10d 5b3d
00000360: b6e9 b4bb 7023 da3d 1307 4e3d d240 bebc
00000370: 1918 043e 549b af3c e1e1 a83d fcd8 55bc
00000380: 262c a73d b059 c8bc 62a8 173d d25c 02be
00000390: 8291 d53d c960 103d 7072 9e3d 96ce 9bbd
000003a0: cfc8 b33b 29f4 e43c a88e 29bc 2261 0abd
000003b0: 7a0a 513d 0e1e de3c 8ed6 fdbd 310c c03c
000003c0: 0f62 a43d 8af1 ef3d b228 ac3d 3af5 9b3d
000003d0: 53d5 2abc 1d30 05be 4bf0 ccbd ece3 2d3d
000003e0: b0fb 72bd 2176 8dbd a105 07bd 4e21 823d
000003f0: 06db 47bd 4c97 a2bd ddf6 f4bb 05be 153e

module.gcn_layers.0.bnNodes.batch_norm.weight f4 [50]
1.0046186 0.98879516 0.984568 0.9923696 1.0034846 1.0101908 0.9950076 0.9915022
0.9878205 1.0027001 0.9855363 1.0057917 0.99993527 0.9945517 1.0090089 0.98677665
0.99152964 1.0098687 0.98783547 0.98778623 0.99697626 1.0051298 0.9959219 0.9981293
0.98802847 0.99373794 0.9995404 0.9852869 0.99829125 0.9966087 1.0059514 0.9952523
1.0129899 0.9998859 1.000479 1.0051881 0.9956655 0.98860735 1.0128479 0.99895734
1.0130571 0.9926877 1.0002455 0.985381 0.98990595 0.9866971 0.98690677 0.9899915
0.9851647 0.9890079
00000000: 5897 803f ae21 7d3f a60c 7c3f ef0b 7e3f
00000010: 2f72 803f ef4d 813f d1b8 7e3f 17d3 7d3f
00000020: cee1 7c3f 7a58 803f 1b4c 7c3f c8bd 803f
00000030: c2fb 7f3f f19a 7e3f 3427 813f 659d 7c3f
00000040: e3d4 7d3f 6143 813f c9e2 7c3f 8fdf 7c3f
00000050: d639 7f3f 18a8 803f bdf4 7e3f 6785 7f3f
00000060: 6fef 7c3f 9c65 7e3f e1e1 7f3f c33b 7c3f
00000070: 0490 7f3f bf21 7f3f 04c3 803f dbc8 7e3f
00000080: a7a9 813f 86f8 7f3f b20f 803f 01aa 803f
00000090: efe3 7e3f 5f15 7d3f 00a5 813f abbb 7f3f
000000a0: dbab 813f c820 7e3f 0b08 803f ee41 7c3f
000000b0: 7a6a 7d3f 2e98 7c3f eca5 7c3f 1570 7d3f
000000c0: c133 7c3f 9f2f 7d3f

module.gcn_layers.0.bnNodes.batch_norm.bias f4 [50]
0.008307038 -0.014671532 -0.015873907 -0.011052748 0.010009436 0.009351721 -0.0042679943 -0.008571229
-0.010641801 0.002705371 -0.009577319 0.008472868 -0.008944634 0.008523011 0.0060178535 -0.01524062
-0.0008422424 0.007847973 -0.010836983 -0.0112534715 0.0023361358 0.0047308737 0.00030833992 0.0030002967
-0.014752548 -0.006118038 0.003304699 -0.011874655 -0.0022007418 -0.010065897 0.005210504 -0.0015404597
0.014333187 0.004660007 0.0014123638 0.0011988657 -0.0034901924 -0.00856154 0.005987705 -0.007376064
0.013243612 -0.004033467 0.011559536 -0.012694532 -0.01267371 -0.0120790135 -0.011007265 -0.010502609
-0.0117775295 -0.010246723
00000000: 3e1a 083c de60 70bc ff09 82bc 9616 35bc
00000010: 9efe 233c f637 193c 88da 8bbb 576e 0cbc
00000020: f35a 2ebc 984c 313b 30ea 1cbc c9d1 0a3c
00000030: 848c 12bc 19a4 0b3c 6a31 c53b cbb3 79bc
00000040: eec9 5cba c994 003c 9a8d 31bc 7b60 38bc
00000050: db19 193b 7205 9b3b afa8 a139 a0a0 443b
00000060: acb4 71bc d379 c8bb a693 583b ea8d 42bc
00000070: 523a 10bb 6feb 24bc e0bc aa3b 40e9 c9ba
00000080: bed5 6a3c f9b2 983b 111f b93a 4223 9d3a
00000090: b6bb 64bb b445 0cbc 8334 c43b e9b2 f1bb
000000a0: bcfb 583c 2c2b 84bb 3564 3d3c bafc 4fbc
000000b0: 64a5 4fbc 0ee7 45bc d157 34bc 2313 2cbc
000000c0: 8af6 40bc dfe1 27bc

module.gcn_layers.0.bnEdges.W3.weight f4 [50, 50]
0.015919672 0.056266006 -0.03197365 0.032083414 0.019226888 -0.055565313 0.011911954 0.08875914
0.032686584 0.13065256 0.098322995 -0.033294607 0.008409273 0.06797638 -0.05882836 -0.06850241
-0.14782792 -0.09716895 -0.0192391 -0.13682461 0.12409674 -0.01196697 0.053042956 0.09628069
-0.14727081 -0.102783956 -0.029266898 0.0005608107 -0.08770912 -0.12239523 0.009040085 0.025424603
-0.13417569 0.053828966 -0.076422095 0.0047879727 -0.011146997 -0.051414847 -0.019460488 -0.06950486
0.07410949 -0.08200776 -0.04513832 -0.10549673 0.08600043 -0.091442116 -0.09964004 -0.086255156
0.039239626 -0.07393224 0.11125475 -0.038550746 -0.12272687 -0.073105745 -0.03705407 -0.07074197
0.014134239 -0.065236025 0.01862013 -0.046413273 -0.040185012 0.07250726 0.006858771 0.14258161
-0.11819719 -0.042396978 0.12977959 -0.12412298 -0.072829984 -0.037692674 -0.12837496 0.10346935
-0.10801543 0.046919357 0.04613332 0.04513676 0.12696451 0.042120222 0.086970285 -0.0055626705
0.015378511 -0.07819495 -0.14688717 0.14589235 0.008932769 -0.09742155 0.052008692 0.12284405
0.052357826 0.031013856 0.1062797 0.12469489 0.12384532 0.019488558 -0.12538607 -0.04861464
0.11473321 0.06203651 -0.052643213 0.012306051 -0.09700041 -0.018430859 0.1196331 0.025395956
-0.029595241 -0.00873043 -0.11742225 0.08464546 -0.1300001 -0.07746678 -0.0005110462 0.052049253
0.058543075 -0.017075375 0.11587461 -0.14690635 -0.111217126 -0.05179076 0.09925359 0.059400726
-0.13161047 -0.13323842 -0.14250693 -0.123259716 0.094509535 -0.015460165 0.0017007864 -0.019291364
-0.056828048 0.07160156 -0.020880755 0.08953645 -0.13412534 -0.07665534 0.07805094 0.026291931
-0.14245306 0.05278899 -0.0020390656 -0.044311196 0.119930245 -0.09303402 0.07095698 -0.03983681
0.04091292 -0.13742858 -0.07237789 0.05054115 -0.094047196 0.046470072 0.10737546 -0.08030301
0.059281576 0.04809971 0.012774906 -0.09745807 -0.03602332 -0.027203001 0.006594747 -0.11750427
0.11321365 0.040273532 -0.032027468 0.06702586 -0.019140474 0.08003473 0.1396771 -0.028367022
-0.04186154 0.09760448 -0.03248463 0.111356586 0.0089655705 -0.0764959 0.13641371 -0.0070750336
0.09488361 0.07228465 -0.14157084 0.034502424 0.09716215 0.10847049 0.15050398 -0.12846503
0.08152923 -0.14005291 -0.12008593 -0.08536124 -0.044043623 0.038613066 -0.06925329 -0.053721607
-0.12974209 0.040490028 0.015243354 0.02160673 0.056494325 -0.014430913 0.09434165 -0.09360311
0.039961368 0.12708847 0.060820725 0.0061325035 -0.10351488 0.13664347 -0.11600279 0.15140715
0.04124991 0.12840548 0.0792599 0.09260304 -0.13141882 -0.08115464 -0.061138604 0.052067373
-0.050751843 -0.022464182 -0.14962919 0.05973924 -0.071323626 0.07342824 -0.07254956 0.14636737
-0.003350119 0.008325728 0.033072274 -0.13736455 -0.00044016345 0.07567889 -0.011950709 0.003945694
0.09368222 0.1326749 -0.14134711 0.087276764 0.023836114 0.04587921 -0.039508175 -0.07033731
-0.099339165 -0.015035046 0.026636852 -0.05807851 0.06411617 0.12704831 0.037291076 0.099785805
0.08993225 -0.041615907 0.11444111 -0.08461477 -0.12110916 0.0024100037 -0.050956074 0.042829283
00000000: f969 823c 2f77 663d cdf6 02bd e669 033d
00000010: b581 9d3c 7498 63bd 5b2a 433c 5ac7 b53d
00000020: 5ee2 053d c9c9 053e 915d c93d ed5f 08bd
00000030: 0cc7 093c 3337 8b3d 02f6 70bd fe4a 8cbd
00000040: 3460 17be 8400 c7bd 519b 9dbc c01b 0cbe
00000050: 6e26 fe3d 1c11 44bc 9243 593d cf2e c53d
00000060: 29ce 16be 6580 d2bd 22c1 efbc 5e03 133a
00000070: d7a0 b3bd 5aaa fabd dd1c 143c 4247 d03c
00000080: 5a65 09be c37b 5c3d 3083 9cbd 6de4 9c3b
00000090: e5a1 36bc 6098 52bd 9a6b 9fbc 9058 8ebd
000000a0: b7c6 973d aff3 a7bd f6e2 38bd ab0e d8bd
000000b0: fe20 b03d 0146 bbbd 1410 ccbd 8ba6 b0bd
000000c0: bbb9 203d c969 97bd 88d9 e33d 63e7 1dbd
000000d0: 3a58 fbbd 77b8 95bd 02c6 17bd 2ae1 90bd
000000e0: 4c93 673c 779a 85bd 3e89 983c d81b 3ebd
000000f0: 0a99 24bd b07e 943d 8bbf e03b ea00 123e
00000100: 5e11 f2bd 74a8 2dbd f1e4 043e 3034 febd
00000110: e327 95bd a263 1abd ba74 03be bde7 d33d
00000120: 3237 ddbd 832e 403d 4bf6 3c3d 53e1 383d
00000130: fc02 023e 4186 2c3d 7a1d b23d 1047 b6bb
00000140: 26f6 7b3c ad24 a0bd 9769 16be ce64 153e
00000150: c05a 123c f384 c7bd 1107 553d a995 fb3d
00000160: 2975 563d c510 fe3c 2ca9 d93d 0960 ff3d
00000170: 9da2 fd3d 78a6 9f3c 3565 00be 2520 47bd
00000180: 3ff9 ea3d ff19 7e3d 69a0 57bd 529f 493c
00000190: 27a8 c6bd 50fc 96bc 3302 f53d 2e0b d03c
000001a0: b871 f2bc 140a 0fbc 147b f0bd 995a ad3d
000001b0: bf1e 05be e7a6 9ebd bbf7 05ba 9931 553d
000001c0: ddca 6f3d a8e1 8bbc ab4f ed3d 9e6e 16be
000001d0: cec5 e3bd 8c22 54bd 7745 cb3d 2d4e 733d
000001e0: e5c4 06be a76f 08be 56ed 11be 976f fcbd
000001f0: 378e c13d a24c 7dbc ecec de3a ec08 9ebc
00000200: 87c4 68bd d7a3 923d 1e0e abbc e35e b73d
00000210: 2758 09be 7afd 9cbd 2cd9 9f3d 2d62 d73c
00000220: 37df 11be 4539 583d d8a1 05bb a87f 35bd
00000230: fd9d f53d 9f88 bebd e551 913d ec2b 23bd
00000240: 4e94 273d 14ba 0cbe dc3a 94bd 3d04 4f3d
00000250: d19b c0bd 6757 3e3d aae7 db3d e875 a4bd
00000260: 3dd1 723d 3404 453d d74d 513c 1998 c7bd
00000270: 308d 13bd d4d8 debc bf18 d83b 14a6 f0bd
00000280: 8fdc e73d dcf5 243d 3c2f 03bd db44 893d
00000290: 7ccc 9cbc 40e9 a33d 8407 0f3e f561 e8bc
000002a0: 0277 2bbd dce4 c73d 9a0e 05bd ec0e e43d
000002b0: 54e4 123c e2a9 9cbd 09b0 0b3e afd5 e7bb
000002c0: 5752 c23d f909 943d f2f7 10be 6a52 0d3d
000002d0: f3fc c63d c725 de3d b71d 1a3e 568c 03be
000002e0: ccf8 a63d 086a 0fbe 9def f5bd e0d1 aebd
000002f0: 1667 34bd bc28 1e3d abd4 8dbd 300b 5cbd
00000300: 1cdb 04be dfd8 253d 43bf 793c 9900 b13c
00000310: 9866 673d a36f 6cbc 3236 c13d fdb2 bfbd
00000320: 88ae 233d 7b23 023e 271f 793d 2bf3 c83b
00000330: 9cff d3bd 44ec 0b3e df92 edbd 7a0a 1b3e
00000340: aaf5 283d ba7c 033e 0453 a23d aaa6 bd3d
00000350: a892 06be 6734 a6bd 796c 7abd 9944 553d
00000360: 2ae1 4fbd ce06 b8bc 6538 19be 22b1 743d
00000370: 1f12 92bd 8c61 963d dd94 94bd 54e1 153e
00000380: ac8d 5bbb a268 083c cb76 073d 4ba9 0cbe
00000390: bdc5 e6b9 89fd 9a3d e8cc 43bc e14a 813b
000003a0: 77dc bf3d eedb 073e 4cbd 10be 29be b23d
000003b0: f443 c33c d7eb 3b3d 53d3 21bd 020d 90bd
000003c0: 5572 cbbd 8e55 76bc 8735 da3c bbe3 6dbd
000003d0: 574f 833d f418 023e 87be 183d 805c cc3d
000003e0: 662e b83d 7175 2abd 1a60 ea3d 824a adbd
000003f0: 1408 f8bd 27f1 1d3b 51b7 50bd c26d 2f3d

module.gcn_layers.0.bnEdges.W4.weight f4 [50, 50]
-0.031493332 0.10006207 0.10968522 0.0065368167 0.063932456 0.057478964 0.079663716 0.038284548
-0.10511412 -0.010362049 -0.10789358 0.091315836 0.040529624 -0.06519169 0.114531875 -0.073737234
-0.102260716 -0.121505335 -0.051324792 0.020524897 0.14433163 0.018453894 -0.06176251 0.087957405
0.116356775 0.08874101 -0.05566435 0.09332183 -0.027096922 -0.022492867 -0.0054567307 -0.06128165
-0.12989855 -0.10410571 -0.10442088 0.0965598 0.047788464 0.03070035 -0.076153465 -0.083994366
-0.113976456 0.06059326 -0.031271294 0.06550033 0.06935502 -0.10166078 0.026245259 0.13239047
0.0042813476 -0.0644255 0.080941916 0.13667664 -0.103795774 0.0626788 -0.026232189 0.020191053
0.0975473 0.09104301 -0.11769044 0.005010844 0.10088275 0.1271026 0.072508916 0.03130227
0.009120353 -0.13843927 0.05440288 -0.08433846 0.023508674 0.11887399 0.052007988 -0.050385688
0.0028091292 -0.034122813 0.0922076 -0.016403269 0.040504795 0.0063197366 0.13605233 -0.037833557
-0.08749902 -0.036105815 0.05059418 -0.13748235 -0.10093544 0.03400281 -0.08771589 -0.07013176
0.046329975 0.092394166 0.06735849 -0.109918974 0.09581374 -0.09125265 0.12488255 0.11296833
-0.023615468 0.04506742 0.023770066 -0.05088063 -0.005479692 -0.08796113 0.050681613 0.06525057
-0.07231244 -0.045709133 -0.022750838 -0.08073117 -0.1038953 0.07336939 -0.047852334 -0.07292177
0.12540387 -0.06447274 0.13704734 -0.1077741 0.07266583 0.080513425 0.13766015 -0.12855276
0.08812218 -0.11141277 -0.04583495 -0.10572455 0.011691123 0.011079121 0.038286168 0.021025281
0.040641874 -0.041850336 0.095095925 -0.005323926 -0.11414991 0.13519476 0.08990159 -0.01910204
0.06970907 -0.04035664 0.10579817 -0.123523 -0.12183496 -0.07053308 -0.10457432 0.09316788
0.0026837182 -0.05646099 -0.06621771 -0.11626679 0.009076596 -0.12840806 -0.11311007 0.041498676
-0.00016356283 0.09056973 0.014555942 -0.1170459 0.08007366 0.09864848 0.037639864 0.023894724
0.040142387 0.02167225 -0.08109487 -0.067410454 0.025040511 0.134896 0.008763368 0.0014244574
-0.08656561 -0.06319904 0.048925687 0.0058638 0.13727745 0.06500779 -0.011970152 -0.04930738
-0.09390811 0.012473535 -0.0108116865 0.0771699 0.057731114 0.015148812 0.097187325 0.02103881
0.06019194 -0.10095126 -0.056741495 0.09310188 0.091217875 0.07688289 0.04545474 -0.005408107
-0.14819674 -0.08679214 0.09993297 -0.049995676 0.108539775 -0.11104697 -0.05594097 0.0035344176
-0.07758687 0.10688267 0.10047779 -0.045367017 0.13281822 0.0846955 0.10881407 -0.09265951
-0.12800485 0.003212819 0.016860336 0.05695555 -0.12192709 0.11858666 0.012895478 0.10591764
0.071910866 0.07348995 -0.051633656 0.002201723 -0.13391612 0.0063047237 -0.070808485 -0.10427196
0.047728278 -0.11095839 0.08755052 -0.09464945 0.004035361 0.027966391 0.1371263 -0.06730074
-0.11506162 -0.09140456 -0.07456594 -0.07935081 -0.10409921 0.14949082 -0.0019774563 -0.12098442
0.034183145 0.009697385 0.015034341 0.041292362 0.039354227 0.08425263 0.06880492 0.025131939
0.10315042 0.01720341 -0.048215844 -0.025408449 -0.010142516 -0.05474459 0.1444508 0.024825612
00000000: 27ff 00bd 58ed cc3d a5a2 e03d cb32 d63b
00000010: 05ef 823d 106f 6b3d bb26 a33d 42d0 1c3d
00000020: 1246 d7bd 95c5 29bc 4ff7 dcbd cc03 bb3d
00000030: 6402 263d 3983 85bd b08f ea3d 8c03 97bd
00000040: 116e d1bd cad7 f8bd f239 52bd d423 a83c
00000050: accb 133e 9f2c 973c b0fa 7cbd 0323 b43d
00000060: 764c ee3d d9bd b53d 4d00 64bd 841f bf3d
00000070: 5dfa ddbc f642 b8bc 60ce b2bb 7802 7bbd
00000080: 2004 05be 6035 d5bd 9dda d5bd 25c1 c53d
00000090: d6bd 433d 4d7f fb3c 59f6 9bbd 3d05 acbd
000000a0: 7d6c e9bd a330 783d 5416 00bd 0925 863d
000000b0: 010a 8e3d 8733 d0bd 4c00 d73c 5e91 073e
000000c0: 8c4a 8c3b 84f1 83bd e0c4 a53d f6f4 0b3e
000000d0: e192 d4bd be5d 803d e3e4 d6bc b567 a53c
000000e0: e1c6 c73d c274 ba3d af07 f1bd 0232 a43b
000000f0: 9d9b ce3d 2f27 023e 8e7f 943d cf36 003d
00000100: 886d 153c 06c3 0dbe 8ed5 5e3d a4b9 acbd
00000110: 4395 c03c 3574 f33d 5406 553d 3961 4ebd
00000120: 5e19 383b 5dc4 0bbd 57d7 bc3d 2660 86bc
00000130: 5be8 253d cb15 cf3b 4d51 0b3e 5cf7 1abd
00000140: b032 b3bd b1e3 13bd d83b 4f3d 2cc8 0cbe
00000150: 3db7 cebd 8846 0b3d 63a4 b3bd 3da1 8fbd
00000160: 80c4 3d3d 2739 bd3d 3ff3 893d 331d e1bd
00000170: fe39 c43d abe2 babd 6cc2 ff3d f15b e73d
00000180: 3a75 c1bc 9d98 383d 71b9 c23c 3568 50bd
00000190: fd8e b3bb f724 b4bd 8697 4f3d 17a2 853d
000001a0: 8b18 94bd 8039 3bbd f75f babc 6256 a5bd
000001b0: 0fc7 d4bd b142 963d cf00 44bd 0258 95bd
000001c0: df69 003e 490a 84bd 2356 0c3e abb8 dcbd
000001d0: d3d1 943d 39e4 a43d c8f6 0c3e 56a3 03be
000001e0: 6779 b43d 612c e4bd 6ebd 3bbd 1d86 d8bd
000001f0: 208c 3f3c 3485 353c f5d1 1c3d 363d ac3c
00000200: 1878 263d 426b 2bbd a7c1 c23d 5474 aebb
00000210: 6ec7 e9bd 7f70 0a3e 531e b83d e27b 9cbc
00000220: a1c3 8e3d 014d 25bd b6ac d83d a0f9 fcbd
00000230: 9c84 f9bd a673 90bd 102b d6bd cdce be3d
00000240: 52e1 2f3b a443 67bd 279d 87bd 481d eebd
00000250: 01b6 143c 677d 03be 41a6 e7bd 84fa 293d
00000260: 1082 2bb9 9f7c b93d 0c7c 6e3c c3b5 efbd
00000270: a9fd a33d 3708 ca3d 422c 1a3d debe c33c
00000280: 586c 243d 018a b13c 1115 a6bd 7e0e 8abd
00000290: c221 cd3c 2d22 0a3e 3b94 0f3c dcb4 ba3a
000002a0: 4f49 b1bd 806e 81bd 4d66 483d 1f25 c03b
000002b0: 7692 0c3e ce22 853d 751e 44bc 89f6 49bd
000002c0: e552 c0bd cc5d 4c3c 8023 31bc 410b 9e3d
000002d0: 7677 6c3d b932 783c 260a c73d 9559 ac3c
000002e0: d38b 763d 89bf cebd c569 68bd 33ac be3d
000002f0: 70d0 ba3d c774 9d3d c02e 3a3d 7d36 b1bb
00000300: e3c0 17be 14c0 b1bd a8a9 cc3d 44c8 4cbd
00000310: 1a4a de3d 986c e3bd 5c22 65bd b0a1 673b
00000320: dde5 9ebd 4de5 da3d 4dc7 cd3d c4d2 39bd
00000330: 8001 083e d674 ad3d e9d9 de3d 45c4 bdbd
00000340: b413 03be 298e 523b b01e 8a3c 394a 693d
00000350: e9b4 f9bd 90dd f23d 8e47 533c 59eb d83d
00000360: 0146 933d e681 963d d07d 53bd c84a 103b
00000370: 4f21 09be db97 ce3b 0a04 91bd 8a8c d5bd
00000380: ba7e 433d 273e e3bd b04d b33d 92d7 c1bd
00000390: 103b 843b c619 e53c d66a 0c3e f8d4 89bd
000003a0: 6da5 ebbd 5032 bbbd 07b6 98bd ad82 a2bd
000003b0: f731 d5bd 1f14 193e 3698 01bb aec6 f7bd
000003c0: a003 0c3d c8e1 1e3c 9952 763c 2e22 293d
000003d0: e631 213d a58c ac3d 98e9 8c3d 7fe1 cd3c
000003e0: 8740 d33d 2aee 8c3c fa7d 45bd 6125 d0bc
000003f0: cc2c 26bc dd3b 60bd e9ea 133e 155f cb3c

module.gcn_layers.0.bnEdges.W5.weight f4 [50, 50]
0.09235371 -0.095384456 -0.0035704528 0.0011275554 0.13238393 -0.049694385 -0.06098798 0.034748297
0.02952988 0.045765642 0.10878856 -0.1048405 0.019687332 -0.017271094 -0.120589584 -0.01963821
0.030311473 0.0852941 -0.0005488571 -0.104401484 -0.03267288 0.08192163 0.052658737 -0.09979283
0.025311481 -0.025257483 0.007408826 0.08817547 -0.069606744 -0.010556855 0.10260296 -0.021308012
0.13802847 -0.007270533 0.030791892 -0.022268679 0.048718084 -0.051389303 0.13049878 0.13139027
0.0071312804 -0.07124043 0.046881627 -0.022993578 -0.11661516 0.01884485 -0.1001249 -0.048329346
-0.100395806 0.109355025 0.059033565 -0.07020734 0.081840515 -0.09325792 0.014620947 -0.11685354
0.07469929 -0.073553115 -0.056272607 0.03599721 -0.13561618 0.068943664 -0.001984507 -0.100727886
-0.022143262 -0.090756975 0.046186715 0.042456448 -0.10332323 0.09548738 -0.05244953 0.12510523
-0.01176744 0.024853513 -0.050092284 -0.007384736 -0.004848931 -0.034930523 -0.09010238 0.004271627
-0.1146168 -0.08048087 -0.050628163 -0.008068605 -0.098514244 -0.06949391 0.004959367 0.015561508
0.005337701 -0.08829734 0.10698125 -0.04807249 -0.11503221 0.08166943 0.0154067725 -0.015246393
-0.13024883 -0.086530104 0.07806697 -0.042642575 -0.10426164 0.06807971 -0.101933956 0.06895796
-0.050610315 0.069258675 0.028693087 0.13231294 0.06325897 -0.007584721 0.120891616 -0.101596706
0.02993712 0.06045791 -0.110077165 -0.0759441 -0.0755228 -0.058906905 -0.028997906 -0.09222551
0.13741094 0.00083956256 0.14344963 0.04927145 -0.03577711 0.018267902 -0.09382692 -0.10669153
0.063461326 -0.01643922 0.0008630671 -0.01651257 0.09617716 -0.12890168 -0.08264919 -0.070436954
-0.030826105 0.10296954 0.092897765 -0.09296954 -0.036528878 0.12812583 -0.095151566 0.009397112
0.05576315 0.080248795 0.10173965 0.08493551 0.050462015 -0.13735813 -0.07157405 -0.03730661
-0.090362646 -0.08543244 0.022879805 -0.04488724 0.033535387 0.045659717 0.0798724 -0.11184764
0.11463334 0.06948634 0.025634985 -0.026768152 -0.037422635 0.013245356 -0.024334967 -0.1193449
0.011129752 -0.0972032 -0.11616291 0.09208201 -0.02223177 -0.02416999 -0.03229387 -0.050440304
0.061597086 -0.016705288 -0.049892344 0.13437371 0.09517855 0.105771095 -0.1538451 0.03978641
0.02496462 0.13156906 0.05447381 0.019726874 0.085865445 0.07670336 -0.11758741 -0.12490659
-0.060342636 -0.030031908 0.043236446 0.10565104 -0.11830176 -0.029614815 -0.097897485 0.119727045
0.08211881 0.07816154 -0.0055286563 -0.09019312 -0.075825915 0.004031829 0.0070059155 0.0031926367
0.120774806 -0.075583346 0.10084329 0.06418614 -0.10679876 -0.056113802 -0.07826647 0.0031265037
0.075359516 0.09016562 -0.027308905 0.13164072 0.064077415 0.033602536 -0.11897294 -0.110717975
0.08331341 0.07209791 -0.070918195 -0.10985977 0.005184161 -0.13377401 0.09565835 0.0698073
0.033109486 -0.097324066 -0.020339381 -0.07082664 0.07567842 0.13606623 0.0022253573 -0.035902258
0.10461181 -0.032414105 -0.06151747 -0.11319772 0.024858776 0.116180345 0.09643964 0.0511551
0.105625644 -0.10860349 0.13895586 -0.03816712 -0.13720536 0.0709299 0.037152547 -0.03304973
00000000: f123 bd3d ed58 c3bd 42fe 69bb 7bca 933a
00000010: a78f 073e 578c 4bbd 88ce 79bd 3b54 0e3d
00000020: a6e8 f13c c174 3b3d 89cc de3d 9eb6 d6bd
00000030: 5447 a13c 1c7c 8dbc acf7 f6bd 50e0 a0bc
00000040: c44f f83c acae ae3d 2de1 0fba 72d0 d5bd
00000050: ffd3 05bd 87c6 a73d b0b0 573d 2f60 ccbd
00000060: 065a cf3c c8e8 cebc bdc5 f23b 5795 b43d
00000070: fb8d 8ebd a9f6 2cbc 8021 d23d 248e aebc
00000080: 5657 0d3e a73d eebb 473f fc3c ce6c b6bc
00000090: 9d8c 473d 977d 52bd 79a1 053e 2c8b 063e
000000a0: 84ad e93b 81e6 91bd f306 403d 075d bcbc
000000b0: eed3 eebd 8460 9a3c 490e cdbd fef4 45bd
000000c0: 519c cdbd 87f5 df3d 2ecd 713d dec8 8fbd
000000d0: 009c a73d 02fe bebd b28c 6f3c e950 efbd
000000e0: f1fb 983d 04a3 96bd 1b7e 66bd cf71 133d
000000f0: f8de 0abe 5632 8d3d 810e 02bb 6c4a cebd
00000100: c965 b5bc cbde b9bd 482e 3d3d d0e6 2d3d
00000110: 219b d3bd e38e c33d 52d5 56bd 961b 003e
00000120: 38cc 40bc 9899 cb3c 912d 4dbd a8fb f1bb
00000130: c8e3 9ebb 4f13 0fbd 9987 b8bd 01f9 8b3b
00000140: 36bc eabd 28d3 a4bd 7a5f 4fbd 2f32 04bc
00000150: d6c1 c9bd d352 8ebd 3082 a23b b2f5 7e3c
00000160: e2e7 ae3b 3cd5 b4bd fc18 db3d a9e7 44bd
00000170: 0296 ebbd 4d42 a73d b06c 7c3c 02cc 79bc
00000180: f35f 05be b236 b1bd 93e1 9f3d fba9 2ebd
00000190: 2087 d5bd 606d 8b3d c0c2 d0bd d539 8d3d
000001a0: c34c 4fbd 7ed7 8d3d c40d eb3c 0b7d 073e
000001b0: eb8d 813d 4089 f8bb 0696 f73d ef11 d0bd
000001c0: b13e f53c b7a2 773d 2370 e1bd 9588 9bbd
000001d0: b3ab 9abd 5e48 71bd 048d edbc bae0 bcbd
000001e0: 74b5 0c3e 1716 5c3a 76e4 123e dcd0 493d
000001f0: 058b 12bd 91a6 953c 5428 c0bd 1781 dabd
00000200: 03f8 813d 8bab 86bc 743f 623a 5f45 87bc
00000210: 88f8 c43d cdfe 03be fb43 a9bd 4041 90bd
00000220: 0787 fcbc b2e1 d23d 2f41 be3d d066 bebd
00000230: 4e9f 15bd 6b33 033e d3de c2bd 58f6 193c
00000240: e767 643d 7b59 a43d e15c d03d abf2 ad3d
00000250: 42b1 4e3d 9ca7 0cbe 6a95 92bd d1ce 18bd
00000260: 0d10 b9bd 34f7 aebd 6e6e bb3c afdb 37bd
00000270: 675c 093d af05 3b3d 2494 a33d 6010 e5bd
00000280: e2c4 ea3d db4e 8e3d 7600 d23c e248 dbbc
00000290: 7a48 19bd 0d03 593c 205a c7bc 196b f4bd
000002a0: 9059 363c 7912 c7bd d2e6 edbd 7e95 bc3d
000002b0: 671f b6bc 2500 c6bc 9446 04bd 7e9a 4ebd
000002c0: 3a4d 7c3d 87d9 88bc ea5b 4cbd 4399 093e
000002d0: f9ec c23d 849e d83d 9289 1dbe 13f7 223d
000002e0: 9a82 cc3c 0aba 063e ee1f 5f3d 419a a13c
000002f0: 39da af3d a716 9d3d abd1 f0bd 07cf ffbd
00000300: d729 77bd 7a05 f6bc b318 313d 935f d83d
00000310: 3148 f2bd c59a f2bc 7a7e c8bd 7433 f53d
00000320: e82d a83d 2813 a03d bb29 b5bb 2cb7 b8bd
00000330: 9e4a 9bbd 6f1d 843b e191 e53b 8e3b 513b
00000340: c858 f73d 71cb 9abd ed86 ce3d 0674 833d
00000350: 4fb9 dabd 96d7 65bd 2c4a a0bd 07e6 4c3b
00000360: 1756 9a3d c1a8 b83d edb6 dfbc d3cc 063e
00000370: 053b 833d d0a2 093d 16a8 f3bd 1bc0 e2bd
00000380: 39a0 aa3d 12a8 933d 8f3d 91bd 29fe e0bd
00000390: e5df a93b 0efc 08be 86e8 c33d 21f7 8e3d
000003a0: d09d 073d d751 c7bd c69e a6bc 8f0d 91bd
000003b0: 4afd 9a3d f254 0b3e 4dd7 113b 3f0e 13bd
000003c0: b73e d63d a7c4 04bd bef9 7bbd 35d4 e7bd
000003d0: a2a4 cb3c f6ef ed3d 2582 c53d 0388 513d
000003e0: 4252 d83d 826b debd 724a 0e3e 2055 1cbd
000003f0: 907f 0cbe b243 913d 452d 183d 275f 07bd

module.gcn_layers.0.bnEdges.batch_norm.weight f4 [50]
1.0110385 1.0128459 1.0075126 0.9852391 0.98884964 1.0142218 0.9847913 1.0136644
0.99033386 1.0075802 1.0079389 1.0162206 1.0160421 1.0125574 0.98840123 1.0135449
0.98613495 0.9872109 0.99803466 1.0136279 1.0153726 0.98498136 1.0153003 1.0145668
1.0107317 1.0142579 0.99572825 0.9902085 1.0116962 0.9942146 1.008503 1.0145417
1.0024056 0.99483776 0.9896867 1.0106198 0.9974126 0.99795836 1.0157465 1.0147394
0.9988695 1.013693 1.0115944 1.0143112 1.0142779 1.0138031 0.9929033 0.9877285
0.9925831 1.0154643
00000000: b669 813f efa4 813f 2cf6 803f a138 7c3f
00000010: 4025 7d3f 05d2 813f 481b 7c3f c1bf 813f
00000020: 8586 7d3f 63f8 803f 2404 813f 8413 823f
00000030: ab0d 823f 7b9b 813f dd07 7d3f d7bb 813f
00000040: 5773 7c3f dbb9 7c3f 337f 7f3f 8fbe 813f
00000050: bbf7 813f bd27 7c3f 5cf5 813f 53dd 813f
00000060: a85f 813f 34d3 813f 0ce8 7e3f 4e7e 7d3f
00000070: 437f 813f d984 7e3f a016 813f 81dc 813f
00000080: d44e 803f b0ad 7e3f 1c5c 7d3f fd5b 813f
00000090: 6f56 7f3f 337a 7f3f fb03 823f fbe2 813f
000000a0: e9b5 7f3f b1c0 813f ed7b 813f f3d4 813f
000000b0: dcd3 813f 4dc4 813f e92e 7e3f c6db 7c3f
000000c0: ed19 7e3f bcfa 813f

module.gcn_layers.0.bnEdges.batch_norm.bias f4 [50]
0.013820996 0.013608848 -0.012015969 -0.014972071 -0.012085641 -0.006897879 -0.015266458 0.013854517
-0.012661284 -0.011541118 0.015679372 0.012421482 0.016205471 0.015515139 -0.015725385 0.013865396
-0.014115225 -0.012269203 -0.008533312 0.014681237 0.01579982 -0.014118047 0.015705062 0.014639002
-0.012190776 0.011585517 0.0017514126 -0.0039063697 0.014705585 -0.0019003185 0.013653464 0.015248155
0.014528052 -0.0023240726 -0.015621359 0.0108107 -0.002942187 0.0010854618 0.016196838 0.011149359
0.004004916 0.014767926 0.005843509 0.015058217 0.015826004 0.014525168 -0.008326105 -0.014726375
-0.006710033 0.015899522
00000000: 7571 623c a5f7 5e3c a0de 44bc 6b4d 75bc
00000010: da02 46bc 9a07 e2bb 2a20 7abc 0efe 623c
00000020: 4671 4fbc f516 3dbc 0772 803c 7983 4b3c
00000030: 56c1 843c 3633 7e3c 86d2 80bc b02b 633c
00000040: 8b43 67bc c404 49bc 4ecf 0bbc 9289 703c
00000050: a06e 813c 624f 67bc e7a7 803c 6dd8 6f3c
00000060: d2bb 47bc 2ed1 3d3c a88f e53a 0101 80bb
00000070: b2ef 703c 1c14 f9ba c7b2 5f3c 66d3 793c
00000080: 1107 6e3c 784f 18bb bbf0 7fbc 5d1f 313c
00000090: b5d1 40bb 0e46 8e3a 3baf 843c cdab 363c
000000a0: ac3b 833b 2cf5 713c e87a bf3b bdb6 763c
000000b0: 89a5 813c f8fa 6d3c 376a 08bc e546 71bc
000000c0: d6df dbbb b73f 823c

module.gcn_layers.1.bnNodes.W1.weight f4 [50, 50]
-0.08473055 -0.08744954 -0.14832802 -0.12754379 -0.0021952982 -0.08403598 -0.08629899 -0.079176635
-0.06705775 0.11984881 0.03359203 0.09449027 0.09219266 -0.072487876 0.084166944 0.07816793
0.09797172 0.14514631 0.081837796 0.1259473 0.10527276 0.035946812 0.13100283 -0.023596331
-0.08245486 0.004501037 -0.1301979 -0.14994317 0.10232569 0.06259644 -0.0043570576 0.13373753
-0.11308091 0.017357158 -0.10680751 0.11535516 -0.039802987 0.09474879 -0.09246495 -0.004057963
-0.06788046 -0.016679361 -0.06875711 -0.04816832 0.1116142 -0.0024966663 -0.08809945 0.06568484
-0.06971868 -0.09135492 -0.058692638 0.039244387 -0.10507123 0.12868814 -0.12290838 0.094026856
-0.13175845 -0.04426641 -0.11420818 0.035338543 0.008551918 0.0040634237 -0.11741297 0.12954016
0.12068324 0.12532511 0.12531325 0.1384583 -0.058152825 -0.003967125 -0.043601252 -0.11922532
0.06034446 -0.12067191 0.12831642 0.054022335 -0.024589695 -0.120831326 -0.07429384 -0.097241804
0.08131474 -0.053183097 -0.12758456 -0.019899916 0.069622286 -0.12881136 0.12099564 -0.044236332
-0.09551891 -0.03910816 -0.06885448 -0.074155204 0.06292508 0.12273925 -0.050620988 -0.10122532
-0.07403883 0.013582256 -0.117346294 0.10851693 0.08666208 -0.01514583 0.010372607 0.028585361
0.068401836 -0.14202641 -0.124111734 -0.0908817 0.07621797 -0.02894126 0.115085706 0.009217967
0.025203552 -0.07667071 -0.02181659 0.043267876 -0.012030665 0.11629162 0.06951182 -0.038334567
0.008254949 0.025638742 -0.067734465 -0.064346135 -0.13199413 0.07231662 -0.14896496 -0.033143923
-0.024746794 0.118326925 0.025966842 -0.014087714 -0.044081934 -0.06794029 0.0028535193 0.108413294
-0.0749099 -0.014650655 -0.06739025 0.117579654 -0.058046024 0.08686088 0.09519983 0.05005445
-0.09720424 -0.14566039 -0.029582491 -0.058017414 -0.009911671 0.05151954 -0.1266028 0.047524683
-0.106295556 -0.09790794 -0.046441704 0.0013678191 0.0389776 0.052037653 -0.042876005 0.065925844
-0.068289235 0.09161638 0.030909747 0.10605793 -0.07393061 0.024230953 -0.09026605 0.093145795
-0.06040994 -0.05845741 -0.12711863 0.07923288 -0.029078197 -0.05853756 -0.081289224 -0.067898855
0.10885416 0.057774875 0.10182126 0.08213681 0.08933647 0.127206 0.114683665 -0.013190947
0.115742 -0.048682865 0.004725405 0.06553379 -0.06862774 0.05268445 -0.021633977 0.05017882
0.014244419 -0.04158563 0.06963074 0.12636043 0.038724463 -0.0050373543 0.10442948 -0.017251141
-0.12858409 0.14658023 0.11092666 0.04922694 -0.021709 0.052070234 0.033144906 -0.06914277
0.07709303 -0.03539659 0.0019851772 -0.035462167 0.0001761092 -0.07926053 -0.05333705 -0.019469505
0.051877424 0.14526477 -0.10726842 0.037543952 0.13081159 0.011704174 0.10903264 -0.14955783
0.12834096 0.0040530977 -0.062509336 0.02671633 -0.08782082 0.039969157 0.025014693 0.035918612
-0.08790221 0.0043000127 -0.11671889 -0.11923938 0.042465024 -0.05758572 0.13294867 0.09436054
0.047284536 0.0111384345 0.09993005 0.11629978 0.054161336 0.12631352 -0.14756124 0.0011953407
0.073214404 -0.054265108 0.040641136 -0.076845676 0.039586715 -0.12428129 -0.1436393 -0.035974536
00000000: 3687 adbd bf18 b3bd 4de3 17be d79a 02be
00000010: fede 0fbb 0e1b acbd 86bd b0bd 5c27 a2bd
00000020: 9355 89bd 4b73 f53d cc97 093d 1d84 c13d
00000030: 81cf bc3d 8674 94bd b85f ac3d 8216 a03d
00000040: 66a5 c83d 3ca1 143e 939a a73d 54f8 003e
00000050: 3f99 d73d f73c 133d 9b25 063e 184d c1bc
00000060: 18de a8bd 6f7d 933b 9952 05be b48a 19be
00000070: 2290 d13d 9032 803d a6c5 8ebb 7ef2 083e
00000080: f796 e7bd 9930 8e3c e5bd dabd 533f ec3d
00000090: 7508 23bd a70b c23d 445e bdbd a9f8 84bb
000000a0: e904 8bbd 28a3 88bc 87d0 8cbd 254c 45bd
000000b0: fc95 e43d 1c9f 23bb 7c6d b4bd c685 863d
000000c0: abc8 8ebd 4a18 bbbd b167 70bd b9be 203d
000000d0: 962f d7bd d3c6 033e 64b7 fbbd 2791 c03d
000000e0: b0eb 06be b250 35bd fae5 e9bd 26bf 103d
000000f0: 581d 0c3c 7826 853b 3676 f0bd 2da6 043e
00000100: c628 f73d 3a55 003e 1e52 003e 03c8 0d3e
00000110: a831 6ebd a8fe 81bb 3a97 32bd 682c f4bd
00000120: c12b 773d d622 f7bd 6165 033e 8646 5d3d
00000130: 5470 c9bc 6a76 f7bd 5e27 98bd b626 c7bd
00000140: 5888 a63d 85d6 59bd 87a5 02be 2605 a3bc
00000150: 2196 8e3d 20e7 03be 90cc f73d 2831 35bd
00000160: 6b9f c3bd e12f 20bd 9403 8dbd afde 97bd
00000170: ddde 803d b75e fb3d f457 4fbd 384f cfbd
00000180: aca1 97bd 1c88 5e3c 4153 f0bd 203e de3d
00000190: e37b b13d 3726 78bc def1 293c d92b ea3c
000001a0: 4316 8c3d 5f6f 11be 4b2e febd 2f20 babd
000001b0: 2b18 9c3d 3916 edbc 0eb2 eb3d f506 173c
000001c0: ae77 ce3c 8905 9dbd b5b8 b2bc a839 313d
000001d0: 441c 45bc 4d2a ee3d 375c 8e3d b504 1dbd
000001e0: c43f 073c 5708 d23c 5eb8 8abd e8c7 83bd
000001f0: 7829 07be bc1a 943d 458a 18be ecc1 07bd
00000200: cab9 cabc 6355 f23d 6ab8 d43c 28d0 66bc
00000210: 428f 34bd 4724 8bbd 1c02 3b3b ca07 de3d
00000220: 5d6a 99bd 4d09 70bc e603 8abd 9acd f03d
00000230: abc1 6dbd 1ee4 b13d 21f8 c23d e505 4d3d
00000240: 0413 c7bd ff27 15be fb56 f2bc aba3 6dbd
00000250: 9064 22bc 2706 533d 2aa4 01be 3ea9 423d
00000260: 7cb1 d9bd f583 c8bd a839 3ebd 6548 b33a
00000270: faa6 1f3d 6f25 553d c09e 2fbd 2104 873d
00000280: 3adb 8bbd 5ea1 bb3d 7036 fd3c e634 d93d
00000290: ef68 97bd fe7f c63c 68dd b8bd 39c3 be3d
000002a0: 6a70 77bd 0a71 6fbd 632b 02be d944 a23d
000002b0: 6635 eebc 15c5 6fbd f77a a6bd 8e0e 8bbd
000002c0: eeee de3d 59a5 6c3d aa87 d03d 5837 a83d
000002d0: 0af6 b63d 4a42 023e 45df ea3d d71e 58bc
000002e0: 240a ed3d af67 47bd 92d7 9a3b 9436 863d
000002f0: b38c 8cbd a6cb 573d bd39 b1bc 4e88 4d3d
00000300: 6c61 693c b255 2abd 909a 8e3d a164 013e
00000310: 8b9d 1e3d 6410 a5bb 20df d53d 4452 8dbc
00000320: 8cab 03be 2119 163e 842d e33d 30a2 493d
00000330: 13d7 b1bc 9947 553d f4c2 073d b99a 8dbd
00000340: f3e2 9d3d 04fc 10bd bf19 023b c740 11bd
00000350: f4a9 3839 5853 a2bd f377 5abd 837e 9fbc
00000360: 6c7d 543d 4ac0 143e 8caf dbbd b0c7 193d
00000370: 79f3 053e ddc2 3f3c 814c df3d b025 19be
00000380: d06b 033e d9cf 843b e504 80bd 34dc da3c
00000390: 67db b3bd b3b6 233d 9deb cc3c 651f 133d
000003a0: 1306 b4bd 1fe7 8c3b 500a efbd c733 f4bd
000003b0: ceef 2d3d 01df 6bbd b223 083e 1940 c13d
000003c0: 6ead 413d fb7d 363c 20a8 cc3d 942e ee3d
000003d0: 47d8 5d3d 5558 013e 4b1a 17be faac 9c3a
000003e0: 6ff1 953d 1745 5ebd 5277 263d 4461 9dbd
000003f0: ae25 223d 3087 febd 2e16 13be 095a 13bd
