logs/deafult/best_val_checkpoint.tar (torch, 489841 bytes, 103 tensors)

module.NodesEncoding.A1.weight f4 [50, 2]
0	0xbf14275d	-0.57872564
1	0x3ebfea5b	0.37483487
2	0xbf139605	-0.57650787
3	0xbf142f82	-0.5788499
4	0x3ecc8e18	0.3995216
5	0x3e831bb3	0.2560707
6	0xbec8a7b6	-0.39190453
7	0xbf2dbd0d	-0.67866594
8	0xbe5d5f7a	-0.21618453
9	0x3e3fb6d9	0.18722095
10	0x3eb0dbb5	0.34542623
11	0xbe140b53	-0.14457445
12	0x3f036688	0.51328325
13	0xbe6a90db	-0.2290682
14	0x3e01b7c0	0.12667751
15	0xbed8da15	-0.42353883
16	0xbd9ade33	-0.075619124
17	0x3ee9647a	0.4558447
18	0xbec16b9d	-0.37777415
19	0x3f114aba	0.5675465
20	0xbf23e837	-0.64026207
21	0x3e1108f0	0.14163566
22	0x3ef1ee92	0.47252327
23	0x3f2b071e	0.66807735
24	0x3f20b85d	0.62781316
25	0x3f334951	0.70033747
26	0x3e5a194b	0.21298711
27	0x3d749037	0.059707846
28	0x3ead402b	0.3383802
29	0xbeb9ce31	-0.36290124
30	0x3ebf692f	0.37384936
31	0xbee98364	-0.45608056
32	0xbe70b3a8	-0.23506033
33	0xbef8a925	-0.48566547
34	0x3f27eb13	0.6559307
35	0x3eaa4777	0.33257648
36	0xbe38be96	-0.18041453
37	0xbea27efa	-0.317375
38	0x3e25a2a6	0.16175327
39	0xbedeab29	-0.4348996
40	0xbe12efff	-0.14349364
41	0x3ea53942	0.32270247
42	0x3f0e0631	0.554782
43	0xbec96dfa	-0.39341718
44	0xbe91109b	-0.2833298
45	0x3f0112b7	0.5041918
46	0x3f367d5c	0.71285033
47	0x3e4da8a6	0.20083866
48	0xbf32b2a0	-0.6980381
49	0xbef48e8f	-0.47765014
50	0xbdf310d1	-0.11868442
51	0x3f11c723	0.56944484
52	0xbecf851f	-0.4053125
53	0xbeef5d10	-0.4675069
54	0xbee23b1e	-0.44185728
55	0xbe638316	-0.22217974
56	0x3dba40c0	0.09094381
57	0x3f12bd53	0.57320136
58	0xbec598bf	-0.385931
59	0x3f136e43	0.5759012
60	0xbe94cbbb	-0.29061684
61	0xbf18bc99	-0.5966278
62	0xbf231175	-0.6369851
63	0x3f2c5f1b	0.6733262
64	0xbf333520	-0.7000294
65	0xbc36b2b7	-0.011151007
66	0x3d820f3c	0.06350562
67	0x3d9922e1	0.07477356
68	0x3db4c7fe	0.08827208
69	0x3f0ae5fc	0.5425718
70	0xbe557795	-0.20846398
71	0x3edb7e07	0.4286959
72	0x3e94d30e	0.29067272
73	0x3c84c72e	0.016208258
74	0xbdf26f1d	-0.118375994
75	0xbeaa106c	-0.33215654
76	0xbf14b38c	-0.58086467
77	0x3ef5fe2f	0.4804549
78	0x3eb8468e	0.3599133
79	0x3f217b72	0.6307899
80	0x3eab13ea	0.3341363
81	0xbe7dc0d4	-0.2478059
82	0x3eb86760	0.3601637
83	0x3f27cb66	0.65544736
84	0x3f2888b3	0.65833586
85	0x3d747290	0.059679568
86	0x3dfc335d	0.12314484
87	0xbecc0dab	-0.39854178
88	0x3eaebc4d	0.34128037
89	0xbe9abff6	-0.3022458
90	0x3f345817	0.70446914
91	0x3f01cae6	0.50700223
92	0x3e3df579	0.18550672
93	0xbe1a1239	-0.15046014
94	0xbe93d00f	-0.28869674
95	0x3e1fbba1	0.15598918
96	0x3f285a76	0.6576303
97	0x3e54f3d6	0.20796141
98	0x3e06038b	0.13087289
99	0xbea070f1	-0.31336167

module.NodesEncoding.A1.bias f4 [50]
0	0x3e82524c	0.25453413
1	0x3f0ff0b5	0.56226665
2	0x3f241fbd	0.6411093
3	0x3e776ff8	0.24163806
4	0xbdc6a1e8	-0.0969885
5	0x3e9bc4b9	0.30423525
6	0x3f147004	0.5798342
7	0xbe9cad0c	-0.30600774
8	0xbe3ca8d7	-0.18423782
9	0xbe8fa450	-0.28055048
10	0x3bfe9dca	0.0077702748
11	0x3ee8e48a	0.4548686
12	0x3eb78f68	0.35851598
13	0x3f346653	0.70468634
14	0xbf0c4b7f	-0.548027
15	0x3e9db379	0.3080099
16	0xbead2c40	-0.33822823
17	0x3f1f8310	0.6230936
18	0x3d9d8d38	0.07692951
19	0xbe90c8e2	-0.2827826
20	0xbee7556d	-0.45182362
21	0xbeefc574	-0.46830332
22	0xbe78dbd0	-0.24302602
23	0xbed96117	-0.42456886
24	0x3eb3025b	0.34962735
25	0xbe7754e1	-0.24153472
26	0xbf07f14d	-0.5310257
27	0x3d0b4ea5	0.03401055
28	0xbe04dc72	-0.12974718
29	0x3ecb6773	0.39727363
30	0xbeb49e03	-0.35276803
31	0xbdf863db	-0.12128421
32	0xbebb1fbc	-0.3654765
33	0xbec2646b	-0.37967238
34	0xbe43e218	-0.19129217
35	0x3ee58f93	0.448361
36	0xbd130139	-0.035889838
37	0xbe90f8a1	-0.2831469
38	0x3d2d1e8b	0.042265456
39	0x3f045bcc	0.5170257
40	0x3f1e506e	0.61841476
41	0x3c7649c3	0.015032235
42	0x3f32f3df	0.6990337
43	0x3e272e63	0.16326289
44	0x3efed254	0.49769843
45	0x3f32c793	0.69835776
46	0xbeeec03f	-0.46631047
47	0x3e871750	0.26384974
48	0xbd24538f	-0.04011875
49	0x3e3abe71	0.1823671

module.EdgesEncoding.A2.weight f4 [25, 1]
0	0x3da5d1da	0.08096667
1	0xbf3c2c9e	-0.7350558
2	0x3f70bee1	0.9404126
3	0xbf263e58	-0.6493888
4	0xbf809072	-1.0044081
5	0xbf567706	-0.83775365
6	0x3e91e437	0.28494427
7	0xbd71a2d6	-0.058993183
8	0x3f1f4c72	0.6222602
9	0xbe0978da	-0.13425007
10	0x3cd265cb	0.025683304
11	0x3f16f85a	0.58972704
12	0x3f5a928a	0.8537985
13	0x3d8ecdda	0.06972857
14	0xbe8f5a2e	-0.2799849
15	0x3f520ee2	0.8205396
16	0x3f321c69	0.695746
17	0x3f1354c9	0.57551247
18	0x3dc44465	0.09583358
19	0x3ef2975c	0.47381103
20	0x3f3a1c80	0.7269974
21	0x3f67eed2	0.90598786
22	0x3e206171	0.15662171
23	0xbec84f89	-0.3912318
24	0x3ebecf8c	0.3726772

module.EdgesEncoding.A2.bias f4 [25]
0	0xbe1503b7	-0.14552198
1	0x3d69bac4	0.05706288
2	0xbf66ce38	-0.90158415
3	0xbe3d872f	-0.185086
4	0x3f1bdd18	0.6088424
5	0x3f13c01d	0.57715017
6	0xbe53e3f5	-0.20692427
7	0x3db35d26	0.08758001
8	0xbf3c3894	-0.7352383
9	0x3e1b3e48	0.15160477
10	0xbee93cfb	-0.45554337
11	0x3f3ae6b6	0.73008287
12	0xbe4796df	-0.19491147
13	0xbe03221e	-0.12805983
14	0x3ea1de85	0.3161508
15	0x3f36f61a	0.7146927
16	0x3f420842	0.7579385
17	0xbe9da8fa	-0.3079298
18	0x3f1b797e	0.6073226
19	0x3e18d986	0.14926729
20	0x3e2e2934	0.17007905
21	0xbea1c2cc	-0.3159393
22	0x3ed7ac56	0.4212367
23	0x3e23f7cf	0.160125
24	0x3ecf13b9	0.40444735

module.EdgesEncoding.A3.weight f4 [25, 1]
0	0xbee51fcc	-0.44750822
1	0x3d42d493	0.047566008
2	0xbf6d4d3e	-0.9269599
3	0x3d7e8485	0.0621381
4	0xbf66b16f	-0.9011449
5	0x3e3deeba	0.18548098
6	0xbdf8a30e	-0.12140475
7	0xbf0a0396	-0.5391172
8	0x3f625b6c	0.8842075
9	0xbd28834d	-0.041140843
10	0x3e430fdf	0.19049023
11	0xbd92991b	-0.07158109
12	0x3f28c739	0.6592899
13	0x3ecc3683	0.3988534
14	0x3c182fd7	0.00928875
15	0xbea9fc0e	-0.33200115
16	0x3f238fc0	0.6389122
17	0x3e846261	0.25856307
18	0x3e65becd	0.22436066
19	0xbe62adf9	-0.22136678
20	0xbf2cc3df	-0.67486376
21	0xbd2c1fa1	-0.04202235
22	0x3eb1d505	0.34732834
23	0xbedfefcf	-0.43737647
24	0x3ec3ebd9	0.38265875

module.EdgesEncoding.A3.bias f4 [25]
0	0x3f257e31	0.6464568
1	0x3f2d35e8	0.6766038
2	0xbe0b5174	-0.1360529
3	0x3e8cbbc7	0.27487013
4	0xbe9c917f	-0.30579755
5	0xbe9d1663	-0.30681142
6	0x3f25275e	0.64513195
7	0xbf51d884	-0.81971
8	0x3f21db64	0.6322539
9	0xbe7dabed	-0.24772616
10	0xbf6e33c8	-0.9304776
11	0x3f3588a7	0.7091164
12	0x3f63321f	0.88748354
13	0xbf3e1975	-0.74257594
14	0x3e7b66ad	0.24550886
15	0xbf05c1c3	-0.5224878
16	0xbe82ad1a	-0.2552269
17	0xbf7b4236	-0.98147905
18	0xbe9ecb32	-0.310144
19	0x3e74d712	0.23910168
20	0x3f7f9935	0.9984315
21	0x3e3a8742	0.1821566
22	0xbf4e6ec3	-0.8063776
23	0xbf4227ff	-0.7584228
24	0xbe81cfae	-0.2535376

module.gcn_layers.0.bnNodes.W1.weight f4 [50, 50]
0	0x3e11815a	0.142095
1	0x3c3e70f0	0.011623606
2	0xbd3d3c32	-0.046199985
3	0xbb0f4f2f	-0.0021867265
4	0x3de83a60	0.11339259
5	0xbd9a7482	-0.07541753
6	0xbdf8ae6c	-0.12142643
7	0xbe122d6c	-0.1427514
8	0x3d9002f9	0.07031817
9	0x3ddbede3	0.10738733
10	0x3e13fb33	0.14451294
11	0xbdcfac13	-0.101402424
12	0xbcb6d8d5	-0.02232019
13	0x3cc1722d	0.023614014
14	0x3d8afe14	0.06786743
15	0xbb605491	-0.0034230093
16	0xbe0733cb	-0.13203351
17	0xbdc438aa	-0.0958112
18	0x3d876d83	0.066126846
19	0x3d1085f0	0.035283983
20	0x3dfcfe85	0.12353233
21	0x3d744af4	0.059641793
22	0xbcd68a5d	-0.026189024
23	0xbdc3d280	-0.09561634
24	0xbc35b092	-0.011089461
25	0xbd59e11e	-0.053193204
26	0x3cb0394f	0.021511702
27	0xbdc51a8b	-0.09624203
28	0xbd95bcc5	-0.073113956
29	0xbd100093	-0.035156798
30	0x3e0bc647	0.13649856
31	0xbd90b1b4	-0.07065144
32	0xbdb64564	-0.08899954
33	0x3d989d97	0.07451933
34	0xbd534425	-0.05157866
35	0xbde600f3	-0.1123065
36	0xbcf13e8e	-0.029448774
37	0xbd130fcd	-0.03590374
38	0x3cf90d6b	0.030401906
39	0x3d87887a	0.06617828
40	0x3d2bdc44	0.04195811
41	0x3d067d45	0.03283431
42	0x3d9f3ac2	0.07774879
43	0x3d91245c	0.07087013
44	0x3e02873f	0.12746905
45	0xbe0a3a28	-0.13498747
46	0x3d274a76	0.040842496
47	0xbdb3dfc3	-0.087829135
48	0xbd6f52cc	-0.05842857
49	0xbdb229a1	-0.08699346
50	0xbc364da4	-0.011126909
51	0xbdefa42a	-0.11701234
52	0x3e0b7b4e	0.13621256
53	0xbd46b4c0	-0.04851222
54	0xbc7b9609	-0.015355595
55	0x3d23a9a7	0.039956715
56	0x3d0c5ffb	0.03427122
57	0x3da540d2	0.08069004
58	0xbdef6f78	-0.11691183
59	0xbdd2ab7f	-0.102866165
60	0x3d97f67b	0.07420059
61	0x3cf9b3e7	0.030481292
62	0x3dfd5503	0.1236973
63	0x3e0c1239	0.13678826
64	0xbbe51f5c	-0.0069922637
65	0xbc790f51	-0.015201406
66	0xbdb4dcb5	-0.08831159
67	0xbdf9dd8b	-0.12200459
68	0xbe09a5b1	-0.13442113
69	0xbd9caf3a	-0.07650609
70	0x3cdc2a16	0.026875537
71	0xbdecb089	-0.11557109
72	0x3d4e0739	0.050299857
73	0x3c3e4001	0.011611939
74	0xbc81d86c	-0.015850268
75	0x3cfa7196	0.03057174
76	0x3debba74	0.115101725
77	0x3c4a94e9	0.0123646045
78	0xbe1066db	-0.14101736
79	0xbd171db0	-0.036893547
80	0xbdb0ba03	-0.08629229
81	0x3c404ff0	0.011737809
82	0x3dba3a7e	0.09093188
83	0x3dc98879	0.09840483
84	0x3d826632	0.063671485
85	0xbd9cddfd	-0.076595284
86	0xbdb76cc8	-0.08956295
87	0x3e0063f5	0.1253813
88	0xbdb10623	-0.086437486
89	0x3e0c617d	0.13709064
90	0x3df72bcd	0.12068901
91	0x3df1f408	0.118141234
92	0xbd058a3e	-0.03260254
93	0xbd01d673	-0.031698655
94	0xbe0b5fa2	-0.136107
95	0xbe0af578	-0.13570201
96	0xbd826b48	-0.063681185
97	0x3c019f78	0.0079115555
98	0x3e0b93c9	0.13630594
99	0xbd3cf17d	-0.04612874
100	0xbdfcadbf	-0.12337827
101	0xbd5c7316	-0.053820692
102	0x3b4a28a7	0.0030846985
103	0x3cc3d460	0.02390498
104	0xbcd51246	-0.02600969
105	0x3d624595	0.05524214
106	0x3db4e249	0.08832223
107	0xbe0043d8	-0.1252588
108	0xbd64eafa	-0.055888154
109	0xbdfd4434	-0.12366524
110	0x3d0b3605	0.033987064
111	0xbd0d0c50	-0.03443557
112	0x3d93b836	0.0721287
113	0xbd2ea61c	-0.042638883
114	0x3d9ff816	0.078109905
115	0x3dbf59ce	0.09343301
116	0x3dd0a3bd	0.101874806
117	0xbb5c485e	-0.003361247
118	0xbca49388	-0.02008988
119	0xbd4e7bb5	-0.050410945
120	0xbe0ab1cb	-0.13544385
121	0xbdc884ae	-0.09790932
122	0xbdd0938c	-0.10184392
123	0x3d1f2870	0.038856924
124	0xbdb347b3	-0.0875391
125	0x3e13d3df	0.14436291
126	0xbdffd5ff	-0.124919884
127	0x3de44135	0.1114525
128	0xbdd105dc	-0.10206196
129	0xbd80063b	-0.06251188
130	0x3d1b8aac	0.037974045
131	0xbd18c76c	-0.03729956
132	0xbdaf4229	-0.08557541
133	0x3c75ee03	0.01501036
134	0x3da16c63	0.07882001
135	0x3df45a9b	0.11931344
136	0x3e08c6f9	0.13357152
137	0xbe091d28	-0.13390028
138	0x3d041654	0.032247856
139	0x3cccbee6	0.024993371
140	0xbd0cb1ab	-0.034349125
141	0xbdb58fdb	-0.08865329
142	0x3d6ea459	0.058262203
143	0x3d9dbef5	0.07702438
144	0xbdd95c64	-0.10613325
145	0xbd2fd330	-0.042926013
146	0xbd2396d3	-0.03993876
147	0x3d7cbf2f	0.061705764
148	0xbd9586b4	-0.07301083
149	0xbde2638b	-0.110541426
150	0xbdf5ac78	-0.119957864
151	0xbdbd70f2	-0.09250058
152	0x3dc0ec5c	0.09420082
153	0xbca6b332	-0.020349119
154	0xbb28ef3d	-0.0025777363
155	0xbda24ab2	-0.07924403
156	0x3ce60a45	0.028081069
157	0x3d712419	0.058872316
158	0xbd83f2cc	-0.06442794
159	0x3decb9d4	0.115588814
160	0x3d6c85ca	0.05774478
161	0xbdb6df2d	-0.08929286
162	0x3c8110d0	0.015755087
163	0x3dcbefa6	0.09957819
164	0x3d995b0a	0.074880674
165	0xbdaa347d	-0.083107926
166	0x3d94ced3	0.07266011
167	0x3d1be7e7	0.038062956
168	0x3e0c5a14	0.13706237
169	0xbd712b08	-0.05887893
170	0x3d0327cb	0.03202037
171	0x3e0154c1	0.12629987
172	0x3db7b3e4	0.08969858
173	0x3ca7fbef	0.020505873
174	0x3d9aba21	0.075550325
175	0x3db49644	0.088177234
176	0xbc7fffce	-0.015624953
177	0xbd820f37	-0.06350558
178	0x3e000a83	0.1250401
179	0xbc12f44e	-0.00896938
180	0x3d062c18	0.032756895
181	0xbcd3bb9d	-0.025846297
182	0xbde29c45	-0.11064962
183	0x3e01a27a	0.12659636
184	0xbe0972c1	-0.13422681
185	0xbdd73770	-0.10508621
186	0x3cf90478	0.030397639
187	0x3a8da151	0.0010805522
188	0xbd98d2ec	-0.07462105
189	0x3dceb836	0.10093729
190	0xbdc965fe	-0.098339066
191	0x3d3f980f	0.046775874
192	0xbda0679d	-0.07832263
193	0x3dee1098	0.11624259
194	0xbe06c741	-0.13161947
195	0x3d55450f	0.052067813
196	0x3d9c12fc	0.076208085
197	0x3defa6c2	0.117017284
198	0xbe07c205	-0.13257606
199	0xbd91c6f8	-0.071180284
200	0x3cc9609c	0.0245822
201	0xbd217790	-0.039420664
202	0xbe0463cb	-0.12928693
203	0xbdcee8b7	-0.101029806
204	0xbdef8647	-0.11695533
205	0x3dd8d3f2	0.105873
206	0x3a8e4aa8	0.001085599
207	0xbe070cb0	-0.13188434
208	0xbe086335	-0.13319094
209	0xbd508f96	-0.050918184
210	0x3c875ef4	0.01652477
211	0xbd33efea	-0.04392997
212	0xbb97acf3	-0.0046287715
213	0xbdacb081	-0.08432103
214	0xbd6fa584	-0.058507457
215	0xbdb16e8a	-0.08663662
216	0x3de21036	0.11038248
217	0xbd40735c	-0.046985015
218	0xbbf048d2	-0.0073328996
219	0x3dd5ab1e	0.10433029
220	0xbd44d660	-0.048056006
221	0xbcf5fa31	-0.030026527
222	0x3d84b298	0.064793766
223	0x3e05b4af	0.13057207
224	0x3b224d77	0.002476541
225	0x3ccdcd43	0.02512229
226	0xbdd68be3	-0.104759
227	0x3de41388	0.11136538
228	0xbd8c79d8	-0.06859177
229	0x3dc459ad	0.09587417
230	0xbdf9e470	-0.12201774
231	0xbd8bf3bd	-0.06833599
232	0xbdea3c8e	-0.11437331
233	0x3d9faf14	0.077970654
234	0xbd047a2f	-0.032343086
235	0xbda4e71e	-0.080518946
236	0xbdb1a942	-0.086748615
237	0x3d653e59	0.055967662
238	0xbd488e33	-0.048963737
239	0x3d586ee0	0.052840114
240	0x3d964cd1	0.0733887
241	0x3d2b1e4b	0.041776937
242	0xbd887b98	-0.06664199
243	0x3e0eca4d	0.13944359
244	0xbdd87b71	-0.105704196
245	0x3d283f73	0.041076135
246	0x3e07b9ec	0.13254517
247	0xbd9faf5c	-0.07797119
248	0xbcb6ec81	-0.02232957
249	0x3dba4837	0.09095805
250	0xbd22cc04	-0.039745346
251	0xbe04d5aa	-0.12972131
252	0x3da56454	0.08075777
253	0x3cc35d51	0.023848208
254	0x3aa75920	0.001276765
255	0x3df94ac4	0.121724635

module.gcn_layers.0.bnNodes.W2.weight f4 [50, 50]
0	0xbdd8cb1c	-0.10585615
1	0x3ddce8eb	0.10786613
2	0xbcc9a7e4	-0.02461619
3	0x3e0855e9	0.13314022
4	0xbdd59ff6	-0.10430901
5	0x3d452a08	0.048135787
6	0xbb82b77b	-0.0039891577
7	0xbc8a1427	-0.016855313
8	0x3dce65a6	0.10077982
9	0xbcf03ac8	-0.029324904
10	0x3bff6d5e	0.00779502
11	0xbdd11c2e	-0.10210453
12	0xbdf7d7ba	-0.121016935
13	0x3e117172	0.14203432
14	0xbcf4b5a7	-0.029871775
15	0x3d85c23b	0.06531187
16	0xbc1a4daf	-0.009417935
17	0xbdd41230	-0.103550315
18	0x3e045141	0.12921621
19	0x3ca72c89	0.020406978
20	0x3d6ab304	0.05729963
21	0x3d301cf6	0.04299637
22	0xbdf8a162	-0.12140156
23	0xbd2a5350	-0.04158336
24	0x3db523a2	0.08844687
25	0xbd9a9bcc	-0.07549247
26	0xbda8d3ef	-0.08243548
27	0xbdd47f64	-0.1037586
28	0xbc49815a	-0.012298906
29	0x3cf954c8	0.030435935
30	0xbdf506fd	-0.119642235
31	0x3d85a97c	0.06526467
32	0xbd82f1e6	-0.06393795
33	0x3d227c5c	0.03966938
34	0xbdab19b1	-0.083545096
35	0x3def5f58	0.11688107
36	0xbdc20909	-0.094743796
37	0x3d654673	0.05597539
38	0xbdba7110	-0.09103596
39	0xbc8922f3	-0.016740298
40	0x3df62e59	0.12020559
41	0x3d941e2e	0.07232319
42	0xbd45b4e7	-0.048268225
43	0x3d96e5f0	0.07368076
44	0xbd16671f	-0.036719438
45	0xbd8854af	-0.06656777
46	0xbca16628	-0.019702032
47	0x3ddc2f38	0.10751194
48	0x3da47581	0.080302246
49	0xbde184c0	-0.11011648
50	0x3ddae014	0.10687271
51	0x3c0f78d9	0.00875684
52	0x3dfc26ed	0.12312112
53	0x3c87027c	0.016480677
54	0xbcdbc873	-0.02682898
55	0xbd921c44	-0.071342975
56	0xbcff97d0	-0.03120032
57	0xbd271181	-0.040788177
58	0x3d378e49	0.044813428
59	0xbd9639c9	-0.073352404
60	0xbe0c156f	-0.13680051
61	0xbdc008b4	-0.0937666
62	0x3dbf402f	0.09338414
63	0x3c8161dc	0.015793733
64	0xbc8b57ff	-0.017009733
65	0xbc69ba5b	-0.014265622
66	0x3e12e455	0.14344914
67	0x3d9a6f83	0.075408004
68	0x3b7b63aa	0.0038358965
69	0x3de0cecc	0.109769434
70	0x3e02337a	0.12714949
71	0x3e100013	0.14062528
72	0xbaf0b84b	-0.001836547
73	0x3dabfaa7	0.083974175
74	0xbd21984f	-0.039451893
75	0x3cdf792d	0.02727946
76	0x3e034efe	0.12823102
77	0xbe000805	-0.12503059
78	0xbcc681be	-0.024231788
79	0x3de51de0	0.11187339
80	0xbddcdebf	-0.10784673
81	0xbcddbff0	-0.027069062
82	0xbd44bbe5	-0.048030753
83	0x3d888e39	0.06667752
84	0xbbc4216b	-0.005985429
85	0xbe12a798	-0.14321744
86	0xbdd6a4c7	-0.104806475
87	0x3da906c0	0.082532406
88	0xb916fd23	-0.00014399416
89	0x3e003164	0.12518841
90	0x3cae5e71	0.021285268
91	0x3dd8f787	0.10594087
92	0x3d712f41	0.058882955
93	0xbdf73aa8	-0.12071735
94	0x3dcc7e98	0.09985083
95	0x3cc19ab7	0.023633344
96	0xbd4681dd	-0.04846369
97	0x3d172900	0.036904335
98	0xbd748677	-0.05969855
99	0xbd2ef1c8	-0.04271105
100	0xbccaf3f6	-0.024774533
101	0x3db229cd	0.08699379
102	0xbe027b4c	-0.12742347
103	0xbd93dffa	-0.072204545
104	0x3e0b3ca1	0.13597347
105	0x3dd7564a	0.10514505
106	0x3e0ca312	0.13734081
107	0xbd4ac042	-0.049499758
108	0xbcee37b4	-0.029079296
109	0xbe0d9c81	-0.13829233
110	0xbde8ad2e	-0.113611564
111	0x3c5002e2	0.012696
112	0xbc09e7c8	-0.008417077
113	0xbd080f7d	-0.033217896
114	0xbd72c8f4	-0.059273675
115	0xbdad011f	-0.084474795
116	0x3dc4fb32	0.09618224
117	0x3d4230b7	0.04740974
118	0xbc6e8d0c	-0.014559995
119	0x3e102617	0.1407703
120	0xbb05aa8b	-0.002039584
121	0x3de3cd62	0.11123158
122	0xbc6448ec	-0.013933402
123	0xbd44666e	-0.047949247
124	0xbddbe4a4	-0.10736969
125	0xbdab36cb	-0.0836006
126	0xbd958e85	-0.07302574
127	0xbd88840d	-0.06665812
128	0x3e03525c	0.12824386
129	0xbe0bee00	-0.13665009
130	0x3dfed5ad	0.12443099
131	0xbdbd9e42	-0.09258701
132	0xbe0f4608	-0.13991559
133	0x3d62c851	0.055366818
134	0xbde16b9f	-0.11006855
135	0xbd6a36cb	-0.05718116
136	0x3d4b5f0b	0.049651187
137	0xbd70e437	-0.058811393
138	0x3d0409ec	0.032236025
139	0x3db42b75	0.08797351
140	0xbbc0baa2	-0.0058816234
141	0xbd97cab2	-0.07411708
142	0xbd9e9f4d	-0.07745228
143	0x3d0481b2	0.03235025
144	0xbd862d20	-0.06551576
145	0xbd8c9d88	-0.06865984
146	0x3d9305ab	0.071788155
147	0x3c141f91	0.009040729
148	0x3d5df026	0.0541841
149	0x3d94c59a	0.07264252
150	0xbe0ac80c	-0.13552874
151	0x3c7e10bb	0.015506919
152	0x3c7566f9	0.014978164
153	0x3b8dc14b	0.004326021
154	0x398711e1	0.00025762527
155	0xbcfe5008	-0.031044021
156	0xbdfec9bf	-0.12440824
157	0x3de73aa5	0.112904824
158	0xbc55c0b8	-0.013046436
159	0xbcd13dfc	-0.025542252
160	0x3df48c4b	0.11940821
161	0xbd7c6f94	-0.061629847
162	0xbda71302	-0.08157922
163	0xbcc9b337	-0.02462159
164	0xbdc99a98	-0.098439395
165	0xbd9d6836	-0.07685892
166	0xbd595c23	-0.053066384
167	0x3e07c888	0.1326009
168	0xbcf1e33f	-0.029527305
169	0xbe024d56	-0.12724814
170	0xbcca9e20	-0.024733603
171	0xbd839abf	-0.06426
172	0xbdc0a55f	-0.09406542
173	0xbd5efaf8	-0.05443856
174	0xbe0748bf	-0.13211344
175	0xbd76ec31	-0.060283843
176	0xbdf90510	-0.12159169
177	0xbd530397	-0.051517095
178	0xbe0ff7d8	-0.14059389
179	0x3cb84d9c	0.022497945
180	0x3cf0a282	0.029374365
181	0xbd9a6494	-0.07538715
182	0xbb43f78a	-0.0029902183
183	0xbdc9680f	-0.09834301
184	0xbdeefc0b	-0.11669167
185	0xbb2e49c7	-0.0026594268
186	0xbd09c2e9	-0.033633146
187	0xbde9b3fc	-0.114112824
188	0x3da59093	0.08084216
189	0x3ced000f	0.028930692
190	0xbe165ac5	-0.14683063
191	0xbddca204	-0.107730895
192	0x3d7535ac	0.05986564
193	0x3cd0d9d7	0.0254945
194	0x3dae01dc	0.084964484
195	0xba829a2c	-0.000996416
196	0x3b2cbcde	0.002635769
197	0xbd885434	-0.066566855
198	0xbd83d198	-0.06436461
199	0xbdd27f7a	-0.102782205
200	0x3d44e3da	0.04806886
201	0x3dfa8c5d	0.122338034
202	0x3d38f0be	0.045151465
203	0xbcc0c6c7	-0.023532284
204	0x3c6aad8b	0.014323602
205	0xbe174277	-0.14771448
206	0xbcd65584	-0.026163824
207	0x3dfaf1d1	0.12253154
208	0xbcd12d85	-0.0255344
209	0x3b8e710a	0.0043469714
210	0x3e10f0c2	0.14154342
211	0x3dc5865b	0.09644767
212	0xbcd40536	-0.025881391
213	0xbe125c9b	-0.14293139
214	0x3dfee751	0.12446464
215	0x3d7d2ff1	0.0618133
216	0x3bba24c0	0.0056806505
217	0x3de87cbe	0.11351918
218	0x3d78c347	0.060733106
219	0xbc6fd333	-0.014637756
220	0x3df703a6	0.12061243
221	0x3cf4d29c	0.029885583
222	0x3d97bed2	0.07409443
223	0xbbb4000d	-0.00549317
224	0x3da11777	0.07865804
225	0xbd09a5ce	-0.03360539
226	0x3d2f0938	0.0427334
227	0xbe09aae1	-0.13444091
228	0x3dbbe7c2	0.09175064
229	0x3cdc9ae5	0.026929328
230	0x3db5e18a	0.08880909
231	0xbdacd938	-0.08439869
232	0xbae7f28c	-0.0017696186
233	0x3ca46c8c	0.02007129
234	0xbcbbee0c	-0.022940658
235	0xbd2d097c	-0.042245373
236	0x3d6f1555	0.058369953
237	0x3d22791c	0.03966628
238	0xbe0781b6	-0.13233075
239	0x3c52de14	0.01287033
240	0x3db5a22e	0.08868824
241	0x3dd9c865	0.10633925
242	0x3dbb33a0	0.09140706
243	0x3dae067b	0.0849733
244	0xbb092b2c	-0.0020930273
245	0xbe031f91	-0.1280501
246	0xbdbbd227	-0.09170943
247	0x3d0a95ed	0.033834387
248	0xbd5455a6	-0.051839493
249	0xbd786f2b	-0.060652893
250	0xbcef8f64	-0.029243179
251	0x3d7bd64f	0.061483677
252	0xbd421fc7	-0.047393586
253	0xbda862ee	-0.08221994
254	0xbbac6871	-0.005261474
255	0x3e1408a2	0.14456418

module.gcn_layers.0.bnNodes.batch_norm.weight f4 [50]
0	0x3f80113b	1.0005258
1	0x3f7dd1b8	0.9914813
2	0x3f7dd40a	0.9915167
3	0x3f7ee4d2	0.995679
4	0x3f80eb77	1.0071858
5	0x3f811649	1.0084926
6	0x3f7f8849	0.9981733
7	0x3f7da816	0.99084604
8	0x3f7dbfe7	0.99120945
9	0x3f7e594b	0.99355
10	0x3f7f9248	0.9983258
11	0x3f80b8e5	1.0056425
12	0x3f801182	1.0005343
13	0x3f80989b	1.0046571
14	0x3f80ee23	1.0072674
15	0x3f7fa865	0.99866325
16	0x3f7f9c36	0.99847734
17	0x3f7ee7ae	0.99572265
18	0x3f7db2bc	0.9910085
19	0x3f7e432a	0.99321234
20	0x3f7e69cc	0.99380183
21	0x3f80eff1	1.0073224
22	0x3f801e45	1.0009238
23	0x3f7e4da0	0.99337196
24	0x3f804b1d	1.0022923
25	0x3f7e72ac	0.99393725
26	0x3f7eaf7c	0.9948652
27	0x3f7dc049	0.9912153
28	0x3f80bedb	1.0058244
29	0x3f7fa6d4	0.99863935
30	0x3f809c7d	1.0047756
31	0x3f7f240e	0.9966439
32	0x3f80df1a	1.0068085
33	0x3f7fd689	0.9993673
34	0x3f7fc29d	0.9990633
35	0x3f7ecb03	0.9952852
36	0x3f80b373	1.0054764
37	0x3f8002f7	1.0000905
38	0x3f7e6af8	0.9938197
39	0x3f7fe968	0.99965525
40	0x3f80fc4f	1.0076998
41	0x3f7fb0b1	0.99878985
42	0x3f8026a2	1.001179
43	0x3f7de6d6	0.9918035
44	0x3f7e9277	0.9944224
45	0x3f7feafa	0.9996792
46	0x3f7da460	0.9907894
47	0x3f7dccc1	0.99140555
48	0x3f7f62dd	0.9976023
49	0x3f7e1b77	0.9926066

module.gcn_layers.0.bnNodes.batch_norm.bias f4 [50]
0	0x3b01c1b6	0.0019799299
1	0xbbdf8b1b	-0.0068220026
2	0xbc0d2ffb	-0.0086173965
3	0xb99a15eb	-0.000293895
4	0x3c075090	0.008258954
5	0x3c1019dc	0.008795228
6	0x39ba51c6	0.0003553761
7	0xbc14987a	-0.009069556
8	0xbc0ea501	-0.008706332
9	0xbb9a8344	-0.004715355
10	0xbb8013cc	-0.00390861
11	0x3bd108ba	0.006379214
12	0x3bc301fd	0.0059511648
13	0x3c0c00fb	0.008545156
14	0x3bbc8ae2	0.005753861
15	0xbabab826	-0.0014245554
16	0x3b26aaa5	0.0025431302
17	0xbb533a23	-0.0032230697
18	0xbc001113	-0.007816571
19	0xbbc28dbd	-0.0059373067
20	0xbb78f5da	-0.0037988336
21	0x3c055df7	0.008140079
22	0xbb307854	-0.002692719
23	0xbaedde55	-0.0018147925
24	0x3ac7a5ce	0.0015231909
25	0xbb30b0c8	-0.0026960839
26	0xbafb463a	-0.001917071
27	0xbbd28945	-0.006425055
28	0x3c12712b	0.008938114
29	0xbbae0ce7	-0.0053115967
30	0x3bc18e80	0.00590688
31	0xbb17e6e5	-0.0023178395
32	0x3c03d4e8	0.008046366
33	0x3b662540	0.0035117418
34	0xba157572	-0.00057013996
35	0xbb876aaf	-0.0041325907
36	0x3bc69837	0.006060626
37	0x3ba52f3f	0.0050410326
38	0xbbf6d694	-0.007532904
39	0xba2bb419	-0.0006549969
40	0x3b2ce47d	0.0026381307
41	0xbb6f0af1	-0.0036475027
42	0x3b7d15e6	0.0038617789
43	0xbbee3e34	-0.007270599
44	0xbb871e00	-0.0041234493
45	0xba4dab79	-0.0007845681
46	0xbc175ae0	-0.009237975
47	0xbc0928d9	-0.008371555
48	0xbbfb8ab9	-0.007676449
49	0xbbf75e8e	-0.0075491136

module.gcn_layers.0.bnEdges.W3.weight f4 [50, 50]
0	0x3cb103cc	0.021608256
1	0x3d501756	0.050803505
2	0xbcd96144	-0.026535638
3	0x3cd9fec8	0.026610747
4	0x3c617e0f	0.013762965
5	0xbd79fd7e	-0.061032765
6	0x3c8dc683	0.017306572
7	0x3dab3c85	0.083611526
8	0x3d1c2c01	0.038127903
9	0x3e001786	0.12508973
10	0x3dd5f2b7	0.10446685
11	0xbce43e36	-0.027861696
12	0x3c635de5	0.013877367
13	0x3d96fcfd	0.073724724
14	0xbd83be5b	-0.06432792
15	0xbd81181e	-0.06303428
16	0xbe11d071	-0.1423967
17	0xbdbbe2f0	-0.09174144
18	0xbc6402b2	-0.013916658
19	0xbe067bb0	-0.1313312
20	0x3e04a0b4	0.12951928
21	0xbbd4db2a	-0.006495853
22	0x3d6ffd94	0.05859144
23	0x3dba1419	0.090858646
24	0xbe114285	-0.14185531
25	0xbdb9b94c	-0.09068546
26	0xbd29936a	-0.04140035
27	0x3c4fa34c	0.01267321
28	0xbdcc7544	-0.09983304
29	0xbde1dfc9	-0.11029012
30	0xbb48a397	-0.0030615085
31	0x3d19a5f0	0.037511766
32	0xbdf9f9df	-0.12205862
33	0x3d2add4b	0.041714948
34	0xbd83f159	-0.06442518
35	0xbbef15cd	-0.0072963
36	0x3a74a9e9	0.000933318
37	0xbd821930	-0.063524604
38	0xbd0158c7	-0.031578805
39	0xbda6e3bc	-0.08148906
40	0x3db08e38	0.08620876
41	0xbdc0c226	-0.09412031
42	0xbd6a86ab	-0.057257336
43	0xbdf0d1e2	-0.11758782
44	0x3dc8ebf5	0.0981063
45	0xbda27bf0	-0.079337955
46	0xbdb33211	-0.08749784
47	0xbdc97336	-0.09836428
48	0x3d52554a	0.05135087
49	0xbdb035b4	-0.08603993
50	0x3de6eb8c	0.11275396
51	0xbd244f4a	-0.04011468
52	0xbdf81f30	-0.121153235
53	0xbd98eadc	-0.07466671
54	0xbd1e2d69	-0.038617525
55	0xbd941462	-0.0723045
56	0x3c80d4ad	0.015726412
57	0xbd893008	-0.06698614
58	0x3ca55ad9	0.020184921
59	0xbd445e8e	-0.047941737
60	0xbd1f2c61	-0.038860682
61	0x3d97b919	0.074083515
62	0x3c09f856	0.008421024
63	0x3e13847c	0.14406008
64	0xbdf53e21	-0.11974741
65	0xbd2742a2	-0.04083503
66	0x3e06822b	0.13135593
67	0xbdfaf8d8	-0.122544944
68	0xbd91d7a2	-0.07121207
69	0xbd140273	-0.03613515
70	0xbe01d652	-0.12679413
71	0x3dd718b4	0.105027586
72	0xbdda12b5	-0.10648099
73	0x3d39b4d7	0.045338478
74	0x3d43712e	0.04771536
75	0x3d40c584	0.047063366
76	0x3e003b46	0.12522611
77	0x3d3456d1	0.044028107
78	0x3dae80b1	0.0852064
79	0xbb6ebf8e	-0.0036430093
80	0x3c5cd042	0.013477387
81	0xbd9c47fb	-0.07630917
82	0xbe147697	-0.14498363
83	0x3e136f5d	0.1439795
84	0x3c342d26	0.010997092
85	0xbdcb69aa	-0.09932263
86	0x3d5cd10d	0.053910304
87	0x3df7a271	0.1209153
88	0x3d4eae10	0.050458968
89	0x3cea66fd	0.028613562
90	0x3ddda004	0.10821536
91	0x3dfb73eb	0.12277969
92	0x3df9c6ee	0.12196146
93	0x3c8fcf2e	0.017554846
94	0xbdfcdebc	-0.12347171
95	0xbd3f3bb1	-0.046687786
96	0x3def1e42	0.11675693
97	0x3d7643db	0.060123306
98	0xbd4fc25c	-0.050722465
99	0x3c2a3f71	0.010391102
100	0xbdbb5f4f	-0.09149038
101	0xbcc25e73	-0.023726678
102	0x3dffcf6d	0.12490735
103	0x3ca49671	0.020091267
104	0xbd0eeb36	-0.034892283
105	0xbc65e05e	-0.014030544
106	0xbde5c1bc	-0.112185925
107	0x3da312de	0.07962583
108	0xbdff6eec	-0.124723285
109	0xbda9ae05	-0.08285145
110	0x3bb19616	0.005419503
111	0x3d6ac74a	0.057318963
112	0x3d82c086	0.06384377
113	0xbc3c9899	-0.0115109915
114	0x3de265fd	0.11054609
115	0xbe110111	-0.14160563
116	0xbdd8fbb1	-0.10594881
117	0xbd3e91c2	-0.046525724
118	0x3dd5de1c	0.104427546
119	0x3d848ec0	0.0647254
120	0xbe016230	-0.12635112
121	0xbe03015b	-0.12793486
122	0xbe0c6d1b	-0.13713495
123	0xbe039ab8	-0.1285199
124	0x3dcc5118	0.09976405
125	0xbb4c6b0e	-0.003119174
126	0xbc315d47	-0.010825462
127	0xbbe2f769	-0.0069264662
128	0xbd8df733	-0.06931915
129	0x3dabee7c	0.08395097
130	0xbd081bb6	-0.033229552
131	0x3dd0ad3d	0.101892926
132	0xbdf95b1e	-0.12175582
133	0xbdb64ae7	-0.08901005
134	0x3db8c281	0.09021474
135	0x3c644150	0.013931587
136	0xbe05300a	-0.13006607
137	0x3d25a962	0.04044474
138	0xbc6c1f88	-0.0144118145
139	0xbd65eb96	-0.056132875
140	0x3e07705f	0.1322646
141	0xbdd7d537	-0.105387144
142	0x3d6fe60b	0.058568995
143	0xbd55a7be	-0.052161925
144	0x3d5a229d	0.053255666
145	0xbe00168f	-0.12508605
146	0xbd75ef5a	-0.060042717
147	0x3d1c70e7	0.03819361
148	0xbda74eeb	-0.08169349
149	0x3d0bc5da	0.034124233
150	0x3dc94588	0.09827715
151	0xbd918404	-0.07105258
152	0x3d4cc949	0.049996648
153	0x3d6ad7eb	0.05733482
154	0x3cb46abc	0.022023551
155	0xbdb4aa0d	-0.08821497
156	0xbd39cab8	-0.045359343
157	0xbc918010	-0.01776126
158	0xbb2ead0e	-0.0026653442
159	0xbdde040f	-0.10840618
160	0x3dd7105b	0.105011664
161	0x3cfdce0e	0.030982044
162	0xbd2909ed	-0.04126923
163	0x3d6d675f	0.05795991
164	0xbc22f23c	-0.0099454485
165	0x3d90fbc0	0.070792675
166	0x3e0582e7	0.13038217
167	0xbd1a4720	-0.037665486
168	0xbd52254a	-0.051305093
169	0x3db4fcbf	0.0883727
170	0xbd2b0fe0	-0.041763186
171	0x3dd11ded	0.10210786
172	0xb923e26c	-0.0001562924
173	0xbd899ab6	-0.06718962
174	0x3e0225c1	0.12709714
175	0xbc5f8821	-0.0136432955
176	0x3dcff871	0.10154808
177	0x3d869064	0.06570509
178	0xbe0a2636	-0.13491139
179	0x3ce4cd66	0.027929973
180	0x3dd47914	0.10374656
181	0x3dd09a03	0.101856254
182	0x3e1360e4	0.1439243
183	0xbdf9a12b	-0.121889435
184	0x3d99b76e	0.075056896
185	0xbe08adff	-0.13347624
186	0xbe01b1a8	-0.12665427
187	0xbda15f89	-0.0787955
188	0xbd19710e	-0.037461333
189	0x3d37495f	0.044747707
190	0xbd9b45fd	-0.075817086
191	0xbd411b8c	-0.04714541
192	0xbdfc3552	-0.123148575
193	0x3d40ba62	0.04705275
194	0x3c0dfbad	0.008665961
195	0x3c766cbf	0.0150405755
196	0x3d4ce65b	0.05002437
197	0xbc00b016	-0.007854482
198	0x3db3bf69	0.08776743
199	0xbdb23c1d	-0.08702872
200	0x3d2e8e75	0.042616326
201	0x3dff1112	0.12454428
202	0x3d81c023	0.06335475
203	0x3b6afb06	0.0035855188
204	0xbdd93577	-0.10605901
205	0x3e095113	0.13409834
206	0xbde86bf5	-0.11348716
207	0x3e18a0c4	0.14905077
208	0x3d335411	0.043781344
209	0x3e00d89d	0.12582631
210	0x3da81e33	0.08208885
211	0x3dc2d601	0.09513474
212	0xbe03f775	-0.12887366
213	0xbda0b40e	-0.07846843
214	0xbd8272e1	-0.06369568
215	0x3d5fb1a5	0.054612774
216	0xbd458255	-0.048219997
217	0xbca34d4f	-0.019934325
218	0xbe16ab3d	-0.1471376
219	0x3d7f2bf4	0.062297776
220	0xbd8ce7f7	-0.06880181
221	0x3d9b999c	0.07597658
222	0xbd8f4f28	-0.0699752
223	0x3e134ac3	0.14383988
224	0xba5804ac	-0.0008240442
225	0x3c3e4d97	0.011615179
226	0x3cf3d718	0.02976565
227	0xbe094886	-0.13406572
228	0xbb754984	-0.0037427852
229	0x3da1bc58	0.07897252
230	0xbc7a0ceb	-0.015261869
231	0x3bee6d31	0.0072762
232	0x3dc69e34	0.096981436
233	0x3e047a91	0.1293738
234	0xbe0d6e85	-0.13811691
235	0x3dac1100	0.0840168
236	0x3cdd9482	0.027048353
237	0x3d2e6b7f	0.042582985
238	0xbd2f57c4	-0.04280831
239	0xbd9684c4	-0.07349542
240	0xbdc4b42e	-0.09604679
241	0xbc963f70	-0.018340796
242	0x3cbf28d3	0.023334896
243	0xbd7b534e	-0.061358742
244	0x3d8a192e	0.06743084
245	0x3e057825	0.13034113
246	0x3d260039	0.040527556
247	0x3dc59664	0.09647825
248	0x3dbeed91	0.09322656
249	0xbd37ffa3	-0.04492153
250	0x3df83deb	0.12121185
251	0xbdbad06b	-0.09121784
252	0xbdea9059	-0.114533134
253	0xbb89c388	-0.0042042173
254	0xbd6bc47c	-0.05756043
255	0x3d145c51	0.036220852

module.gcn_layers.0.bnEdges.W4.weight f4 [50, 50]
0	0xbd0a7a73	-0.033808183
1	0x3dd3b9e1	0.10338188
2	0x3dddc802	0.10829164
3	0x3c7301b0	0.014831945
4	0x3d7ad541	0.06123853
5	0x3d730a97	0.05933627
6	0x3da70f8d	0.08157263
7	0x3d3329bb	0.04374097
8	0xbde54882	-0.111954704
9	0xbc64b78f	-0.013959779
10	0xbddfd840	-0.10929918
11	0x3daeb301	0.08530236
12	0x3d1621ab	0.036653202
13	0xbd8578aa	-0.065171555
14	0x3df0c27d	0.11755846
15	0xbd905728	-0.07047874
16	0xbdbd8449	-0.09253747
17	0xbdfaa966	-0.122393414
18	0xbd31a6f3	-0.043372106
19	0x3ccf5709	0.025310056
20	0x3e0f5a44	0.13999277
21	0x3cab3082	0.020897154
22	0xbd86891e	-0.06569122
23	0x3db42f9e	0.08798145
24	0x3df1911a	0.11795254
25	0x3da8b1e0	0.08237052
26	0xbd52b5b0	-0.051442802
27	0x3dc0cebe	0.09414433
28	0xbd3c91ee	-0.046037607
29	0xbcd5999b	-0.026074221
30	0x3b9edce3	0.004848109
31	0xbd839c3c	-0.06426284
32	0xbe05d866	-0.1307083
33	0xbde04629	-0.10950882
34	0xbdfc915d	-0.12332413
35	0x3dbcf1cd	0.09225807
36	0x3d4680a2	0.048462518
37	0x3d35e546	0.044408105
38	0xbda15c8d	-0.07878981
39	0xbdbcea94	-0.0922443
40	0xbde45a13	-0.11149993
41	0x3d54c8ff	0.051949497
42	0xbcfb3555	-0.03066508
43	0x3d916219	0.07098789
44	0x3d938ce9	0.07204611
45	0xbdd3f086	-0.103486106
46	0x3cec503e	0.028846856
47	0x3e056bfd	0.13029476
48	0x3b87756d	0.0041338713
49	0xbd7590ed	-0.059952665
50	0x3da47c15	0.08031479
51	0x3e0cf8aa	0.13766733
52	0xbdd7cb39	-0.105368085
53	0x3d77062f	0.06030863
54	0xbcdfba2d	-0.027310455
55	0x3ca6e189	0.020371215
56	0x3dc826d3	0.0977303
57	0x3dc2df31	0.09515227
58	0xbdfba346	-0.12287001
59	0x3b3b292d	0.0028558478
60	0x3dcf41d5	0.10119978
61	0x3e04425b	0.12915938
62	0x3d92fa02	0.071765915
63	0x3cf61c0c	0.03004267
64	0x3c2eb8d2	0.010664182
65	0xbe0bf841	-0.1366892
66	0x3d54e15d	0.051972736
67	0xbdaff785	-0.085921325
68	0x3cacec20	0.021108687
69	0x3dfa8185	0.12231735
70	0x3d487839	0.04894278
71	0xbd4b01df	-0.04956233
72	0x39683817	0.00022146139
73	0xbd117173	-0.035508584
74	0x3dc00214	0.09375396
75	0xbcacc806	-0.021091472
76	0x3d283677	0.041067567
77	0x3c022b28	0.00794486
78	0x3e0a3c0d	0.1349947
79	0xbd23f860	-0.04003179
80	0xbdb81972	-0.08989228
81	0xbd19f0ba	-0.03758309
82	0x3d52c0d2	0.05145342
83	0xbe0cdbde	-0.13755748
84	0xbdd19223	-0.102329515
85	0x3cfe9efb	0.031081667
86	0xbdb5980a	-0.0886689
87	0xbd93aa23	-0.072101854
88	0x3d3988a3	0.045296323
89	0x3dc23210	0.09482205
90	0x3d8bc464	0.06824568
91	0xbddc21e3	-0.10748651
92	0x3dc21f7a	0.0947866
93	0xbdb29d2a	-0.08721383
94	0x3e011047	0.12603866
95	0x3de429be	0.11140774
96	0xbcb972f4	-0.022637822
97	0x3d3712b3	0.044695567
98	0x3cb74a7a	0.02237438
99	0xbd43575d	-0.047690738
100	0xb85c96a0	-5.2592368e-05
101	0xbdad2e46	-0.084560916
102	0x3d3610d7	0.044449653
103	0x3d87014f	0.065920465
104	0xbd893a07	-0.06700521
105	0xbd511445	-0.05104472
106	0xbce6e2c7	-0.028184308
107	0xbdad3735	-0.084577955
108	0xbdcdb1d5	-0.100436844
109	0x3da0161a	0.078167155
110	0xbd2f02dd	-0.04272734
111	0xbd98888a	-0.07447918
112	0x3dfaf913	0.122545384
113	0xbd975957	-0.07390087
114	0x3e071939	0.13193215
115	0xbde6f312	-0.11276831
116	0x3d9555c4	0.07291749
117	0x3d95b491	0.07309831
118	0x3e0dab40	0.13834858
119	0xbe07f415	-0.13276704
120	0x3dbd603e	0.09246872
121	0xbdef323f	-0.116795056
122	0xbd28dde4	-0.041227236
123	0xbdebe2d9	-0.11517877
124	0x3c8f2a44	0.017476209
125	0x3c708de7	0.01468227
126	0x3d274533	0.040837478
127	0x3cea5ca7	0.028608633
128	0x3d2e5ea1	0.042570714
129	0xbd17c8d5	-0.037056763
130	0x3dc2f9f6	0.095203325
131	0xb94ac870	-0.0001933889
132	0xbdddcf4c	-0.10830554
133	0x3e089f06	0.13341913
134	0x3dbc3e0d	0.09191523
135	0xbc707899	-0.01467719
136	0x3d796cde	0.06089484
137	0xbd28ad97	-0.041181173
138	0x3de38a3e	0.11110352
139	0xbdfe3b14	-0.12413612
140	0xbe023c4a	-0.12718311
141	0xbd9173db	-0.07102176
142	0xbde89f1a	-0.11358471
143	0x3db6c83c	0.089249104
144	0xbb28adf7	-0.0025738457
145	0xbd7d91c2	-0.061906584
146	0xbd928232	-0.07153739
147	0xbde2f5d7	-0.110820465
148	0xb8b52792	-8.638123e-05
149	0xbe07dee5	-0.13268621
150	0xbde5b08f	-0.112153165
151	0x3d119c65	0.03554954
152	0x3b280f27	0.0025643797
153	0x3da80f16	0.082060024
154	0x3c6c7d29	0.014434137
155	0xbdf1ff45	-0.11816267
156	0x3da18f91	0.07888711
157	0x3dd30009	0.10302741
158	0x3d0f3e8f	0.03497177
159	0x3c9d62ca	0.019212145
160	0x3d27567c	0.040853962
161	0x3cf6b649	0.030116217
162	0xbd99a309	-0.075017996
163	0xbd87d5bc	-0.066325635
164	0x3cdc2080	0.026870966
165	0x3e0d7e86	0.13817796
166	0x39aa04ae	0.00032428413
167	0x3b712ccf	0.003680039
168	0xbdc29fb9	-0.09503121
169	0xbd6d335c	-0.05791031
170	0x3d3228be	0.043495886
171	0x3ba5a86a	0.005055477
172	0x3e074841	0.13211156
173	0x3d87add5	0.06624953
174	0xbc749569	-0.0149282
175	0xbd581212	-0.05275161
176	0xbdccedfb	-0.10006329
177	0x3c26fa5b	0.010191525
178	0xbbb68c50	-0.005570926
179	0x3d94dfff	0.07269286
180	0x3d49efe3	0.04930104
181	0x3c5bfa96	0.013426444
182	0x3dc6afd6	0.09701507
183	0x3cf15a59	0.029462026
184	0x3d85abb2	0.06526889
185	0xbdda0a29	-0.10646469
186	0xbd66d18e	-0.05635219
187	0x3dae9f45	0.08526472
188	0x3dbae745	0.091261424
189	0x3daeccbd	0.085351445
190	0x3d372a22	0.044717915
191	0x3b48890e	0.003059927
192	0xbe1753bb	-0.14778034
193	0xbda85261	-0.082188375
194	0x3dcd343b	0.10019728
195	0xbd3fe0f5	-0.046845395
196	0x3dde322d	0.10849414
197	0xbde11609	-0.10990531
198	0xbd5f6a0c	-0.054544494
199	0x3c127d1b	0.00894096
200	0xbdaaef37	-0.08346408
201	0x3dd036d4	0.10166708
202	0x3dd8c6be	0.10584782
203	0xbd4e342a	-0.050342716
204	0x3e084a3f	0.13309573
205	0x3dba1e57	0.09087818
206	0x3debc7c2	0.1151271
207	0xbdc57d4c	-0.09643039
208	0xbdfdc7e3	-0.12391641
209	0x3c443d2e	0.011977477
210	0x3c300be1	0.01074502
211	0x3d7e0de7	0.062024977
212	0xbdef1db9	-0.11675591
213	0x3dfe6102	0.124208465
214	0x3be15270	0.0068762824
215	0x3dc97f6a	0.098387554
216	0x3d892d6a	0.06698115
217	0x3da1b339	0.07895512
218	0xbd67d88c	-0.056603
219	0xbad3aa06	-0.0016148693
220	0xbe04c7a3	-0.1296678
221	0x3c1e4d4a	0.009661982
222	0xbd82d802	-0.063888565
223	0xbdc9f93f	-0.09861993
224	0x3d2d9e44	0.042387262
225	0xbddb6f5a	-0.10714598
226	0x3da8c97d	0.08241556
227	0xbdcd117b	-0.100131
228	0x3c0c2394	0.008553404
229	0x3d191868	0.03737679
230	0x3e0761fd	0.13220973
231	0xbd7d4467	-0.06183281
232	0xbdf7a7a1	-0.120925196
233	0xbdb104fb	-0.08643528
234	0xbd8f6d0e	-0.070032224
235	0xbd990992	-0.074725285
236	0xbdc951e1	-0.0983007
237	0x3e142433	0.14466934
238	0xbb16dc6d	-0.0023019568
239	0xbdeda876	-0.11604397
240	0x3d19255e	0.03738915
241	0x3c700311	0.014649169
242	0x3cab0d16	0.020880263
243	0x3d198ab8	0.037485808
244	0x3d1f512a	0.038895763
245	0x3db7812a	0.08960183
246	0x3d8ef2f2	0.06979932
247	0x3c9b1bef	0.018934218
248	0x3ddeb9d6	0.10875289
249	0x3c594f34	0.013263512
250	0xbd601726	-0.054709576
251	0xbd034e6f	-0.032057222
252	0xbafc26be	-0.001923762
253	0xbd59f1fc	-0.05320929
254	0x3e0d69f0	0.13809943
255	0x3d00e15c	0.03146492

module.gcn_layers.0.bnEdges.W5.weight f4 [50, 50]
0	0x3dbdd087	0.09268289
1	0xbdac897e	-0.08424662
2	0xbc727003	-0.0147972135
3	0x3c4344b1	0.011918233
4	0x3e07c9c5	0.13260563
5	0xbd61c764	-0.055121794
6	0xbd82cef7	-0.06387132
7	0x3d2dec3a	0.04246161
8	0x3cab1062	0.020881835
9	0x3d29d6ab	0.04146449
10	0x3defab09	0.11702544
11	0xbded20fd	-0.11578558
12	0x3c0ce177	0.008598677
13	0xbce7b4b6	-0.028284412
14	0xbdf32a7a	-0.11873336
15	0xbc8916d7	-0.016734524
16	0x3d27eb57	0.040995922
17	0x3d97a478	0.07404417
18	0x3c27ccd2	0.010241704
19	0xbdc75dd1	-0.09734691
20	0xbd1fc0e8	-0.03900233
21	0x3da8aa6b	0.0823563
22	0x3d4121fc	0.04715155
23	0xbde2fe27	-0.11083632
24	0x3d1592f1	0.036517087
25	0xbd092655	-0.033483822
26	0x3c973033	0.0184556
27	0x3dcb9caa	0.09941991
28	0xbda2d594	-0.07950893
29	0xbc757204	-0.014980797
30	0x3de7fb6a	0.1132725
31	0xbcbb0711	-0.022830518
32	0x3e17bfa9	0.14819206
33	0xbc9453e1	-0.018106403
34	0x3caad080	0.020851374
35	0xbce9982e	-0.028514948
36	0x3d1d270f	0.038367327
37	0xbd277bba	-0.04088948
38	0x3e0651cf	0.13117145
39	0x3df71631	0.120647795
40	0x3bff11dd	0.007784112
41	0xbda7ef49	-0.08199937
42	0x3d14d8cb	0.036339562
43	0xbc79a3b8	-0.0152367875
44	0xbdef4b2e	-0.11684261
45	0x3bf90707	0.0075997147
46	0xbdcb3ae8	-0.09923345
47	0xbd3f5320	-0.046710134
48	0xbde45aec	-0.111501545
49	0x3ded5846	0.115891024
50	0x3d86a1ce	0.065738305
51	0xbd98c29e	-0.07458995
52	0x3dad3105	0.08456615
53	0xbdcc3677	-0.09971326
54	0x3cb58b24	0.022161074
55	0xbdfa74aa	-0.12229283
56	0x3d8d2fc7	0.068938784
57	0xbda0ea60	-0.078572035
58	0xbd53fef3	-0.05175681
59	0x3d34b685	0.044119377
60	0xbe0656df	-0.13119076
61	0x3d98e36c	0.07465252
62	0x3b360c06	0.0027778163
63	0xbdccdd36	-0.1000313
64	0xbcf6b566	-0.030115794
65	0xbdcacb3f	-0.09902047
66	0x3d21060d	0.03931241
67	0x3d3667ea	0.044532694
68	0xbde0cfa4	-0.10977104
69	0x3db77517	0.0895788
70	0xbd3b8f8e	-0.0457912
71	0x3df1fdf7	0.11816018
72	0xbb827686	-0.0039814143
73	0x3cd04993	0.025425708
74	0xbd594217	-0.053041544
75	0xbb3665b4	-0.0027831616
76	0xbc20cc6b	-0.009814362
77	0xbd16ed2d	-0.036847282
78	0xbda6bb63	-0.0814121
79	0x3c4c3b69	0.012465336
80	0xbdf909d2	-0.12160076
81	0xbd9499f6	-0.07255928
82	0xbd4320bd	-0.047638644
83	0xbb31b056	-0.002711316
84	0xbdbc19e5	-0.091846265
85	0xbd7fcebc	-0.062453017
86	0x3b13e9fc	0.0022569885
87	0x3bfe29c6	0.0077564446
88	0x3c507f49	0.01272566
89	0xbda787d4	-0.08180204
90	0x3dccd583	0.10001662
91	0xbd29cf8a	-0.04145769
92	0xbdf0e2d5	-0.11762015
93	0x3d9cce45	0.0765653
94	0x3c0305d1	0.007996992
95	0xbc4678a9	-0.012113729
96	0xbe0cc5aa	-0.13747278
97	0xbda48ea4	-0.08035019
98	0x3da1c8e6	0.078996465
99	0xbd48ad0d	-0.04899316
100	0xbdc81228	-0.09769088
101	0x3da9125a	0.082554534
102	0xbdeffcaf	-0.117181174
103	0x3da8a44c	0.08234462
104	0xbd436ae0	-0.047709346
105	0x3d678168	0.056519896
106	0x3c8e9901	0.017406942
107	0x3e0dd831	0.13852002
108	0x3d65425c	0.05597149
109	0xbc234cf0	-0.009967074
110	0x3e0dddec	0.13854188
111	0xbdec5c28	-0.11541015
112	0x3c7fcaee	0.015612347
113	0x3d35e8d0	0.04441148
114	0xbde26945	-0.11055235
115	0xbd99b1ab	-0.075045906
116	0xbd7f5768	-0.062339216
117	0xbd986c94	-0.07442585
118	0xbc7eb188	-0.015545256
119	0xbdb1f465	-0.08689193
120	0x3e080ec4	0.13286883
121	0xbb91f006	-0.004453662
122	0x3e0f4aaa	0.13993326
123	0x3d083bc0	0.033260107
124	0xbca92482	-0.020647291
125	0x3c39d6ab	0.011342685
126	0xbda30fb1	-0.07961977
127	0xbdba9f7b	-0.0911245
128	0x3d5cddda	0.05392251
129	0xbc99f3f6	-0.018793087
130	0x3c645850	0.013937071
131	0xbc818c96	-0.015814107
132	0x3de57c73	0.112053774
133	0xbe122215	-0.14270814
134	0xbdbcd18e	-0.09219657
135	0xbd9952d6	-0.07486503
136	0xbd3f6bfb	-0.046733838
137	0x3de88c84	0.11354926
138	0x3dc50728	0.096205056
139	0xbdd9d2b6	-0.10635893
140	0xbd2a1ab3	-0.04152937
141	0x3deb147d	0.11478517
142	0xbde3cb9e	-0.11122821
143	0x3c7fac6b	0.0156050725
144	0x3d591228	0.05299583
145	0x3d8588ff	0.065202706
146	0x3dc8c972	0.09804048
147	0x3dc11233	0.09427299
148	0x3d0d802e	0.03454607
149	0xbe07b8b6	-0.13254055
150	0xbd89871f	-0.067152254
151	0xbd08f448	-0.03343609
152	0xbdc0f377	-0.09421437
153	0xbda7238c	-0.08161077
154	0x3ce44a6c	0.027867518
155	0xbd440279	-0.04785392
156	0x3cf84d2b	0.030310234
157	0x3d42b224	0.04753317
158	0x3d9c94b7	0.076455526
159	0xbdddb5b1	-0.108256705
160	0x3df3b3da	0.11899538
161	0x3d866bb9	0.06563515
162	0x3cb25f4f	0.021773962
163	0xbcfb1347	-0.03064884
164	0xbd2d7e07	-0.042356517
165	0x3c10755a	0.008817041
166	0xbca828a3	-0.02052719
167	0xbdfc568b	-0.12321194
168	0x3c74d2be	0.014942823
169	0xbdc689e1	-0.09694267
170	0xbdebcbf7	-0.115135126
171	0x3db31f15	0.08746163
172	0xbca29e8c	-0.019850992
173	0xbce5eabc	-0.028066032
174	0xbce8f66e	-0.02843782
175	0xbd5a58ac	-0.05330722
176	0x3d860aa9	0.06545002
177	0xbc52389e	-0.012830881
178	0xbd59ffd7	-0.053222504
179	0x3e0d4c61	0.13798667
180	0x3dcab197	0.09897154
181	0x3de2cc37	0.11074107
182	0xbe1969c8	-0.14981759
183	0x3d13947e	0.036030285
184	0x3cb13de9	0.021635966
185	0x3e07f1f8	0.13275898
186	0x3d4ec862	0.05048407
187	0x3cbfcc25	0.023412773
188	0x3dba0025	0.09082059
189	0x3d954f21	0.07290483
190	0xbdfa7166	-0.1222866
191	0xbe03ccfc	-0.12871164
192	0xbd83bb46	-0.06432204
193	0xbce7dda1	-0.028303923
194	0x3d1c4cef	0.038159307
195	0x3dd072fa	0.1017818
196	0xbdfc92f4	-0.123327166
197	0xbcd4592b	-0.025921425
198	0xbdd0737f	-0.10178279
199	0x3df40546	0.11915068
200	0x3da189bb	0.07887598
201	0x3db3c6cb	0.08778151
202	0xbc8213db	-0.015878608
203	0xbda8243a	-0.08210035
204	0xbda2b7b5	-0.079451956
205	0x3bd8d14c	0.006616747
206	0x3c200ec5	0.009769146
207	0x3c0337f2	0.008008944
208	0x3decd333	0.115637206
209	0xbda34e89	-0.07973964
210	0x3dca9936	0.09892504
211	0x3d6309d7	0.055429306
212	0xbdee862e	-0.116466865
213	0xbd711fe9	-0.058868323
214	0xbd988890	-0.07447922
215	0x3be9242a	0.007114907
216	0x3daa4728	0.08314353
217	0x3daaab3f	0.08333444
218	0xbc9a76b3	-0.018855428
219	0x3e0ba29e	0.13636252
220	0x3d743e59	0.05962977
221	0x3d172d43	0.0369084
222	0xbdfc8c61	-0.12331463
223	0xbde8670b	-0.11347779
224	0x3dbc8e45	0.09206823
225	0x3d894bc6	0.06703906
226	0xbd7b3db4	-0.06133814
227	0xbdd34bd9	-0.10317201
228	0xba879ec4	-0.0010346998
229	0xbe0d3c86	-0.13792619
230	0x3dd374a7	0.10324984
231	0x3d87436d	0.06604657
232	0x3d05cca5	0.032665867
233	0xbdd8c309	-0.10584075
234	0xbcd9f626	-0.02660663
235	0xbd9a59da	-0.07536669
236	0x3d9b0c64	0.07570723
237	0x3e12800c	0.14306659
238	0xbaa8228c	-0.0012827679
239	0xbd34b82b	-0.04412095
240	0x3ddd0c3b	0.107933484
241	0xbd265244	-0.0406058
242	0xbd7c92e4	-0.061663523
243	0xbdddc55e	-0.108286604
244	0x3ce85dce	0.028365042
245	0x3ddb8e57	0.107205085
246	0x3dcc76c8	0.09983593
247	0x3d4522c0	0.048128843
248	0x3dd102d5	0.10205618
249	0xbdd52ce2	-0.10408951
250	0x3e05b396	0.13056788
251	0xbd19fa6a	-0.03759233
252	0xbe0c0a92	-0.13675907
253	0x3d941262	0.07230069
254	0x3cf4dbd5	0.02988998
255	0xbcbcaee5	-0.023032615

module.gcn_layers.0.bnEdges.batch_norm.weight f4 [50]
0	0x3f8061b8	1.0029821
1	0x3f8147f0	1.0100079
2	0x3f8113fb	1.0084223
3	0x3f7dc1b4	0.9912369
4	0x3f7e87d6	0.9942602
5	0x3f811dc7	1.0087212
6	0x3f806f98	1.0034056
7	0x3f81206f	1.0088023
8	0x3f7f6d6e	0.9977635
9	0x3f8131bd	1.0093304
10	0x3f7f8fcf	0.9982881
11	0x3f7f9888	0.9984212
12	0x3f80672f	1.0031489
13	0x3f8031c3	1.0015186
14	0x3f7e6764	0.9937651
15	0x3f812a70	1.0091076
16	0x3f7e13c2	0.992489
17	0x3f7eba9a	0.9950348
18	0x3f7d9d5e	0.9906825
19	0x3f812ebc	1.0092387
20	0x3f804da9	1.00237
21	0x3f7fb9eb	0.99893063
22	0x3f80ccb1	1.0062467
23	0x3f813c85	1.0096594
24	0x3f80aa49	1.0051967
25	0x3f7f3dc8	0.99703646
26	0x3f7f891a	0.99818575
27	0x3f7db620	0.99106026
28	0x3f807c41	1.0037919
29	0x3f7fe2a9	0.9995523
30	0x3f8032d4	1.0015512
31	0x3f80cdbb	1.0062784
32	0x3f7e4bf5	0.9933465
33	0x3f811b6a	1.0086491
34	0x3f81018f	1.0078601
35	0x3f80d75e	1.0065725
36	0x3f80376a	1.0016911
37	0x3f80f3d1	1.0074407
38	0x3f80e6e8	1.0070467
39	0x3f80d651	1.0065404
40	0x3f7dc93e	0.99135196
41	0x3f813900	1.009552
42	0x3f7f2a23	0.9967367
43	0x3f813b16	1.0096157
44	0x3f810e2c	1.008245
45	0x3f81218f	1.0088366
46	0x3f800711	1.0002156
47	0x3f7e118c	0.99245524
48	0x3f7e9f06	0.994614
49	0x3f80fbb4	1.0076814

module.gcn_layers.0.bnEdges.batch_norm.bias f4 [50]
0	0x3b532060	0.0032215342
1	0x3c13e16f	0.0090259155
2	0xba1f9d86	-0.00060888415
3	0xbc078d21	-0.008273394
4	0xbbe33a43	-0.0069344356
5	0x3c0a270d	0.008432162
6	0xbb46f7ad	-0.0030360029
7	0x3b8377c9	0.0040120822
8	0xbb970834	-0.004609132
9	0x3bbc20c3	0.00574121
10	0x3b66bece	0.0035208943
11	0xbbb3abb3	-0.0054831146
12	0xbbb40d4f	-0.0054947506
13	0x3be72feb	0.007055273
14	0xbbcdd806	-0.0062818555
15	0x3c13356c	0.008984905
16	0xbc0f8090	-0.008758679
17	0xbbc35325	-0.0059608393
18	0xbbfdb420	-0.00774242
19	0x3bac126f	0.005251221
20	0xbb09708d	-0.0020971627
21	0xbb7431ef	-0.0037261208
22	0x3bc2bb80	0.005942762
23	0x3c1d831e	0.00961378
24	0xba6b364a	-0.0008972628
25	0x3bb5bea6	0.0055464087
26	0x390eb7ec	0.00013610692
27	0xbc178775	-0.009248604
28	0x3ba18f53	0.0049304157
29	0xbb68adda	-0.0035504014
30	0x3b3cbb68	0.0028798226
31	0x3be763be	0.0070614507
32	0x3afc319a	0.0019240857
33	0x3c0b7686	0.008512145
34	0x3be0c043	0.006858857
35	0x3be06bc9	0.0068487865
36	0xbb872419	-0.004124176
37	0x3c00d357	0.007862887
38	0x3b8b6307	0.0042537483
39	0x3c146003	0.009056094
40	0xbc0c7e67	-0.008575059
41	0x3c1a0ea7	0.009402907
42	0xbc1070dc	-0.00881597
43	0x3c1009b5	0.008791377
44	0x3adab2cb	0.0016685365
45	0x3c17350a	0.009228954
46	0x3b1ce608	0.002394082
47	0xbade1748	-0.0016944194
48	0xbbb71c17	-0.0055880654
49	0x3bf51d16	0.007480274
