logs/deafult/best_val_checkpoint.tar (torch, 489841 bytes, 103 tensors)

module.NodesEncoding.A1.weight f4 [50, 2]
0	0xbf2efd36	-0.6835512
1	0x3f040cbf	0.5158195
2	0x3f0c11c4	0.5471461
3	0xbe395c24	-0.18101555
4	0xbeb12d47	-0.34604856
5	0xbd24d8a9	-0.040245686
6	0xbf04aa02	-0.5182191
7	0x3ec4ac87	0.38412878
8	0xbf051242	-0.51980984
9	0xbf0f5834	-0.5599396
10	0xbf1ffef4	-0.624984
11	0xbe9f9714	-0.3116995
12	0x3ed2aa5e	0.41145605
13	0xbe3d6b27	-0.18497907
14	0x3f279a5b	0.654699
15	0xbf1c0f13	-0.609605
16	0x3f26e78e	0.65197074
17	0xbeb9f0bd	-0.3631648
18	0xbeac8368	-0.33694005
19	0xbed61478	-0.4181249
20	0xbf268282	-0.6504289
21	0xbedf604b	-0.43628153
22	0x3ea2cc22	0.31796366
23	0x3f3185b4	0.6934464
24	0x3e89a22f	0.2688155
25	0xbee924ec	-0.45535982
26	0x3e916fb7	0.28405544
27	0x3e268d9c	0.16264957
28	0x3f018f38	0.5060916
29	0xbf170fb8	-0.5900836
30	0x3ee3f268	0.4452088
31	0xbe905377	-0.2818868
32	0x3f016f03	0.50560015
33	0x3de811fe	0.11331557
34	0xbe842d5e	-0.25815862
35	0x3f2a3c7c	0.6649854
36	0xbeed33cd	-0.46328583
37	0x3eee3d51	0.46531156
38	0x3e66af4b	0.22527806
39	0x3e5bf2e2	0.21479371
40	0x3f31c546	0.6944164
41	0x3ebba6c6	0.36650676
42	0xbef9b790	-0.4877286
43	0x3f0811c1	0.5315209
44	0xbf23c1dc	-0.6396768
45	0xbf065c5c	-0.5248468
46	0xbef5e360	-0.48025036
47	0x3cd3eed7	0.025870724
48	0x3f1b8a1c	0.60757613
49	0x3ea181cf	0.3154435
50	0x3e932fcb	0.287474
51	0xbe55210b	-0.20813386
52	0xbecf5a37	-0.40498516
53	0x3e431fac	0.1905505
54	0xbf089fb0	-0.53368664
55	0xbea5074f	-0.3223214
56	0x3f0d7727	0.5525994
57	0xbead52ab	-0.33852133
58	0x3e05aae1	0.13053466
59	0xbefe5cea	-0.49680263
60	0xbe263091	-0.16229464
61	0x3ea45853	0.32098636
62	0x3a07b57d	0.0005176885
63	0xbee2989e	-0.44257063
64	0x3ef9bcd1	0.48776868
65	0xbeda6cb6	-0.42661065
66	0x3d7b0daf	0.061292347
67	0xbe354a17	-0.17704044
68	0x3ed6cd34	0.41953433
69	0x3e9c370d	0.3051075
70	0x3f0bf950	0.54677296
71	0xbf1ddb9a	-0.6166321
72	0x3f1d5837	0.6146273
73	0x3d0c750a	0.034291305
74	0x3d72ed9e	0.05930864
75	0x3df800fe	0.12109564
76	0x3ecfb752	0.4056955
77	0xbdddb6da	-0.10825892
78	0xbf2a5040	-0.665287
79	0x3f2a87a6	0.66613233
80	0xbe6b8ab0	-0.23002124
81	0x3bf53a63	0.007483767
82	0xbf0a94c9	-0.5413328
83	0xbece0819	-0.40240553
84	0x3e883867	0.26605532
85	0xbe858060	-0.26074505
86	0x3eb72f27	0.35778162
87	0xbeb0b3f0	-0.3451228
88	0xbe8b2e67	-0.2718384
89	0xbf27f775	-0.65611964
90	0xbefa8984	-0.4893304
91	0x3e2f7657	0.17134987
92	0x3ecde594	0.40214217
93	0x3d08806e	0.033325605
94	0x3e44ac5b	0.19206373
95	0xbc787be8	-0.01516626
96	0x3e9bc58f	0.30424163
97	0x3ecfa002	0.40551764
98	0xbe910d42	-0.28330427
99	0xbe2d6779	-0.16934003

module.NodesEncoding.A1.bias f4 [50]
0	0xbe67460c	-0.22585315
1	0x3e8a90f9	0.2706373
2	0xbf28d702	-0.65953076
3	0xbd0d564f	-0.03450614
4	0x3f2eaaa3	0.6822912
5	0x3eed62ef	0.46364543
6	0xbec8876f	-0.39165828
7	0x3db71b8b	0.089408
8	0xbf2ef60d	-0.68344194
9	0xbe63d35f	-0.222486
10	0xbc593e25	-0.013259445
11	0x3e9535db	0.2914265
12	0xbd5471de	-0.051866405
13	0x3dfe6f01	0.12423516
14	0x3e59dc75	0.21275504
15	0xbe292edc	-0.16521782
16	0x3f2fff5c	0.6874902
17	0x3e5d9dcd	0.21642227
18	0x3e0dc706	0.13845453
19	0x3e773a02	0.24143222
20	0x3e685917	0.22690235
21	0x3e9f796b	0.31147322
22	0x3ed9cb29	0.4253781
23	0x3ea22f69	0.31676796
24	0xbebe53b8	-0.37173247
25	0xbeaf1be6	-0.34200972
26	0x3f0877ff	0.533081
27	0x3efc89be	0.4932384
28	0x3e4b0f95	0.19830163
29	0x3e1ac96b	0.15115897
30	0xbf1af7a8	-0.60534143
31	0x3ed95fed	0.42455998
32	0xbe25ff58	-0.16210687
33	0xbf1304f5	-0.5742944
34	0xbee3b435	-0.44473425
35	0xbdbd0062	-0.09228589
36	0x3d1521f1	0.036409322
37	0xbe2a3f6b	-0.16625755
38	0xbed8c870	-0.42340422
39	0x3e323d8f	0.17406295
40	0xbe153458	-0.14570749
41	0x3f1bc666	0.60849607
42	0xbecd3eec	-0.40087068
43	0xbf0309ec	-0.51187015
44	0xbd7cd243	-0.06172396
45	0x3f17023d	0.5898779
46	0x3da17ce0	0.07885146
47	0x3eb77ad1	0.3583589
48	0x3f02bf11	0.51072794
49	0x3d600ff4	0.054702714

module.EdgesEncoding.A2.weight f4 [25, 1]
0	0x3f07db6f	0.53069204
1	0x3f4767f3	0.7789299
2	0xbed28aba	-0.41121465
3	0x3e5b566b	0.21419685
4	0x3ec5be8a	0.38621932
5	0xbea00fe0	-0.31262112
6	0x3f614497	0.87995285
7	0x3e73e46b	0.23817603
8	0x3e935e45	0.2878286
9	0xbf1c9025	-0.6115745
10	0xbe704b9b	-0.23466341
11	0xbda1fd2f	-0.07909619
12	0xbeaaaa11	-0.33332875
13	0x3d2614f9	0.040547345
14	0x3eda74c0	0.42667198
15	0xbf480e47	-0.78146785
16	0x3da46b83	0.08028319
17	0xbf365b5a	-0.7123314
18	0xbeea4867	-0.45758364
19	0x3f361cd9	0.7113777
20	0xbf1bd14d	-0.6086624
21	0x3f3a8759	0.72862774
22	0x3f6dbe48	0.9286847
23	0xbf473f56	-0.7783102
24	0xbe805006	-0.25061053

module.EdgesEncoding.A2.bias f4 [25]
0	0x3e710053	0.2353528
1	0xbf56ede6	-0.83956754
2	0xbeb0a53e	-0.3450107
3	0x3ea2f2b9	0.31825808
4	0x3f422b04	0.75846887
5	0x3f52cb0d	0.8234108
6	0x3f55e3b8	0.83550596
7	0xbd9bb1ec	-0.07602295
8	0x3f516f97	0.818109
9	0xbd86e979	-0.065875
10	0x3f341dda	0.7035805
11	0xbf7a6eb0	-0.97825146
12	0x3d67db55	0.056605656
13	0xbf4f9ba0	-0.8109684
14	0x3eb56e1a	0.35435563
15	0xbf17ac71	-0.592475
16	0xbf5a39f1	-0.8524466
17	0x3ee71548	0.45133424
18	0x3e72b3a6	0.23701343
19	0x3f775b19	0.9662338
20	0x3d287820	0.041130185
21	0xbeff2fb9	-0.49841097
22	0x3d8b8be7	0.06813794
23	0x3df673f7	0.12033837
24	0xbe466d7f	-0.19377707

module.EdgesEncoding.A3.weight f4 [25, 1]
0	0xbf18cde3	-0.5968916
1	0xbf1f6591	-0.62264353
2	0x3f092e05	0.53585845
3	0x3f746fdc	0.95483184
4	0x3e143811	0.14474513
5	0xbf0a0756	-0.53917444
6	0x3f1cd05d	0.6125544
7	0xbf57e3bb	-0.84331864
8	0x3f06f007	0.5271
9	0x3e9567c8	0.2918074
10	0x3e34f161	0.17670204
11	0xbf2b454e	-0.66902626
12	0x3e89fd88	0.26951241
13	0xbe2e895d	-0.17044587
14	0x3f7afcd9	0.98042065
15	0xbc494bdd	-0.012286154
16	0x3f607e33	0.87692565
17	0x3f5c2088	0.8598714
18	0x3f4a0ab7	0.789226
19	0xbf2711f8	-0.65261793
20	0xbf4f2cde	-0.80927837
21	0xbf24c80c	-0.6436775
22	0xbf46d2f4	-0.7766564
23	0xbf09f02d	-0.53882104
24	0xbf6b85b5	-0.92000896

module.EdgesEncoding.A3.bias f4 [25]
0	0xbefb7260	-0.491107
1	0xbe62b6e2	-0.22140077
2	0xbf53915f	-0.82643694
3	0x3f2d82d2	0.6777774
4	0xbf7c469a	-0.9854523
5	0xbf28c035	-0.65918285
6	0xbe39621b	-0.1810383
7	0x3ea53b91	0.32272008
8	0xbf434c46	-0.7628826
9	0xbf0de4be	-0.5542716
10	0xbf32eea0	-0.6989536
11	0x3f381f90	0.7192316
12	0xbf2ac344	-0.667042
13	0x3f632e7a	0.8874279
14	0x3eee8b76	0.46590775
15	0x3f2f2f9e	0.68432033
16	0x3f1aa280	0.60404205
17	0xbf327228	-0.6970544
18	0x3e6b0036	0.22949299
19	0x3d8efa92	0.06981386
20	0xbf181ee2	-0.59422123
21	0x3f41ed18	0.757524
22	0xbe86944b	-0.26285014
23	0xbd717f8b	-0.058959525
24	0xbf481730	-0.7816038

module.gcn_layers.0.bnNodes.W1.weight f4 [50, 50]
0	0xbc041052	-0.008060532
1	0xbd930dfe	-0.07180403
2	0x3d3c5fb8	0.045989722
3	0xbd02ade6	-0.031904124
4	0x3d87b801	0.06626893
5	0x3c71c907	0.014757401
6	0x3de24ce1	0.1104982
7	0xbd1ff0af	-0.039047893
8	0x3db24530	0.08704603
9	0x3dbce464	0.092232496
10	0x3dbe1617	0.09281557
11	0xbc9c973e	-0.019115087
12	0x3d17d2b9	0.037066195
13	0x3db557ac	0.08854613
14	0xbd1c6e42	-0.038191088
15	0x3dae02ae	0.08496605
16	0x3d802bcc	0.062583536
17	0x3df11fde	0.11773656
18	0xbd21eb60	-0.03953111
19	0xbdca75ab	-0.09885725
20	0xbdbec8ef	-0.09315669
21	0x3d85c9a1	0.06532598
22	0xbc8f6374	-0.017503478
23	0x3d68d7af	0.056846317
24	0x3d901b35	0.07036439
25	0x3e0ee287	0.13953601
26	0x3d682ee1	0.056685332
27	0x3dbb9b21	0.09160448
28	0xbd423d47	-0.04742172
29	0x3daa5ba1	0.08318258
30	0x3da0fdc3	0.07860901
31	0x3dc67f7a	0.09692283
32	0x3d843a28	0.06456405
33	0xbdeee5f5	-0.116649546
34	0xbc4e65be	-0.012597499
35	0x3dae4371	0.08508957
36	0xbdc63664	-0.09678343
37	0x3db43079	0.08798308
38	0x3b79547a	0.0038044737
39	0xbdaf7982	-0.08568098
40	0x3c922bcc	0.01784315
41	0xbdd30e1f	-0.10305428
42	0xbc560975	-0.013063778
43	0x3d871be8	0.065971196
44	0x3dca06fa	0.09864612
45	0x3d4de14b	0.050263684
46	0xbd796220	-0.060884595
47	0xbd354546	-0.044255517
48	0x3e00d808	0.1258241
49	0xbd83f51c	-0.06443235
50	0xbd3f06b2	-0.046637245
51	0xbd4092e7	-0.047015097
52	0xbcbfb09a	-0.02339964
53	0x3dbcc625	0.092174806
54	0x3d91f055	0.07125918
55	0x3be18448	0.006882224
56	0x3dcc894e	0.09987126
57	0x3cb2befa	0.02181958
58	0xbe0cfe98	-0.13768995
59	0xbde17bcd	-0.11009941
60	0xbde71686	-0.11283593
61	0xbcdfa062	-0.027298156
62	0x3ce13267	0.027489854
63	0xbe0929b3	-0.13394813
64	0x3dd473fa	0.10373683
65	0x3d61f010	0.055160582
66	0xbb21956e	-0.0024655717
67	0x3df13078	0.11776823
68	0xbc64e416	-0.013970396
69	0x3deaf199	0.11471862
70	0xbe0ed3bf	-0.13947962
71	0x3e0fe623	0.14052634
72	0x3e123a98	0.14280164
73	0x3d51ffa7	0.0512692
74	0xbccc0c17	-0.024908109
75	0x3c1d8992	0.009615319
76	0xbbff34f1	-0.0077882935
77	0xbd1fcbaf	-0.039012607
78	0x3c844c9b	0.01614981
79	0xbb21255a	-0.0024588914
80	0x3d449fc8	0.04800394
81	0xbde14adf	-0.11000609
82	0x3dfc5d44	0.123224765
83	0xbdde4b9a	-0.108542636
84	0x3ccb8928	0.024845675
85	0xbc0b1450	-0.00848873
86	0xbc2a92b4	-0.010410953
87	0xbd30df72	-0.043181844
88	0x3e02d767	0.12777482
89	0xbdd61ce9	-0.10454733
90	0xbdecc3ee	-0.11560808
91	0xbc4b197b	-0.012396212
92	0x3da8e849	0.0824743
93	0xbdf72045	-0.12066702
94	0xbb9c2c14	-0.0047659967
95	0x3e0013bd	0.1250753
96	0x3d564794	0.052314356
97	0xbe154bff	-0.14579771
98	0xbcf2adb7	-0.02962385
99	0x3e037cac	0.12840527
100	0xba464d50	-0.0007564621
101	0x3dc01947	0.09379821
102	0x3dab094c	0.083513826
103	0xbdf598f0	-0.11992061
104	0x3ddb18fe	0.10698126
105	0x3b657259	0.0035010783
106	0x3d62947f	0.0553174
107	0x3a7d67ed	0.000966667
108	0x3de1027b	0.10986801
109	0x3da92eed	0.082609035
110	0xbdb55526	-0.088541314
111	0xbdf02f74	-0.11727801
112	0xbdf6cd84	-0.12050918
113	0x3dc6ff21	0.09716631
114	0xbe08712a	-0.13324419
115	0xbdd1b854	-0.10240236
116	0x3e00c01f	0.12573288
117	0x3d9f733e	0.077856526
118	0x3d6eef2f	0.058333572
119	0x3cd0a6eb	0.025470218
120	0x3d0cb4ee	0.034352235
121	0x3c2211a3	0.0098919
122	0xbda68dbf	-0.08132505
123	0x3d1826c0	0.03714633
124	0x3cb7d356	0.02243964
125	0xbdaac4fc	-0.08338353
126	0x3b635e35	0.0034693603
127	0x3d6af530	0.057362735
128	0x3d8f47ab	0.069960915
129	0xbe0c3abc	-0.1369428
130	0x3dc90634	0.09815636
131	0xbdb6ea84	-0.08931449
132	0xbc9998ea	-0.018749673
133	0xbdab9f5f	-0.08380007
134	0x3c61a859	0.013773047
135	0x3be3ed77	0.0069557982
136	0xbd1b3536	-0.037892543
137	0x3c803d3c	0.015654199
138	0xbb678d8a	-0.0035332167
139	0xbaf3a63c	-0.001858897
140	0x3d9a6e1a	0.075405315
141	0x3c8f9e4c	0.017531537
142	0x3d3054c8	0.043049604
143	0xbcdc164c	-0.0268661
144	0x3d4a9ad1	0.04946405
145	0xbd4fabe7	-0.05070105
146	0x3b552d07	0.003252806
147	0xbde6e040	-0.11273241
148	0x3e00bfb7	0.12573133
149	0x3d73fac7	0.05956533
150	0x3d20a372	0.039218374
151	0x3e04636e	0.12928554
152	0xbbb36864	-0.005475091
153	0xbdf0d1a7	-0.11758738
154	0x3d87915d	0.06619523
155	0xbda72ede	-0.08163236
156	0xbc673a23	-0.014112982
157	0xbdfbe47f	-0.122994415
158	0xbc1c7b0a	-0.009550819
159	0xbd635f82	-0.055511005
160	0x3d3aaaf8	0.045573205
161	0x3deec829	0.11659271
162	0xbcb26c60	-0.021780193
163	0x3e00bc62	0.12571862
164	0xbd84ad5c	-0.06478378
165	0x3dfc6d79	0.12325568
166	0x3d22d679	0.03975532
167	0x3e096459	0.13417186
168	0x3e074dd8	0.13213289
169	0x3dbe21a4	0.0928376
170	0xbdc8eeca	-0.098111704
171	0xbd82889f	-0.06373715
172	0xbdf4241e	-0.11920951
173	0x3dc97fe7	0.098388486
174	0x3dc00ca4	0.09377411
175	0xbe0761cd	-0.13220902
176	0x3d7b5203	0.06135751
177	0x3c0f5e63	0.008750531
178	0xbd4b27fa	-0.04959867
179	0xbd1edfbd	-0.038787592
180	0xbcb5a358	-0.022172615
181	0x3d446863	0.047951113
182	0xbc1dbe6d	-0.009627921
183	0x3d55adbf	0.05216765
184	0xbd5691b5	-0.05238505
185	0xbd08f53a	-0.03343699
186	0xbd5b9a68	-0.05361405
187	0xbdddf2d9	-0.10837335
188	0xbe040566	-0.12892684
189	0x3d123a89	0.035700355
190	0xbcadd165	-0.021218011
191	0x3dbb246a	0.09137805
192	0x3cc28470	0.023744792
193	0x3db454ec	0.0880526
194	0xbda638b8	-0.08116287
195	0xbd3a7efb	-0.045531254
196	0x3d987ab0	0.07445276
197	0x3d81a939	0.06331105
198	0xbde3439b	-0.11096879
199	0x3dd63e7f	0.10461139
200	0xbd2dcb62	-0.04243029
201	0xbca141f6	-0.019684773
202	0xbda5fcaf	-0.08104836
203	0xbcbf73e6	-0.023370694
204	0x3e055f9f	0.13024758
205	0xbd7380e6	-0.0594491
206	0x3d98f1fe	0.07468031
207	0xbdc7d95d	-0.09758256
208	0x3e175014	0.14776641
209	0xbd951530	-0.07279432
210	0xbe05dffe	-0.13073727
211	0x3de6c1dc	0.112674445
212	0x3de325e9	0.11091215
213	0x3dae021a	0.084964946
214	0xbd989c69	-0.07451708
215	0x3d8e56f4	0.06950179
216	0x3dba86fb	0.09107777
217	0xbe075ef0	-0.1321981
218	0xbdb31c7a	-0.08745666
219	0x3d11e93e	0.035622828
220	0xbd3cf4f0	-0.046132028
221	0xbe059c6a	-0.13047948
222	0x3ddb3f9e	0.107054934
223	0xbda49d3c	-0.080378026
224	0xbd8b174f	-0.06791555
225	0xbdad47f4	-0.084609896
226	0x3d73cb4a	0.059520043
227	0x3c9f5f3b	0.01945459
228	0x3e0a8bbd	0.13529868
229	0xbd95d181	-0.0731535
230	0x3ddfb877	0.10923856
231	0x3dfa249c	0.12214014
232	0xbcf5d95a	-0.030010868
233	0x3de1aad8	0.11018914
234	0xbda97aa3	-0.08275344
235	0x3d866057	0.06561344
236	0x3e096b46	0.13419828
237	0x3dd2ce80	0.10293293
238	0xbdb0625a	-0.08612509
239	0x3cd2e2b0	0.025742859
240	0xbdd6c6c5	-0.10487131
241	0xbe0ae7b5	-0.13564952
242	0xbdddab74	-0.10823718
243	0x3adf70f6	0.0017047215
244	0x3d414298	0.04718265
245	0x3da400ac	0.08007941
246	0xbc828842	-0.015934113
247	0xbd8b8eb7	-0.0681433
248	0xbdfd2915	-0.123613514
249	0xbd454a4d	-0.048166562
250	0x3d8019ec	0.06254944
251	0x3dd771eb	0.10519775
252	0xbdef2093	-0.11676135
253	0xbc4f7e98	-0.01266446
254	0x3d9ef17a	0.07760902
255	0x3d1d69b7	0.038430896

module.gcn_layers.0.bnNodes.W2.weight f4 [50, 50]
0	0x3d9e2c7e	0.0772333
1	0x3df4371c	0.11924574
2	0xbd2139eb	-0.039361876
3	0x3cc56676	0.024096709
4	0xbd101c9e	-0.03518354
5	0xbdb27c62	-0.087151304
6	0x3d882697	0.066479854
7	0x3de4acf3	0.111658
8	0x3c8a1561	0.016855897
9	0x3dc93763	0.09825017
10	0xbd2427f6	-0.040077172
11	0x3e0e58af	0.13901018
12	0x3ddf0790	0.10890114
13	0xbd9e2e8b	-0.07723721
14	0x3df56f5f	0.11984133
15	0x3d66f7e6	0.056388758
16	0xbdc5898b	-0.09645375
17	0xbd1dd6f3	-0.03853507
18	0x3d868098	0.06567496
19	0x3df48b62	0.11940648
20	0x3c558daf	0.013034268
21	0xbd1656f7	-0.03670403
22	0xbdd181dc	-0.10229847
23	0x3dbf68d7	0.093461685
24	0x3e02ac72	0.12761095
25	0xbc30859d	-0.010774043
26	0xbd7680d7	-0.060181465
27	0xbde0dd40	-0.109797
28	0xbb1c7d47	-0.0023878382
29	0xbd574df9	-0.052564595
30	0xbcec8923	-0.028873986
31	0xbdd64e8c	-0.104642004
32	0xbe0e8e94	-0.13921577
33	0x3e0367f5	0.12832625
34	0xbdceda7b	-0.101002656
35	0x3de89010	0.11355603
36	0xbdc07414	-0.0939714
37	0xbd78091c	-0.060555562
38	0x3dbea16e	0.09308134
39	0x3d15dbeb	0.036586683
40	0x3cd33f17	0.02578692
41	0x3bd0ba41	0.0063698594
42	0xbcf2027e	-0.029542204
43	0xbd2cf675	-0.042227227
44	0x3c730e00	0.014834881
45	0x3db5470c	0.08851442
46	0x3d2f4636	0.042791568
47	0x3e0ebbc2	0.13938811
48	0xbbc8f872	-0.0061331326
49	0xbdea61ed	-0.11444459
50	0x3d7ccb2c	0.061717197
51	0x3e06ff6f	0.13183378
52	0x3e0a9414	0.1353305
53	0xbdcb59b3	-0.09929218
54	0xbda47ef7	-0.08032029
55	0xbd41a81b	-0.04727946
56	0xbde0c618	-0.109752834
57	0x3ccc2f33	0.02492485
58	0x3da69fde	0.08135961
59	0xbd1d6c49	-0.038433347
60	0x3d2d51ae	0.042314224
61	0x3d8e462f	0.0694698
62	0x3ddfcc27	0.10927611
63	0xbd9948e9	-0.0748461
64	0xbd976a20	-0.073932886
65	0x3d5e8050	0.054321587
66	0x3d5730ff	0.05253696
67	0x3e02fdbe	0.12792107
68	0xbdc756aa	-0.09733327
69	0xbd442b2e	-0.04789274
70	0xbdd07955	-0.10179392
71	0xbd50c414	-0.050968245
72	0x3d1f4661	0.038885478
73	0xbd2e4082	-0.04254199
74	0x3da11429	0.07865173
75	0x3cd7c2c7	0.026337994
76	0xbdb0ca99	-0.086323924
77	0x3e167265	0.14692076
78	0xbda406c9	-0.08009107
79	0xbcf739b2	-0.030178878
80	0xbd139153	-0.036027264
81	0x3c968fbf	0.01837909
82	0x3de7aab0	0.11311853
83	0xbdc4d77a	-0.096114114
84	0xbc9836b7	-0.018580778
85	0x3d905962	0.070482984
86	0xbddeda4b	-0.1088148
87	0x3d397485	0.045277137
88	0xbcea1560	-0.028574646
89	0xbdbb72fa	-0.091527894
90	0x3d848864	0.06471327
91	0xbd266862	-0.04062689
92	0x3c84b7f4	0.016200997
93	0x3dd08b14	0.10182777
94	0xbdf49246	-0.11941962
95	0xbc10c81b	-0.008836771
96	0x3d7f9ac4	0.062403455
97	0xbe00449e	-0.12526175
98	0x3dbd7349	0.092505045
99	0xbdb0bff4	-0.08630362
100	0x3ddf3431	0.108986266
101	0xbdb9e8dd	-0.09077618
102	0x3db8666f	0.09003913
103	0xbd8a14ae	-0.067422256
104	0xbd1ff717	-0.039054003
105	0xbccacef8	-0.024756894
106	0x3d70332f	0.058642562
107	0x3dbe5300	0.09293175
108	0x3d481c48	0.048855096
109	0xbe0df75e	-0.13863894
110	0xbd81be67	-0.063351445
111	0xbd291206	-0.041276954
112	0xbd283c97	-0.041073408
113	0xbddf92a4	-0.10916641
114	0x3c735622	0.014852079
115	0x3c92d3a5	0.017923186
116	0x3e0b4ba1	0.13603069
117	0xbe0ebbb1	-0.13938786
118	0x3cb731c8	0.022362605
119	0x3dcf4517	0.101206
120	0x3e018d46	0.12651548
121	0x3e0c7a3e	0.13718507
122	0xbd54d9c5	-0.051965494
123	0xbde5332d	-0.11191402
124	0xbde057f3	-0.10954275
125	0xbcf436ee	-0.029811349
126	0x3dbd1710	0.092329144
127	0x3dc6e708	0.097120345
128	0xbd85431d	-0.065069415
129	0xbd7231cb	-0.059129518
130	0x3ddad911	0.106859334
131	0xbd39b090	-0.0453344
132	0x3d9518fa	0.072801545
133	0xbd51a2e6	-0.051180743
134	0x3cc5adbf	0.0241307
135	0x3e11e6ea	0.14248243
136	0xbd583be9	-0.05279151
137	0x3dab6648	0.08369118
138	0x3d79c344	0.060977235
139	0xbe05814e	-0.13037607
140	0xbdfa39e5	-0.12218074
141	0xbdbcfebc	-0.09228274
142	0x3e00cc1b	0.1257786
143	0xbd90f73e	-0.07078408
144	0xbd84f71b	-0.06492444
145	0xbcb9cb38	-0.02267991
146	0x3dbc322e	0.091892585
147	0xbc502485	-0.012704019
148	0xbd53ab88	-0.051677257
149	0x3dae95dd	0.08524678
150	0xbd4d7e36	-0.050169192
151	0x3e001447	0.12507735
152	0xbe1581a4	-0.14600235
153	0x3dc62f7c	0.09677026
154	0xbe09464b	-0.13405721
155	0xbd1bd1f3	-0.03804202
156	0x3d933088	0.07186991
157	0x3d8927ab	0.06697019
158	0x3df33356	0.11875026
159	0x3ce34659	0.027743505
160	0xbd553bc0	-0.052058935
161	0x3d21e223	0.0395223
162	0xbdfc902d	-0.12332187
163	0xbca61dc9	-0.020277875
164	0xba263a62	-0.0006341097
165	0xbcb0ba09	-0.021573083
166	0x3dadf6bb	0.08494326
167	0x3dd4db88	0.10393435
168	0xbddd30d3	-0.10800328
169	0xbb6e11c0	-0.0036326498
170	0xbcc42a0e	-0.023945834
171	0x3c0766ae	0.008264227
172	0xbd3d4f09	-0.046217952
173	0x3d112528	0.035435826
174	0x3a90138f	0.0010992157
175	0x3e0c3941	0.13693716
176	0x3d8f4594	0.06995693
177	0x3e07e1e1	0.1326976
178	0xbd82b706	-0.06382565
179	0x3dceab15	0.10091225
180	0xbe075e36	-0.13219532
181	0x3c9a1acd	0.018811608
182	0x3dffa9af	0.124835365
183	0x3b415436	0.0029499657
184	0xbca7d2f8	-0.02048634
185	0x3df46491	0.11933244
186	0x3e084108	0.13306057
187	0xbd06c6e5	-0.032904524
188	0x3c0f9ccb	0.00876541
189	0x3d74ad2f	0.059735473
190	0xbd974427	-0.07386046
191	0x3bc4f624	0.0060107876
192	0x3bad6ab3	0.0052922606
193	0xbcd89931	-0.026440235
194	0x3cd0dbbd	0.025495404
195	0xbd37030c	-0.04468064
196	0xbc569a86	-0.013098365
197	0xbdfd20af	-0.123597495
198	0xbde64e53	-0.11245408
199	0x3cb247b9	0.021762716
200	0xbd68fe74	-0.05688329
201	0x3d51a338	0.05118105
202	0xbd58c288	-0.052919894
203	0x3db8bfcc	0.09020957
204	0x3d02b2fc	0.031908974
205	0xbdcba0a7	-0.099427514
206	0xbdef0be3	-0.11672189
207	0xbe08004c	-0.13281363
208	0x3c9ccb27	0.01913984
209	0xbcc96109	-0.024582403
210	0xba20bf56	-0.0006132027
211	0x3d3cc7e0	0.046089053
212	0xbd5313f1	-0.05153269
213	0x3ded37cd	0.11582909
214	0xbe045b9d	-0.12925573
215	0xbdd9ec90	-0.10640824
216	0x3e05ce98	0.1306709
217	0xbd9a8f18	-0.07546824
218	0xbd1ed183	-0.038774025
219	0x3d10b2eb	0.03532688
220	0x3d831bc4	0.0640178
221	0x3dee377f	0.11631679
222	0xbd99bc83	-0.07506659
223	0xbe0e1b43	-0.13877587
224	0xbdb4b919	-0.08824367
225	0x3da3e7dc	0.08003208
226	0x3da25dd3	0.07928052
227	0xbcaf2d8d	-0.021384025
228	0xbd037426	-0.03209319
229	0xbdffd80a	-0.12492378
230	0xbdd3e44b	-0.10346278
231	0x3d8412f8	0.064489305
232	0xbe0b308a	-0.13592735
233	0xbdd5805f	-0.104248755
234	0x3c0155c7	0.007893986
235	0xbd80a9fd	-0.06282423
236	0x3df98c1e	0.12184928
237	0x3def00e1	0.116700895
238	0xbc655019	-0.013996148
239	0xbdaf07a1	-0.08546377
240	0xbd7d4461	-0.06183279
241	0xbc5eb339	-0.013592535
242	0x3e020f58	0.12701166
243	0x3da16bce	0.0788189
244	0xbc251cb1	-0.010077641
245	0xbdf775c4	-0.12083009
246	0xbdda27bb	-0.10652109
247	0xbd88faca	-0.06688459
248	0xbddb0336	-0.10693972
249	0x3dc75d19	0.09734554
250	0xbcba64f3	-0.022753214
251	0xbdd183b9	-0.10230202
252	0xbcac0d64	-0.021002479
253	0xbd8c8fac	-0.06863341
254	0x3cff652a	0.031176168
255	0xbcef761c	-0.029231124

module.gcn_layers.0.bnNodes.batch_norm.weight f4 [50]
0	0x3f809aac	1.0047202
1	0x3f80e864	1.007092
2	0x3f801b45	1.0008322
3	0x3f7e2197	0.99270004
4	0x3f7d864f	0.99033064
5	0x3f80f19a	1.0073731
6	0x3f8050d8	1.0024672
7	0x3f7daaa9	0.9908853
8	0x3f7e350b	0.9929969
9	0x3f7e6f20	0.99388313
10	0x3f7e2d50	0.9928789
11	0x3f7d98d2	0.9906131
12	0x3f808bec	1.0042701
13	0x3f7e5690	0.99350834
14	0x3f80bca5	1.005757
15	0x3f80ab35	1.0052248
16	0x3f7eb447	0.9949383
17	0x3f7e91e9	0.9944139
18	0x3f7f0cf8	0.99629164
19	0x3f808255	1.0039774
20	0x3f80d747	1.0065697
21	0x3f7e4355	0.9932149
22	0x3f80013d	1.0000378
23	0x3f7fc067	0.9990296
24	0x3f7db18f	0.9909906
25	0x3f7e2975	0.9928201
26	0x3f7fd79c	0.9993837
27	0x3f7e9e7b	0.9946057
28	0x3f7e87a5	0.9942573
29	0x3f7fd7ae	0.99938476
30	0x3f7da192	0.9907466
31	0x3f807e97	1.0038632
32	0x3f7e375a	0.9930321
33	0x3f7eb0a3	0.99488276
34	0x3f8058d1	1.0027105
35	0x3f7f724f	0.99783796
36	0x3f804b85	1.0023047
37	0x3f7e6a75	0.9938119
38	0x3f80bf44	1.005837
39	0x3f7e05c1	0.9922753
40	0x3f7f3f6a	0.9970614
41	0x3f80026b	1.0000738
42	0x3f7ebcb5	0.99506694
43	0x3f7e1c26	0.992617
44	0x3f7eaf71	0.9948645
45	0x3f7efc63	0.9960386
46	0x3f7eba3f	0.9950294
47	0x3f80eb4d	1.0071808
48	0x3f7fadb9	0.99874455
49	0x3f7ee887	0.9957356

module.gcn_layers.0.bnNodes.batch_norm.bias f4 [50]
0	0x3b8763ed	0.004131785
1	0x3c04b75e	0.008100359
2	0x3b133774	0.0022463473
3	0xbbd98a4a	-0.0066388
4	0xbc0c5a87	-0.008566505
5	0x3be70cb9	0.007051077
6	0x3b8b6415	0.004253874
7	0xbc085515	-0.008321066
8	0xbbbf0db4	-0.005830491
9	0xbba0de47	-0.00490931
10	0xbb39e370	-0.0028364323
11	0xbc0a6387	-0.008446581
12	0x3bafe814	0.005368242
13	0x3ab1e47c	0.0013572122
14	0x3bf187fb	0.0073709465
15	0x3bc0394f	0.0058662067
16	0xbba3fb42	-0.0050043175
17	0xbb67e67e	-0.0035385187
18	0xbb9e11ac	-0.004823884
19	0xb9c86c7c	-0.000382278
20	0x3c0affbc	0.008483823
21	0xbbccf516	-0.0062548025
22	0xb9a14851	-0.00030762193
23	0xbc0b5dfe	-0.008506296
24	0xbc153d06	-0.009108787
25	0xbbca222c	-0.0061686244
26	0x3ada33fa	0.001664757
27	0xbbccdb77	-0.006251748
28	0xbb3312fd	-0.002732455
29	0x3b9d8a62	0.0048077563
30	0xbc0e1e05	-0.008674149
31	0x3b947a22	0.004531161
32	0xbbec36a6	-0.007208663
33	0x3aff99a9	0.001950075
34	0x3a375775	0.0006993928
35	0xb90743a1	-0.00012899797
36	0x3b80a9f4	0.00392651
37	0xbba0ae39	-0.0049035815
38	0x3bb85a79	0.0056260196
39	0xbbfcb596	-0.0077120764
40	0xbb87bb82	-0.0041422257
41	0x3be01a08	0.0068390407
42	0xbabbe6d9	-0.0014335766
43	0xbba66a09	-0.0050785583
44	0xbb9892d4	-0.004656175
45	0x3ac967d0	0.0015366022
46	0xbb4f63d3	-0.0031645193
47	0x3bf5633c	0.0074886363
48	0x3988f505	0.00026122495
49	0xbbd0be8c	-0.006370371

module.gcn_layers.0.bnEdges.W3.weight f4 [50, 50]
0	0x3d658ba9	0.056041393
1	0x3df84d26	0.1212409
2	0x3acf6832	0.0015823899
3	0xbe11a3ef	-0.14222692
4	0xbd333fca	-0.043762006
5	0xb9b670c2	-0.00034797756
6	0x3db663f1	0.08905781
7	0xbdacf87e	-0.084458336
8	0x3e07f81b	0.13278238
9	0x3df41c4f	0.11919462
10	0x3d392817	0.04520425
11	0x3e14f353	0.14545946
12	0x3e06a436	0.13148579
13	0xbe04bdfd	-0.129631
14	0xbd2b7ebd	-0.041868914
15	0x3dfa2b54	0.122152954
16	0x3cd41ef9	0.025893675
17	0x3ddaf4b9	0.106912084
18	0xbcb908fc	-0.022587292
19	0x3d9aa484	0.0755091
20	0x3cb188af	0.021671621
21	0x3e07b6b2	0.13253286
22	0xbd7c098a	-0.061532535
23	0x3db6584c	0.0890356
24	0x3e14990c	0.14511508
25	0x3dae0b96	0.084983036
26	0xbc753a8c	-0.014967572
27	0xbddc332d	-0.107519485
28	0xbd2f5f92	-0.042815752
29	0x3dcbc87b	0.09950348
30	0x3cc0e5a2	0.023546997
31	0x3ddfaa3f	0.10921144
32	0x3df9aa76	0.12190716
33	0x3c64ea66	0.013971901
34	0xbda9d213	-0.082920216
35	0x3d24f7c4	0.04027535
36	0xbddbe1d8	-0.10736436
37	0xbd77b2a3	-0.060473096
38	0xbcd924f3	-0.026506877
39	0x3d89a190	0.06720269
40	0x3d9f2539	0.077707715
41	0xbbb85886	-0.005625787
42	0xbe080dfc	-0.13286585
43	0xbd0d896b	-0.03455488
44	0x3bdd7f86	0.0067595867
45	0xbd563222	-0.052293904
46	0xbdd22781	-0.10261441
47	0x3cea1258	0.0285732
48	0xbd8c3335	-0.068457045
49	0xbc49b253	-0.012310582
50	0xbd61342a	-0.05498139
51	0xbd729df6	-0.059232675
52	0xbd9a2244	-0.07526067
53	0xbd602a1a	-0.05472765
54	0xbe041611	-0.12899043
55	0xbe066e4b	-0.13128011
56	0x3d58487c	0.0528035
57	0x3e0a79d2	0.13523033
58	0xbc439f5c	-0.01193985
59	0x3c51b06c	0.01279841
60	0xbd4f73ce	-0.05064755
61	0xbcf2ed61	-0.029654207
62	0x3e079e35	0.13243945
63	0x3d395e4a	0.045255937
64	0xbde2d6b6	-0.11076109
65	0xbd71b569	-0.059010897
66	0xbdbff331	-0.09372557
67	0xbe119a1f	-0.14218949
68	0xbdb37ffc	-0.087646455
69	0x3d53e7b0	0.051734626
70	0x3db13b2a	0.08653863
71	0x3cecbac7	0.028897656
72	0xbda956af	-0.08268487
73	0xbcbe7372	-0.023248408
74	0x3d58de39	0.052946303
75	0xbce04517	-0.027376695
76	0x3db2d9cc	0.08732948
77	0xbdcda10b	-0.10040482
78	0x3d11466c	0.03546755
79	0x3dc652a5	0.09683732
80	0xbd528836	-0.051399432
81	0xbd6fffc1	-0.058593515
82	0x3c8326ee	0.016009774
83	0x3df2f5da	0.11863299
84	0xbe114a39	-0.1418847
85	0xbd6edfde	-0.058318965
86	0x3daa399d	0.0831177
87	0xbcdcf5b9	-0.026972638
88	0x3d75f6b8	0.060049742
89	0xbd7ec753	-0.06220181
90	0xbc9e593e	-0.019329663
91	0x3d9ae6b4	0.075635344
92	0xbe174527	-0.14772473
93	0xbd94600e	-0.072448835
94	0x3dfc2ffc	0.1231384
95	0x3cb0a9d5	0.021565357
96	0x3de70e80	0.112820625
97	0xbc9782ed	-0.018495047
98	0x3daec102	0.08532907
99	0x3d6ac387	0.057315376
100	0x3e1086a0	0.14113855
101	0xbd77da25	-0.060510773
102	0xbdb7b7ac	-0.089705795
103	0xbd8ca429	-0.068672486
104	0xbd60a672	-0.054846235
105	0x3df5dbef	0.1200484
106	0x3d44edf0	0.048078477
107	0x3e11bf96	0.1423324
108	0xbdfd8e9a	-0.12380715
109	0xbc8c6f1f	-0.01714283
110	0x3de8c962	0.11366536
111	0xbcf88309	-0.03033592
112	0xbe076f39	-0.13226022
113	0x3d86b4a6	0.06577425
114	0xbd2fc3cb	-0.042911332
115	0x3db80610	0.08985531
116	0x3e0096e8	0.12557566
117	0x3e0803be	0.13282678
118	0x3da5976c	0.08085522
119	0xbe096a61	-0.13419487
120	0x3d0e5eb8	0.0347583
121	0xbddaa8aa	-0.10676701
122	0xbd9b92b2	-0.07596339
123	0xbe110415	-0.14161713
124	0x3d8acc4f	0.0677725
125	0x3d4c1dab	0.04983298
126	0xbdfc5232	-0.12320365
127	0xbdc9c61d	-0.0985224
128	0x3e033ab0	0.12815356
129	0xbc9eb6ba	-0.01937424
130	0xbdd9a7f0	-0.10627735
131	0xbd391dff	-0.045194622
132	0xbb7c66fe	-0.0038513537
133	0x3d4e4b49	0.050364766
134	0x3cb47523	0.022028511
135	0xbd655db1	-0.055997554
136	0xbdd46510	-0.10370839
137	0xbd4a9e2b	-0.049467247
138	0x3d42ae94	0.047529772
139	0xbcddca05	-0.02707387
140	0x3d85e8a8	0.06538516
141	0x3cd28bb3	0.02570138
142	0x3dd5da31	0.10442007
143	0x3e055e4b	0.13024251
144	0xbdfd2d7e	-0.123621926
145	0x3d0b295b	0.033974987
146	0xbdbe6f71	-0.092985995
147	0x3dc1dc63	0.094658636
148	0xbdb38747	-0.087660365
149	0xbd9cb18e	-0.07651053
150	0x3d8d1c05	0.0689011
151	0x3d4c4948	0.049874574
152	0xbde96fce	-0.11398278
153	0x3dd5af9d	0.10433886
154	0xbcf06087	-0.029342903
155	0x3d2e5861	0.042564753
156	0x3b851ac0	0.0040620267
157	0xbd8b6cad	-0.06807838
158	0x3d078233	0.033083152
159	0x3dbe9475	0.0930566
160	0x3d6bb119	0.05754194
161	0x3dc24b6c	0.09487042
162	0x3e09953f	0.13435839
163	0xbdcdd891	-0.100510724
164	0x3c356c1c	0.011073139
165	0x3e04a0b3	0.12951927
166	0xbccc5507	-0.024942888
167	0xbd3481b6	-0.044069014
168	0x3df01b69	0.11723978
169	0xbd8cbdc7	-0.06872135
170	0x3d373180	0.04472494
171	0x3dfe466b	0.12415775
172	0xbda51f4b	-0.08062609
173	0x3db7904e	0.08963071
174	0xbdeda34a	-0.116034105
175	0xbc5e7493	-0.013577598
176	0xbd4ad804	-0.049522415
177	0xbdd881e8	-0.10571653
178	0x3c7f59d8	0.015585385
179	0x3cd82847	0.026386393
180	0x3ddd761d	0.10813544
181	0x3da009bd	0.078143574
182	0xbd89012f	-0.06689679
183	0x3dfdceea	0.12392981
184	0x3d967f8d	0.07348547
185	0x3e0a5a61	0.1351104
186	0x3e0092f7	0.12556063
187	0xbc8fb4a3	-0.017542189
188	0xbd3cced6	-0.04609569
189	0xbdd61802	-0.10453798
190	0xbcd5398c	-0.026028417
191	0xbd0dd014	-0.034622267
192	0xbd240e5f	-0.040052768
193	0xbde4ee0b	-0.111782156
194	0x3ddac1c8	0.10681492
195	0x3dd8a70b	0.10578736
196	0x3e044e7d	0.12920566
197	0xbdca759f	-0.09885716
198	0x3e0632a6	0.13105258
199	0x3db740fc	0.08947942
200	0x3dbbfd2a	0.091791466
201	0x3dacda52	0.08440079
202	0xbdd95661	-0.106121786
203	0xbda805ec	-0.082042545
204	0xbb99b88e	-0.00469119
205	0xbc7cd7e4	-0.015432332
206	0xbe0793a4	-0.13239914
207	0x3da6e0cd	0.08148346
208	0x3ddaa557	0.10676067
209	0x3cd87d6b	0.026426991
210	0xbdf9a5ab	-0.12189802
211	0x3df3d541	0.11905909
212	0x3db21820	0.08696008
213	0x3da79454	0.08182588
214	0x3dc32b70	0.095297694
215	0x3d71c857	0.05902895
216	0xbc75e505	-0.015008216
217	0x3ddaad0c	0.10677537
218	0x3cbaca84	0.022801645
219	0x3dc7b87e	0.09751986
220	0x3ba061ed	0.004894486
221	0xbaabadb9	-0.0013098038
222	0x3ddd242c	0.10797915
223	0x3de24981	0.11049176
224	0xbb9124da	-0.004429442
225	0x3d0f25bd	0.0349481
226	0xbde78ea8	-0.113065064
227	0x3d14913d	0.036271323
228	0xbdb45ef6	-0.08807175
229	0xbc854b6f	-0.016271321
230	0xbdf9349c	-0.121682376
231	0xbca3af22	-0.01998097
232	0x3dfac2ef	0.12244212
233	0xbcc9024a	-0.024537224
234	0xbd070d4a	-0.032971658
235	0xbe0f841a	-0.14015236
236	0x3e078b0d	0.13236637
237	0xbdd55351	-0.10416282
238	0x3c375a22	0.011190923
239	0x3e045a38	0.1292504
240	0x3dd8dd90	0.10589135
241	0x3ca1e5b5	0.019762853
242	0x3e018534	0.12648469
243	0xbde57034	-0.11203042
244	0xbdf35b7a	-0.11882682
245	0xbe0e4b7e	-0.13895985
246	0x3cdc56e7	0.026896907
247	0xbda29f4a	-0.07940538
248	0xbca2f510	-0.019892246
249	0x3de44559	0.111460395
250	0xbdca9a0b	-0.098926626
251	0x3d2b88ea	0.04187862
252	0xbdee3040	-0.11630297
253	0x3e0448bb	0.1291837
254	0xbdef228f	-0.116765134
255	0x3b4d9ee8	0.0031375233

module.gcn_layers.0.bnEdges.W4.weight f4 [50, 50]
0	0xbdb85404	-0.090004
1	0xbd6b5532	-0.057454295
2	0x3de4ea27	0.111774735
3	0x3de971e2	0.113986745
4	0xbd26775d	-0.040641177
5	0xbcb55efc	-0.022140019
6	0x3dcdf0b2	0.100556746
7	0xbdb200ca	-0.08691557
8	0x3df96da4	0.121791154
9	0xbdee811d	-0.1164572
10	0xbce8ba18	-0.028409049
11	0xbd9d1ac7	-0.07671123
12	0xbd0e7b33	-0.03478546
13	0xbd9da1c9	-0.07696874
14	0x3da75651	0.081707604
15	0xbdd9cf77	-0.10635274
16	0xbe06a417	-0.13148533
17	0xbd3f32d8	-0.046679348
18	0x3bbd70d0	0.0057812706
19	0x3cd2a91a	0.0257154
20	0xbd7be90b	-0.061501544
21	0x3dfc83b6	0.12329809
22	0xbdd13e5d	-0.10216973
23	0xbcf21d56	-0.029555004
24	0xbd63ca0b	-0.055612605
25	0x3d37b6db	0.04485212
26	0x3db3fc87	0.087884
27	0xbd038aa8	-0.032114655
28	0x3df14748	0.11781174
29	0xbe0283b9	-0.1274556
30	0xbb69d55e	-0.0035680155
31	0x3b86f75d	0.0041188435
32	0xbd2f735f	-0.042834636
33	0xbc8117fc	-0.015758507
34	0x3db02b47	0.086020045
35	0xbde7c1de	-0.11316274
36	0xbdb95166	-0.09048729
37	0xbceafc7d	-0.028684849
38	0x3deff69f	0.11716961
39	0x3e04f84b	0.12985341
40	0xbd90cd1a	-0.0707037
41	0xbdd9c620	-0.106334925
42	0xbd380b18	-0.044932455
43	0xbdf223d1	-0.11823238
44	0x3dbe6757	0.09297054
45	0x3defe8fd	0.11714361
46	0xbc91507f	-0.017738579
47	0x3df239b0	0.11827409
48	0xbce4f54c	-0.027948998
49	0xbde085d2	-0.10963024
50	0x3e02fa74	0.12790853
51	0xbe0c228a	-0.1368505
52	0x3d79d419	0.060993288
53	0xbde4af25	-0.11166219
54	0x3dd0a1b7	0.10187095
55	0xbdab927a	-0.083775476
56	0x3dcfbeff	0.101438515
57	0xbe042a77	-0.12906824
58	0xbd990b6f	-0.07472884
59	0xbdf063e9	-0.11737806
60	0x3dde1003	0.10842898
61	0xbd44fa48	-0.04809025
62	0xbd0e3d56	-0.034726463
63	0xbdbc616b	-0.091982685
64	0x3e063f0b	0.13109986
65	0xbdea1bdd	-0.11431096
66	0xbdfdf1f1	-0.12399662
67	0x3dcefac9	0.10106427
68	0x3d524414	0.051334456
69	0xbd1e901a	-0.038711645
70	0x3d98d672	0.07462777
71	0x3e064031	0.13110425
72	0x3d902a1f	0.07039284
73	0xbd8b2c5e	-0.06795572
74	0x3e0ba1e2	0.13635972
75	0xbca59172	-0.020210955
76	0xbdeb4c58	-0.11489171
77	0xbd6c086b	-0.057625216
78	0x3d94c6a6	0.07264452
79	0x3df5a271	0.11993874
80	0xbdb1a146	-0.086733386
81	0x3dbe23dd	0.09284184
82	0x3dcb1da3	0.09917762
83	0xbc81bc3b	-0.015836826
84	0x3d7ab719	0.06120977
85	0x3dbeeec2	0.09322883
86	0x3d03e998	0.032205194
87	0xbd91cffa	-0.071197465
88	0x3bb4fc96	0.0055232747
89	0xbca85f70	-0.02055332
90	0x3d1e8201	0.0386982
91	0xbddad864	-0.106858045
92	0xbd5783e5	-0.05261602
93	0x3dbcfa03	0.092273735
94	0x3d858fb0	0.06521547
95	0x3dde6aec	0.108602375
96	0x3d91fc0a	0.07128151
97	0x3e0bd160	0.13654089
98	0x3deb267f	0.11481952
99	0x3d3dc020	0.046325803
100	0x3d45d278	0.04829642
101	0x3d951678	0.07279676
102	0xbd5763b4	-0.05258532
103	0x3dcd5d40	0.10027552
104	0x3d7c1a16	0.061548315
105	0x3d92f4a9	0.071755715
106	0x38da9da8	0.00010424416
107	0xbdad8467	-0.08472519
108	0x3c6b5ce5	0.0143654095
109	0x3da137e5	0.07871989
110	0xbda7a435	-0.08185617
111	0x3da1dac4	0.07903054
112	0xbde2d77f	-0.11076259
113	0x3da85a0a	0.082202986
114	0xbcc540de	-0.024078783
115	0x3df7f5e2	0.12107445
116	0xbdf557ea	-0.11979659
117	0xbd9ae479	-0.07563109
118	0xbdbdd939	-0.092699476
119	0x3d2f16d2	0.042746373
120	0x3de87304	0.113500625
121	0x3dc80f38	0.09768528
122	0xbe04610b	-0.12927644
123	0xbc9bfda4	-0.019041844
124	0xbc2afb2d	-0.010435862
125	0x3e13580a	0.14389053
126	0x3d0c1466	0.03419914
127	0x3de0c921	0.10975862
128	0x3d8eaf02	0.06966974
129	0x3bcfcf35	0.0063418397
130	0xbd3e2170	-0.046418607
131	0xbdc2bfcd	-0.09509239
132	0xbd9b4884	-0.07582191
133	0xbc4ef434	-0.012631465
134	0x3da36676	0.07978527
135	0xbd154fce	-0.03645306
136	0x3de45f1d	0.11150954
137	0xbe09ceb8	-0.13457763
138	0x3d96e97a	0.07368751
139	0xbdb4873e	-0.08814858
140	0xbd21d0a6	-0.039505623
141	0x3e142a98	0.14469373
142	0x3ddc5071	0.107575305
143	0xbe03c9c2	-0.12869933
144	0xbdbe8bd8	-0.09304017
145	0x3e04e4f3	0.12977962
146	0xbdbfdec7	-0.09368663
147	0xbd8cfb03	-0.06883814
148	0xbd98e977	-0.07466405
149	0xbd9f1abb	-0.0776877
150	0xbc837d29	-0.016050892
151	0xbd53fb1a	-0.05175314
152	0x3da68e9b	0.081326686
153	0x3e123673	0.14278583
154	0xbd911948	-0.070849
155	0xbdfdf135	-0.12399522
156	0x3d7c770b	0.061636966
157	0xbdcd9500	-0.10038185
158	0xbc3248ec	-0.010881644
159	0x3d9fde12	0.078060284
160	0xbd9150c2	-0.070954815
161	0x3df6fc9e	0.12059902
162	0x3deda5e8	0.1160391
163	0x3dd881ea	0.10571654
164	0xbdc784fc	-0.09742162
165	0xbe08eea4	-0.13372284
166	0x3c730834	0.014833499
167	0x3cd42a5b	0.025899103
168	0x3cd8cda4	0.026465245
169	0xbdb54007	-0.08850103
170	0x3d472fdd	0.04862963
171	0xbd92a70c	-0.07160768
172	0x3d0c42a4	0.03424324
173	0x3dacbd82	0.08434583
174	0xbceb2e02	-0.028708462
175	0xbe00af47	-0.12566863
176	0x3e132bae	0.14372131
177	0xbdd03d64	-0.10167959
178	0xbbf39e30	-0.007434629
179	0xbcfa5d62	-0.030562107
180	0x3ddea4cd	0.10871277
181	0x3d79d2cb	0.060992043
182	0x3cd69693	0.026194846
183	0xbd14366a	-0.036184706
184	0xbcd22863	-0.025654024
185	0xbe043241	-0.12909795
186	0x3dbee0a4	0.093201905
187	0xbc9850bf	-0.01859319
188	0x3df895ee	0.12137972
189	0x3d8af6db	0.06785365
190	0xbd788be1	-0.060680274
191	0xbccb64d6	-0.024828356
192	0xbc837a0d	-0.01604941
193	0x3d6551e3	0.055986296
194	0x3dce2a44	0.10066655
195	0xbdbf91e6	-0.09354
196	0xbbcb8dc1	-0.0062119667
197	0xbc8cffd1	-0.017211827
198	0x3d58aa1b	0.0528966
199	0x3ba94702	0.0051659355
200	0xbd9e4418	-0.077278316
201	0xbe0f8027	-0.1401373
202	0xbd9750eb	-0.07388481
203	0xbdd163a2	-0.102240816
204	0xbd8b34a3	-0.06797149
205	0x3e00a3bb	0.12562458
206	0xbdfcf873	-0.123520754
207	0xbd94231a	-0.072332576
208	0xbd2342f7	-0.039858785
209	0xbd0526ad	-0.032507587
210	0xbdc7e255	-0.09759966
211	0x3d3da06b	0.046295565
212	0x3de85080	0.11343479
213	0x3db7f191	0.08981622
214	0xbdbad7e4	-0.09123209
215	0x3d7a3bd5	0.061092217
216	0x3e0099b9	0.1255864
217	0x3e14f74d	0.14547463
218	0x3cf28172	0.02960274
219	0xbc3f87f5	-0.0116901295
220	0x3d53d0cf	0.051712807
221	0x3de1652e	0.110056266
222	0x3e08682a	0.13320985
223	0xbd422d60	-0.047406554
224	0xbcebb487	-0.028772606
225	0x3be30dc4	0.006929131
226	0xbdef550f	-0.116861455
227	0xbd725d41	-0.059170965
228	0xbdcbf7bf	-0.09959363
229	0x3d98caea	0.07460578
230	0xbb9497c8	-0.0045346953
231	0xbcccabc1	-0.024984242
232	0xbd866072	-0.06561364
233	0x3dcad962	0.09904744
234	0x3d8829da	0.066486076
235	0x3d8d95e7	0.06913357
236	0x3d81c4bf	0.063363545
237	0x3cbcded1	0.023055466
238	0x3dddecd7	0.10836189
239	0xbd2f6b88	-0.04282716
240	0x3e044f73	0.12920932
241	0xbdfbe0aa	-0.12298711
242	0xbdc3453f	-0.09534692
243	0x3da3ee81	0.080044754
244	0x3db4a754	0.08820978
245	0xbdb263a9	-0.08710415
246	0xbdf53584	-0.11973098
247	0xbd9c3903	-0.076280616
248	0x3d17a8b5	0.037026126
249	0xb8c9a33f	-9.614834e-05
250	0xbdcbc67e	-0.09949969
251	0xbdb2709a	-0.08712883
252	0xbd0c094b	-0.03418855
253	0xbd0d3873	-0.034477662
254	0x3e043684	0.12911421
255	0x3e0fe947	0.14053832

module.gcn_layers.0.bnEdges.W5.weight f4 [50, 50]
0	0xbdeb3227	-0.11484175
1	0x3de2347f	0.11045169
2	0x3dba9ee5	0.09112338
3	0xbabf9ada	-0.0014618293
4	0xbb69d892	-0.0035682064
5	0xbd5b8e27	-0.053602364
6	0xbdcf0267	-0.1010788
7	0x3c626c3a	0.013819749
8	0xbde53d0b	-0.11193284
9	0x3dbfcfc5	0.09365801
10	0x3c8d3fbf	0.01724231
11	0x3e16f6f3	0.14742641
12	0xbc748667	-0.014924622
13	0x3d05be29	0.032652054
14	0x3da3d57a	0.07999702
15	0x3de443d8	0.11145753
16	0xbda79f2f	-0.08184659
17	0xbd707f2e	-0.058715038
18	0x3e090adf	0.13383053
19	0xbd7e98ee	-0.062157564
20	0xbd778a94	-0.060434893
21	0xbc983cea	-0.018583734
22	0x3d9d3f14	0.07678047
23	0x3caf187d	0.021373982
24	0xbdb7f740	-0.08982706
25	0x3da80265	0.08203582
26	0xbdb3d195	-0.08780209
27	0x3ccf8edd	0.025336677
28	0x3dbf9248	0.09354073
29	0xbe10095d	-0.14066072
30	0xbb2744ad	-0.0025523112
31	0x3d6becc6	0.05759885
32	0xbde1ddbd	-0.11028621
33	0x3c563db1	0.013076232
34	0xbdf494ca	-0.11942442
35	0x3da21029	0.079132386
36	0xbdc53cd2	-0.09630741
37	0x3e0c09c8	0.13675606
38	0x3df6e5ec	0.12055573
39	0x3df5653c	0.119821995
40	0x3d917cfd	0.07103918
41	0xbd2d7018	-0.04234323
42	0x3ddc20ee	0.10748468
43	0xbd9aaf65	-0.07552985
44	0xbd893bf0	-0.06700885
45	0x3e106ca1	0.14103939
46	0x3ddb8738	0.1071915
47	0x3da34265	0.07971648
48	0x3ce8f881	0.028438808
49	0x3dbaf141	0.09128047
50	0xbd941204	-0.07229999
51	0x3dd5277b	0.10407921
52	0xbd0adf5a	-0.03390441
53	0x3dc2abd6	0.09505431
54	0x3df95329	0.12174065
55	0xbdb1e268	-0.08685762
56	0xbaed60fb	-0.0018110567
57	0xbb2ff45a	-0.0026848526
58	0x3ae5b612	0.0017525575
59	0x3d7cb094	0.061691836
60	0x3e069b2b	0.1314513
61	0xbdfb2ff7	-0.12265008
62	0xbcf3d73b	-0.029765716
63	0x3e08d520	0.1336255
64	0xbd9ad953	-0.075609826
65	0xbce6d84c	-0.02817931
66	0x3e129410	0.14314294
67	0x3d838139	0.06421132
68	0xbe13ebc9	-0.14445414
69	0xbe067ac3	-0.13132767
70	0x3e049fb3	0.12951545
71	0xbbe29e7e	-0.0069158664
72	0xbd528010	-0.05139166
73	0xbc34b059	-0.011028373
74	0xbd4c2bd2	-0.049846478
75	0xbdfb73be	-0.122779354
76	0xbdabf62d	-0.08396564
77	0x3db30d68	0.087427914
78	0xbd38ac30	-0.045086086
79	0xbd071701	-0.032980923
80	0xbe0bb8df	-0.13644741
81	0x3e038d44	0.12846857
82	0xbda86e41	-0.08224154
83	0x3e02ca57	0.12772499
84	0x3d7c9742	0.06166769
85	0x3ca18dce	0.019720938
86	0x3bdbd2f3	0.0067084967
87	0x3e0f86a1	0.140162
88	0x3e12fb5d	0.143537
89	0x3c9807bd	0.018558377
90	0x3d822f78	0.0635671
91	0x3d9b0c61	0.075707205
92	0xbcb305d1	-0.02185336
93	0x3d89071b	0.066908084
94	0xbe0ecc67	-0.13945161
95	0x3deb5878	0.114914834
96	0xbe005954	-0.12534076
97	0xba132f9e	-0.00056147005
98	0xbd991778	-0.074751794
99	0xbbf65c6b	-0.0075183413
100	0x3d59b978	0.053155392
101	0x3d62f3ef	0.055408414
102	0x3d8c6b59	0.068564124
103	0x3dabed39	0.08394856
104	0xbe071e50	-0.13195157
105	0xbd428843	-0.04749323
106	0x3d8d93ac	0.06912932
107	0xbcd0a85d	-0.025470907
108	0x3d870655	0.065930046
109	0x3e0bc2d6	0.13648543
110	0x3dcff072	0.10153283
111	0xbddf9af5	-0.109182276
112	0x3de51f25	0.11187581
113	0xbccfc11c	-0.025360636
114	0xbd815a8f	-0.06316101
115	0x3cbbf508	0.022943988
116	0xbb220e6b	-0.0024727832
117	0xbd887d41	-0.06664515
118	0x3de65bc2	0.1124797
119	0xbd9d72c7	-0.07687908
120	0x3d8ca1ab	0.06866773
121	0xbdb17f03	-0.08666804
122	0x3bc1f06e	0.005918554
123	0x3d86de60	0.065853834
124	0x3dee6c99	0.11641807
125	0xbdf92404	-0.121650726
126	0x3d9020eb	0.070375286
127	0x3df5700c	0.11984262
128	0x3e16cb9b	0.14726107
129	0x3da195e8	0.078899205
130	0xbd9c365d	-0.076275565
131	0x3d3e6d8f	0.046491202
132	0xbde86946	-0.11348204
133	0xbcff4124	-0.031158991
134	0xbe0e3da4	-0.13890702
135	0x3dddf8d6	0.10838477
136	0x3deb34e4	0.114846975
137	0xbdf3c715	-0.11903206
138	0xbd5c0f79	-0.053725693
139	0xbd2a9c05	-0.041652698
140	0x3d211869	0.03932992
141	0xbde078d1	-0.10960544
142	0x3db10e01	0.08645249
143	0x3b50765d	0.0031808831
144	0x3d0b9d04	0.03408529
145	0xbe10a223	-0.1412435
146	0x3d5d6a8a	0.05405668
147	0x3ce51f05	0.027968893
148	0x3c25297d	0.010080692
149	0x3b5e65ff	0.0033935306
150	0x3b48977c	0.003060787
151	0xbdf68494	-0.12037006
152	0x3e0b4060	0.13598776
153	0xbe06104a	-0.13092151
154	0x3df6a93e	0.12043999
155	0x3d896d7e	0.06710337
156	0x3d9ed683	0.077557586
157	0xbd08c055	-0.033386547
158	0x3d73d74d	0.0595315
159	0x3dc8e004	0.098083526
160	0x3d640ccb	0.055676263
161	0x3d9874db	0.074441634
162	0x3e0a936b	0.13532798
163	0xbcf13dba	-0.029448379
164	0xbdcea751	-0.10090507
165	0xbd362825	-0.04447188
166	0xbdd7757b	-0.105204545
167	0xbe124635	-0.14284594
168	0xbcc87943	-0.024471885
169	0xbc27450d	-0.010209334
170	0x3daee9d6	0.085406944
171	0xbe12cb7c	-0.14335436
172	0xbcdb2ebe	-0.026755687
173	0x3e07b6ea	0.1325337
174	0xbe077154	-0.13226825
175	0xbdc21a81	-0.094777115
176	0xbdbe63c7	-0.09296375
177	0xbd84b38f	-0.064795606
178	0x3df1caf5	0.11806289
179	0x3c261ff2	0.010139452
180	0xbaa7e2cb	-0.0012808678
181	0xbd8c6308	-0.06854826
182	0x3bedea15	0.007260571
183	0x3db3746c	0.0876244
184	0xbe06bf35	-0.13158877
185	0x3dba49bd	0.09096096
186	0xbcfa7f5b	-0.030578306
187	0x3dbd958e	0.09257041
188	0x3dc636c1	0.09678412
189	0xbe056641	-0.13027288
190	0x3db2b792	0.087264195
191	0x3c0a8525	0.008454596
192	0x3dfd2939	0.12361378
193	0x3e00fc92	0.12596348
194	0x3de9bbcb	0.11412772
195	0xbdd401ea	-0.103519276
196	0xbcb5e1c7	-0.022202386
197	0xbc48ae70	-0.01224862
198	0x3bd6fbd3	0.0065607815
199	0xbdcf28fc	-0.10115239
200	0x3d916b8a	0.071005896
201	0xbcba5592	-0.022745881
202	0x3dc28d8f	0.094996564
203	0xbde4079b	-0.11134263
204	0x3da26c67	0.07930832
205	0x3e077dd7	0.13231598
206	0xbdc87897	-0.09788626
207	0x3db5a3d7	0.088691406
208	0xbdb702d1	-0.08936084
209	0x3d903184	0.07040694
210	0x3e0c3768	0.13693011
211	0xbe1039f9	-0.14084615
212	0x3b16cff3	0.002301213
213	0xbdcd1c70	-0.1001519
214	0xbe0437f2	-0.12911966
215	0xbd7ef3ec	-0.06224434
216	0xbe051150	-0.12994885
217	0xbc117dd8	-0.008880101
218	0xbcffa61d	-0.031207139
219	0x3c17b7e8	0.009260155
220	0x3bc45781	0.0059918766
221	0x3baa6000	0.0051994324
222	0x3e0e634e	0.13905069
223	0xbe027a3d	-0.12741943
224	0x3d7866a1	0.06064475
225	0xbdfb64f8	-0.12275118
226	0xbd457582	-0.048207767
227	0xbdaa8c4f	-0.08327543
228	0x3d203c13	0.03911979
229	0x3d8e98c2	0.0696273
230	0x3dc550f2	0.0963458
231	0xbd2fa246	-0.042879365
232	0xbdf550ff	-0.119783394
233	0x3dd29431	0.102821715
234	0x3dc4719f	0.09591984
235	0xbdb41132	-0.08792342
236	0xbcf0058a	-0.029299516
237	0x3dc71a13	0.0972177
238	0xbe01a75c	-0.12661499
239	0xbdccab87	-0.09993654
240	0xbd4fbe50	-0.050718606
241	0xbd99d2e9	-0.07510931
242	0xbd44c301	-0.048037533
243	0x3d3c0a4b	0.045908254
244	0x3dfc5276	0.12320416
245	0x3cc227c5	0.023700604
246	0xbdeda904	-0.11604503
247	0xbc862d6f	-0.016379086
248	0x3ce4d80f	0.027935056
249	0xbdf0d6a0	-0.117596865
250	0xbda0346f	-0.07822501
251	0x3d77b92f	0.06047934
252	0xbce6e719	-0.028186368
253	0x3d3985a7	0.045293476
254	0x3d932512	0.07184805
255	0x3d856397	0.06513136

module.gcn_layers.0.bnEdges.batch_norm.weight f4 [50]
0	0x3f81113a	1.0083382
1	0x3f8128d8	1.009059
2	0x3f80ef07	1.0072945
3	0x3f7de20f	0.99173063
4	0x3f7feffc	0.9997556
5	0x3f81250a	1.0089428
6	0x3f800b75	1.0003496
7	0x3f7fe5c7	0.9995999
8	0x3f7dc632	0.9913055
9	0x3f807146	1.0034568
10	0x3f7d88cc	0.9903686
11	0x3f813715	1.0094935
12	0x3f81081c	1.00806
13	0x3f7ed53e	0.9954413
14	0x3f811610	1.0084858
15	0x3f812be7	1.0091523
16	0x3f7d853a	0.9903141
17	0x3f80d603	1.0065311
18	0x3f80dc2d	1.0067192
19	0x3f7ea1fb	0.9946591
20	0x3f7f56ca	0.99741805
21	0x3f812a3b	1.0091013
22	0x3f7e28f0	0.99281216
23	0x3f7f5a6c	0.9974735
24	0x3f80836b	1.0040106
25	0x3f80ac2a	1.005254
26	0x3f803173	1.0015091
27	0x3f7f321d	0.9968584
28	0x3f7ed5de	0.99545085
29	0x3f7e9f4a	0.99461806
30	0x3f813522	1.009434
31	0x3f8028df	1.0012473
32	0x3f8133d2	1.0093939
33	0x3f81151d	1.0084568
34	0x3f812f8a	1.0092633
35	0x3f80b59b	1.0055422
36	0x3f7fa272	0.99857247
37	0x3f812ae1	1.0091211
38	0x3f7d8e7e	0.9904555
39	0x3f802274	1.0010514
40	0x3f8084de	1.0040548
41	0x3f805442	1.0025713
42	0x3f80fcb7	1.0077122
43	0x3f80d60a	1.006532
44	0x3f7db127	0.9909844
45	0x3f7da148	0.9907422
46	0x3f7e339a	0.9929749
47	0x3f811e54	1.008738
48	0x3f812b28	1.0091295
49	0x3f7ecbc8	0.99529696

module.gcn_layers.0.bnEdges.batch_norm.bias f4 [50]
0	0x3bf959ba	0.007609573
1	0x3c164dcd	0.009173823
2	0xbb9d26ba	-0.0047958763
3	0xbc0af8ac	-0.00848214
4	0x3bbb304d	0.005712545
5	0x3c1944a9	0.009354749
6	0xbb7082ab	-0.0036698978
7	0xbbffbbe6	-0.0078043817
8	0xbbd19fbf	-0.006397217
9	0xbb46c9a6	-0.0030332594
10	0xbc1aabf5	-0.009440412
11	0x3c173c36	0.009230664
12	0x3c10ad4c	0.00883038
13	0xbb0e0305	-0.002166928
14	0x3bd68edf	0.0065477933
15	0x3b847da4	0.004043298
16	0xbc10781f	-0.008817702
17	0x3b0941a7	0.0020943673
18	0xbb391df4	-0.0028246613
19	0xbbcae24b	-0.006191527
20	0xbc004d4b	-0.007830928
21	0x3bdea464	0.0067944992
22	0xbbd46434	-0.0064816717
23	0xbbb717f8	-0.005587574
24	0x3bc4b426	0.0060029207
25	0x3af55492	0.001871722
26	0x3beceb55	0.007230202
27	0x3a08939a	0.00052099826
28	0xbbe75dbb	-0.007060734
29	0x3ba0b52e	0.004904411
30	0xbbfa4b74	-0.0076383892
31	0x3b4408a9	0.0029912388
32	0x3c1b0287	0.009461052
33	0x3bf30502	0.0074163685
34	0x3b9220ae	0.004459462
35	0x3c04cf9b	0.008106138
36	0xbbf73abc	-0.0075448435
37	0x3c0bb73d	0.008527574
38	0xbc1c5ccd	-0.00954361
39	0xba2821aa	-0.0006413708
40	0x3ba46d30	0.005017899
41	0xbaf3a40a	-0.0018588316
42	0x3c0d197d	0.008612034
43	0x3c18db5b	0.009329642
44	0xbc0a7a38	-0.008451991
45	0xbc1ec762	-0.009691091
46	0xbc09b181	-0.008404137
47	0x3bc57b98	0.0060266964
48	0x3c1a6cc6	0.009425348
49	0xbbf3538c	-0.007425731
