logs/deafult/best_val_checkpoint.tar (torch, 489841 bytes, 103 tensors)

module.NodesEncoding.A1.weight f4 [50, 2]
0	0xbf14312f	-0.5788755
1	0x3ec1d36f	0.37856624
2	0xbf145038	-0.57934904
3	0xbf1409f8	-0.5782771
4	0x3eca866e	0.39555687
5	0x3e824b96	0.25448292
6	0xbec6a7b6	-0.38799828
7	0xbf2c624a	-0.6733748
8	0xbe5dbac7	-0.21653281
9	0x3e4417a5	0.19149645
10	0x3eaea5e7	0.34110948
11	0xbe13e2ba	-0.14441958
12	0x3f031db4	0.512172
13	0xbe6b5af6	-0.22983918
14	0x3df8525d	0.121250845
15	0xbed88059	-0.42285421
16	0xbd950202	-0.072757736
17	0x3eea3644	0.45744526
18	0xbec5e67b	-0.38652405
19	0x3f0fc999	0.5616699
20	0xbf243638	-0.6414523
21	0x3e12b1c6	0.14325628
22	0x3ef41309	0.47670773
23	0x3f2afff1	0.66796786
24	0x3f20a6dc	0.6275461
25	0x3f344061	0.70410734
26	0x3e4fbd2e	0.2028701
27	0x3d7b2a98	0.061319917
28	0x3eab36cc	0.33440244
29	0xbebb219c	-0.3654908
30	0x3ec0c3e6	0.3764946
31	0xbeed8fbf	-0.46398732
32	0xbe776a66	-0.24161682
33	0xbef6656b	-0.4812425
34	0x3f25e0ff	0.6479644
35	0x3eb0d68f	0.34538695
36	0xbe37208f	-0.17883514
37	0xbea17844	-0.31537068
38	0x3e2e947f	0.17048834
39	0xbedce4bb	-0.43143257
40	0xbe17cef1	-0.14825036
41	0x3e9e0899	0.30865934
42	0x3f0cfb9f	0.55071443
43	0xbecf5032	-0.40490872
44	0xbe91a0c5	-0.2844297
45	0x3effe4ba	0.49979192
46	0x3f371926	0.7152275
47	0x3e4d9f8a	0.2008039
48	0xbf32d3d7	-0.6985449
49	0xbef53070	-0.47888517
50	0xbe0294eb	-0.1275212
51	0x3f1165b4	0.5679581
52	0xbecc471d	-0.39898005
53	0xbef4ff90	-0.4785123
54	0xbee31db0	-0.44358587
55	0xbe5c9a9e	-0.21543357
56	0x3dbcdf0f	0.092222326
57	0x3f1265c3	0.57186526
58	0xbec3bfc4	-0.38232243
59	0x3f143f07	0.5790867
60	0xbe990441	-0.29886058
61	0xbf18dbf6	-0.59710634
62	0xbf22bb4f	-0.6356706
63	0x3f2c63dd	0.6733988
64	0xbf31f695	-0.6951688
65	0xbc5f372e	-0.013623996
66	0x3d7efed6	0.06225475
67	0x3d9c5fc9	0.07635457
68	0x3db43f17	0.08801096
69	0x3f0b77a8	0.54479456
70	0xbe5916d3	-0.21200113
71	0x3edaf423	0.42764387
72	0x3e9672f2	0.2938457
73	0x3c554426	0.013016736
74	0xbdf21377	-0.11820119
75	0xbeabc9b5	-0.33552328
76	0xbf12c167	-0.5732636
77	0x3ef2db4a	0.4743293
78	0x3eb9adfd	0.36265555
79	0x3f2282ff	0.63481134
80	0x3eababed	0.33529606
81	0xbe7b168b	-0.24520318
82	0x3eb70e2b	0.35752997
83	0x3f28c516	0.6592573
84	0x3f29c049	0.6630903
85	0x3d80acc4	0.062829524
86	0x3dfaf280	0.122532845
87	0xbeccc454	-0.39993536
88	0x3eae8662	0.340869
89	0xbe980f6e	-0.29699272
90	0x3f32e9ad	0.6988781
91	0x3f02db52	0.51115906
92	0x3e3f673d	0.18691726
93	0xbe150162	-0.14551309
94	0xbe96178f	-0.2931485
95	0x3e206fab	0.15667598
96	0x3f26d1c8	0.6516385
97	0x3e57f388	0.21088994
98	0x3e0af41d	0.13569684
99	0xbe9a8746	-0.3018133

module.NodesEncoding.A1.bias f4 [50]
0	0x3e82dcd6	0.2555911
1	0x3f0fab8d	0.5612114
2	0x3f243c08	0.641541
3	0x3e785607	0.24251567
4	0xbdca8e58	-0.09890431
5	0x3e9c09d7	0.30476257
6	0x3f13e4c4	0.57770944
7	0xbe9d19bf	-0.30683705
8	0xbe3af6e4	-0.18258244
9	0xbe91cb43	-0.2847539
10	0x3bfb6c72	0.00767284
11	0x3ee8da46	0.4547903
12	0x3eb74dc2	0.35801512
13	0x3f33acbe	0.7018546
14	0xbf0ba929	-0.5455499
15	0x3e9cd833	0.30633697
16	0xbeacb684	-0.33732998
17	0x3f1f6930	0.6226988
18	0x3d9fd09c	0.07803461
19	0xbe8f9732	-0.2804504
20	0xbee62923	-0.4495326
21	0xbef01981	-0.46894458
22	0xbe780966	-0.24222335
23	0xbed928ee	-0.4241404
24	0x3eb3b769	0.35100868
25	0xbe757594	-0.23970634
26	0xbf0723df	-0.5278911
27	0x3d18ef80	0.03733778
28	0xbe0698ae	-0.1314418
29	0x3ecbfc9f	0.39841172
30	0xbeb474ca	-0.35245353
31	0xbdf9b5af	-0.121928565
32	0xbebbd9f2	-0.36689717
33	0xbec1cfe7	-0.3785393
34	0xbe42f30c	-0.19038028
35	0x3ee69aec	0.4504007
36	0xbd0c50c7	-0.034256723
37	0xbe90800a	-0.28222686
38	0x3d30b4ea	0.043141283
39	0x3f036bff	0.51336664
40	0x3f1e1eac	0.6176555
41	0x3c5eb409	0.013592728
42	0x3f332f43	0.6999399
43	0x3e252a05	0.1612931
44	0x3eff4e91	0.4986463
45	0x3f31f246	0.69510305
46	0xbeecf2ec	-0.46279085
47	0x3e882086	0.26587313
48	0xbd24c632	-0.040228076
49	0x3e39cfbb	0.18145649

module.EdgesEncoding.A2.weight f4 [25, 1]
0	0x3db8de0f	0.09026729
1	0xbf3c7dd0	-0.73629475
2	0x3f6f953d	0.93587095
3	0xbf2768e3	-0.6539442
4	0xbf8109d7	-1.0081128
5	0xbf576d5a	-0.8415123
6	0x3e8eba2b	0.2787641
7	0xbd3d2199	-0.04617462
8	0x3f1da7d9	0.6158424
9	0xbe0e8724	-0.1391874
10	0x3d0118b3	0.031517696
11	0x3f16458f	0.5869989
12	0x3f5b8c0e	0.8576058
13	0x3da95291	0.082677014
14	0xbe91136e	-0.28335136
15	0x3f536808	0.82580614
16	0x3f30d5d5	0.6907628
17	0x3f1299b6	0.57265794
18	0x3dbc3363	0.09189489
19	0x3ef7d6a3	0.48405942
20	0x3f36e835	0.7144807
21	0x3f69a327	0.91264576
22	0x3e26d643	0.16292672
23	0xbec72c1c	-0.3890084
24	0x3ebced31	0.36899713

module.EdgesEncoding.A2.bias f4 [25]
0	0xbe1372e9	-0.14399303
1	0x3d55eb17	0.052226152
2	0xbf68318c	-0.907006
3	0xbe436839	-0.19082727
4	0x3f1ace4b	0.6047103
5	0x3f1284cc	0.5723388
6	0xbe5b19cc	-0.2139656
7	0x3dbdf5ab	0.09275373
8	0xbf3e0b80	-0.742363
9	0x3e15be35	0.1462334
10	0xbee60439	-0.44925097
11	0x3f3b1919	0.7308517
12	0xbe31e24a	-0.17371479
13	0xbdf28dd0	-0.11843455
14	0x3e9f2018	0.31079173
15	0x3f3935a7	0.7234749
16	0x3f3f95e4	0.7483809
17	0xbea0d785	-0.31414428
18	0x3f1a454d	0.60261995
19	0x3e248d59	0.16069545
20	0x3e350268	0.17676699
21	0xbea53d34	-0.32273257
22	0x3edad00a	0.42736846
23	0x3e2c0cfc	0.16801828
24	0x3ecbb806	0.39788836

module.EdgesEncoding.A3.weight f4 [25, 1]
0	0xbee5b3f9	-0.4486387
1	0x3d48bbd9	0.04900727
2	0xbf6e064f	-0.92978376
3	0x3d88cae4	0.06679323
4	0xbf66aa0a	-0.9010321
5	0x3e4e2f2b	0.2013518
6	0xbe063561	-0.131063
7	0xbf0bdfcb	-0.54638356
8	0x3f6298c0	0.8851433
9	0xbd1a1b25	-0.037623543
10	0x3e43e4c8	0.19130242
11	0xbd83603a	-0.06414838
12	0x3f281ebb	0.6567189
13	0x3ecfc805	0.4058229
14	0x3bc5e3db	0.0060391254
15	0xbea60c82	-0.32431418
16	0x3f267983	0.6502916
17	0x3e8765b5	0.26444784
18	0x3e5d67b9	0.21621598
19	0xbe73975e	-0.23788211
20	0xbf2b532d	-0.6692379
21	0xbce2e2c2	-0.027696017
22	0x3eba9b91	0.36446813
23	0xbed9c950	-0.42536402
24	0x3ecbe31f	0.39821717

module.EdgesEncoding.A3.bias f4 [25]
0	0x3f27ea6b	0.6559207
1	0x3f2ddf23	0.67918605
2	0xbe007752	-0.12545517
3	0x3e8e84cc	0.2783569
4	0xbe975b42	-0.29561812
5	0xbe9b649a	-0.3035019
6	0x3f270f29	0.6525751
7	0xbf50278d	-0.8131035
8	0x3f1fc77a	0.6241375
9	0xbe81c21f	-0.25343415
10	0xbf6d2df9	-0.92648274
11	0x3f35df34	0.71043706
12	0x3f65a4cd	0.8970459
13	0xbf3c1393	-0.7346737
14	0x3e7db24a	0.24775043
15	0xbf06d63f	-0.52670664
16	0xbe7c78a0	-0.2465539
17	0xbf7dac4b	-0.99091023
18	0xbe9b4357	-0.30324814
19	0x3e7fdd64	0.24986798
20	0x3f7f60d1	0.99757105
21	0x3e33fabf	0.17576121
22	0xbf4e2f46	-0.80540884
23	0xbf435cec	-0.7631366
24	0xbe795424	-0.24348503

module.gcn_layers.0.bnNodes.W1.weight f4 [50, 50]
0	0x3e168f5f	0.14703129
1	0x3bff2b33	0.007787132
2	0xbd43eae8	-0.047831446
3	0xbbed129d	-0.007234885
4	0x3df25cfc	0.118341416
5	0xbda47893	-0.0803081
6	0xbe01612d	-0.12634726
7	0xbe17690d	-0.14786167
8	0x3d9a7594	0.075419575
9	0x3de6466a	0.11243899
10	0x3e18f671	0.1493776
11	0xbdc5c318	-0.09656352
12	0xbc95038d	-0.01819017
13	0x3c9393f8	0.018014893
14	0x3d80c383	0.06287291
15	0xbc0a4aab	-0.008440654
16	0xbe0c660b	-0.13710801
17	0xbdcab1a3	-0.09897163
18	0x3d7a7692	0.061148234
19	0x3cf77f86	0.030212175
20	0x3e03b2f2	0.12861231
21	0x3d600647	0.054693487
22	0xbcad2df3	-0.021140074
23	0xbdcf3f08	-0.10119444
24	0xbc269f01	-0.010169745
25	0xbd44eaee	-0.04807561
26	0x3c8caf6a	0.017173488
27	0xbdbe45cb	-0.09290656
28	0xbd8b246b	-0.067940556
29	0xbcf6dba5	-0.030134032
30	0x3e068e29	0.13140167
31	0xbd86773a	-0.065657094
32	0xbdac1020	-0.08401513
33	0x3da2a9aa	0.07942517
34	0xbd3e2fd9	-0.04643235
35	0xbddbaa23	-0.107258104
36	0xbd161266	-0.03663864
37	0xbd281b9a	-0.041041948
38	0x3d10f3a5	0.035388608
39	0x3d91cf02	0.07119562
40	0x3d17910c	0.03700356
41	0x3d1b1451	0.037861172
42	0x3d908bdb	0.07057925
43	0x3d86b86a	0.06578143
44	0x3dfad6f8	0.12248033
45	0xbe0a6a8e	-0.1351721
46	0x3d12ba51	0.035822216
47	0xbda9d5f0	-0.082927585
48	0xbd82b0b2	-0.06381358
49	0xbdbc95b9	-0.09208245
50	0xbc739eff	-0.014869451
51	0xbdeb02f3	-0.11475172
52	0x3e0ca230	0.13733745
53	0xbd36535a	-0.044513084
54	0xbc9c2dfe	-0.0190649
55	0x3d333a0b	0.043756526
56	0x3d1beca3	0.03806747
57	0x3dad0993	0.08449092
58	0xbdf72f12	-0.12069525
59	0xbdda5fa1	-0.10662771
60	0x3d901ca7	0.07036715
61	0x3cd97c39	0.026548492
62	0x3df7adc6	0.120936915
63	0x3e0e1767	0.13876115
64	0xbb543bad	-0.0032384202
65	0xbc3bb63d	-0.011457023
66	0xbdacc131	-0.08435286
67	0xbdf6da6c	-0.120533794
68	0xbe05ad31	-0.13054349
69	0xbd9500ec	-0.072755665
70	0x3cbd100a	0.023078937
71	0xbde4fc21	-0.11180902
72	0x3d3e94a1	0.046528462
73	0x3c5c099e	0.013430027
74	0xbc9963cd	-0.018724347
75	0x3cdb7433	0.026788807
76	0x3df20085	0.11816505
77	0x3c34af17	0.011028073
78	0xbe145b56	-0.14487967
79	0xbd267d18	-0.040646642
80	0xbda87974	-0.0822629
81	0x3c02d74a	0.007985899
82	0x3db23ef7	0.08703416
83	0x3dc103d6	0.0942456
84	0x3d75162a	0.05983559
85	0xbda47fdd	-0.080322005
86	0xbdaf8129	-0.08569557
87	0x3e045c87	0.12925921
88	0xbdb8bc2b	-0.09020265
89	0x3e085516	0.13313708
90	0x3dfedd0d	0.12444506
91	0x3de9f585	0.11423782
92	0xbceaf57c	-0.02868151
93	0xbce4fdbe	-0.027953025
94	0xbe078103	-0.13232808
95	0xbe08963f	-0.13338564
96	0xbd7551ff	-0.05989265
97	0x3b88e1d8	0.0041773133
98	0x3e0d6e2a	0.13811556
99	0xbd2d5ed5	-0.042326767
100	0xbdfaccd8	-0.12246102
101	0xbd457a13	-0.048212122
102	0xbb04860c	-0.00202215
103	0x3d020f49	0.03175286
104	0xbcd95eed	-0.026534522
105	0x3d589298	0.052874178
106	0x3db03a1c	0.086048335
107	0xbdf29dcc	-0.118465036
108	0xbd812c79	-0.063073106
109	0xbe01b700	-0.12667465
110	0x3d180b4e	0.037120156
111	0xbd2d0e0f	-0.042249735
112	0x3d8408d3	0.064469956
113	0xbd403ddc	-0.046933994
114	0x3da33b50	0.07970297
115	0x3dc3f478	0.09568113
116	0x3de0c716	0.10975473
117	0xbc06fdfd	-0.008239266
118	0xbc4929bd	-0.012278018
119	0xbd342686	-0.04398205
120	0xbe10eae8	-0.1415211
121	0xbdc962a9	-0.09833271
122	0xbdd7d895	-0.105393566
123	0x3d0d6b60	0.03452623
124	0xbda89e87	-0.08233362
125	0x3e0ca76b	0.1373574
126	0xbdf01bc6	-0.11724047
127	0x3dee3a85	0.116322555
128	0xbde0d465	-0.10978011
129	0xbd8628f8	-0.06550783
130	0x3d3bd4c7	0.045857217
131	0xbd1efe43	-0.0388167
132	0xbda7c109	-0.081911154
133	0x3beeb9c6	0.0072853295
134	0x3d918098	0.071046054
135	0x3de82a57	0.11336201
136	0x3e04f387	0.12983523
137	0xbe0106b6	-0.12600216
138	0x3d0286d5	0.031866867
139	0x3c8c5749	0.017131465
140	0xbd0e29c6	-0.034707807
141	0xbdc5a31d	-0.09650252
142	0x3d5ecc39	0.05439398
143	0x3dab869d	0.08375285
144	0xbdd81b25	-0.105520524
145	0xbd456ed6	-0.048201405
146	0xbd226a99	-0.03965244
147	0x3d8209f4	0.06349555
148	0xbd9e8fd0	-0.07742274
149	0xbdd5b26b	-0.10434421
150	0xbddaede9	-0.10689909
151	0xbd9fc546	-0.07801299
152	0x3da2c371	0.07947434
153	0xbc26cbdb	-0.010180439
154	0x3c1e21e8	0.009651639
155	0xbdbe921e	-0.093052134
156	0x3c6bb485	0.014386301
157	0x3d5f1cea	0.054470934
158	0xbd84745b	-0.064675055
159	0x3e000c5c	0.12504715
160	0x3d937941	0.07200862
161	0xbdd329aa	-0.10310681
162	0x3ab5f457	0.0013882023
163	0x3daddecb	0.0848976
164	0x3d822d59	0.06356306
165	0xbdbfc957	-0.093645744
166	0x3da83b66	0.08214454
167	0x3cbf084e	0.02331939
168	0x3e170577	0.14748178
169	0xbd84f033	-0.06491127
170	0x3d20b252	0.03923256
171	0x3de87620	0.113506556
172	0x3dc904b5	0.09815351
173	0x3bbcc94e	0.005761302
174	0x3db8d74d	0.0902544
175	0x3dba0043	0.09082081
176	0xbaae6638	-0.001330561
177	0xbd479f34	-0.048735812
178	0x3df20fa0	0.118193865
179	0x3a194de7	0.0005848095
180	0x3d2c9a3b	0.042139273
181	0xbc6cecbd	-0.01446074
182	0xbdc4c9b5	-0.09608785
183	0x3de663c1	0.11249495
184	0xbe106d79	-0.1410426
185	0xbdc839a7	-0.09776621
186	0x3c814074	0.015777804
187	0x3c1c9e4e	0.009559227
188	0xbd7f39b3	-0.062310886
189	0x3db9efbf	0.09078931
190	0xbde38976	-0.11110203
191	0x3d16c7b7	0.036811557
192	0xbdbe56c8	-0.09293896
193	0x3de50348	0.111822665
194	0xbe13357f	-0.14375876
195	0x3d191d57	0.037381496
196	0x3d82bbbb	0.06383463
197	0x3e05a0f1	0.13049676
198	0xbe16d696	-0.14730296
199	0xbd9face0	-0.07796645
200	0x3d1944be	0.037419073
201	0xbd574f83	-0.052566063
202	0xbdf0d53d	-0.11759422
203	0xbdeb414d	-0.114870645
204	0xbdd3d60d	-0.10343561
205	0x3dc22f79	0.09481711
206	0xbc2ca237	-0.010536722
207	0xbe15cc56	-0.14628729
208	0xbdf3525f	-0.118809454
209	0xbd166672	-0.036718793
210	0x3cbf490d	0.023350263
211	0xbcf7ec86	-0.03026415
212	0x3c0e1ad8	0.008673392
213	0xbd9f4297	-0.07776373
214	0xbd943fcf	-0.07238733
215	0xbdce489e	-0.100724444
216	0x3dc5844c	0.09644374
217	0xbd14e4d8	-0.036351055
218	0xbcad3d48	-0.021147385
219	0x3db848e9	0.089982815
220	0xbd0a31d9	-0.033738945
221	0xbd30b693	-0.043142866
222	0x3da1f0cb	0.07907256
223	0x3e0c7f58	0.13720453
224	0xbc1bd8fd	-0.009512183
225	0x3d21d344	0.03950812
226	0xbdf1f2e7	-0.11813908
227	0x3dce9930	0.10087812
228	0xbd5e9192	-0.054338045
229	0x3de1672e	0.11006008
230	0xbe0b4061	-0.13598777
231	0xbd5f1bf0	-0.054470003
232	0xbde674aa	-0.11252721
233	0x3dbb5f3c	0.09149024
234	0xbc943e18	-0.018096015
235	0xbd8790bb	-0.06619402
236	0xbdaef684	-0.08543113
237	0x3d2b9366	0.041888617
238	0xbd112838	-0.035438746
239	0x3d88950f	0.06669056
240	0x3d76e327	0.060275223
241	0x3d63e66b	0.055639666
242	0xbd84e138	-0.064882696
243	0x3e000f72	0.12505892
244	0xbdf43c85	-0.11925606
245	0x3d5a6fba	0.053329207
246	0x3df3da68	0.11906892
247	0xbd86da1f	-0.06584572
248	0xbc73e329	-0.014885702
249	0x3d9cf3e6	0.076637074
250	0xbd1dd598	-0.038533777
251	0xbe04dd75	-0.12975104
252	0x3da56f93	0.08077922
253	0x3cc39d5b	0.023878744
254	0x3b598606	0.0033191456
255	0x3df80dab	0.12111982

module.gcn_layers.0.bnNodes.W2.weight f4 [50, 50]
0	0xbddc1d57	-0.10747784
1	0x3dd94fa9	0.10610897
2	0xbcb9396e	-0.022610392
3	0x3e0879ec	0.1332776
4	0xbdd45aea	-0.10368903
5	0x3d4ced22	0.050030835
6	0xbb0cfbb8	-0.002151234
7	0xbca0e7e6	-0.019641828
8	0x3dd55a23	0.10417583
9	0xbce4e3b7	-0.027940614
10	0x3bbacc94	0.005700657
11	0xbdcdc99b	-0.10048219
12	0xbdf4577b	-0.11930748
13	0x3e13b18f	0.14423202
14	0xbcfc2a29	-0.030781822
15	0x3d837ce8	0.06420308
16	0xbc2182a6	-0.009857809
17	0xbdcfcd47	-0.101465754
18	0x3e04717b	0.12933914
19	0x3c94468c	0.018100046
20	0x3d72dc35	0.059292037
21	0x3d36563c	0.044515833
22	0xbdf53724	-0.11973408
23	0xbd21065b	-0.0393127
24	0x3db116ba	0.08646913
25	0xbd940daa	-0.07229169
26	0xbdac39fb	-0.084094964
27	0xbdd8e435	-0.10590402
28	0xbc0c0ca3	-0.008547935
29	0x3d024e8a	0.031813182
30	0xbdf65253	-0.12027421
31	0x3d877a16	0.06615083
32	0xbd878c13	-0.06618514
33	0x3d28c9f9	0.04120824
34	0xbda36fb6	-0.079802915
35	0x3df35357	0.1188113
36	0xbdbd5d5b	-0.09246322
37	0x3d5cb523	0.053883683
38	0xbdb92bb8	-0.09041542
39	0xbc89e3ea	-0.01683231
40	0x3df950ee	0.12173639
41	0x3d941201	0.072299965
42	0xbd3c6d64	-0.04600276
43	0x3d914d64	0.07094839
44	0xbd192d7d	-0.037396897
45	0xbd846f3a	-0.06466527
46	0xbca64084	-0.020294435
47	0x3dd889f7	0.1057319
48	0x3da90d9e	0.082545504
49	0xbde5cdea	-0.112209156
50	0x3de1135c	0.10990021
51	0xba91e480	-0.001113072
52	0x3e05a8df	0.130527
53	0x3b218e97	0.002465164
54	0xbcbcbbec	-0.023038827
55	0xbd95f1e0	-0.073215246
56	0xbd088202	-0.03332711
57	0xbd51a213	-0.051179957
58	0x3d66d8a6	0.056358956
59	0xbd8ae065	-0.06781081
60	0xbe0b515e	-0.13605258
61	0xbda8b744	-0.0823808
62	0x3dd468c9	0.10371549
63	0x3ca0bf10	0.019622356
64	0xbcaf7d89	-0.021422165
65	0xbc9d2f01	-0.019187452
66	0x3e044455	0.12916692
67	0x3da758eb	0.08171257
68	0xbc252c6e	-0.010081394
69	0x3dcd6a7b	0.10030075
70	0x3e092a1e	0.13394973
71	0x3e0ca5eb	0.13735168
72	0x3b8ba9d6	0.0042621894
73	0x3db39a20	0.087696314
74	0xbd416291	-0.04721314
75	0x3d1defdb	0.038558822
76	0x3df0f299	0.11765022
77	0xbe06455a	-0.13112393
78	0xbc2b72f4	-0.010464419
79	0x3df05319	0.117345996
80	0xbdfa430e	-0.12219821
81	0xbcb9f86b	-0.022701463
82	0xbd4953f8	-0.049152344
83	0x3d9f16fc	0.07768056
84	0x3bfeccc6	0.0077758757
85	0xbe0bc326	-0.13648662
86	0xbdd39c00	-0.10332489
87	0x3d8b53f1	0.0680312
88	0x3b6979d0	0.0035625584
89	0x3e0e8c41	0.1392069
90	0x3c934ee0	0.017981946
91	0x3df5d014	0.120025784
92	0x3d784ab8	0.060618132
93	0xbe063c0f	-0.13108848
94	0x3dc4b0da	0.09604044
95	0x3d025037	0.03181478
96	0xbd557455	-0.052112896
97	0x3d21777c	0.03942059
98	0xbd639bb7	-0.055568423
99	0xbd4baf20	-0.04972756
100	0xbcdb9e2b	-0.026808819
101	0x3d9a3a10	0.07530606
102	0xbdeb38d8	-0.114854515
103	0xbda39be1	-0.07988716
104	0x3e096e96	0.13421091
105	0x3ddc4e35	0.10757104
106	0x3e0efc6e	0.13963482
107	0xbd54a36b	-0.05191366
108	0xbcd6f579	-0.026240097
109	0xbe0e7f9b	-0.13915865
110	0xbdee84aa	-0.116463974
111	0x3cb1f34b	0.021722456
112	0x3b2eb6f0	0.0026659332
113	0xbcdfe1b6	-0.027329307
114	0xbd6cd1ab	-0.057817142
115	0xbdaaa0a2	-0.083314195
116	0x3db696b6	0.089154646
117	0x3d67c198	0.05658111
118	0xbcb788a3	-0.02240402
119	0x3e0e17ca	0.13876262
120	0xb99b1508	-0.00029579573
121	0x3de7b9d9	0.113147445
122	0xbc6d8ebe	-0.014499364
123	0xbd2b7642	-0.041860826
124	0xbdf64955	-0.12025706
125	0xbda5bc4c	-0.080925554
126	0xbdab5921	-0.08366609
127	0xbd9b2f6f	-0.075774066
128	0x3e07f453	0.13276796
129	0xbe0cd6bb	-0.13753788
130	0x3df0ad42	0.11751796
131	0xbdc0a367	-0.094061665
132	0xbe13480a	-0.1438295
133	0x3d84c067	0.0648201
134	0xbdd83096	-0.10556142
135	0xbd632835	-0.055458266
136	0x3d5cb9e2	0.05388821
137	0xbd8427ff	-0.06452941
138	0x3cf9cda0	0.030493557
139	0x3dc3f00c	0.0956727
140	0xbb807e99	-0.0039213416
141	0xbd8861f7	-0.0665931
142	0xbd95c8a6	-0.07313661
143	0x3cf5b23e	0.029992219
144	0xbd829c58	-0.063774765
145	0xbd63e9f9	-0.055643056
146	0x3d96af82	0.07357694
147	0x3bdf04da	0.0068059983
148	0x3d789ce5	0.0606965
149	0x3d910cab	0.07082494
150	0xbe07420d	-0.1320879
151	0x3ca2f3f1	0.019891711
152	0x3c2c9e59	0.0105358
153	0x3c03505c	0.008014765
154	0x3b6b0e07	0.0035866515
155	0xbd0e006d	-0.034668375
156	0xbe030f45	-0.12798794
157	0x3dd9be7a	0.10632034
158	0xbbe97d15	-0.0071255066
159	0xbcb78c5a	-0.022405792
160	0x3dfc71c6	0.12326388
161	0xbd8688ac	-0.06569037
162	0xbdafe347	-0.085882716
163	0xbcec6cab	-0.02886041
164	0xbdd00840	-0.101578236
165	0xbda3e0f3	-0.0800189
166	0xbd4bd634	-0.049764827
167	0x3e034846	0.12820539
168	0xbcd31986	-0.025769006
169	0xbe097029	-0.13421692
170	0xbc915982	-0.017742876
171	0xbd8a79c8	-0.06761509
172	0xbdb9f8c0	-0.090806484
173	0xbd70b5c5	-0.0587671
174	0xbe02b90e	-0.12765905
175	0xbd5daac0	-0.054117918
176	0xbdf05718	-0.11735362
177	0xbd40bc82	-0.047054775
178	0xbe0d5438	-0.13801658
179	0x3cd1c682	0.025607351
180	0x3d052256	0.03250345
181	0xbd93ede3	-0.07223108
182	0x3a8fb585	0.0010964131
183	0xbdd1e7bd	-0.10249279
184	0xbde99a90	-0.114064336
185	0x3b90cd80	0.0044190288
186	0xbd1ac7b3	-0.037788104
187	0xbdeb9eb2	-0.11504878
188	0x3dac46c6	0.084119365
189	0x3cced53b	0.02524816
190	0xbe19cc83	-0.15019421
191	0xbde406cc	-0.11134109
192	0x3d6437c9	0.055717263
193	0x3c9a3c14	0.018827476
194	0x3da772e6	0.08176212
195	0xbbb1ee01	-0.0054299836
196	0xba2250f7	-0.0006191874
197	0xbd810311	-0.06299413
198	0xbd8cb316	-0.068700954
199	0xbde0eafc	-0.1098232
200	0x3d60ffbf	0.0549314
201	0x3dd953e0	0.10611701
202	0x3d5a21a3	0.053254735
203	0xbd2a32b4	-0.04155226
204	0x3cb18bc3	0.021673089
205	0xbe1b7b12	-0.15183666
206	0xbcf94aba	-0.03043114
207	0x3de69923	0.11259677
208	0xbc6ec148	-0.014572449
209	0x3c4f098d	0.012636554
210	0x3e1454b8	0.14485443
211	0x3dea1c08	0.11431128
212	0xbc1404fa	-0.00903439
213	0xbe10f0c9	-0.14154352
214	0x3def2a5a	0.11678
215	0x3d5c95ce	0.053853802
216	0xbc48efa3	-0.012264165
217	0x3df469bd	0.119342305
218	0x3d2efa97	0.04271945
219	0xbcc4bfd2	-0.024017248
220	0x3e04aed6	0.1295732
221	0x3cbb573d	0.022868747
222	0x3da95b1f	0.08269333
223	0xbb85780a	-0.0040731477
224	0x3d8e971c	0.069624156
225	0xbcbc08f7	-0.022953494
226	0x3cd15172	0.025551531
227	0xbe0f5c95	-0.14000161
228	0x3ddcb13f	0.107759945
229	0x3d1035be	0.035207503
230	0x3d913486	0.07090096
231	0xbd9d2b87	-0.07674318
232	0xb87c73fc	-6.01895e-05
233	0x3d1b1417	0.037860956
234	0xbbe3fac6	-0.0069573848
235	0xbd085745	-0.03328635
236	0x3d699996	0.057031237
237	0x3cb55650	0.022135884
238	0xbe00140f	-0.12507652
239	0x3cfd15ec	0.030894242
240	0x3da73b72	0.08165635
241	0x3dfeb1f4	0.124362856
242	0x3db8faec	0.090322345
243	0x3d99a8f1	0.07502926
244	0xbc1a23bb	-0.009407933
245	0xbdf1cca0	-0.11806607
246	0xbdca8fb1	-0.09890688
247	0x3d25672f	0.040381607
248	0xbd4c1a38	-0.04982969
249	0xbd8ed942	-0.069750324
250	0xbd0379ff	-0.032098766
251	0x3d889390	0.0666877
252	0xbd4ec314	-0.05047901
253	0xbd94c4fe	-0.07264136
254	0xbc048b4b	-0.008089851
255	0x3e16c4ec	0.14723557

module.gcn_layers.0.bnNodes.batch_norm.weight f4 [50]
0	0x3f80940d	1.0045182
1	0x3f7cca58	0.9874625
2	0x3f7c2e2b	0.98507947
3	0x3f7d3945	0.9891551
4	0x3f8057e4	1.0026822
5	0x3f812636	1.0089786
6	0x3f815139	1.0102912
7	0x3f7e2c87	0.99286693
8	0x3f7ce9a0	0.98793983
9	0x3f7e5fd9	0.99365
10	0x3f7f4116	0.9970869
11	0x3f810778	1.0080404
12	0x3f8081eb	1.0039648
13	0x3f7f98da	0.9984261
14	0x3f806903	1.0032047
15	0x3f7e6409	0.9937139
16	0x3f7dae2d	0.99093896
17	0x3f811ab5	1.0086275
18	0x3f7ca4e2	0.9868909
19	0x3f7cd576	0.98763216
20	0x3f7d919b	0.990503
21	0x3f80cd5a	1.0062668
22	0x3f7f65f0	0.9976492
23	0x3f7e7f1d	0.9941271
24	0x3f7c7d22	0.9862844
25	0x3f7e4809	0.99328667
26	0x3f801c8f	1.0008715
27	0x3f7c548f	0.98566526
28	0x3f80c6b9	1.0060645
29	0x3f7edbe4	0.99554276
30	0x3f7fb245	0.9988139
31	0x3f7f8bc4	0.9982264
32	0x3f818e9a	1.0121644
33	0x3f800da2	1.000416
34	0x3f814e26	1.0101974
35	0x3f80fa55	1.0076395
36	0x3f80a223	1.004948
37	0x3f7f4350	0.99712086
38	0x3f7f57bb	0.9974324
39	0x3f80f7fe	1.0075681
40	0x3f819872	1.0124648
41	0x3f7fca1a	0.9991776
42	0x3f805c6d	1.0028206
43	0x3f7c42a5	0.9853919
44	0x3f7d4033	0.98926085
45	0x3f7cb713	0.9871685
46	0x3f7c813d	0.986347
47	0x3f7cfaf0	0.988204
48	0x3f7d4310	0.98930454
49	0x3f7c8977	0.98647255

module.gcn_layers.0.bnNodes.batch_norm.bias f4 [50]
0	0x3b85e703	0.0040863766
1	0xbc550825	-0.01300243
2	0xbc53ba78	-0.012922876
3	0xbc363a14	-0.011122245
4	0x3c009125	0.007847105
5	0x3bc83fe0	0.00611113
6	0x3c31fd2d	0.0108635845
7	0xbc08ef66	-0.008357858
8	0xbc401304	-0.011723284
9	0xbbbb4949	-0.0057155234
10	0xbc687ac4	-0.014189426
11	0x3c1960ac	0.009361427
12	0x39663d9a	0.00021957458
13	0x3bdbb84e	0.0067053204
14	0x3b6d28fa	0.0036187754
15	0xbbff4119	-0.0077897427
16	0xbb2de8fe	-0.002653658
17	0x3c0c4eee	0.00856374
18	0xbc4443fc	-0.011979099
19	0xbc37d9e0	-0.011221379
20	0xbbb43aca	-0.0055001723
21	0x3c0963e0	0.008385628
22	0xba24a255	-0.0006280293
23	0x39046dfc	0.00012629473
24	0xbc497ca1	-0.01229778
25	0xbbdfeb4e	-0.0068334704
26	0x3b81473f	0.003945261
27	0xbc6975e8	-0.014249302
28	0x3b92bba8	0.004477937
29	0xbc0aedec	-0.008479577
30	0x3aac1737	0.0013129477
31	0x3b79dd12	0.0038126153
32	0x3c5e9701	0.013585807
33	0x3b9a5e2c	0.004710933
34	0x3c755057	0.014972768
35	0x3be6d07e	0.007043897
36	0x3c00d842	0.00786406
37	0xbb191424	-0.0023357952
38	0x399abb5e	0.00029512768
39	0x3bc2d0bc	0.005945293
40	0x3c5477c3	0.012968007
41	0x3aadc2e7	0.0013256938
42	0x3b810d75	0.003938372
43	0xbc64f512	-0.013974445
44	0xbc36870e	-0.011140598
45	0xbc30463b	-0.010758932
46	0xbc107c25	-0.008818661
47	0xbc3aa1c9	-0.011391112
48	0xbc66c9ce	-0.0140862
49	0xbc421e81	-0.011848093

module.gcn_layers.0.bnEdges.W3.weight f4 [50, 50]
0	0x3c8d258c	0.017229818
1	0x3d614335	0.054995734
2	0xbcfb87e4	-0.030704446
3	0x3cfc5d0c	0.030806087
4	0x3c931216	0.01795296
5	0xbd68d267	-0.05684128
6	0x3c57523e	0.013142167
7	0x3db33e12	0.08752073
8	0x3d0b12e0	0.033953547
9	0x3e0474cf	0.12935184
10	0x3dcc458b	0.09974202
11	0xbd032cc7	-0.032025125
12	0x3c1eb012	0.009685533
13	0x3d8df345	0.069311656
14	0xbd763754	-0.06011136
15	0xbd89ae29	-0.067226715
16	0xbe161433	-0.14656143
17	0xbdc4698a	-0.095904425
18	0xbc936fab	-0.017997583
19	0xbe0ac9ff	-0.13553618
20	0x3e005f3a	0.12536326
21	0xbc2f15b2	-0.010686325
22	0x3d5e921e	0.054338567
23	0x3dc29698	0.0950138
24	0xbe158334	-0.14600831
25	0xbdcdcb5d	-0.10048554
26	0xbd01c48e	-0.03168159
27	0x3b3ba11b	0.0028629962
28	0xbdb89ef0	-0.0901469
29	0xbdf5f6a7	-0.12009936
30	0x3bdba140	0.006702572
31	0x3ce39a78	0.027783617
32	0xbe07082a	-0.13186708
33	0x3d5320d9	0.051544998
34	0xbd9815d3	-0.07426038
35	0x3b21099b	0.0024572376
36	0xbc106d9e	-0.008815197
37	0xbd5bf1b1	-0.05369729
38	0xbcb2585b	-0.021770647
39	0xbd921d1d	-0.07134459
40	0x3d9c6d9e	0.07638095
41	0xbdacad03	-0.08431437
42	0xbd426f97	-0.0474697
43	0xbddcabae	-0.10774933
44	0x3db4e24b	0.088322245
45	0xbdb69ab4	-0.08916226
46	0xbdc7dde2	-0.09759118
47	0xbdb56145	-0.08856443
48	0x3d2a17a8	0.041526467
49	0xbd9c1ff4	-0.07623282
50	0x3de89d83	0.11358168
51	0xbd2745f0	-0.040838182
52	0xbdf6abf3	-0.120445155
53	0xbd9a68e4	-0.075395375
54	0xbd2124c8	-0.039341718
55	0xbd9590e3	-0.073030256
56	0x3c8658a9	0.016399698
57	0xbd8a449f	-0.0675137
58	0x3cab4caf	0.020910589
59	0xbd479827	-0.04872909
60	0xbd1ac0f8	-0.037781686
61	0x3d992acd	0.07478867
62	0x3c15e0df	0.009147852
63	0x3e14669a	0.14492264
64	0xbdf6c492	-0.120492116
65	0xbd244779	-0.040107224
66	0x3e073a71	0.13205887
67	0xbdf9872f	-0.12183987
68	0xbd908948	-0.07057434
69	0xbd10fd92	-0.035398073
70	0xbe011c57	-0.12608467
71	0x3dd895b8	0.105754316
72	0xbdd879f3	-0.10570135
73	0x3d36d70d	0.044638682
74	0x3d464a80	0.048410892
75	0x3d2d766e	0.04234927
76	0x3e052262	0.13001397
77	0x3d210643	0.039312612
78	0x3db8548b	0.090005
79	0xbc08e4a2	-0.008355292
80	0x3c957cb7	0.018247945
81	0xbda616af	-0.08109795
82	0xbe194c07	-0.14970408
83	0x3e1841d1	0.14868857
84	0x3bd0841e	0.006363406
85	0xbdc1b8ff	-0.09459113
86	0x3d49a34b	0.049227994
87	0x3e00a244	0.125619
88	0x3d6205f6	0.055181466
89	0x3d06b2ad	0.032885242
90	0x3dd401d6	0.10351913
91	0x3e0290ad	0.12750502
92	0x3e01bc08	0.12669384
93	0x3cb62b05	0.02223731
94	0xbe034fac	-0.12823361
95	0xbd5280e9	-0.05139247
96	0x3de60a83	0.11232474
97	0x3d84d724	0.06486347
98	0xbd62fb1c	-0.055415258
99	0x3c77d92f	0.015127464
100	0xbdc23b6d	-0.09483991
101	0xbca80803	-0.020511633
102	0x3df9406d	0.12170491
103	0x3cbef003	0.023307806
104	0xbd01c155	-0.031678516
105	0xbc31361e	-0.010816125
106	0xbdec4f9f	-0.11538624
107	0x3da946b1	0.082654364
108	0xbe02fef1	-0.12792565
109	0xbda30593	-0.079600476
110	0x3af93fae	0.001901617
111	0x3d5dac3c	0.054119334
112	0x3d785661	0.060629252
113	0xbc73eadf	-0.014887541
114	0x3de90236	0.11377375
115	0xbe144bcc	-0.14482039
116	0xbddf89b7	-0.10914939
117	0xbd4bac60	-0.049724936
118	0x3dcf671b	0.10127088
119	0x3d7be88a	0.061501063
120	0xbe04a660	-0.12954092
121	0xbe064c0d	-0.13114949
122	0xbe0fc04e	-0.14038202
123	0xbe00551f	-0.12532471
124	0x3dc5c669	0.09656984
125	0xbc457486	-0.012051707
126	0xbb06d175	-0.0020571623
127	0xbc81e786	-0.01585747
128	0xbd7811a5	-0.060563702
129	0x3d99a170	0.07501495
130	0xbcc7d3a2	-0.024392907
131	0x3dbea770	0.0930928
132	0xbe05d07b	-0.1306781
133	0xbda3fa49	-0.080067225
134	0x3da63649	0.08115823
135	0x3cbb022e	0.022828188
136	0xbe0e5f37	-0.13903509
137	0x3d4a55ee	0.049398355
138	0xbbb4031c	-0.0054935347
139	0xbd3f0d8c	-0.04664378
140	0x3dfc84d4	0.123300225
141	0xbdc59202	-0.096469894
142	0x3d8a2c16	0.0674669
143	0xbd30ddb6	-0.04318019
144	0x3d35db58	0.044398636
145	0xbe09413c	-0.13403791
146	0xbd8e37e7	-0.06944256
147	0x3d40dcbf	0.04708552
148	0xbdb9aa88	-0.090657294
149	0x3d30391c	0.043023214
150	0x3dbfdae4	0.09367922
151	0xbd88558d	-0.066569425
152	0x3d3a9132	0.045548625
153	0x3d7d3b3d	0.061824072
154	0x3cd91f9d	0.026504332
155	0xbdab7b6d	-0.08373151
156	0xbd4bd669	-0.049765024
157	0xbc5ccd8a	-0.013476739
158	0xbbea47f3	-0.0071496903
159	0xbdd497d0	-0.103805184
160	0x3dcc4c9a	0.09975548
161	0x3cd96f92	0.026542459
162	0xbd3b68c4	-0.04575421
163	0x3d5a9471	0.05336422
164	0xbbb1ad39	-0.005422261
165	0x3d87cb9b	0.066306315
166	0x3e00f70b	0.1259424
167	0xbd2c777d	-0.04210614
168	0xbd63ca8c	-0.055613086
169	0x3dabcaa6	0.083882615
170	0xbd3d5411	-0.04622275
171	0x3dc7f50d	0.097635366
172	0xbb9b48c2	-0.004738898
173	0xbd8089b5	-0.062762655
174	0x3dfb3cc2	0.12267448
175	0xbbac82e8	-0.0052646287
176	0x3dbe6c66	0.09298019
177	0x3d97bf91	0.07409585
178	0xbe12e891	-0.1434653
179	0x3d14ba9b	0.036310773
180	0x3dc33a6d	0.09532628
181	0x3de1ec0f	0.11031353
182	0x3e1bf996	0.15231928
183	0xbe0564b7	-0.13026701
184	0x3daa8ccc	0.08327636
185	0xbe114d97	-0.14189754
186	0xbdf21fac	-0.11822447
187	0xbdb28163	-0.08716085
188	0xbd3bd7c8	-0.045860082
189	0x3d180976	0.037118398
190	0xbd8a26cd	-0.06745682
191	0xbd637255	-0.055528957
192	0xbe06b9cb	-0.13156812
193	0x3d1e81d7	0.038698044
194	0x3c8bd7fc	0.017070763
195	0x3cbfc21b	0.023407986
196	0x3d6e272a	0.05814282
197	0xbc851962	-0.016247455
198	0x3dc4e5f8	0.096141756
199	0xbdc36af1	-0.09541882
200	0x3d22bb33	0.03972931
201	0x3e02553c	0.12727827
202	0x3d78631e	0.0606414
203	0x3bcf29fd	0.006322144
204	0xbdd39d30	-0.103327155
205	0x3e0c1d93	0.13683157
206	0xbdedf8ec	-0.11619744
207	0x3e1b2b02	0.15153125
208	0x3d283299	0.04106388
209	0x3e03b546	0.12862119
210	0x3da1828d	0.07886229
211	0x3dbd49ea	0.092426136
212	0xbe06c3fe	-0.13160703
213	0xbda6ae00	-0.081386566
214	0xbd799cc2	-0.06094051
215	0x3d547efd	0.051878918
216	0xbd509bd1	-0.050929848
217	0xbcb97c77	-0.022642357
218	0xbe195e77	-0.14977442
219	0x3d73efc8	0.059554845
220	0xbd9270c0	-0.071504116
221	0x3d960106	0.07324414
222	0xbd95041d	-0.07276175
223	0x3e160ee8	0.14654124
224	0xbb66ec12	-0.0035235924
225	0x3c0a644b	0.008446763
226	0x3d07be07	0.03314021
227	0xbe0c8d34	-0.1372574
228	0xb9da844f	-0.00041678778
229	0x3d9b3ad7	0.07579582
230	0xbc44f558	-0.012021385
231	0x3b832e96	0.004003356
232	0x3dc011b5	0.09378377
233	0x3e07bf1c	0.13256496
234	0xbe1080fc	-0.14111704
235	0x3db28fd7	0.087188415
236	0x3cc41ee2	0.023940507
237	0x3d3b68d9	0.045754287
238	0xbd2239cf	-0.03960591
239	0xbd91371e	-0.07090591
240	0xbdcb2db1	-0.09920824
241	0xbc784057	-0.015152059
242	0x3cd97db8	0.026549205
243	0xbd6e6e21	-0.058210496
244	0x3d8379a0	0.064196825
245	0x3e02389f	0.12716912
246	0x3d1a058a	0.03760294
247	0x3dcc2a0d	0.09968958
248	0x3db8727b	0.090062104
249	0xbd2ad829	-0.041710053
250	0x3ded598d	0.11589346
251	0xbdb0511d	-0.08609221
252	0xbdf4fc82	-0.119622245
253	0x3a73182f	0.0009273318
254	0xbd56c90f	-0.05243784
255	0x3d295acf	0.041346367

module.gcn_layers.0.bnEdges.W4.weight f4 [50, 50]
0	0xbcf5624c	-0.029954098
1	0x3dd851fb	0.105625115
2	0x3dd84ad1	0.10561145
3	0x3c7987d2	0.015230136
4	0x3d85ab00	0.06526756
5	0x3d6425e3	0.055700194
6	0x3d9f869d	0.07789347
7	0x3d1ba99e	0.038003556
8	0xbdd76219	-0.105167575
9	0xbc1b0b2a	-0.009463111
10	0xbdd8b18b	-0.10580739
11	0x3dabc2c3	0.08386757
12	0x3d0db268	0.03459397
13	0xbd8ba212	-0.06818022
14	0x3de83c52	0.1133963
15	0xbd9928b7	-0.07478469
16	0xbdbf0268	-0.09326631
17	0xbe003584	-0.12520415
18	0xbd2f9eb3	-0.042875957
19	0x3ca42ee7	0.020041896
20	0x3e146b1a	0.14493981
21	0x3c8b56fb	0.017009249
22	0xbd79f0ae	-0.061020546
23	0x3dade6f2	0.08491315
24	0x3df6fbf0	0.12059772
25	0x3db5efd7	0.088836364
26	0xbd4ad66d	-0.0495209
27	0x3dc6a3f8	0.09699243
28	0xbce6d958	-0.02817981
29	0xbcb0fbaf	-0.021604387
30	0x3b80cfdf	0.00393103
31	0xbd763854	-0.060112312
32	0xbe027afa	-0.12742224
33	0xbde3a3cf	-0.111152284
34	0xbdd7fce6	-0.105462834
35	0x3dc70ccd	0.097192384
36	0x3d392206	0.045198463
37	0x3d17b8fa	0.03704164
38	0xbd9933b8	-0.07480568
39	0xbdbda948	-0.092608035
40	0xbdec59f1	-0.115405925
41	0x3d545505	0.051838893
42	0xbd0ad7bd	-0.03389715
43	0x3d8595dc	0.06522724
44	0x3d8b590b	0.06804093
45	0xbdd936b6	-0.106061384
46	0x3ccbce69	0.024878697
47	0x3e094711	0.13406016
48	0x3a91f00d	0.0011134163
49	0xbd851cbc	-0.06499621
50	0x3d9b1f31	0.07574309
51	0x3e0d0808	0.13772595
52	0xbdd3e366	-0.10346107
53	0x3d8794ea	0.066202
54	0xbd03ad31	-0.03214759
55	0x3cc90b03	0.024541384
56	0x3dd0f7de	0.10203527
57	0x3dd2916a	0.10281642
58	0xbe0675a3	-0.13130812
59	0xbb35276f	-0.0027641912
60	0x3dc713f3	0.09720602
61	0x3dff3856	0.12461917
62	0x3d91a584	0.07111648
63	0x3d076ec6	0.033064626
64	0x3c808168	0.015686706
65	0xbe0684b9	-0.13136567
66	0x3d6fe3d4	0.058566883
67	0xbdab127f	-0.08353137
68	0x3cdc5d2e	0.0268999
69	0x3e046002	0.12927249
70	0x3d2e5515	0.04256161
71	0xbd382854	-0.044960335
72	0xbbbb7ec3	-0.0057218983
73	0xbd048841	-0.032356504
74	0x3dbc7a05	0.09202961
75	0xbcf19a72	-0.02949259
76	0x3d2c8906	0.042122863
77	0x3bb381a5	0.0054781013
78	0x3e01e7c7	0.12686072
79	0xbd3ab68d	-0.04558425
80	0xbdaa5bd1	-0.08318294
81	0xbd2e7836	-0.04259511
82	0x3d43f865	0.04784431
83	0xbe0efa76	-0.13962731
84	0xbde20aaa	-0.1103719
85	0x3cc9ad6b	0.024618825
86	0xbdae51b5	-0.08511678
87	0xbd82e17c	-0.06390664
88	0x3d25f784	0.040519252
89	0x3db62a76	0.088948175
90	0x3d953612	0.07285704
91	0xbde89eb5	-0.11358396
92	0x3dc95737	0.09831088
93	0xbda2bbad	-0.079459526
94	0x3e05f0f9	0.13080205
95	0x3de73524	0.11289433
96	0xbc92c4a2	-0.017916027
97	0x3d24e001	0.04025269
98	0x3ccffd37	0.025389297
99	0xbd2892aa	-0.041155495
100	0xbb55ed78	-0.0032642763
101	0xbdafd690	-0.085858464
102	0x3d445908	0.04793647
103	0x3d88022e	0.06641041
104	0xbd900a6c	-0.07033238
105	0xbd45759f	-0.048207875
106	0xbccec07c	-0.025238268
107	0xbda75dc3	-0.081721805
108	0xbdd33b52	-0.10314049
109	0x3d9979c6	0.074939296
110	0xbd38aca0	-0.045086503
111	0xbd987148	-0.07443482
112	0x3dfceb13	0.12349524
113	0xbd89d6ea	-0.06730445
114	0x3e0a7cfd	0.13524242
115	0xbde03b20	-0.10948777
116	0x3d96edb2	0.073695555
117	0x3d9eebf4	0.07759848
118	0x3e0e1b76	0.13877663
119	0xbe04dc61	-0.12974693
120	0x3db71c26	0.08940916
121	0xbde888ed	-0.113542415
122	0xbd35d252	-0.04439003
123	0xbdde719f	-0.10861515
124	0x3c6b3df4	0.0143580325
125	0x3c438b53	0.011935073
126	0x3d244f9e	0.04011499
127	0x3cc4e015	0.024032632
128	0x3d26903b	0.040664893
129	0xbd251037	-0.040298667
130	0x3dc49fa2	0.0960076
131	0xbb659d0e	-0.003503624
132	0xbde49a41	-0.11162234
133	0x3e08d78f	0.13363479
134	0x3db840ec	0.08996758
135	0xbc91c0b3	-0.017792081
136	0x3d89bcb2	0.06725444
137	0xbd23047d	-0.039799202
138	0x3ddcd251	0.10782302
139	0xbdff447c	-0.12464234
140	0xbdfdca96	-0.12392156
141	0xbd92a0da	-0.07159586
142	0xbddb63ea	-0.107124165
143	0x3dbcb7a6	0.09214716
144	0x3a3a752e	0.0007112798
145	0xbd72587a	-0.05916641
146	0xbd8bc792	-0.068251744
147	0xbde945d0	-0.11390269
148	0x3bcd0d4e	0.0062576896
149	0xbe04c174	-0.12964422
150	0xbdef3583	-0.116801284
151	0x3d140a7a	0.036142804
152	0x3b03102b	0.001999865
153	0x3dac20e0	0.08404708
154	0x3c3446e3	0.011003229
155	0xbde81dd1	-0.11333812
156	0x3dabb2e4	0.0838373
157	0x3dcd7907	0.1003285
158	0x3d18c050	0.03729278
159	0x3ca91de2	0.020644132
160	0x3d151aef	0.03640264
161	0x3ce3f3c4	0.027826197
162	0xbd9ac0de	-0.07556318
163	0xbd877bf9	-0.06615443
164	0x3ce9316f	0.028465955
165	0x3e0d9eef	0.1383016
166	0x3b08b23b	0.0020858187
167	0x3b54131d	0.0032360025
168	0xbdbe776d	-0.093001224
169	0xbd78f4ff	-0.06078052
170	0x3d3d4642	0.04620958
171	0x3c1b5558	0.009480797
172	0x3e097d4c	0.13426703
173	0x3d87e75d	0.06635926
174	0xbc6aa517	-0.014321587
175	0xbd4ddbd0	-0.050258458
176	0xbdcbe3c0	-0.09955549
177	0x3c2e2c88	0.010630734
178	0xbbb4dbc7	-0.0055193636
179	0x3d977a9c	0.07396433
180	0x3d50fcb9	0.051022265
181	0x3c3f6bca	0.011683414
182	0x3dc41e44	0.09576085
183	0x3cde93c4	0.02717007
184	0x3d85d328	0.065344155
185	0xbdd48173	-0.10376253
186	0xbd62e413	-0.05539329
187	0x3db0cc30	0.08632696
188	0x3db37658	0.08762807
189	0x3daabe52	0.08337082
190	0x3d48b8aa	0.049004234
191	0x3a934fcb	0.001123899
192	0xbe1658be	-0.1468229
193	0xbdae183a	-0.085007146
194	0x3dd3ed06	0.10347943
195	0xbd426f6c	-0.04746954
196	0x3de5b12c	0.112154335
197	0xbdeb18b9	-0.11479325
198	0xbd5f7fbf	-0.054565188
199	0x3bc855d9	0.0061137495
200	0xbd9dbb50	-0.07701743
201	0x3dda2b6e	0.10652815
202	0x3dce6d31	0.1007942
203	0xbd3bb485	-0.045826454
204	0x3e0f005b	0.1396498
205	0x3dadb209	0.08481223
206	0x3ddf0fbc	0.10891673
207	0xbdc25d73	-0.0949048
208	0xbe017d54	-0.12645465
209	0x3c34632b	0.011009972
210	0x3c886495	0.016649524
211	0x3d6adfb4	0.057342246
212	0xbdf8f62d	-0.12156329
213	0x3df3768b	0.11887845
214	0x3a84d15e	0.0010133197
215	0x3dc79d4a	0.097467974
216	0x3d925a3b	0.07146116
217	0x3d972144	0.07379392
218	0xbd555f0c	-0.052092597
219	0xba9def40	-0.0012049451
220	0xbe046d9c	-0.12932438
221	0x3b50332a	0.0031768777
222	0xbd8396de	-0.0642526
223	0xbdd500b2	-0.10400523
224	0x3d4236e8	0.047415644
225	0xbddf9ba8	-0.10918361
226	0x3db2892c	0.0871757
227	0xbdc27f6e	-0.094969615
228	0x3b9b3944	0.004737051
229	0x3d140d32	0.036145397
230	0x3e0bf1be	0.13666436
231	0xbd64b440	-0.055835962
232	0xbdec3446	-0.11533408
233	0xbdba66e4	-0.09101656
234	0xbd976a4a	-0.0739332
235	0xbd9847e3	-0.07435586
236	0xbdd4a7b5	-0.1038355
237	0x3e188608	0.14894879
238	0x3b8bc172	0.004265004
239	0xbdf6f7a1	-0.1205895
240	0x3cfd0921	0.030888142
241	0x3c2636e5	0.010144924
242	0x3c7af731	0.015317724
243	0x3d1ed9d8	0.03878197
244	0x3d0481d8	0.03235039
245	0x3dad4418	0.084602535
246	0x3d817c6f	0.06322562
247	0x3ccebd3c	0.025236718
248	0x3dd3d5a4	0.10343483
249	0x3c566354	0.013085205
250	0xbd4ba512	-0.04971797
251	0xbd0e7fda	-0.034789898
252	0xbb7db9f1	-0.0038715566
253	0xbd863715	-0.06553475
254	0x3e128ac9	0.14310755
255	0x3cd9d700	0.026591778

module.gcn_layers.0.bnEdges.W5.weight f4 [50, 50]
0	0x3dc50f17	0.09622019
1	0xbda91a05	-0.08256916
2	0xbc8aef5b	-0.016959837
3	0x3c547f88	0.012969859
4	0x3e0b99eb	0.13632934
5	0xbd742adf	-0.059611198
6	0xbd888af4	-0.06667128
7	0x3d27eef0	0.040999353
8	0x3cb36c83	0.021902328
9	0x3d35ae97	0.044355955
10	0x3df80ac0	0.121114254
11	0xbdefc393	-0.11707225
12	0x3be5d207	0.0070135626
13	0xbcff4553	-0.031160986
14	0xbdfa4eb3	-0.12222042
15	0xbca34b66	-0.019933414
16	0x3d2bb987	0.04192498
17	0x3d92c4d6	0.0716645
18	0x3c39a39d	0.011330512
19	0xbdcb373e	-0.09922646
20	0xbd16ce8f	-0.036818083
21	0x3da1377a	0.078719094
22	0x3d4b776c	0.049674436
23	0xbde8dc47	-0.113701396
24	0x3d1e25f2	0.038610406
25	0xbd046277	-0.032320466
26	0x3ca39b14	0.019971408
27	0x3dd07af6	0.10179703
28	0xbda30dc1	-0.07961608
29	0xbc465255	-0.01210459
30	0x3de9d861	0.11418224
31	0xbc9e39ea	-0.019314725
32	0x3e1b51c9	0.15167917
33	0xbc9f2e9e	-0.019431408
34	0x3caa04de	0.020754274
35	0xbcd771c7	-0.02629937
36	0x3d0f6d43	0.03501631
37	0xbd25185d	-0.040306438
38	0x3e0a24bb	0.13490574
39	0x3df4e8ad	0.11958442
40	0x3b855548	0.004069004
41	0xbdaa0ab6	-0.08302824
42	0x3d072ac8	0.032999784
43	0xbc891e9b	-0.016738227
44	0xbdf6f3e5	-0.12058238
45	0x3bb6f9f8	0.005583998
46	0xbdd31c49	-0.10308129
47	0xbd330f1d	-0.043715585
48	0xbdea08c0	-0.1142745
49	0x3de909d5	0.113788284
50	0x3d79a5a6	0.06094899
51	0xbd91d574	-0.07120791
52	0x3da36f73	0.079802416
53	0xbdc3ea70	-0.095662
54	0x3c80b01f	0.015708981
55	0xbdf4f653	-0.11961045
56	0x3d93745a	0.07199927
57	0xbd8f0da5	-0.06985024
58	0xbd72d6ad	-0.059286762
59	0x3d0c91ef	0.03431886
60	0xbe0779c8	-0.1323005
61	0x3d910f8e	0.07083045
62	0xba3f8406	-0.0007305745
63	0xbdd48516	-0.10376947
64	0xbcb67735	-0.02227364
65	0xbdb8ab8a	-0.090170935
66	0x3d325a5a	0.043543197
67	0x3d23ff7f	0.040038582
68	0xbdd88869	-0.10572893
69	0x3dcb1e07	0.09917837
70	0xbd64ce14	-0.055860594
71	0x3dfcf150	0.12350714
72	0xbc6bd541	-0.014394105
73	0x3cb1bca3	0.021696394
74	0xbd4d8cb1	-0.050183002
75	0xbc2d983f	-0.01059538
76	0xbbcc5ed7	-0.0062368917
77	0xbd04bb76	-0.03240534
78	0xbdb181ee	-0.0866736
79	0x3b2ba4ce	0.002619076
80	0xbdf0563b	-0.11735197
81	0xbda46de1	-0.0802877
82	0xbd412d87	-0.04716256
83	0xbbd15d02	-0.006389261
84	0xbdc6e4fb	-0.09711643
85	0xbd951079	-0.072785325
86	0x3accc0b2	0.0015621393
87	0x3c4a607c	0.012352105
88	0x3bd48843	0.00648597
89	0xbdafe247	-0.08588081
90	0x3dd7d542	0.105387226
91	0xbd3aa5fd	-0.045568455
92	0xbdf2a220	-0.11847329
93	0x3daec266	0.08533172
94	0x3c6d839b	0.014496709
95	0xbc76f287	-0.015072471
96	0xbe069545	-0.1314288
97	0xbdac4d16	-0.084131405
98	0x3d99e229	0.0751384
99	0xbd2030fc	-0.039109215
100	0xbdc151e0	-0.094394445
101	0x3d999024	0.07498196
102	0xbde0a4ac	-0.10968909
103	0x3d98f5ed	0.074687816
104	0xbd32638a	-0.04355196
105	0x3d64e1bf	0.05587935
106	0x3c8212d1	0.015878113
107	0x3e084a9d	0.13309713
108	0x3d7bd5ad	0.061483074
109	0xbba0b111	-0.0049039205
110	0x3e0aea9a	0.13566056
111	0xbddcbd46	-0.107782885
112	0x3cbe47b8	0.023227558
113	0x3d52df35	0.051482398
114	0xbdebcf31	-0.11514128
115	0xbda39514	-0.07987419
116	0xbd8f6140	-0.07000971
117	0xbd8953a0	-0.06705403
118	0xbcbe5e31	-0.023238273
119	0xbdbcfcc1	-0.092278965
120	0x3e0d831c	0.13819546
121	0xbc0334c1	-0.008008183
122	0x3e1493a3	0.14509444
123	0x3d24dff8	0.040252656
124	0xbce675f2	-0.028132413
125	0x3c8a32e3	0.016869968
126	0xbdb2ad68	-0.08724481
127	0xbdc9b865	-0.098496236
128	0x3d7c349c	0.06157361
129	0xbc61d452	-0.013783531
130	0x3bce7eea	0.0063017504
131	0xbc38475a	-0.01124748
132	0x3ddd1bd5	0.10796324
133	0xbe0a6666	-0.13515624
134	0xbdad2a35	-0.08455316
135	0xbd8e77e0	-0.06956458
136	0xbd2ae06c	-0.04171793
137	0x3dd8d9c3	0.1058841
138	0x3dcd669c	0.10029337
139	0xbdca27a5	-0.09870843
140	0xbd391ada	-0.045191623
141	0x3dfaca1e	0.12245582
142	0xbdd8d88f	-0.1058818
143	0x3c260e5b	0.010135259
144	0x3d47d4dd	0.048786987
145	0x3d94e8ff	0.07271003
146	0x3dc07c6e	0.09398733
147	0x3dc5f0fb	0.09665104
148	0x3d2a8ee2	0.04164017
149	0xbe0d3442	-0.13789466
150	0xbd93b1ce	-0.07211648
151	0xbd15facc	-0.03661613
152	0xbdb9c092	-0.09069933
153	0xbdabf72b	-0.08396753
154	0x3cb1b5ee	0.021693196
155	0xbd2e550a	-0.04256157
156	0x3d0ab227	0.033861306
157	0x3d59f5c2	0.05321289
158	0x3d9433c9	0.0723644
159	0xbded41f9	-0.11584849
160	0x3dea4cc1	0.11440421
161	0x3d8c0778	0.06837362
162	0x3ccb9c26	0.02485473
163	0xbcdbdebb	-0.026839605
164	0xbd10fb46	-0.035395883
165	0x3c842451	0.016130598
166	0xbcb95a11	-0.022625955
167	0xbdf4ee56	-0.119595215
168	0x3c4d8989	0.012544998
169	0xbdb8b507	-0.09018903
170	0xbdfa8c65	-0.122338094
171	0x3dbdff2d	0.092771865
172	0xbce01c5b	-0.027357271
173	0xbcc69533	-0.024241066
174	0xbd02ba2e	-0.031915836
175	0xbd6d62e0	-0.057955623
176	0x3d7fc473	0.062443208
177	0xbc86e593	-0.016466891
178	0xbd5c6ef1	-0.05381674
179	0x3e058b38	0.13041389
180	0x3dc67fe6	0.096923634
181	0x3dd4a9a2	0.103839174
182	0xbe1da1f5	-0.15393813
183	0x3d1ee5a3	0.038793217
184	0x3cac3ddb	0.021025589
185	0x3e007ac1	0.12546827
186	0x3d5f7074	0.054550603
187	0x3cb5f612	0.022212062
188	0x3dadae2a	0.08480485
189	0x3d9a2348	0.075262606
190	0xbdef523d	-0.116856076
191	0xbe0174d7	-0.12642227
192	0xbd76fc16	-0.060299
193	0xbcb7dde8	-0.02244468
194	0x3d35d7bb	0.04439519
195	0x3dd77aeb	0.105214916
196	0xbdf05bb1	-0.11736239
197	0xbcf5e7f6	-0.030017834
198	0xbdc8b207	-0.09799581
199	0x3e0146fb	0.12624733
200	0x3da02173	0.0781888
201	0x3db7bd7f	0.089716904
202	0xbc91febe	-0.017821666
203	0xbda49b81	-0.080374725
204	0xbda45641	-0.08024264
205	0x3bebe1a7	0.0071985307
206	0x3c296557	0.010339103
207	0x3c164139	0.009170824
208	0x3dea44e6	0.114389226
209	0xbda54452	-0.08069672
210	0x3dc9da63	0.09856107
211	0x3d5b7e65	0.053587336
212	0xbdf26ebb	-0.118375264
213	0xbd7c99fd	-0.061670292
214	0xbd96b7ac	-0.073592514
215	0x3c0369ef	0.008020862
216	0x3dadbdcf	0.08483469
217	0x3da2d45d	0.07950661
218	0xbc8c7121	-0.017143788
219	0x3e0cc45c	0.1374678
220	0x3d6ffb26	0.058589123
221	0x3d1a54d8	0.03767857
222	0xbdfea67a	-0.12434097
223	0xbdee8316	-0.116460964
224	0x3dc08da8	0.09402019
225	0x3d86e24a	0.0658613
226	0xbd7363ed	-0.05942147
227	0xbdcb94ed	-0.09940515
228	0xbb212662	-0.0024589528
229	0xbe0e3f7a	-0.13891402
230	0x3dd6dd85	0.1049147
231	0x3d857912	0.06517233
232	0x3d05a57d	0.032628525
233	0xbddca55a	-0.10773726
234	0xbce5fe11	-0.02807525
235	0xbd9c7b02	-0.076406494
236	0x3d9ae4ac	0.07563147
237	0x3e142b13	0.14469557
238	0xbb071ddf	-0.002061717
239	0xbd3be318	-0.04587087
240	0x3dde9306	0.10867886
241	0xbd2d5eee	-0.04232686
242	0xbd7cfe98	-0.061766237
243	0xbddb71d1	-0.10715068
244	0x3ceeff4b	0.029174468
245	0x3dd760f4	0.10516539
246	0x3dce0fb8	0.10061592
247	0x3d42a850	0.047523797
248	0x3dcaada6	0.09896402
249	0xbdd2fb5a	-0.10301848
250	0x3e098e10	0.13433099
251	0xbd282847	-0.041054036
252	0xbe08f177	-0.13373362
253	0x3d8ccbe1	0.06874824
254	0x3cfca35f	0.03083962
255	0xbcf4adc2	-0.02986801

module.gcn_layers.0.bnEdges.batch_norm.weight f4 [50]
0	0x3f81327b	1.009353
1	0x3f820053	1.0156349
2	0x3f81137a	1.0084069
3	0x3f7c5f31	0.9858275
4	0x3f7d6f6c	0.9899814
5	0x3f81b846	1.0134361
6	0x3f81f91a	1.0154145
7	0x3f81da0f	1.0144671
8	0x3f7e0e2d	0.9924038
9	0x3f8195fd	1.0123898
10	0x3f80db0e	1.006685
11	0x3f8118e3	1.008572
12	0x3f80becf	1.005823
13	0x3f80f7e4	1.007565
14	0x3f7da9b2	0.9908706
15	0x3f81af73	1.0131668
16	0x3f7d1f24	0.9887564
17	0x3f7d538d	0.98955613
18	0x3f7f284e	0.99670875
19	0x3f818902	1.0119936
20	0x3f81bdeb	1.0136083
21	0x3f7c263c	0.9849584
22	0x3f81cea6	1.0141189
23	0x3f81d907	1.0144356
24	0x3f80b6f5	1.0055834
25	0x3f814fec	1.0102515
26	0x3f7d6f4d	0.98997957
27	0x3f7d0e04	0.9884951
28	0x3f80d8fb	1.0066217
29	0x3f7e8d47	0.9943432
30	0x3f819581	1.012375
31	0x3f81a5dd	1.0128742
32	0x3f806500	1.0030823
33	0x3f7fdaa6	0.99943006
34	0x3f7e950f	0.99446195
35	0x3f815bb2	1.0106108
36	0x3f7fa596	0.9986204
37	0x3f8064e1	1.0030786
38	0x3f81ec3a	1.0150216
39	0x3f81a064	1.0127072
40	0x3f7eab4d	0.99480134
41	0x3f81c2f9	1.0137626
42	0x3f81d040	1.0141678
43	0x3f81c723	1.0138897
44	0x3f81c993	1.013964
45	0x3f81a4eb	1.0128454
46	0x3f7e183a	0.99255717
47	0x3f7c92e6	0.9866165
48	0x3f7db376	0.9910196
49	0x3f81eb14	1.0149865

module.gcn_layers.0.bnEdges.batch_norm.bias f4 [50]
0	0x3c1c6381	0.009545208
1	0x3c5b166d	0.013372046
2	0xbbe59530	-0.00700631
3	0xbc667f8c	-0.0140684955
4	0xbc179cf6	-0.009253731
5	0x3ba8815b	0.0051423735
6	0xbc3eb50d	-0.011639846
7	0x3c61fb31	0.013792799
8	0xbc3f5539	-0.0116780335
9	0xbc129234	-0.00894599
10	0x3c38937d	0.011265633
11	0x3b1a6550	0.0023558922
12	0x3c2a8900	0.01040864
13	0x3c384678	0.01124727
14	0xbc2751e4	-0.010212395
15	0x3c60578f	0.013692751
16	0xbc3fa018	-0.011695884
17	0xbc369a27	-0.011145151
18	0x3ba6e3c9	0.005093072
19	0x3c6ebd10	0.014571443
20	0x3b385eee	0.0028132754
21	0xbc61340d	-0.01374532
22	0x3c4e4d6c	0.012591701
23	0x3c6cedaa	0.01446096
24	0xbbce67d2	-0.0062989974
25	0x3c4ba3bc	0.012429174
26	0x3706f8e0	8.044968e-06
27	0xbc027b36	-0.007963946
28	0x3c1f9e74	0.009742368
29	0xbb44f94d	-0.0030055821
30	0x3c502e7c	0.012706395
31	0x3c68f7f4	0.014219273
32	0x3c3a908d	0.011387003
33	0x3a8b8177	0.0010643442
34	0xbc65bb84	-0.014021758
35	0x3c39ee47	0.011348314
36	0xbb44a172	-0.0030003455
37	0x3c576efc	0.013149019
38	0x3c81a6fe	0.015826698
39	0x3c448f09	0.011996993
40	0xba8850e8	-0.0010400089
41	0x3c6fb6d7	0.014630995
42	0x3c6fc010	0.014633194
43	0x3c69ce5a	0.014270389
44	0x3c73aacc	0.014872264
45	0x3c6832fc	0.014172312
46	0xbc025664	-0.007955167
47	0xbc4164bb	-0.011803801
48	0xbb8b1f52	-0.004245677
49	0x3c816a8a	0.015797872
