logs/deafult/best_val_checkpoint.tar (torch, 489841 bytes, 103 tensors)

module.NodesEncoding.A1.weight f4 [50, 2]
-0.5804492 0.37782627 -0.58075684 -0.5776637 0.3941733 0.25108504 -0.39068064 -0.67829466
-0.21255763 0.18920632 0.3428317 -0.14414679 0.51415825 -0.22657073 0.12510231 -0.42337468
-0.07222952 0.45822155 -0.389734 0.56341666 -0.6401636 0.14375578 0.47676304 0.65630823
0.6242611 0.70264333 0.20293866 0.06250211 0.33749938 -0.36852366 0.37510103 -0.46761224
-0.24286084 -0.48398936 0.64729345 0.3438886 -0.18017714 -0.32152414 0.17972058 -0.43403676
-0.14993127 0.31081885 0.55023694 -0.40653855 -0.28715277 0.51062447 0.71422154 0.20094015
-0.69746286 -0.47867906 -0.1250917 0.5698336 -0.39896515 -0.47417182 -0.4412025 -0.21830377
0.09298292 0.5723178 -0.38011461 0.5763987 -0.29878992 -0.5971556 -0.6363407 0.6730178
-0.6977911 -0.014556313 0.06275978 0.07670021 0.082372874 0.54573303 -0.20960741 0.42625073
0.29530442 0.015555381 -0.119007155 -0.33480495 -0.5754797 0.4744446 0.36252326 0.62424904
0.33137384 -0.2477811 0.357402 0.6564703 0.65861076 0.061613727 0.12090928 -0.3963283
0.34204 -0.2955586 0.7008686 0.508661 0.18537743 -0.14885774 -0.29044592 0.15890318
0.64487875 0.21631049 0.15038465 -0.30614746
00000000: 5298 14bf 7272 c13e 7bac 14bf c5e1 13bf
00000010: 15d1 c93e 388e 803e 4b07 c8be b8a4 2dbf
00000020: b5a8 59be 4dbf 413e a387 af3e 379b 13be
00000030: e09f 033f 2802 68be d21a 003e 91c4 d8be
00000040: 12ed 93bd 049c ea3e 378b c7be 133c 103f
00000050: c3e1 23bf b734 133e 491a f43e d103 283f
00000060: 93cf 1f3f 6fe0 333f 27cf 4f3e 1b01 803d
00000070: b8cc ac3e 22af bcbe 3e0d c03e df6a efbe
00000080: 83b0 78be 74cd f7be 06b5 253f 2b12 b03e
00000090: 5b80 38be d09e a4be ac08 383e 113a debe
000000a0: 9587 19be a623 9f3e 54dc 0c3f d225 d0be
000000b0: b005 93be 49b8 023f 39d7 363f 41c3 4d3e
000000c0: ed8c 32bf 6c15 f5be 0a18 00be 9de0 113f
000000d0: 2945 ccbe a6c6 f2be 4be5 e1be 068b 5fbe
000000e0: d46d be3d 6b83 123f 629e c2be dd8e 133f
000000f0: fefa 98be 30df 18bf 39e7 22bf e54a 2c3f
00000100: 70a2 32bf 9a7d 6ebc 3388 803d 0015 9d3d
00000110: 1cb3 a83d 29b5 0b3f 53a3 56be 893d da3e
00000120: 2432 973e ffdb 7e3c 06ba f3bd 8e6b abbe
00000130: a352 13bf 67ea f23e a69c b93e c9ce 1f3f
00000140: d5a9 a93e 54ba 7dbe 65fd b63e 700e 283f
00000150: b79a 283f ad5e 7c3d 499f f73d 8beb cabe
00000160: de1f af3e 7553 97be 206c 333f 9b37 023f
00000170: 95d3 3d3e 2a6e 18be 54b5 94be 84b7 223e
00000180: c616 253f 7f80 5d3e 6ffe 193e 5cbf 9cbe

module.NodesEncoding.A1.bias f4 [50]
0.2534177 0.56068575 0.64329916 0.24374798 -0.09821229 0.3050681 0.5790193 -0.3054788
-0.18223159 -0.28445953 0.008649073 0.45726374 0.35693306 0.70257586 -0.5434414 0.3075844
-0.33587503 0.6230455 0.08042381 -0.28066146 -0.44970247 -0.4682939 -0.24393378 -0.4209288
0.3528554 -0.24058111 -0.5306108 0.03597125 -0.13097031 0.39746308 -0.35239694 -0.122475736
-0.3673357 -0.3798251 -0.19127284 0.44994602 -0.03436272 -0.2826728 0.04250367 0.5169589
0.6188836 0.01260862 0.69894916 0.16323084 0.4975016 0.69630647 -0.46329406 0.26515085
-0.039471693 0.18114305
00000000: f7bf 813e 1a89 0f3f 41af 243f 1299 793e
00000010: 8623 c9bd e331 9c3e 9c3a 143f b867 9cbe
00000020: eb9a 3abe aea4 91be d7b4 0d3c 791e ea3e
00000030: eebf b63e 03dc 333f fa1e 0bbf b47b 9d3e
00000040: d0f7 abbe e97f 1f3f 3db5 a43d dcb2 8fbe
00000050: 673f e6be 38c4 efbe c7c9 79be fb83 d7be
00000060: 77a9 b43e e55a 76be 1cd6 07bf 9756 133d
00000070: 151d 06be 4880 cb3e 5f6d b4be 8fd4 fabd
00000080: 6d13 bcbe 6f78 c2be 07dd 43be 535f e63e
00000090: ecbf 0cbd 7dba 90be 5418 2e3d 6b57 043f
000000a0: 286f 1e3f 6394 4e3c 55ee 323f fc25 273e
000000b0: 88b8 fe3e 2441 323f e134 edbe dac1 873e
000000c0: 12ad 21bd 907d 393e

module.EdgesEncoding.A2.weight f4 [25, 1]
0.090810806 -0.73648304 0.9354697 -0.65370744 -1.0083424 -0.84170073 0.27708757 -0.045683727
0.61820894 -0.13914727 0.03166844 0.5871402 0.8573794 0.08251947 -0.28355956 0.8258593
0.69087386 0.5723546 0.09133374 0.48188803 0.7158227 0.91463995 0.16210559 -0.38851127
0.36922473
00000000: 04fb b93d 278a 3cbf f17a 6f3f 5f59 27bf
00000010: 5d11 81bf b379 57bf 6cde 8d3e dc1e 3bbd
00000020: f142 1e3f 9f7c 0ebe c4b6 013d d24e 163f
00000030: 377d 5b3f f8ff a83d b82e 91be 846b 533f
00000040: 1cdd 303f d585 123f 2f0d bb3d 07ba f63e
00000050: 2840 373f d825 6a3f 02ff 253e f3ea c6be
00000060: 060b bd3e

module.EdgesEncoding.A2.bias f4 [25]
-0.14434211 0.056100935 -0.9065086 -0.19049782 0.6047799 0.5726785 -0.21331342 0.0967768
-0.74215496 0.14648645 -0.44939592 0.73391515 -0.1762553 -0.11859777 0.3110799 0.7228953
0.74968326 -0.3139305 0.60304135 0.15817706 0.1769687 -0.32236496 0.42707247 0.16777746
0.39870232
00000000: 6bce 13be 18ca 653d f310 68bf dc11 43be
00000010: dbd2 1a3f 0f9b 123f d56e 5abe ea32 c63d
00000020: defd 3dbf 8b00 163e 3917 e6be dde1 3b3f
00000030: 457c 34be 63e3 f2bd dd45 9f3e ab0f 393f
00000040: 3eeb 3f3f 80bb a0be eb60 1a3f 2bf9 213e
00000050: 4837 353e 050d a5be 3ea9 da3e dbcd 2b3e
00000060: b622 cc3e

module.EdgesEncoding.A3.weight f4 [25, 1]
-0.44907525 0.048840284 -0.9300205 0.06682999 -0.9004895 0.2008557 -0.13089652 -0.5458496
0.88236976 -0.037045587 0.19223852 -0.062162038 0.65704644 0.4062646 0.0064414972 -0.32502267
0.6521178 0.26391876 0.21610624 -0.23799272 -0.6682802 -0.027472364 0.36304265 -0.42643544
0.39717263
00000000: 31ed e5be c00c 483d d315 6ebf 29de 883d
00000010: 7b86 66bf 1ead 4d3e bd09 06be cdbc 0bbf
00000020: fce2 613f 1dbd 17bd 2dda 443e 9f9d 7ebd
00000030: 3234 283f ea01 d03e 3213 d33b 5f69 a6be
00000040: 31f1 263f 5c20 873e f44a 5d3e 5db4 73be
00000050: 6914 2bbf b90d e1bc bae0 b93e bf55 dabe
00000060: 365a cb3e

module.EdgesEncoding.A3.bias f4 [25]
0.65496236 0.67905116 -0.12643175 0.28085127 -0.2965202 -0.3050185 0.65227854 -0.81317234
0.62432617 -0.2533951 -0.926673 0.7078067 0.90194196 -0.73545545 0.24867962 -0.5279996
-0.24623726 -0.9902396 -0.3035398 0.24904886 0.9965526 0.17592742 -0.80739605 -0.7619312
-0.24396925
00000000: 9dab 273f 4cd6 2d3f 5377 01be bdcb 8f3e
00000010: 7fd1 97be 632b 9cbe bafb 263f 102c 50bf
00000020: d7d3 1f3f 01bd 81be 713a 6dbf d232 353f
00000030: abe5 663f cf46 3cbf dfa5 7e3e fb2a 07bf
00000040: 9f25 7cbe 5880 7dbf 9269 9bbe aa06 7f3e
00000050: 121e 7f3f 5126 343e 82b1 4ebf ec0d 43bf
00000060: 13d3 79be

module.gcn_layers.0.bnNodes.W1.weight f4 [50, 50]
0.14828141 0.009633402 -0.05061679 -0.006694349 0.11950865 -0.081697874 -0.1276972 -0.14859408
0.076064155 0.113398194 0.15090096 -0.097443834 -0.019651137 0.015630642 0.06179626 -0.009465555
-0.13674752 -0.103842184 0.061683983 0.029391684 0.12945496 0.053481087 -0.020232588 -0.10363702
-0.0078654885 -0.047407866 0.018493919 -0.08808982 -0.067681946 -0.029159509 0.13171649 -0.06457469
-0.082245596 0.07842233 -0.046154402 -0.10638284 -0.03850666 -0.04102813 0.03654025 0.07066966
0.035802048 0.03740521 0.06875313 0.06503275 0.1213426 -0.13715753 0.0346925 -0.08160597
-0.06651596 -0.092920065 -0.01258921 -0.117680065 0.13807616 -0.047719736 -0.016804729 0.041463803
0.03574764 0.08201916 -0.11827358 -0.10422892 0.072626844 0.0282023 0.123582445 0.1385596
-0.0055994885 -0.013807096 -0.08686456 -0.12015733 -0.13323556 -0.07512475 0.025548788 -0.11414077
0.04893681 0.013507793 -0.0197559 0.02921537 0.11565284 0.0104275765 -0.14245573 -0.038262628
-0.08487247 0.010347724 0.0891918 0.096609406 0.062215827 -0.077986844 -0.087772794 0.12702703
-0.087848604 0.13614339 0.12213264 0.11685813 -0.030838268 -0.030314825 -0.13472964 -0.13215181
-0.062270284 0.0064016813 0.1381703 -0.044772286 -0.123075314 -0.045405757 -0.0052139936 0.032206457
-0.02719006 0.0529172 0.08647026 -0.118275195 -0.063058905 -0.12732926 0.03931693 -0.04280074
0.063717805 -0.050220348 0.080316246 0.09637404 0.11008171 -0.011473723 -0.0117884055 -0.043723516
-0.14184996 -0.09777504 -0.105793096 0.031272538 -0.079206854 0.1371514 -0.11651261 0.119580016
-0.10994149 -0.06597561 0.04620477 -0.039466936 -0.078985125 0.0064697918 0.07099178 0.11297727
0.12672527 -0.12583074 0.031058157 0.016696678 -0.034119118 -0.096937984 0.051391702 0.08396909
-0.10480029 -0.051272232 -0.038870297 0.063068114 -0.08072384 -0.10390176 -0.106402114 -0.080774575
0.08195652 -0.013217291 0.010519328 -0.09282492 0.01451721 0.051459372 -0.05867111 0.12633422
0.07107517 -0.10017004 0.0041845622 0.08697771 0.062526144 -0.09470994 0.07902961 0.025722971
0.1444647 -0.067306414 0.041122116 0.11283472 0.09969462 0.007895597 0.08771579 0.09441383
-0.004134218 -0.051121596 0.12165598 0.0018628271 0.039013542 -0.013442363 -0.09769495 0.115337245
-0.13754088 -0.09585645 0.017484812 0.0062832325 -0.061490625 0.09380718 -0.1117626 0.039846234
-0.09116233 0.10882622 -0.14464727 0.0399521 0.06311115 0.13068718 -0.14513128 -0.08010149
0.033982225 -0.053687457 -0.11635215 -0.115605615 -0.107227236 0.09742463 -0.0076514957 -0.14252843
-0.12232915 -0.040794697 0.023099717 -0.029360866 0.009744104 -0.07646769 -0.06838658 -0.09668442
0.09586695 -0.035007667 -0.021925304 0.09386379 -0.037713178 -0.039546743 0.07504079 0.13851441
-0.01078547 0.035941087 -0.119189866 0.09948716 -0.05682802 0.105992176 -0.1365222 -0.05847125
-0.1130976 0.09254338 -0.020622091 -0.0701371 -0.08477601 0.04373689 -0.0392874 0.067423835
0.06386768 0.05634703 -0.064081304 0.12877402 -0.11534949 0.054544576 0.12286723 -0.068872005
-0.0133825075 0.08059942 -0.036543045 -0.13095282 0.08176911 0.022434039 0.006564193 0.120387465
00000000: 15d7 173e 6bd5 1d3c 8d53 4fbd 455c dbbb
00000010: f3c0 f43d 3751 a7bd 0ec3 02be 0c29 18be
00000020: 86c7 9b3d 503d e83d c885 1a3e a290 c7bd
00000030: 6cfb a0bc d50b 803c 131e 7d3d 6a15 1bbc
00000040: 8b07 0cbe 36ab d4bd 58a8 7c3d d4c6 f03c
00000050: d78f 043e fc0e 5b3d d0be a5bc a53f d4bd
00000060: 40de 00bc c02e 42bd 8f80 973c 7068 b4bd
00000070: d59c 8abd ecdf eebc b0e0 063e bc3f 84bd
00000080: 6170 a8bd e39b a03d 660c 3dbd 3fdf d9bd
00000090: 29b9 1dbd 1d0d 28bd 3bab 153d 41bb 903d
000000a0: 2ba5 123d 3536 193d 71ce 8c3d e42f 853d
000000b0: 7882 f83d 0673 0cbe b919 0e3d 0821 a7bd
000000c0: 8539 88bd e04c bebd f942 4ebc 3f02 f1bd
000000d0: d663 0d3e c575 43bd 12aa 89bc f3d5 293d
000000e0: 1e6c 123d a9f9 a73d 6b39 f2bd f975 d5bd
000000f0: 62bd 943d 8308 e73c cb18 fd3d 91e2 0d3e
00000100: ea7b b7bb 2837 62bc 0ce6 b1bd 0c15 f6bd
00000110: e76e 08be 01db 99bd b14b d13c a3c2 e9bd
00000120: f771 483d ca4f 5d3c 20d7 a1bc 1255 ef3c
00000130: 65db ec3d 6dd8 2a3c eadf 11be 46b9 1cbd
00000140: 9ed1 adbd 8089 293c 31aa b63d 27db c53d
00000150: 06d6 7e3d 91b7 9fbd 39c2 b3bd 6013 023e
00000160: f8e9 b3bd 2c69 0b3e ad20 fa3d 5153 ef3d
00000170: 89a0 fcbc cc56 f8bc 91f6 09be ce52 07be
00000180: 200f 7fbd 32c5 d13b 847c 0d3e 2563 37bd
00000190: e90e fcbd 63fb 39bd 26da aabb ebea 033d
000001a0: b0bd debc b5bf 583d 5217 b13d 443a f2bd
000001b0: 0725 81bd 9a62 02be ca0a 213d d44f 2fbd
000001c0: 7b7e 823d dab3 4dbd d87c a43d c15f c53d
000001d0: 8572 e13d 48fc 3bbc 2824 41bc 6e17 33bd
000001e0: 1e41 11be 483e c8bd 0daa d8bd a217 003d
000001f0: 3437 a2bd 6b71 0c3e 2a9e eebd 5ee6 f43d
00000200: 0129 e1bd 381e 87bd 3741 3d3d 15a8 21bd
00000210: f4c2 a1bd 8c00 d43b 2364 913d a060 e73d
00000220: 45c4 013e c6d9 00be ad6d fe3c 79c7 883c
00000230: 7dc0 0bbd 6c87 c6bd 1b80 523d fcf7 ab3d
00000240: 89a1 d6bd d502 52bd 7636 1fbd db29 813d
00000250: 8a52 a5bd 72ca d4bd 5ae9 d9bd 246d a5bd
00000260: d2d8 a73d 568d 58bc 4259 2c3c fe1a bebd
00000270: 98d9 6d3c 10c7 523d 1e51 70bd c25d 013e
00000280: dc8f 913d f325 cdbd a71e 893b 5f21 b23d
00000290: b50d 803d 49f7 c1bd 47da a13d fbb8 d23c
000002a0: 8eee 133e f2d7 89bd aa6f 283d e415 e73d
000002b0: b12c cc3d 895c 013c 56a4 b33d 0a5c c13d
000002c0: 5678 87bb e164 51bd c526 f93d 1b2a f43a
000002d0: aacc 1f3d 5b3d 5cbc 4a14 c8bd ef35 ec3d
000002e0: 84d7 0cbe 6350 c4bd 4f3c 8f3c 93e3 cd3b
000002f0: 98dd 7bbd fb1d c03d cae3 e4bd ce35 233d
00000300: 51b3 babd 48e0 de3d 6a1e 14be d0a4 233d
00000310: 6b40 813d dcd2 053e 4b9d 14be 400c a4bd
00000320: f230 0b3d 61e7 5bbd 094a eebd a3c2 ecbd
00000330: f499 dbbd 9086 c73d 66b9 fabb f9f2 11be
00000340: b587 fabd 5718 27bd 9e3b bd3c 3386 f0bc
00000350: bca5 1f3c 189b 9cbd 430e 8cbd 7b02 c6bd
00000360: e455 c43d 3364 0fbd b29c b3bc a93b c03d
00000370: 2279 1abd c4fb 21bd fcae 993d b9d6 0d3e
00000380: 8ab5 30bc f636 133d d119 f4bd edbf cb3d
00000390: 7fc4 68bd 6d12 d93d 7acc 0bbe 8d7f 6fbd
000003a0: b79f e7bd 6287 bd3d a9ef a8bc 0aa4 8fbd
000003b0: 0b9f adbd 7425 333d d3eb 20bd 8215 8a3d
000003c0: 0fcd 823d 25cc 663d 0f3d 83bd 56dd 033e
000003d0: 5a3c ecbd 226a 5f3d d0a1 fb3d c40c 8dbd
000003e0: 4e42 5bbc 4f11 a53d 29ae 15bd 7f18 06be
000003f0: 9076 a73d 97c7 b73c 7118 d73b b48d f63d

module.gcn_layers.0.bnNodes.W2.weight f4 [50, 50]
-0.100444086 0.106541544 -0.024873242 0.12810466 -0.0960003 0.04382016 -0.008510107 -0.032182194
0.11722976 -0.018518044 0.011359475 -0.09877425 -0.119222045 0.14046733 -0.039034728 0.055399366
-0.01577347 -0.10425985 0.12430921 0.0064161746 0.07031084 0.037320897 -0.10958411 -0.043209616
0.08851507 -0.059274033 -0.084486514 -0.102973014 0.00049520144 0.041198544 -0.12628162 0.07433988
-0.06134185 0.042246424 -0.070702195 0.12973708 -0.097201504 0.046519272 -0.08287869 -0.011674023
0.11448955 0.07768439 -0.050606936 0.05834642 -0.044976823 -0.06646195 -0.027829912 0.112411566
0.07886446 -0.12330894 0.11175502 -0.0006829835 0.13210271 0.0055201696 -0.021419404 -0.075422846
-0.035454925 -0.048345968 0.052840427 -0.06694514 -0.13357782 -0.08466618 0.10273318 0.016239695
-0.022846315 -0.020368094 0.13257977 0.07944055 -0.007096692 0.10255532 0.1341415 0.13552809
0.0048692278 0.08461549 -0.049082775 0.035135426 0.11895014 -0.12903501 -0.014990813 0.11828754
-0.118700676 -0.021267261 -0.046323333 0.07573373 0.0032758927 -0.13629343 -0.10615967 0.07210276
0.0052090464 0.1361449 0.016171006 0.11685769 0.05765284 -0.12824649 0.09440782 0.033407684
-0.053828977 0.041399304 -0.058619186 -0.049721148 -0.02686331 0.07828209 -0.1188303 -0.08081783
0.13487794 0.10857398 0.14040689 -0.055328265 -0.02254754 -0.13701364 -0.11788717 0.02136801
0.00030393485 -0.025155338 -0.05904315 -0.085032046 0.0876054 0.05589382 -0.02319917 0.13567315
0.0025632442 0.11300239 -0.012001903 -0.0398642 -0.11599781 -0.077253096 -0.081744045 -0.07511881
0.13630393 -0.13544865 0.11587808 -0.09287513 -0.14725563 0.06403555 -0.102040015 -0.05260432
0.057177722 -0.06719407 0.031084524 0.096593305 -0.0041313902 -0.06550743 -0.0699145 0.026526963
-0.064415805 -0.060012005 0.0729744 0.0063151354 0.062363956 0.06793349 -0.13225755 0.0182424
0.009803504 0.00606428 0.002989876 -0.03498989 -0.12821567 0.10940013 -0.01062649 -0.024041686
0.12380158 -0.063759 -0.08422281 -0.02979048 -0.10066083 -0.07873383 -0.051524423 0.12741797
-0.027677393 -0.13152099 -0.02012423 -0.06736625 -0.09279049 -0.0595696 -0.12699716 -0.057546403
-0.119034015 -0.04632705 -0.140655 0.024001671 0.030804094 -0.073122196 0.0018586287 -0.10047167
-0.11675357 0.0020176072 -0.038542505 -0.11318603 0.08362824 0.027164178 -0.14990619 -0.10945454
0.05491774 0.022003705 0.082270615 -0.0060708183 -0.00015313651 -0.06295636 -0.069527805 -0.107398756
0.055601425 0.11367272 0.052082896 -0.03351463 0.02185787 -0.15280735 -0.03136945 0.11552878
-0.01823586 0.011519138 0.14551386 0.10602565 -0.016967956 -0.1392479 0.11705154 0.05451559
-0.004465888 0.119666785 0.050804663 -0.021637687 0.1275972 0.022329278 0.08116813 -0.0016870187
0.07138148 -0.026398437 0.033667732 -0.14049721 0.10187141 0.034106456 0.0786002 -0.07698238
-0.00038630248 0.029627472 -0.012825166 -0.03524252 0.057521738 0.0291715 -0.12482617 0.022837987
0.08113328 0.116364114 0.0908134 0.07796885 -0.009580816 -0.120522335 -0.099223636 0.041260023
-0.04755148 -0.06767582 -0.031758044 0.06599211 -0.051116068 -0.07670776 -0.007266935 0.14415114
00000000: a1b5 cdbd 7432 da3d f8c2 cbbc de2d 033e
00000010: ce9b c4bd c57c 333d fa6d 0bbc 7ad1 03bd
00000020: 2816 f03d 27b3 97bc 171d 3a3c 274a cabd
00000030: b02a f4bd abd6 0f3e e1e2 1fbd 72ea 623d
00000040: 5d37 81bc 3086 d5bd d495 fe3d c63e d23b
00000050: 21ff 8f3d ccdd 183d a26d e0bd 91fc 30bd
00000060: 6447 b53d 54c9 72bd 4407 adbd 84e3 d2bd
00000070: 68d0 013a cebf 283d f84f 01be 823f 983d
00000080: 9741 7bbd 960a 2d3d 50cc 90bd ccd9 043e
00000090: 9511 c7bd fe8a 3e3d 4dbc a9bd 6744 3fbc
000000a0: 7f79 ea3d fe18 9f3d 3849 4fbd a8fc 6e3d
000000b0: 9e39 38bd 341d 88bd 8efb e3bc 0938 e63d
000000c0: b183 a13d 6689 fcbd d1df e43d 3f0a 33ba
000000d0: ef45 073e 8ae2 b43b bf77 afbc 4b77 9abd
000000e0: 2f39 11bd 6c06 46bd 346f 583d 891a 89bd
000000f0: a0c8 08be 7665 adbd c665 d23d 1c09 853c
00000100: 3228 bbbc fdda a6bc fec2 073e bab1 a23d
00000110: 5e8b e8bb 8608 d23d 645c 093e e0c7 0a3e
00000120: 0b8e 9f3b e34a ad3d 050b 49bd 2aea 0f3d
00000130: 229c f33d c121 04be 079c 75bc bd40 f23d
00000140: 5719 f3bd ae38 aebc 89bd 3dbd 491a 9b3d
00000150: 5cb0 563b 8190 0bbe 3e6a d9bd 9daa 933d
00000160: a6b0 aa3b 9269 0b3e 0f79 843c 1653 ef3d
00000170: 6225 6c3d 0c53 03be e358 c13d 7fd6 083d
00000180: c67b 5cbd 5192 293d ac1a 70bd 67a8 4bbd
00000190: 7210 dcbc 5c52 a03d 4d5d f3bd d283 a5bd
000001a0: 711d 0a3e 095c de3d d3c6 0f3e e49f 62bd
000001b0: 9eb5 b8bc 4e4d 0cbe d46e f1bd f70b af3c
000001c0: 7259 9f39 9112 cebc 3bd7 71bd 4825 aebd
000001d0: 766a b33d ebf0 643d 300c bebc e7ed 0a3e
000001e0: 1afc 273b cc6d e73d a1a3 44bc a548 23bd
000001f0: 4390 edbd df36 9ebd 6c69 a7bd e4d7 99bd
00000200: 4293 0b3e 0db3 0abe 7d51 ed3d 5135 bebd
00000210: 2eca 16be 1225 833d 5bfa d0bd a177 57bd
00000220: 3033 6a3d 0b9d 89bd f9a4 fe3c b6d2 c53d
00000230: 9d60 87bb c228 86bd 552f 8fbd 134f d93c
00000240: 6fec 83bd 26cf 75bd 9a73 953d 32ef ce3b
00000250: 5971 7f3d b720 8b3d 866e 07be 1671 953c
00000260: e09e 203c deb6 c63b ccf1 433b 8f51 0fbd
00000270: f84a 03be 2d0d e03d bb1a 2ebc 12f3 c4bc
00000280: af8b fd3d 1494 82bd 027d acbd 2a0b f4bc
00000290: 4427 cebd 343f a1bd 460b 53bd db79 023e
000002a0: b3bb e2bc 70ad 06be 92db a4bc 51f7 89bd
000002b0: f108 bebd 41ff 73bd 8b0b 02be c7b5 6bbd
000002c0: 1bc8 f3bd 6fc1 3dbd dd07 10be 279f c43c
000002d0: de58 fc3c 17c1 95bd 3b9d f33a 17c4 cdbd
000002e0: 7f1c efbd d539 043b bfde 1dbd 14ce e7bd
000002f0: 4845 ab3d 6987 de3c 0281 19be b429 e0bd
00000300: 6df1 603d 1d41 b43c 7f7d a83d b7ed c6bb
00000310: 4593 20b9 44ef 80bd 9864 8ebd e1f3 dbbd
00000320: 52be 633d 3ecd e83d e054 553d a346 09bd
00000330: 470f b33c 8879 1cbe 417d 00bd 5a9a ec3d
00000340: 5f63 95bc c4ba 3c3c 9601 153e fa23 d93d
00000350: 6200 8bbc 0097 0ebe b8b8 ef3d bd4b 5f3d
00000360: 9556 92bb dc13 f53d 8d18 503d 8541 b1bc
00000370: d7a8 023e e4eb b63c 7a3b a63d f41e ddba
00000380: 7430 923d 8941 d8bc 2de7 093d 80de 0fbe
00000390: f5a1 d03d 36b3 0b3d 24f9 a03d f0a8 9dbd
000003a0: a488 cab9 50b5 f23c a520 52bc 765a 10bd
000003b0: ea9b 6b3d 12f9 ee3c dda4 ffbd bb16 bb3c
000003c0: 3529 a63d 4f50 ee3d 60fc b93d 22ae 9f3d
000003d0: dbf8 1cbc 6ad4 f6bd c335 cbbd 4500 293d
000003e0: 57c5 42bd 9f99 8abd b914 02bd df26 873d
000003f0: 155f 51bd f518 9dbd 781f eebb 5b9c 133e

module.gcn_layers.0.bnNodes.batch_norm.weight f4 [50]
1.0023135 0.990643 0.98951495 0.9904076 1.0032117 1.0095162 0.99975055 0.99134094
0.98779416 0.9994874 0.988175 1.004712 1.0003468 0.9939722 1.0077573 0.99897254
0.98900414 1.0066088 0.987102 0.9876936 0.9876482 1.0084423 1.0025598 0.98963845
0.9930543 0.99231863 1.001314 0.9865465 1.002567 0.99734634 1.0029323 0.99778414
1.0121675 1.0006756 1.0036592 0.9999225 1.0016483 0.99197066 0.99985486 0.99403626
1.0119177 1.0020772 0.9986148 0.98773676 0.99224865 0.9869049 0.98585886 0.9881642
0.993455 0.98812294
00000000: cf4b 803f c89a 7d3f da50 7d3f 5a8b 7d3f
00000010: 3e69 803f d437 813f a7ef 7f3f 85c8 7d3f
00000020: 14e0 7c3f 68de 7f3f 09f9 7c3f 679a 803f
00000030: 5d0b 803f f674 7e3f 31fe 803f aabc 7f3f
00000040: 602f 7d3f 8fd8 803f b7b2 7c3f 7dd9 7c3f
00000050: 83d6 7c3f a314 813f e153 803f f258 7d3f
00000060: ce38 7e3f 9808 7e3f 0f2b 803f 508e 7c3f
00000070: 1e54 803f 1752 7f3f 1660 803f c86e 7f3f
00000080: b48e 813f 2316 803f e877 803f ecfa 7f3f
00000090: 0336 803f caf1 7d3f 7df6 7f3f 2979 7e3f
000000a0: 8586 813f 1144 803f 38a5 7f3f 51dc 7c3f
000000b0: 0204 7e3f cda5 7c3f 3f61 7c3f 54f8 7c3f
000000c0: 1153 7e3f a0f5 7c3f

module.gcn_layers.0.bnNodes.batch_norm.bias f4 [50]
0.0053815027 -0.010560271 -0.0098148985 -0.012330957 0.0063849567 0.010701257 0.0013011694 -0.010279343
-0.011074094 0.0007342847 -0.006246157 0.0065601915 -0.004339002 0.010143589 0.0070114755 0.0018376817
-0.00035153131 0.0075761834 -0.01221796 -0.009025207 -0.0027814964 0.009806216 0.005419496 -0.0074025984
-0.011712822 -0.006271415 0.009314072 -0.013433447 0.0041113873 -0.0068120053 0.004478002 0.0037736376
0.012636151 0.006749363 0.01070628 -0.005473922 0.003842035 -0.00013774693 0.002782572 -0.009976268
0.013183211 0.001049721 0.003983749 -0.011197804 -0.010362864 -0.011440417 -0.010352215 -0.01190032
-0.013357476 -0.0075507737
00000000: 5157 b03b fd04 2dbc abce 20bc c807 4abc
00000010: e638 d13b 5354 2f3c 008c aa3a b16a 28bc
00000020: 1e70 35bc 037d 403a 90ac ccbb e0f6 d63b
00000030: 302e 8ebb 4c31 263c 85c0 e53b 5ede f03a
00000040: bc4d b8b9 a241 f83b d72d 48bc 76de 13bc
00000050: c449 36bb 40aa 203c 0796 b13b 7f91 f2bb
00000060: 23e7 3fbc 7180 cdbb 0d9a 183c f617 5cbc
00000070: d1b8 863b 3e37 dfbb 34bc 923b 224f 773b
00000080: dc07 4f3c c329 dd3b 6569 2f3c 965e b3bb
00000090: a7ca 7b3b 2970 10b9 d05b 363b 8073 23bc
000000a0: 65fe 573c cb96 893a 1c8a 823b fe76 37bc
000000b0: 00c9 29bc 9670 3bbc 569c 29bc 8ff9 42bc
000000c0: 51d9 5abc 7b6c f7bb

module.gcn_layers.0.bnEdges.W3.weight f4 [50, 50]
0.017169917 0.055075865 -0.030790178 0.030886415 0.018034482 -0.05675987 0.013075386 0.087632775
0.03387141 0.12941824 0.0997674 -0.032112263 0.009604648 0.069256 -0.06003542 -0.067307584
-0.14664817 -0.09599176 -0.018099567 -0.13560747 0.12527476 -0.0107696885 0.054271374 0.0951025
-0.1460977 -0.10088129 -0.031362362 0.0024714046 -0.08982803 -0.12049613 0.0070746155 0.027420312
-0.13225693 0.051945534 -0.074753754 0.0028360055 -0.009253033 -0.053295374 -0.021385243 -0.07070181
0.075976156 -0.08391547 -0.0470897 -0.107335895 0.08794461 -0.08956483 -0.098125406 -0.088176176
0.0411262 -0.07584242 0.11457814 -0.041744776 -0.11955658 -0.07630398 -0.04024652 -0.073936574
0.017281413 -0.06826748 0.021812966 -0.049686916 -0.036475793 0.07567324 0.010053234 0.14591673
-0.121418014 -0.039201237 0.13294525 -0.12095502 -0.069758445 -0.03448755 -0.12519398 0.106660105
-0.10475728 0.04376162 0.04928809 0.045213316 0.12708373 0.042181768 0.08707879 -0.0054898607
0.0153627 -0.078204334 -0.14683177 0.14582191 0.009173189 -0.09746816 0.05212486 0.12275865
0.052308805 0.030335713 0.10637426 0.124634884 0.12381317 0.019385263 -0.12535451 -0.0485313
0.11507476 0.061989613 -0.05255574 0.012255056 -0.09602973 -0.019354695 0.1205523 0.02446647
-0.03052108 -0.009657998 -0.11651897 0.083768904 -0.12908012 -0.07842527 0.00063122617 0.052967664
0.05947138 -0.016079709 0.11493744 -0.14597857 -0.11030086 -0.05087681 0.100140445 0.060348306
-0.1306965 -0.13230817 -0.14155287 -0.12417497 0.09542063 -0.012777473 -0.0012837594 -0.016589468
-0.05981161 0.07428486 -0.023656346 0.09235259 -0.13141254 -0.07933073 0.08043426 0.02355299
-0.13981229 0.05012705 -0.0047606183 -0.046051122 0.12257428 -0.09573526 0.06820382 -0.042453054
0.043662146 -0.13476774 -0.0701548 0.047822013 -0.0913835 0.04376013 0.09974958 -0.072468996
0.051417775 0.055918854 0.020606609 -0.0896317 -0.043937057 -0.019148791 -0.0012580069 -0.10980839
0.10635663 0.032404464 -0.039852776 0.059457622 -0.011356824 0.072208926 0.1318041 -0.03624353
-0.049865827 0.08978894 -0.040350962 0.10352981 0.0012484471 -0.06861369 0.12852125 -0.0066366442
0.094449945 0.07272144 -0.1419896 0.03493986 0.096728675 0.108899206 0.15094075 -0.12890111
0.08197691 -0.14049804 -0.11963517 -0.085799865 -0.04447938 0.03812491 -0.06881275 -0.054158375
-0.13017519 0.040047623 0.015679061 0.02204652 0.05695411 -0.014865489 0.0947788 -0.094041236
0.03914976 0.12785047 0.06006856 0.0068953317 -0.102753915 0.13740502 -0.116747566 0.15210013
0.04049035 0.12919618 0.07827886 0.09185302 -0.13218015 -0.08196448 -0.060366854 0.05130565
-0.051502593 -0.023215706 -0.15034445 0.058989067 -0.072080046 0.07266961 -0.07333471 0.14711413
-0.0040965825 0.008122413 0.03331216 -0.13757241 -0.00023496232 0.07547286 -0.0117411325 0.0037403482
0.09347393 0.13288723 -0.14155349 0.08749376 0.023632277 0.046086654 -0.03929985 -0.070170306
-0.09954827 -0.014824971 0.026841562 -0.057861425 0.06390504 0.12683693 0.037073262 0.09999406
0.08973064 -0.041400224 0.11686905 -0.08708757 -0.118625395 -6.722775e-05 -0.053432662 0.040351987
00000000: eda7 8c3c 3b97 613d af3b fcbc 8205 fd3c
00000010: 0dbd 933c 0a7d 68bd 253a 563c d078 b33d
00000020: bfbc 0a3d 3786 043e da52 cc3d 2688 03bd
00000030: d05c 1d3c 17d6 8d3d b3e7 75bd 8fd8 89bd
00000040: f02a 16be 5497 c4bd 8b45 94bc afdc 0abe
00000050: 0748 003e 5973 30bc a94b 5e3d 19c5 c23d
00000060: a39a 15be da9a cebd d275 00bd 4af7 213b
00000070: c2f7 b7bd adc6 f6bd 2dd2 e73b 90a0 e03c
00000080: 5c6e 07be d7c4 543d 7f18 99bd 47dc 393b
00000090: 099a 17bc 404c 5abd 1b30 afbc 1ccc 90bd
000000a0: 6399 9b3d e0db abbd 21e1 40bd ecd2 dbbd
000000b0: 4e1c b43d c46d b7bd f9f5 c8bd b695 b4bd
000000c0: f273 283d 4553 9bbd f2a7 ea3d 92fc 2abd
000000d0: 15da f4bd 4345 9cbd 89d9 24bd 0f6c 97bd
000000e0: c091 8d3c d2cf 8bbd 1bb1 b23c 8284 4bbd
000000f0: a467 15bd 92fa 9a3d 52b6 243c 326b 153e
00000100: 02aa f8bd 7a91 20bd cd22 083e 44b7 f7bd
00000110: 84dd 8ebd d142 0dbd da32 00be 9d70 da3d
00000120: fc8a d6bd 623f 333d 4fe2 493d 9931 393d
00000130: 3d22 023e cac6 2c3d 5d56 b23d 4ae4 b3bb
00000140: d6b3 7b3c 9829 a0bd 115b 16be 5752 153e
00000150: 254b 163c 639d c7bd e180 553d e368 fb3d
00000160: c241 563d 9a82 f83c bfda d93d 9340 ff3d
00000170: c291 fd3d d8cd 9e3c ef5c 00be c2c8 46bd
00000180: 51ac eb3d d2e8 7d3d b044 57bd 6ec9 483c
00000190: 3cab c4bd bd8d 9ebc 20e4 f63d e86d c83c
000001a0: 5807 fabc 943c 1ebc 7fa1 eebd 088f ab3d
000001b0: 942d 04be 6e9d a0bd df78 253a 9ff4 583d
000001c0: 4398 733d 98b9 83bc 5264 eb3d 687b 15be
000001d0: 6be5 e1bd 3464 50bd 6f16 cd3d c92f 773d
000001e0: 4ed5 05be cb7b 07be 3cf3 10be 724f febd
000001f0: e46b c33d 9b58 51bc d143 a8ba a3e6 87bc
00000200: 05fd 74bd a922 983d f4ca c1bc 5b23 bd3d
00000210: 0291 06be 2678 a2bd b8ba a43d 33f2 c03c
00000220: f42a 0fbe 0652 4d3d f6fe 9bbb 1aa0 3cbd
00000230: 3908 fb3d d910 c4bd 72ae 8b3d 41e3 2dbd
00000240: 14d7 323d 8e00 0abe 52ad 8fbd 04e1 433d
00000250: 4627 bbbd d23d 333d 8249 cc3d a06a 94bd
00000260: 729b 523d 2b0b 653d 31cf a83c d390 b7bd
00000270: 58f7 33bd eddd 9cbc b5e3 a4ba 39e3 e0bd
00000280: 81d1 d93d 8bba 043d aa3c 23bd d689 733d
00000290: f911 3abc 46e2 933d a7f7 063e 1974 14bd
000002a0: 1c40 4cbd 44e3 b73d 0d47 25bd 7007 d43d
000002b0: efa2 a33a 5685 8cbd 139b 033e 3578 d9bb
000002c0: f96e c13d faee 943d b965 11be 191d 0f3d
000002d0: af19 c63d 8c06 df3d 3690 1a3e a7fe 03be
000002e0: 83e3 a73d b8de 0fbe 4903 f5bd d7b7 afbd
000002f0: 0330 36bd de28 1c3d b3ed 8cbd 2cd5 5dbd
00000300: a54c 05be fa08 243d 6071 803c e79a b43c
00000310: b648 693d 618e 73bc 631b c23d b198 c0bd
00000320: 805b 203d 3ceb 023e 730a 763d 3cf2 e13b
00000330: a570 d2bd e7b3 0c3e 5919 efbd 23c0 1b3e
00000340: 36d9 253d 014c 043e ab50 a03d 701d bc3d
00000350: 3c5a 07be fedc a7bd 3c43 77bd e025 523d
00000360: 62f4 52bd dd2e bebc e5f3 19be 859e 713d
00000370: b49e 93bd ced3 943d 8230 96bd 16a5 163e
00000380: a03c 86bb df13 053c 5572 083d c8df 0cbe
00000390: 3860 76b9 8491 9a3d e15d 40bc a120 753b
000003a0: 436f bf3d 9713 083e 66f3 10be ee2f b33d
000003b0: 7a98 c13c 5cc5 3c3d e1f8 20bd 73b5 8fbd
000003c0: f7df cbbd 6fe4 72bc d6e2 db3c 1a00 6dbd
000003d0: a5e0 823d 8ae1 013e 22da 173d b0c9 cc3d
000003e0: b3c4 b73d 4893 29bd 0a59 ef3d f85a b2bd
000003f0: dff1 f2bd a0fc 8cb8 35dc 5abd 2048 253d

module.gcn_layers.0.bnEdges.W4.weight f4 [50, 50]
-0.029969508 0.1044217 0.1061894 0.012184736 0.06524803 0.05573105 0.077922665 0.03818297
-0.105500154 -0.009491273 -0.10587633 0.08605957 0.036009982 -0.06791034 0.113396786 -0.07476888
-0.09675404 -0.12473221 -0.04587926 0.020150613 0.14487103 0.017014215 -0.061053246 0.08519247
0.1199394 0.08854343 -0.051038213 0.09654516 -0.030235762 -0.021630073 0.00021409141 -0.060118794
-0.12756075 -0.109173544 -0.107467875 0.09710887 0.045360122 0.03492853 -0.07481426 -0.08959197
-0.115394086 0.055040903 -0.033722203 0.06542587 0.068050526 -0.10535681 0.024881646 0.13403106
0.0014337818 -0.06493735 0.07470256 0.13872744 -0.103642195 0.06819489 -0.03308243 0.025595117
0.10307738 0.101491205 -0.12935235 -0.0031886646 0.09621221 0.122943304 0.069897205 0.033512577
0.016507437 -0.1306898 0.060699146 -0.083497845 0.028888825 0.12858783 0.042829428 -0.043952454
-0.0058695003 -0.0318735 0.09233867 -0.02762931 0.043422386 0.005382113 0.12587577 -0.046018872
-0.08099325 -0.043413162 0.047019657 -0.14120276 -0.11136649 0.024842706 -0.084341586 -0.061747577
0.03956151 0.08695637 0.07386207 -0.115646616 0.099041045 -0.080790594 0.13169844 0.11251371
-0.016930917 0.039195165 0.025754742 -0.041470747 -0.0027593118 -0.0868271 0.047765672 0.064694434
-0.06949238 -0.04825498 -0.02536241 -0.08344947 -0.10125977 0.07625646 -0.045269415 -0.07290373
0.12462478 -0.06941711 0.13420364 -0.11067269 0.071857855 0.07681609 0.13708521 -0.1313795
0.09095862 -0.114147305 -0.042940035 -0.110699706 0.014347726 0.013749398 0.03887265 0.024829105
0.04264056 -0.03895784 0.094212614 -0.0024800745 -0.10931089 0.13494742 0.0919771 -0.016220741
0.064686105 -0.0417658 0.10858477 -0.1229076 -0.124550626 -0.069853015 -0.109658025 0.09038462
-8.801864e-05 -0.05892304 -0.06900874 -0.11359981 0.004308527 -0.13116954 -0.11435798 0.038571812
-0.0012473405 0.08523011 0.012994427 -0.11641791 0.08088069 0.09954643 0.037896637 0.02194258
0.039953716 0.02618838 -0.077789746 -0.069875084 0.026772989 0.1368184 0.0030233897 -0.00022897375
-0.09179034 -0.06173875 0.047207274 0.0071929013 0.13539107 0.0626485 -0.011178404 -0.049595732
-0.09744576 0.014097734 -0.005380565 0.07525105 0.051872823 0.013401087 0.099524006 0.025400374
0.06551626 -0.10276895 -0.05912741 0.08669641 0.089690104 0.08218944 0.04676446 2.8476177e-05
-0.15059717 -0.085746005 0.10146485 -0.05052359 0.11012912 -0.1120461 -0.058253814 0.0050496873
-0.07740521 0.10618143 0.10105704 -0.046253487 0.13613586 0.08484172 0.10902758 -0.09565234
-0.12565176 0.00957922 0.016592985 0.057762414 -0.12119118 0.1190539 0.0067995205 0.09942287
0.07099696 0.074038446 -0.05251164 -0.00181711 -0.12947692 0.0037468749 -0.06509275 -0.1038219
0.04714067 -0.108485214 0.08680559 -0.095191054 0.0053380406 0.034610767 0.13618535 -0.061518785
-0.11542035 -0.09064379 -0.073252 -0.07459834 -0.10373617 0.14839397 0.0008246893 -0.12013605
0.03150136 0.010600422 0.015450164 0.038208894 0.03597295 0.08488403 0.06657423 0.025074678
0.10362829 0.012523103 -0.051608525 -0.032708995 -0.0065421476 -0.058277912 0.14100318 0.028128628
00000000: 9d82 f5bc 0bdb d53d d479 d93d 7da2 473c
00000010: c2a0 853d 3e46 643d eb95 9f3d bf65 1c3d
00000020: 7710 d8bd 4981 1bbc b0d5 d8bd 0040 b03d
00000030: 347f 133d 9414 8bbd 933c e83d 6d20 99bd
00000040: fb26 c6bd 9a73 ffbd e4eb 3bbd e612 a53c
00000050: 1259 143e 6561 8b3c f812 7abd 6479 ae3d
00000060: caa2 f53d 4256 b53d 720d 51bd 78b9 c53d
00000070: fdb0 f7bc 8d31 b1bc ba7d 6039 203f 76bd
00000080: 499f 02be 6196 dfbd 1e18 dcbd 04e1 c63d
00000090: 89cb 393d 3811 0f3d 3838 99bd ff7b b7bd
000000a0: bc53 ecbd 9272 613d 4b20 0abd 00fe 853d
000000b0: 135e 8b3d 50c5 d7bd 98d4 cb3c 703f 093e
000000c0: bced bb3a e0fd 84bd a8fd 983d 910e 0e3e
000000d0: 5c42 d4bd c3a9 8b3d 7181 07bd daac d13c
000000e0: 3c1a d33d 9fda cf3d f174 04be eaf8 50bb
000000f0: e80a c53d b3c9 fb3d 4426 8f3d 7c44 093d
00000100: 9b3a 873c 8cd3 05be ab9f 783d eb00 abbd
00000110: 42a8 ec3c 87ac 033e e96d 2f3d 7d07 34bd
00000120: f054 c0bb ca8d 02bd 0e1c bd3d dd56 e2bc
00000130: acdb 313d 705c b03b 94e5 003e 497e 3cbd
00000140: cadf a5bd 00d2 31bd af97 403d 7597 10be
00000150: 1d14 e4bd ee82 cb3c 48bb acbd 07eb 7cbd
00000160: 400b 223d 2e16 b23d ff44 973d 22d8 ecbd
00000170: 08d6 ca3d 8a75 a5bd f5db 063e 976d e63d
00000180: b5b2 8abc 1c8b 203d 9cfb d23c 3bdd 29bd
00000190: 92d5 34bb 68d2 b1bd f0a5 433d 847e 843d
000001a0: 0552 8ebd 04a7 45bd d4c4 cfbc 8ee7 aabd
000001b0: 4861 cfbd 592c 9c3d 6c6c 39bd 8d4e 95bd
000001c0: 473b ff3d 8f2a 8ebd ae6c 093e 5da8 e2bd
000001d0: 362a 933d c151 9d3d 1160 0c3e 5988 06be
000001e0: 8348 ba3d 10c6 e9bd e4e1 2fbd 87b6 e2bd
000001f0: b912 6b3c 2845 613c ee38 1f3d 6866 cb3c
00000200: dea7 2e3d 4292 1fbd 8bf2 c03d bf88 22bb
00000210: 63de dfbd a82f 0a3e 7d5e bc3d 5ce1 84bc
00000220: 267a 843d 9e12 2bbd b161 de3d fbb6 fbbd
00000230: 6614 ffbd 190f 8fbd 6394 e0bd 921b b93d
00000240: a696 b8b8 4959 71bd 7454 8dbd 04a7 e8bd
00000250: 8b2e 8d3b 4f51 06be 8434 eabd 7afd 1d3d
00000260: cd7d a3ba 208d ae3d 94e6 543c 836c eebd
00000270: c6a4 a53d 00df cb3d 8139 1b3d edc0 b33c
00000280: 82a6 233d 0389 d63c 3b50 9fbd ab1a 8fbd
00000290: 0753 db3c 1f1a 0c3e 1024 463b ac18 70b9
000002a0: 93fc bbbd c6e1 7cbd 6a5c 413d 6eb2 eb3b
000002b0: f5a3 0a3e db4d 803d a025 37bc e524 4bbd
000002c0: a591 c7bd 2ffa 663c 734f b0bb 391d 9a3d
000002d0: 9978 543d 3c90 5b3c 3ed3 cb3d 7214 d03c
000002e0: 642d 863d 8778 d2bd 952f 72bd e38d b13d
000002f0: 72af b73d f052 a83d 178c 3f3d 20e0 ee37
00000300: 2536 1abe 9a9b afbd cecc cf3d d3f1 4ebd
00000310: 608b e13d 6d78 e5bd 8d9b 6ebd d977 a53b
00000320: 9f86 9ebd a675 d93d fef6 ce3d 4c74 3dbd
00000330: 3367 0b3e 7fc1 ad3d da49 df3d 60e5 c3bd
00000340: dbaa 00be 29f2 1c3c 03ee 873c 4898 6c3d
00000350: 1533 f8bd 88d2 f33d 83ce de3b 389e cb3d
00000360: db66 913d 78a1 973d 7216 57bd 182c eeba
00000370: 9995 04be 218e 753b 594f 85bd 94a0 d4bd
00000380: 9316 413d 7f2d debd 21c7 b13d 87f3 c2bd
00000390: bbea ae3b 05c4 0d3d 2c74 0b3e 1ffb 7bbd
000003a0: 8161 ecbd 74a3 b9bd 2505 96bd 04c7 98bd
000003b0: a173 d4bd 97f4 173e f62f 583a e409 f6bd
000003c0: 9207 013d 64ad 2d3c af22 7d3c ee80 1c3d
000003d0: 5f58 133d aed7 ad3d 1258 883d 6969 cd3c
000003e0: 123b d43d b32d 4d3c 7663 53bd def9 05bd
000003f0: 835f d6bb d2b4 6ebd 2363 103e 026e e63c

module.gcn_layers.0.bnEdges.W5.weight f4 [50, 50]
0.099532396 -0.08387818 -0.016124371 0.011112209 0.13865988 -0.060957283 -0.070026144 0.03789837
0.024967987 0.047140755 0.12191357 -0.11541449 0.00846839 -0.030823903 -0.12459319 -0.022495719
0.03991267 0.07236287 0.0094096055 -0.102393575 -0.0338173 0.07574159 0.052619293 -0.113429144
0.037696533 -0.029267032 0.018471843 0.101185404 -0.07704032 -0.009322673 0.11216883 -0.016970567
0.1518955 -0.017928177 0.023403484 -0.023259507 0.03485441 -0.042633027 0.13724613 0.121452704
0.0012065907 -0.08108506 0.03293717 -0.01983566 -0.122915804 0.006551588 -0.10524942 -0.040163465
-0.11389409 0.11065284 0.058615316 -0.06882477 0.079769835 -0.09518079 0.013757914 -0.117197976
0.074443966 -0.071390025 -0.058340516 0.03456506 -0.13448183 0.06836531 -0.003145387 -0.10307916
-0.020945046 -0.08941532 0.04401171 0.0401579 -0.10523531 0.09731359 -0.054236453 0.12572566
-0.013335425 0.022351215 -0.048062492 -0.009511465 -0.0038173343 -0.032559864 -0.086825065 0.0028076128
-0.11688563 -0.081662364 -0.048627388 -0.008838416 -0.09724762 -0.071191765 0.0028894776 0.012732557
0.0045144046 -0.08634206 0.10764645 -0.046036243 -0.117207825 0.0838257 0.016296491 -0.017228344
-0.12926605 -0.08658325 0.07565279 -0.04094323 -0.095410965 0.07235786 -0.106695004 0.072506405
-0.043122794 0.060624138 0.01958837 0.13027565 0.06455198 -0.002969192 0.1265552 -0.10542808
0.025778664 0.05521795 -0.11634671 -0.08146403 -0.07212685 -0.063866116 -0.02542439 -0.09488631
0.14064087 -0.0075762067 0.14729874 0.043957677 -0.03107098 0.019821964 -0.08974474 -0.10169075
0.06318463 -0.011838864 0.004210579 -0.01008984 0.10159901 -0.13282257 -0.082907654 -0.06717058
-0.036271803 0.103960074 0.10063657 -0.09650488 -0.044821 0.12462445 -0.10058739 0.0073400354
0.04829754 0.07559632 0.093656875 0.0941034 0.045230687 -0.14037512 -0.07234544 -0.037708003
-0.089816004 -0.08560011 0.022538716 -0.0419213 0.036510993 0.04660216 0.07898015 -0.11198138
0.11371634 0.06975112 0.02600521 -0.026059221 -0.037378736 0.013213084 -0.024460265 -0.118745945
0.0109447725 -0.0962998 -0.116638705 0.09273108 -0.022530688 -0.023469761 -0.03282257 -0.051337603
0.06124456 -0.017299198 -0.050220285 0.1342896 0.09508332 0.10573269 -0.15464835 0.04006156
0.02464459 0.13106233 0.055247862 0.01978913 0.08550199 0.07689641 -0.11695018 -0.12475357
-0.05956583 -0.02916406 0.043558363 0.10615258 -0.1180394 -0.03254788 -0.09721753 0.12067353
0.07776099 0.08508422 -0.006406567 -0.08164847 -0.08058686 0.0078033768 0.010900309 0.00919778
0.11441606 -0.08086569 0.09762055 0.05562358 -0.11452761 -0.055181906 -0.07334616 0.008257514
0.08381187 0.089957684 -0.018465694 0.13754739 0.05849658 0.03805053 -0.12448137 -0.10961996
0.0825755 0.065841146 -0.062831104 -0.10987345 -0.0022050168 -0.13907373 0.10398779 0.06492534
0.03078311 -0.10559432 -0.027793318 -0.076535106 0.07784549 0.14411943 -0.0023772605 -0.0445689
0.10905803 -0.041127615 -0.05950071 -0.1070984 0.02944528 0.11658456 0.100944 0.046981018
0.10641932 -0.10294564 0.13041486 -0.038709644 -0.13541529 0.071705095 0.029569894 -0.023426278
00000000: a4d7 cb3d 53c8 abbd 4217 84bc fc0f 363c
00000010: dbfc 0d3e 58ae 79bd de69 8fbd 523b 1b3d
00000020: aa89 cc3c aa16 413d d2ad f93d 6f5e ecbd
00000030: 01bf 0a3c 6982 fcbc b72a ffbd f148 b8bc
00000040: 787b 233d fc32 943d bf2a 1a3c b9b3 d1bd
00000050: 0284 0abd 681e 9b3d 5487 573d 8a4d e8bd
00000060: ae67 1a3d 6ac1 efbc 4352 973c 4b3a cf3d
00000070: 51c7 9dbd 20be 18bc c6b8 e53d dc05 8bbc
00000080: 7e8a 1b3e 1dde 92bc aab8 bf3c b98a bebc
00000090: 7fc3 0e3d f89f 2ebd 408a 0c3e 32bc f83d
000000a0: 7726 9e3a ed0f a6bd 20e9 063d 657e a2bc
000000b0: 48bb fbbd b4ae d63b 028d d7bd 7282 24bd
000000c0: 4e41 e9bd f59d e23d 9d16 703d 00f4 8cbd
000000d0: 5e5e a33d 25ee c2bd e068 613c 7e05 f0bd
000000e0: 1476 983d ef34 92bd 77f6 6ebd 1894 0d3d
000000f0: 9bb5 09be 1d03 8c3d d622 4ebb 2b1b d3bd
00000100: f294 abbc 611f b7bd 9f45 343d 9c7c 243d
00000110: 9c85 d7bd 594c c73d 0b27 5ebd 3abe 003e
00000120: d47c 5abc e519 b73c 2ddd 44bd fad5 1bbc
00000130: 3e2c 7abb 7e5d 05bd 57d1 b1bd edff 373b
00000140: bc61 efbd 993e a7bd 832d 47bd 01cf 10bc
00000150: c329 c7bd fdcc 91bd 645d 3d3b 379c 503c
00000160: 92ed 933b 1bd4 b0bd be75 dc3d 8090 3cbd
00000170: a80a f0bd cfac ab3d 3880 853c 7522 8dbc
00000180: 525e 04be 8f52 b1bd daef 9a3d 17b4 27bd
00000190: d366 c3bd 5c30 943d e982 dabd 3d7e 943d
000001a0: 87a1 30bd 0451 783d ca77 a03c fb66 053e
000001b0: d433 843d c796 42bb b097 013e adea d7bd
000001c0: c72d d33c 382c 623d 2f47 eebd 9dd6 a6bd
000001d0: 3eb7 93bd 3dcc 82bd cf46 d0bc c153 c2bd
000001e0: 2904 103e d441 f8bb 7bd5 163e f70c 343d
000001f0: 9188 febc ac61 a23c 17cc b7bd 3d43 d0bd
00000200: f166 813d cbf7 41bc e6f8 893b db4f 25bc
00000210: 2413 d03d a402 08be 7dcb a9bd bb90 89bd
00000220: be91 14bd 05e9 d43d 8c1a ce3d 5aa4 c5bd
00000230: 3a96 37bd 1b3b ff3d c300 cebd ae84 f03b
00000240: a4d3 453d 3ed2 9a3d 2dcf bf3d 49b9 c03d
00000250: d043 393d 7fbe 0fbe d929 94bd b573 1abd
00000260: 74f1 b7bd 1c4f afbd 1da3 b83c abb5 2bbd
00000270: 8d8c 153d e8e1 3e3d 58c0 a13d 7e56 e5bd
00000280: 1de4 e83d add9 8e3d e108 d53c 267a d5bc
00000290: 721a 19bd b17b 583c e560 c8bc 1331 f3bd
000002a0: b451 333c d438 c5bd 46e0 eebd cbe9 bd3d
000002b0: 4792 b8bc a843 c0bc f670 06bd 6147 52bd
000002c0: 93db 7a3d 0cb7 8dbc c9b3 4dbd 3783 093e
000002d0: 0bbb c23d 618a d83d 235c 1ebe 9717 243d
000002e0: 74e3 c93c 3435 063e 954b 623d d01c a23c
000002f0: ab1b af3d dd7b 9d3d 9383 efbd cd7e ffbd
00000300: 4dfb 73bd 77e9 eebc 416a 323d 8666 d93d
00000310: a4be f1bd ed50 05bd fc19 c7bd af23 f73d
00000320: 2741 9f3d a340 ae3d 2eee d1bb 5037 a7bd
00000330: b90a a5bd 78b3 ff3b 3697 323c 49b2 163c
00000340: f852 ea3d e99c a5bd 48ed c73d 8dd5 633d
00000350: 748d eabd 6c06 62bd 8336 96bd 864a 073c
00000360: 8fa5 ab3d bc3b b83d 5e45 97bc 39d9 0c3e
00000370: 1c9a 6f3d dfda 1b3d 17f0 febd 6e80 e0bd
00000380: 581d a93d b9d7 863d 98ad 80bd 5505 e1bd
00000390: 0b82 10bb 5869 0ebe 8df7 d43d 94f7 843d
000003a0: dc2c fc3c d641 d8bd d0ae e3bc 70be 9cbd
000003b0: 756d 9f3d 0b94 133e d0cb 1bbb e18d 36bd
000003c0: d159 df3d 6e75 28bd 04b7 73bd 6856 dbbd
000003d0: 3a37 f13c e3c3 ee3d babb ce3d 2b6f 403d
000003e0: 5ff2 d93d 2ad5 d2bd 798b 053e 018e 1ebd
000003f0: 4eaa 0abe 1fda 923d 903c f23c 77e8 bfbc

module.gcn_layers.0.bnEdges.batch_norm.weight f4 [50]
1.010076 1.0155839 1.0133783 0.9866089 0.99049073 1.0131171 1.0069642 1.0146635
0.9924518 1.0110852 1.0105494 1.0094386 1.0058866 1.0105333 0.98962593 1.0130227
0.9886495 0.9904175 0.99942374 1.0113003 1.0138079 0.98599416 1.0136847 1.014472
1.009529 1.0098041 0.99056125 0.98989874 1.0107567 0.99137115 1.0141685 1.0106416
1.002512 0.99766386 0.98819214 1.0091057 0.9961314 1.0071504 1.0131152 1.0146974
0.9986213 1.0132847 1.0090437 1.0139041 1.0141711 1.0119512 0.992429 0.9877156
0.9908446 1.0150455
00000000: 2c4a 813f a7fe 813f 61b6 813f 6792 7c3f
00000010: cd90 7d3f d2ad 813f 34e4 803f 7ee0 813f
00000020: 5211 7e3f 3d6b 813f af59 813f 4935 813f
00000030: e4c0 803f 2859 813f 2058 7d3f baaa 813f
00000040: 2218 7d3f 008c 7d3f 3cda 7f3f 4a72 813f
00000050: 75c4 813f 1d6a 7c3f 6cc0 813f 38da 813f
00000060: 3f38 813f 4341 813f 6c95 7d3f 016a 7d3f
00000070: 7a60 813f 80ca 7d3f 46d0 813f b45c 813f
00000080: 5052 803f e666 7f3f 29fa 7c3f 602a 813f
00000090: 7802 7f3f 4eea 803f c2ad 813f 9be1 813f
000000a0: a5a5 7f3f 50b3 813f 5828 813f 9cc7 813f
000000b0: 5cd0 813f 9e87 813f d40f 7e3f eeda 7c3f
000000c0: fea7 7d3f 03ed 813f

module.gcn_layers.0.bnEdges.batch_norm.bias f4 [50]
0.011359834 0.013329788 -0.0073009324 -0.013145285 -0.010023606 0.003231829 -0.010143182 0.01434554
-0.011017532 -0.0039003321 0.013471114 0.0057626255 0.011402575 0.010796024 -0.009450441 0.013358528
-0.012475641 -0.010281802 0.003996765 0.014597491 0.0016923966 -0.01319862 0.012544045 0.014521802
-0.0056100534 0.013349175 0.0009302256 -0.00785477 0.011410826 -0.0058712745 0.01084339 0.013658814
0.012995064 0.00065290637 -0.014230101 0.009919639 -0.005391953 0.004584902 0.014205637 0.014434219
0.002422323 0.014641005 0.006427463 0.0138906315 0.015006638 0.013837791 -0.007524954 -0.013798074
-0.003709459 0.015559828
00000000: 991e 3a3c 2f65 5a3c a93c efbb 525f 57bc
00000010: 0d3a 24bc 18cd 533b 972f 26bc 8e09 6b3c
00000020: e182 34bc b79c 7fbb f3b5 5c3c 68d4 bc3b
00000030: ded1 3a3c cfe1 303c 06d6 1abc badd 5a3c
00000040: a266 4cbc 0175 28bc 4bf7 823b 512a 6f3c
00000050: 68d3 dd3a 063f 58bc 8a85 4d3c daec 6d3c
00000060: 8ad4 b7bb 80b6 5a3c 62da 733a 4bb1 00bc
00000070: 79f4 3a3c d263 c0bb 79a8 313c 38c9 5f3c
00000080: 40e9 543c ce27 2b3a 5f25 69bc fb85 223c
00000090: fbae b0bb f23c 963b c3be 683c 817d 6c3c
000000a0: d6bf 1e3b d3e0 6f3c 789d d23b 8895 633c
000000b0: 67de 753c e7b7 623c e493 f6bb 5111 62bc
000000c0: 651a 73bb a6ee 7e3c

module.gcn_layers.1.bnNodes.W1.weight f4 [50, 50]
-0.082011886 -0.09344962 -0.14665689 -0.12445495 -0.007667232 -0.086310305 -0.08680258 -0.07616713
-0.07928831 0.123753 0.026814163 0.089759395 0.084391415 -0.06702711 0.08980734 0.07896305
0.101354465 0.13012263 0.094963856 0.13405532 0.09169737 0.024436302 0.13940091 -0.020741764
-0.07713435 0.004195108 -0.124396496 -0.14488895 0.10234781 0.060710102 -0.010394908 0.12462484
-0.12480795 0.018086268 -0.11512394 0.1171642 -0.032431737 0.09142291 -0.09743342 -0.007095071
-0.06578773 -0.025091022 -0.06696628 -0.04536788 0.11937729 -0.001786849 -0.08313059 0.07140135
-0.06880438 -0.089773506 -0.050473664 0.042863794 -0.10624963 0.1321358 -0.1164238 0.09606179
-0.13391453 -0.030603396 -0.11864322 0.032983676 0.007971089 0.008133606 -0.11992543 0.14181222
0.13605256 0.123863466 0.1236787 0.13365592 -0.056892417 -0.0035403576 -0.04401971 -0.12365768
0.060783558 -0.12079865 0.13209319 0.048462115 -0.024143502 -0.12429139 -0.06813652 -0.093491346
0.08072974 -0.051887073 -0.11852132 -0.015071555 0.068161316 -0.12081899 0.12730116 -0.044089403
-0.093773045 -0.03092379 -0.057876382 -0.068613894 0.05864016 0.12984604 -0.051372033 -0.09068618
-0.072203286 0.021929968 -0.120414376 0.10708586 0.09037926 -0.010195865 0.012670712 0.033256996
0.066644475 -0.13593175 -0.12190542 -0.07784291 0.07552914 -0.024249649 0.12022226 0.012556108
0.027005216 -0.06729443 -0.012355635 0.04381137 -0.009509236 0.11627461 0.07150307 -0.0384478
0.008352668 0.02421626 -0.066738576 -0.061918005 -0.13240689 0.07347039 -0.13996798 -0.031251192
-0.02069283 0.12037333 0.02925114 -0.013324997 -0.05289409 -0.06327148 0.003820627 0.11262303
-0.066705115 -0.010485917 -0.064481504 0.120366916 -0.04733447 0.080600664 0.101064906 0.051743392
-0.09628365 -0.13878135 -0.025342911 -0.050893147 -0.008305941 0.052340288 -0.1268055 0.046730407
-0.108170085 -0.1023671 -0.04553067 -0.0063063106 0.03779891 0.05171781 -0.04320121 0.06637286
-0.06803767 0.09241201 0.030338626 0.10692398 -0.073146194 0.025480045 -0.08894521 0.09363164
-0.05959387 -0.05753401 -0.1283074 0.07881639 -0.033067156 -0.056825876 -0.079579115 -0.067085706
0.10945943 0.058081612 0.09889586 0.0792255 0.07906931 0.12736428 0.115119286 -0.019900884
0.11479622 -0.048069812 0.0059404313 0.058058128 -0.076042965 0.04439573 -0.02185289 0.050059784
0.016953701 -0.040644173 0.07069741 0.12752716 0.039635345 -0.004619104 0.10370644 -0.017487472
-0.12392289 0.14881706 0.11359475 0.053808928 -0.026398366 0.056011688 0.037538964 -0.060953267
0.06779444 -0.036265984 0.007817573 -0.028274206 0.0025349185 -0.0792272 -0.04371713 -0.018472442
0.054010738 0.14280564 -0.10095585 0.042452976 0.12626293 0.004704078 0.11450901 -0.14443901
0.13137381 0.0070424653 -0.06373526 0.03271586 -0.084420435 0.044092767 0.024920814 0.02854459
-0.09456342 0.008728159 -0.115697175 -0.11828992 0.04172086 -0.054735832 0.13575087 0.09744161
0.05703568 0.009386891 0.102387756 0.121955514 0.059100155 0.12953784 -0.14487545 0.0001899043
0.07481429 -0.05298339 0.039678022 -0.07697512 0.044313703 -0.12527046 -0.14322552 -0.038039234
00000000: d9f5 a7bd 8462 bfbd 392d 16be 3de2 febd
00000010: 673d fbbb 75c3 b0bd 8dc5 b1bd 83fd 9bbd
00000020: e961 a2bd 3672 fd3d 60a9 db3c c6d3 b73d
00000030: 68d5 ac3d 8245 89bd e9ec b73d 61b7 a13d
00000040: ee92 cf3d de3e 053e 697c c23d cc45 093e
00000050: d5cb bb3d a42e c83c 1dbf 0e3e a2ea a9bc
00000060: 9df8 9dbd 1e77 893b 97c3 febd c55d 14be
00000070: bb9b d13d 28ab 783d 674f 2abc 4f3b ff3d
00000080: 4f9b ffbd a729 943c 1ac6 ebbd c9f3 ef3d
00000090: 24d7 04bd ef3b bb3d 2c8b c7bd c57d e8bb
000000a0: b8bb 86bd b08b cdbc 9e25 89bd acd3 39bd
000000b0: 157c f43d b434 eaba 5f40 aabd df3a 923d
000000c0: 50e9 8cbd 2cdb b7bd 79bd 4ebd f291 2f3d
000000d0: 6899 d9bd 9b4e 073e 9a6f eebd 0bbc c43d
000000e0: e420 09be f9b3 fabc 37fb f2bd e419 073d
000000f0: 2c99 023c d142 053c 779b f5bd 3937 113e
00000100: 5d51 0b3e 21ac fd3d 424b fd3d 19dd 083e
00000110: 0608 69bd 5805 68bb 034e 34bd 3d40 fdbd
00000120: 2ef8 783d 4865 f7bd 7043 073e 3680 463d
00000130: 98c8 c5bc 7c8c febd 298b 8bbd 6478 bfbd
00000140: a255 a53d 8a87 54bd 4ebb f2bd afee 76bc
00000150: 2998 8b3d f26f f7bd 3c5b 023e 1797 34bd
00000160: 150c c0bd e353 fdbc c90f 6dbd 7185 8cbd
00000170: aa30 703d 5cf6 043e 7b6b 52bd adb9 b9bd
00000180: 51df 93bd 7aa6 b33c d09b f6bd d54f db3d
00000190: c318 b93d 8f0c 27bc d198 4f3c 7d38 083d
000001a0: e67c 883d b131 0bbe 8da9 f9bd 1b6c 9fbd
000001b0: 06af 9a3d 33a7 c6bc 1737 f63d 22b8 4d3c
000001c0: 0b3a dd3c aad1 89bd 4a6f 4abc 8d73 333d
000001d0: a0cc 1bbc 6221 ee3d 3470 923d 717b 1dbd
000001e0: a1d9 083c 2e61 c63c 3cae 88bd bc9d 7dbd
000001f0: ac95 07be a577 963d c453 0fbe 4001 00bd
00000200: 0384 a9bc 4b86 f63d 16a0 ef3c 1751 5abc
00000210: 79a7 58bd 7a94 81bd 7c63 7a3b e7a6 e63d
00000220: b19c 88bd 20cd 2bbc e10e 84bd ee82 f63d
00000230: cae1 41bd f611 a53d 1efb ce3d e1f0 533d
00000240: 5d30 c5bd b31c 0ebe f09b cfbc 5575 50bd
00000250: a415 08bc c562 563d 4dd9 01be 6268 3f3d
00000260: 4788 ddbd d8a5 d1bd 5e7e 3abd 2ba5 cebb
00000270: 08d3 1a3d 0ed6 533d c1f3 30bd 7eee 873d
00000280: 5557 8bbd 8242 bd3d b688 f83c f6fa da3d
00000290: accd 95bd 87bb d03c e828 b6bd f2c1 bf3d
000002a0: b418 74bd c8a8 6bbd 0463 03be 7d6a a13d
000002b0: 6d71 07bd 40c2 68bd 60fa a2bd 3b64 89bd
000002c0: 442c e03d fce6 6d3d ea89 ca3d fb40 a23d
000002d0: 17ef a13d c86b 023e a9c3 eb3d 2e07 a3bc
000002e0: 481a eb3d dae4 44bd f3a7 c23b 5cce 6d3d
000002f0: 6abc 9bbd 4cd8 353d d504 b3bc 7d0b 4d3d
00000300: 7de2 8a3c 817a 26bd cec9 903d 7b96 023e
00000310: ac58 223d da5b 97bb 0b64 d43d e341 8fbc
00000320: 49cb fdbd 8063 183e 5da4 e83d c066 5c3d
00000330: 6341 d8bc 836c 653d 75c2 193d 22aa 79bd
00000340: d0d7 8a3d a48b 14bd 4715 003c 4f9f e7bc
00000350: e020 263b df41 a2bd bc10 33bd 8553 97bc
00000360: 5d3a 5d3d a43b 123e f1c1 cebd 2ce3 2d3d
00000370: 124b 013e ab24 9a3b b383 ea3d d2e7 13be
00000380: db86 063e 7bc4 e63b a287 82bd 1101 063d
00000390: 9fe4 acbd 9e9a 343d bc26 cc3c 58d6 e93c
000003a0: 77aa c1bd 8d00 0f3c a4f2 ecbd fc41 f2bd
000003b0: 7ee3 2a3d ae32 60bd 4702 0b3e 788f c73d
000003c0: 3f9e 693d 79cb 193c acb0 d13d d0c3 f93d
000003d0: 0113 723d 91a5 043e 3b5a 14be 0c21 4739
000003e0: 3c38 993d 1c05 59bd 6c85 223d 22a5 9dbd
000003f0: 4982 353d e646 00be b6a9 12be 07cf 1bbd
