logs/deafult/best_val_checkpoint.tar (torch, 489841 bytes, 103 tensors)

module.NodesEncoding.A1.weight f4 [50, 2]
000000 c5 f3 13 bf 8b 40 c0 3e a6 b2 13 bf 97 65 14 bf
       -0.5779384 0.37549242 -0.5769447 -0.57967514
000010 68 6e cb 3e 23 e1 85 3e 10 9a c3 be 46 2d 2e bf
       0.3973267 0.26148328 -0.38203478 -0.6803783
000020 cc a1 5a be b4 d6 40 3e df 11 b2 3e cc fc 15 be
       -0.21350783 0.18831903 0.3477926 -0.14647216
000030 5e 5e 02 3f b1 9f 6a be f0 f5 05 3e a0 33 d9 be
       0.5092524 -0.2291248 0.13082099 -0.424222
000040 c6 6e 9e bd fa c7 e6 3e 67 27 c6 be 11 c9 12 3f
       -0.07735972 0.45074445 -0.38701937 0.57338053
000050 f5 a1 22 bf 78 bd 0d 3e 2f 0b f3 3e e1 ef 28 3f
       -0.63528377 0.13841808 0.4746947 0.65991026
000060 7b 6e 20 3f 2a 2a 33 3f ca b4 53 3e 9e a9 6c 3d
       0.6266858 0.6998621 0.20674434 0.057778947
000070 55 ff aa 3e f6 bc b9 be 0a f1 bd 3e ac f5 ea be
       0.33397928 -0.36276978 0.3709796 -0.45890558
000080 25 3d 7a be 1d 4e f8 be 22 8e 25 3f 91 1d ae 3e
       -0.24437387 -0.48497096 0.6467 0.34006932
000090 e7 6e 39 be 81 99 a2 be 6e ac 30 3e a4 3f de be
       -0.18108712 -0.3175774 0.17253277 -0.4340793
0000a0 ac 0e 15 be ad ac a1 3e b4 a0 0d 3f fd 40 ca be
       -0.14556378 0.31577054 0.5532334 -0.39502707
0000b0 cd 22 94 be 84 6f 01 3f 2c d1 36 3f 2e cc 4a 3e
       -0.289328 0.50560784 0.7141292 0.19804451
0000c0 6b 81 34 bf 55 d7 f5 be 3e 64 f4 bd 19 8a 12 3f
       -0.70509976 -0.48015848 -0.11933182 0.5724197
0000d0 d9 dd cd be a4 1c f1 be e0 8a df be d0 eb 61 be
       -0.4020832 -0.47092164 -0.4366064 -0.22062612
0000e0 47 e3 c2 3d 51 b1 13 3f f6 38 c4 be 0b e8 12 3f
       0.09516006 0.5769244 -0.38324708 0.5738532
0000f0 87 98 96 be 95 9b 18 bf 77 2c 24 bf a4 98 2a 3f
       -0.29413244 -0.596124 -0.6413035 0.6663916
000100 2f 05 33 bf 17 96 39 bc 4f 08 89 3d 21 1b 9a 3d
       -0.69929785 -0.011327288 0.06691038 0.07524706
000110 87 f1 ab 3d 6b 7d 0a 3f 3c e1 52 be 92 bb da 3e
       0.08395677 0.5409762 -0.20593733 0.4272123
000120 71 e8 95 3e 9c 72 7f 3c dd b5 f9 bd 68 7f a9 be
       0.292789 0.01559129 -0.12192891 -0.33105016
000130 83 58 13 bf 8a f1 f5 3e 37 62 b9 3e ab fa 1f 3f
       -0.57556933 0.48035842 0.36207744 0.62491864
000140 f5 35 af 3e 0d 92 7f be 1f b1 b7 3e 60 bf 27 3f
       0.34220853 -0.24958058 0.3587732 0.6552639
000150 d8 f3 28 3f d4 9e 61 3d ed a4 fc 3d 3a 6c cb be
       0.65997076 0.05508311 0.123361446 -0.39731008
000160 82 ae b0 3e 72 48 98 be 8a be 32 3f f6 0e 03 3f
       0.3450814 -0.2974277 0.6982199 0.51194704
000170 01 0c 3b 3e aa 5e 20 be c2 02 95 be 01 19 21 3e
       0.18266298 -0.15661111 -0.29103667 0.15732194
000180 90 21 27 3f 23 79 52 3e 05 61 0c 3e 1d 43 a1 be
       0.6528559 0.20554022 0.13708885 -0.31496516

module.NodesEncoding.A1.bias f4 [50]
000000 ef 6f 82 3e 47 83 0f 3f 92 ad 24 3f 71 4a 78 3e
       0.25476024 0.5605969 0.6432735 0.24247147
000010 df 3f ca bd 9c 20 9c 3e 38 ec 13 3f c4 69 9d be
       -0.09875464 0.3049363 0.57782316 -0.30744755
000020 2d 92 39 be 38 9e 90 be f9 6a f7 3b 41 08 e9 3e
       -0.18122168 -0.2824571 0.007550594 0.4551411
000030 aa 8e b7 3e 10 ea 34 3f 9c 62 0c bf ec 36 9e 3e
       0.35851032 0.7066965 -0.54837966 0.30901277
000040 71 fc ab be ed 86 1f 3f 1d 03 a3 3d 9a b8 90 be
       -0.33591035 0.62315255 0.07959578 -0.2826584
000050 22 94 e6 be f5 df ef be 65 7b 79 be 2d 07 d9 be
       -0.4503489 -0.46850553 -0.24363478 -0.42388287
000060 84 de b3 3e 95 9d 74 be a7 f2 07 bf 5f bb 0f 3d
       0.35130703 -0.23888238 -0.53104633 0.0350908
000070 f3 e0 03 be 90 1f cb 3e 51 06 b4 be c2 36 fb bd
       -0.1287878 0.39672518 -0.3516107 -0.122663036
000080 83 64 bc be 60 f3 c1 be e4 23 44 be 7d 54 e5 3e
       -0.36795434 -0.37880993 -0.19154316 0.44791022
000090 31 ab 0a bd 9b 92 90 be 8a a8 29 3d 87 69 03 3f
       -0.033854667 -0.2823685 0.041420497 0.51332897
0000a0 e4 c7 1e 3f 61 e8 74 3c 36 9f 32 3f 61 c9 25 3e
       0.6202376 0.014947982 0.69774187 0.16190101
0000b0 37 1f fe 3e 90 27 32 3f 25 3d ee be c5 e5 88 3e
       0.4963319 0.6959162 -0.46531025 0.267378
0000c0 e2 91 25 bd 5e e5 36 3e
       -0.040422328 0.17860934

module.EdgesEncoding.A2.weight f4 [25, 1]
000000 86 33 a7 3d 14 30 3c bf 3d d3 70 3f 5d 47 26 bf
       0.08164124 -0.7351086 0.94072324 -0.6495264
000010 10 88 80 bf c6 74 56 bf 52 d0 90 3e 79 0e 5b bd
       -1.0041523 -0.8377193 0.28283936 -0.0534806
000020 2c 3a 1f 3f 72 33 09 be 84 a2 d7 3c af 0d 17 3f
       0.6219814 -0.13398531 0.02632261 0.59005255
000030 87 81 5a 3f 7b 61 9d 3d 2d 29 8f be 6e 22 52 3f
       0.85353893 0.076846085 -0.27961102 0.82083786
000040 37 17 32 3f c4 09 13 3f ed c7 c4 3d 68 ea f3 3e
       0.69566673 0.57436776 0.09608445 0.47639775
000050 08 79 38 3f 62 b3 65 3f fa f5 1c 3e d4 27 c8 be
       0.7205968 0.8972684 0.15328208 -0.39092886
000060 85 d4 be 3e
       0.37271515

module.EdgesEncoding.A2.bias f4 [25]
000000 a3 b8 16 be 05 ab 62 3d f2 60 66 bf a8 96 3c be
       -0.14718871 0.05533888 -0.89991677 -0.18416846
000010 04 d4 1b 3f fe 63 13 3f 11 41 52 be 62 4f b2 3d
       0.60870385 0.5757445 -0.20532633 0.08706547
000020 59 36 3c bf 32 e8 1c 3e bf 7c e9 be 0d 68 3c 3f
       -0.7352043 0.1532295 -0.45602986 0.7359627
000030 ae 17 48 be 8b 5c 03 be e8 62 a2 3e 5c 04 37 3f
       -0.19540283 -0.12828271 0.31716084 0.71491027
000040 18 b1 41 3f 59 cb 9d be 3e 84 1b 3f 13 7f 17 3e
       0.7566085 -0.30819204 0.6074866 0.14794569
000050 dc 36 30 3e db 29 a1 be 0e 0a d7 3e 7a 71 24 3e
       0.17208427 -0.31477246 0.4199986 0.16058913
000060 14 e5 ce 3e
       0.40409148

module.EdgesEncoding.A3.weight f4 [25, 1]
000000 19 50 e3 be 8f cd 46 3d e2 36 6d bf 40 c4 7b 3d
       -0.44397047 0.04853588 -0.9266187 0.061466455
000010 1c 14 67 bf ff 7a 3e 3e a4 54 f5 bd 12 e5 0a bf
       -0.9026506 0.18601607 -0.119790345 -0.54255784
000020 52 1b 62 3f 97 ec 2a bd a9 cc 42 3e 63 7d 91 bd
       0.8832294 -0.041729536 0.19023384 -0.07103994
000030 c4 a6 28 3f ca 5f cd 3e 18 e5 aa 3c c7 98 a9 be
       0.65879464 0.40112144 0.020861194 -0.33124372
000040 61 b9 23 3f e0 5c 83 3e 6c 85 65 3e 3d 65 65 be
       0.6395474 0.25656796 0.22414178 -0.224019
000050 23 eb 2c bf 97 18 1c bd 59 96 b2 3e cb c3 e1 be
       -0.6754629 -0.03810939 0.3488033 -0.4409469
000060 6b 62 c4 3e
       0.38356337

module.EdgesEncoding.A3.bias f4 [25]
000000 c6 e3 25 3f d6 02 2d 3f 36 a0 0c be 25 8c 8d 3e
       0.6480068 0.6758245 -0.1373299 0.27645984
000010 9a 14 9b be 0f 0d 9e be 2b 18 25 3f 11 ed 51 bf
       -0.30289155 -0.30869338 0.6449 -0.8200236
000020 cc 62 21 3f 89 ad 7d be ec a9 6f bf 6d ea 34 3f
       0.6304138 -0.2477323 -0.93618655 0.70670205
000030 f9 1b 63 3f c7 ba 3d bf 00 6b 79 3e 85 8d 03 bf
       0.8871456 -0.74113125 0.24357224 -0.51387817
000040 c9 db 82 be 3f 8a 7c bf 10 1b 9f be 6b 55 73 3e
       -0.25558308 -0.98648447 -0.31075335 0.23763053
000050 41 8e 7f 3f 50 ca 3a 3e 64 15 4e bf 27 ae 41 bf
       0.9982644 0.18241239 -0.8050139 -0.7565636
000060 ad b0 80 be
       -0.25134793

module.gcn_layers.0.bnNodes.W1.weight f4 [50, 50]
000000 86 cb 12 3e d8 6e 32 3c fa cf 39 bd d4 ba 3f bb
       0.1433545 0.010890685 -0.045364358 -0.0029255645
000010 b2 e7 eb 3d 22 7e 9b bd ff 29 fa bd 23 6b 15 be
       0.11518802 -0.07592417 -0.12215041 -0.1459165
000020 64 7e 96 3d 78 ba e1 3d b6 f8 13 3e 30 49 ce bd
       0.07348326 0.11021894 0.14450344 -0.10072553
000030 46 2c b1 bc 15 bf c4 3c 72 53 86 3d 20 69 c5 bb
       -0.021627557 0.024016896 0.06558885 -0.006024495
000040 6b f3 07 be 63 91 c2 bd 6b 00 86 3d 54 d9 03 3d
       -0.1327645 -0.095003866 0.065430485 0.032189682
000050 8f a0 01 3e 45 61 6e 3d 96 6d be bc c1 e3 c2 bd
       0.12658904 0.058198232 -0.023245614 -0.09516097
000060 56 80 43 bc 81 e4 4c bd eb 80 aa 3c 2f bd c6 bd
       -0.011932453 -0.050022606 0.020813426 -0.09704053
000070 7b 82 8f bd fa 8e 04 bd fc fb 0a 3e c8 16 8c bd
       -0.07007309 -0.032362916 0.13572687 -0.06840283
000080 0d 8b b7 bd a0 fc 99 3d be c8 46 bd 5b ce df bd
       -0.08962069 0.075188875 -0.048531286 -0.10928031
000090 e7 34 fd bc 3e b8 1e bd 41 dd 03 3d 15 f1 88 3d
       -0.030909015 -0.038749926 0.032193426 0.06686608
0000a0 c1 f6 25 3d 48 6c 09 3d cf 6a 9c 3d 2c b6 8a 3d
       0.040518526 0.03355053 0.076375596 0.06773028
0000b0 c4 a1 00 3e 73 54 09 be 2a 13 20 3d c3 10 b2 bd
       0.12561709 -0.13411121 0.039080776 -0.08694603
0000c0 b4 07 6d bd 74 6f b8 bd 33 77 92 bc 39 06 fa bd
       -0.057868674 -0.09005633 -0.017879104 -0.12208218
0000d0 e8 59 15 3e 41 aa 41 bd b0 b3 b2 bc ee 33 41 3d
       0.14585078 -0.047281507 -0.021814197 0.047168665
0000e0 7f 74 29 3d 93 e5 af 3d f3 73 f9 bd bd b7 de bd
       0.041370865 0.0858871 -0.12180319 -0.10874889
0000f0 88 46 88 3d c7 7c f9 3c 27 f8 02 3e c3 86 15 3e
       0.06654078 0.030455006 0.12789975 0.14602189
000100 0a 96 45 ba 89 93 15 bc 75 49 b1 bd ec e2 e5 bd
       -0.0007537311 -0.009129413 -0.08656589 -0.112249225
000110 c5 8e 08 be 12 9f 91 bd f0 a5 ae 3c cd 0a df bd
       -0.13335712 -0.071104184 0.02131936 -0.10890732
000120 80 88 36 3d 7b f2 aa 3c 81 42 de bc 72 b9 d1 3c
       0.04456377 0.020867577 -0.02713132 0.025601123
000130 a2 21 e4 3d be 14 2c 3b f6 2e 14 be 17 4c 2f bd
       0.111392274 0.002625748 -0.14471039 -0.042797174
000140 a9 dc ac bd 0f 5c b3 3b 07 0b a9 3d a4 0b cb 3d
       -0.08440525 0.0054736207 0.082540564 0.0991433
000150 54 83 75 3d e8 46 a8 bd 8e e6 a5 bd 8f 2d 03 3e
       0.059939697 -0.08216649 -0.081006154 0.12810348
000160 83 51 be bd 58 2e 0b 3e 90 64 02 3e 6f 3a ef 3d
       -0.09292891 0.13591897 0.12733674 0.11681067
000170 6d 8f c4 bc 05 2f d9 bc 4a c1 04 be 7c 4d 00 be
       -0.023994172 -0.026511678 -0.12964359 -0.12529558
000180 b0 3d 6a bd 5e c6 7a 3a 7c 2c 15 3e 70 79 26 bd
       -0.057187736 0.0009566302 0.1456775 -0.040643156
000190 c7 f1 fa bd 08 05 4c bd 0c 55 46 ba e7 31 e4 3c
       -0.122531466 -0.049809486 -0.00075657736 0.027855827
0001a0 94 61 da bc 3b 0a 5d 3d 2b 84 b2 3d c0 b2 fa bd
       -0.026657857 0.053964835 0.08716615 -0.12241125
0001b0 c0 2f 71 bd 2e 42 fe bd f0 a1 11 3d 65 6b 1d bd
       -0.05888343 -0.124149665 0.035554826 -0.038432498
0001c0 7d 7a 8b 3d 81 8b 3b bd 65 c3 a0 3d 72 2e c0 3d
       0.06810472 -0.04578734 0.078497685 0.09383859
0001d0 32 9e d8 3d 92 60 e6 bb 37 26 84 bc 87 5e 43 bd
       0.10577048 -0.007030555 -0.016131504 -0.04769757
0001e0 b3 5c 0d be eb 78 ca bd 84 a6 d1 bd f6 3e 12 3d
       -0.13804893 -0.098863445 -0.102368385 0.035704575
0001f0 44 54 ab bd e3 ce 10 3e de 97 f7 bd 7c c3 eb 3d
       -0.08365682 0.14141421 -0.12089513 0.11511895
000200 d0 49 d8 bd 24 e2 80 bd c3 78 2b 3d f3 d7 1a bd
       -0.105609536 -0.06293133 0.041863214 -0.0378036
000210 37 9d aa bd 1c 64 34 3c ae 28 9a 3d 0c 1a ef 3d
       -0.083307676 0.011010196 0.0752729 0.1167489
000220 34 4a 06 3e 68 41 05 be 4b b3 00 3d 2a 72 ac 3c
       0.13114244 -0.13013232 0.031420987 0.021050531
000230 e6 84 10 bd f6 a0 bd bd c7 5a 64 3d 8e 7f a3 3d
       -0.03528299 -0.092592165 0.055750635 0.079833135
000240 86 bb d7 bd 9d d8 3f bd 16 a8 20 bd 2c 70 80 3d
       -0.10533814 -0.046837438 -0.0392228 0.06271395
000250 a4 36 9c bd c7 12 dd bd 89 ce e1 bd 20 b0 ab bd
       -0.07627609 -0.10794597 -0.110257216 -0.083832026
000260 83 90 ac 3d 06 41 8b bc 98 c3 9f 3b a8 02 b7 bd
       0.08426001 -0.016998779 0.0048756115 -0.089360535
000270 a7 39 94 3c dd 0a 59 3d c6 d0 73 bd 67 e0 fa 3d
       0.018093897 0.052988876 -0.059525274 0.122498326
000280 d6 da 8b 3d 09 d9 c5 bd 4a c3 f2 3b b7 47 b5 3d
       0.06828849 -0.09660537 0.007408534 0.08851569
000290 85 84 8a 3d 9e b8 b8 bd d0 01 9a 3d af b1 e2 3c
       0.06763557 -0.09019588 0.07519877 0.027672617
0002a0 88 15 10 3e 2f 85 85 bd 77 ed 1d 3d b1 0c f3 3d
       0.14070714 -0.065195434 0.038556542 0.11867655
0002b0 69 8c c5 3d 2d 41 1a 3c e7 d1 ae 3d e6 50 bf 3d
       0.09645922 0.009414953 0.085361294 0.09341602
0002c0 9b 2f f4 bb c1 4e 59 bd b0 7a 00 3e 8a c0 05 bb
       -0.007451964 -0.05305362 0.12546802 -0.0020408952
0002d0 c5 15 10 3d 2b 4b 98 bc 36 9f cb bd 4b fa f2 3d
       0.03517701 -0.01859053 -0.099424765 0.11864146
0002e0 88 fd 08 be d9 bb c9 bd 19 90 9c 3c dc ba 1e 3b
       -0.13377964 -0.09850282 0.01911168 0.0024220264
0002f0 b6 89 89 bd 40 cf c7 3d 4d fd d8 bd d2 c0 32 3d
       -0.067157194 0.09756327 -0.10595188 0.04364092
000300 1d 78 b7 bd f6 f5 e1 3d e0 62 0e be 69 d7 2d 3d
       -0.08958457 0.110332415 -0.13904905 0.04244176
000310 e5 ba 8c 3d 5a f2 01 3e 90 06 13 be 12 08 9f bd
       0.06871585 0.12690106 -0.14357972 -0.07765211
000320 06 08 db 3c 09 80 1d bd 93 65 05 be 10 6c cd bd
       0.026737224 -0.038452182 -0.13027029 -0.10030377
000330 f4 ec eb bd 32 91 d3 3d 83 b8 be ba 0e 83 07 be
       -0.115198046 0.10330428 -0.0014550838 -0.13233587
000340 2f 25 08 be a3 39 4c bd a1 97 9b 3c 0e 5b 37 bd
       -0.13295434 -0.049859654 0.0189932 -0.04476457
000350 7b 6c b6 bb 99 02 ae bd 2e a5 75 bd 44 18 b4 bd
       -0.005567131 -0.08496589 -0.05997198 -0.08793691
000360 2c 6e e3 3d 3e 3e 44 bd 40 3e d8 bb 0e 7e d4 3d
       0.11104998 -0.04791092 -0.0065992177 0.103756055
000370 3d e8 41 bd 8c 60 03 bd 3a 87 86 3d 1e 00 05 3e
       -0.04734062 -0.032074496 0.06568761 0.12988326
000380 82 d4 63 3b eb 4a d0 3c fa aa d4 bd 00 f3 e5 3d
       0.0034764116 0.025426349 -0.10384174 0.11227989
000390 c5 fd 8c bd a9 8a c6 3d 64 98 f8 bd 6e e2 88 bd
       -0.0688434 0.09694416 -0.12138441 -0.06683813
0003a0 fe 8d e7 bd d9 00 9e 3d 16 a0 05 bd bd 5e a3 bd
       -0.1130638 0.077150054 -0.032623373 -0.07977054
0003b0 42 c0 af bd be 69 67 3d 61 12 41 bd dd 7c 55 3d
       -0.08581592 0.056497328 -0.047136668 0.052121032
0003c0 37 35 92 3d 26 33 28 3d a9 7b 86 bd a3 55 0e 3e
       0.07139056 0.041064404 -0.06566555 0.13899855
0003d0 71 0f dc bd f7 10 24 3d d5 d9 05 3e bf ca 9a bd
       -0.10745133 0.04005524 0.13071378 -0.07558202
0003e0 27 82 bc bc 28 f1 b8 3d ac 1c 1f bd 19 4a 05 be
       -0.02301128 0.09030372 -0.038845703 -0.13016547
0003f0 c2 13 a6 3d c1 26 bf 3c 62 e2 8d 3a cb 6d f7 3d
       0.08109237 0.023333909 0.0010824914 0.12081488

module.gcn_layers.0.bnNodes.W2.weight f4 [50, 50]
000000 c1 1d d7 bd 0c b0 e2 3d dc 4e e3 bc 08 fe 08 3e
       -0.10503722 0.110687345 -0.027747564 0.13378155
000010 6f cf ce bd 8e 11 45 3d 6a 84 89 bb 36 1d c5 bc
       -0.100981586 0.048112445 -0.004196693 -0.02406178
000020 d8 a7 dd 3d bd 44 cd bc 8d a3 f8 3b 72 b8 d4 bd
       0.10823029 -0.025057191 0.007587856 -0.10386743
000030 74 3f fd bd 8e b1 0e 3e 3b 84 09 bd 76 41 7b 3d
       -0.12365618 0.13934919 -0.03357337 0.061341725
000040 fc ac 20 bc 41 64 da bd ec 16 05 3e a2 65 5c 3c
       -0.009806868 -0.10663653 0.12997025 0.0134519655
000050 36 40 7e 3d 0b 20 2c 3d 24 6b ef bd 5d 73 35 bd
       0.062072955 0.042022746 -0.11690357 -0.044299472
000060 39 8b bb 3d bc 6f 8b bd 1f a5 a3 bd 6e 31 ce bd
       0.09157414 -0.06808421 -0.07990479 -0.10068022
000070 f2 6e d7 bb ae 0f 0e 3d 25 52 f6 bd 8a 23 8d 3d
       -0.006574505 0.034682922 -0.120273866 0.06891544
000080 a3 90 7e bd 79 d1 19 3d a5 60 9f bd d1 12 f9 3d
       -0.062149655 0.037553284 -0.07782105 0.12161792
000090 78 46 c6 bd 23 7b 59 3d 6d bf b3 bd 51 be 8d bc
       -0.096814096 0.053095948 -0.08776746 -0.017302664
0000a0 4b 20 f4 3d a3 4c 93 3d 9a 43 4e bd c8 1f 88 3d
       0.11920222 0.07192352 -0.05035744 0.06646687
0000b0 9b f8 23 bd 5c c2 8e bd cc 1d bc bc 3a 25 dd 3d
       -0.04003201 -0.06970665 -0.022963427 0.10798116
0000c0 7d b7 9e 3d 5e 7a eb bd d7 b8 d5 3d e6 af 46 3c
       0.07749841 -0.11497949 0.10435646 0.012126898
0000d0 96 81 fa 3d a4 31 97 3c f0 c3 f4 bc fa 53 8e bd
       0.12231748 0.018456288 -0.029878587 -0.06949611
0000e0 19 30 ef bc fb 68 12 bd 0a 58 22 3d 75 ad 9e bd
       -0.02919774 -0.03574465 0.03963474 -0.07747928
0000f0 f2 70 0d be 0a af c7 bd ee 2c b8 3d f8 9f 81 3c
       -0.13812616 -0.09750183 0.08992945 0.01582335
000100 62 c7 5d bc b9 9a 2b bc a1 1c 15 3e a1 44 99 3d
       -0.013536306 -0.0104739005 0.14561702 0.07483793
000110 12 d6 bd 3b c4 bf ea 3d f3 ca fa 3d d7 be 12 3e
       0.0057933414 0.11462358 0.12245741 0.14330612
000120 e5 04 cc bb c6 eb ab 3d e9 ea 1d bd f7 3d b5 3c
       -0.0062261694 0.083945796 -0.038554106 0.022124274
000130 06 e9 06 3e 4c e8 fe bd 06 04 eb bc 31 b0 dc 3d
       0.13174829 -0.12446651 -0.028688442 0.10775793
000140 a2 57 d8 bd 45 ab f9 bc 3e 6a 47 bd c0 10 81 3d
       -0.1056359 -0.030477175 -0.048685305 0.06302023
000150 da af 2b bc c3 6d 17 be b1 90 d5 bd 8d fb ae 3d
       -0.010478938 -0.14787965 -0.10427988 0.08544073
000160 f2 df 4c bb 1f 60 fc 3d 71 63 c4 3c 8f d6 d4 3d
       -0.0031261411 0.12323021 0.023973199 0.10392486
000170 17 26 73 3d c4 d8 ec bd b5 b7 d2 3d d5 9b b9 3c
       0.059362497 -0.11564782 0.102889456 0.022657314
000180 4d 48 3a bd 1f 35 0e 3d c3 01 75 bd ac 62 1b bd
       -0.045479108 0.03471863 -0.059816133 -0.037935898
000190 7f 09 c5 bc 1d 9c b5 3d f7 4e 04 be 4e 0a 91 bd
       -0.02405238 0.08867667 -0.12920748 -0.070820436
0001a0 b5 51 0b 3e 82 26 d5 3d dd 87 0b 3e 1d ee 4b bd
       0.13605388 0.104077354 0.13626046 -0.04978763
0001b0 91 59 ee bc 45 de 0c be 6e c9 e5 bd f8 f7 36 3c
       -0.029095443 -0.13756664 -0.1122006 0.011167519
0001c0 79 ce 24 bc 88 6e 0f bd 1b 46 70 bd 9c d4 ab bd
       -0.010058993 -0.03501752 -0.058660608 -0.083901614
0001d0 72 a8 c7 3d 8b c7 3a 3d 28 c1 57 bc ff b7 0f 3e
       0.09748925 0.045600455 -0.013168611 0.14035033
0001e0 34 11 c7 ba b9 a5 e2 3d e7 5d 59 bc a9 d7 4b bd
       -0.0015187622 0.11066765 -0.013267017 -0.049766216
0001f0 59 41 d8 bd cd 09 ab bd ef 3d 92 bd 0d ca 84 bd
       -0.10559339 -0.08351479 -0.07140719 -0.06483851
000200 4d a9 02 3e 1e 44 0b be dd b9 00 3e 12 94 be bd
       0.12759896 -0.13600203 0.12570901 -0.09305586
000210 45 94 0d be 5f 45 5c 3d 37 c7 e2 bd bb ad 67 bd
       -0.13826092 0.053777095 -0.110731535 -0.056562167
000220 74 8d 44 3d d2 67 6c bd 2b 1a 05 3d 4e 4f b1 3d
       0.047986463 -0.0577162 0.03249566 0.08657704
000230 b4 8c d1 bb 05 97 9a bd 71 28 a2 bd 1e 52 03 3d
       -0.006394947 -0.07548336 -0.0791787 0.032060735
000240 70 60 86 bd 92 3b 90 bd c0 a9 92 3d 2d 6d 23 3c
       -0.06561363 -0.07042612 0.071612835 0.00997476
000250 30 88 56 3d b5 d5 93 3d ea bc 10 be fe d3 53 3c
       0.052375972 0.07218496 -0.14134565 0.012928961
000260 62 8e 98 3c ee 49 e8 3b 6a 77 ba bb c0 95 d0 bc
       0.01862258 0.007088891 -0.005690505 -0.025462031
000270 ac 41 f3 bd 9d 0c eb 3d a5 e0 7b bc f1 c8 00 bd
       -0.1187776 0.11477015 -0.015373384 -0.031441633
000280 d5 ab e9 3d 79 66 80 bd 0f 49 a2 bd 4b 52 a5 bc
       0.114097275 -0.06269545 -0.07924091 -0.020180842
000290 c9 3f bd bd d9 28 91 bd ec 24 4c bd bb cc 0b 3e
       -0.09240682 -0.07087869 -0.0498399 0.13652317
0002a0 75 76 dd bc e0 8a 00 be 7d 92 d9 bc fa 21 6f bd
       -0.027034024 -0.12552977 -0.026559109 -0.058382012
0002b0 d9 41 cc bd 61 f4 4c bd 9f df 0a be 8e b8 7f bd
       -0.09973497 -0.050037745 -0.13561867 -0.062431864
0002c0 b0 73 fd bd 68 05 63 bd 32 b6 13 be ab 98 87 3c
       -0.12375581 -0.055425078 -0.14424971 0.01655229
0002d0 0e d8 05 3d ba b6 a6 bd 5a 8a 01 bc 18 a6 ca bd
       0.03267675 -0.08140321 -0.007906521 -0.09894961
0002e0 d1 70 f6 bd 7a 24 92 bb 6c e6 eb bc 5b 47 e2 bd
       -0.12033237 -0.0044599148 -0.028796397 -0.11048766
0002f0 54 68 99 3d e9 74 d6 3c 1b 56 10 be 86 81 e2 bd
       0.07490602 0.026178794 -0.14095347 -0.11059861
000300 45 6a 84 3d 0e 22 e0 3c 39 42 ba 3d 02 c4 1d 3b
       0.06465582 0.027359989 0.09094662 0.0024073129
000310 55 b0 0c 3c e3 fe 93 bd c3 e6 75 bd 33 e7 ce bd
       0.008586963 -0.0722635 -0.060034525 -0.101026915
000320 22 1b 47 3d 8f 66 ef 3d c3 ab 50 3d bb b5 e8 bc
       0.04860986 0.116894834 0.050945055 -0.028406968
000330 89 8f 6d 3c e7 db 12 be 5e f3 b9 bc 89 cf fe 3d
       0.0144995535 -0.14341699 -0.022699054 0.12441928
000340 c5 57 db bc a4 7d 81 3b bb 58 0b 3e 7c f3 cf 3d
       -0.02677525 0.003951745 0.13608067 0.10153863
000350 56 37 a8 bc 75 2e 0c be b2 37 ff 3d ae 6d 7e 3d
       -0.020534199 -0.13689597 0.12461795 0.062116317
000360 65 2e 84 3a e2 9d f4 3d 86 cb 64 3d c6 88 6c bc
       0.0010084627 0.11944176 0.055858158 -0.014436906
000370 97 57 f6 3d d9 5e f0 3c 85 e8 96 3d f0 86 12 3a
       0.12028425 0.029342102 0.07368568 0.0005589565
000380 a3 4d 95 3d 20 89 0f bd 4c 48 19 3d 64 bc 0f be
       0.07290199 -0.035042882 0.037422463 -0.14036709
000390 04 0f c2 3d 6a 40 d9 3c 5d 55 ac 3d 68 0f ad bd
       0.0947552 0.026519973 0.08414719 -0.08450204
0003a0 56 89 ff bb 20 8f cf 3c 99 b0 a3 bc e9 89 2e bd
       -0.007798354 0.025336802 -0.01998167 -0.04261199
0003b0 25 04 84 3d 18 2d 11 3d 25 3c 07 be b5 2e 91 3c
       0.06446103 0.035443395 -0.13206537 0.017722467
0003c0 77 98 b4 3d 6f a5 e3 3d 72 91 c7 3d 79 f6 b1 3d
       0.08818143 0.11115538 0.09744538 0.08689589
0003d0 72 94 17 bb 25 87 fa bd ce 5e bc bd f3 7b 08 3d
       -0.0023129252 -0.12232808 -0.0919777 0.033321332
0003e0 e6 8c 3b bd 1f 32 77 bd 8b a6 94 bc c9 6b 89 3d
       -0.045788668 -0.060350534 -0.01814582 0.067100115
0003f0 e4 ed 5a bd 41 6b 9d bd 3c 39 ce 3b 79 da 09 3e
       -0.053449526 -0.07686473 0.006293444 0.13462247

module.gcn_layers.0.bnNodes.batch_norm.weight f4 [50]
000000 87 15 80 3f 73 67 7e 3f 80 32 7e 3f 46 de 7d 3f
       1.000657 0.993766 0.99295807 0.9916729
000010 42 77 80 3f ad f8 80 3f 0c 9f 7f 3f b7 f4 7d 3f
       1.0036395 1.007589 0.9985206 0.9920153
000020 bf 6e 7e 3f d4 59 7f 3f 02 a6 7d 3f f9 e7 80 3f
       0.99387735 0.9974644 0.9908143 1.0070792
000030 37 5d 80 3f 15 c1 80 3f c7 f4 80 3f 31 af 80 3f
       1.0028447 1.0058924 1.00747 1.0053464
000040 df 88 80 3f db 04 80 3f 9e 9f 7d 3f 68 06 7e 3f
       1.004177 1.0001482 0.9907168 0.99228525
000050 b7 bd 7e 3f 0f c4 80 3f d7 1c 80 3f 2f 1f 7e 3f
       0.9950823 1.0059832 1.0008801 0.9926633
000060 6c 1c 7f 3f c0 59 7e 3f 5c 13 80 3f 9c 92 7f 3f
       0.99652743 0.993557 1.0005908 0.99833083
000070 f1 a0 80 3f f6 64 80 3f 49 bb 80 3f b2 2b 7e 3f
       1.0049115 1.0030811 1.0057155 0.99285424
000080 de 89 80 3f 39 c4 80 3f ab 62 7e 3f 3b 71 80 3f
       1.0042074 1.0059882 0.99369305 1.0034555
000090 87 6e 80 3f 97 e7 7f 3f 95 d5 7e 3f a7 a5 80 3f
       1.003373 0.99962753 0.9954465 1.0050553
0000a0 9f fe 80 3f 09 c0 7e 3f 91 c0 7e 3f c6 b4 7e 3f
       1.0077704 0.9951177 0.99512583 0.9949459
0000b0 34 60 7e 3f 83 f1 7d 3f 48 c0 7e 3f 13 ee 7d 3f
       0.99365544 0.9919664 0.9951215 0.991914
0000c0 28 19 7f 3f ba b9 7f 3f
       0.9964776 0.9989277

module.gcn_layers.0.bnNodes.batch_norm.bias f4 [50]
000000 4f 06 ad ba df 9b fc bb a2 7d f0 bb b0 10 01 bc
       -0.0013200733 -0.007709011 -0.0073391953 -0.007877514
000010 20 09 a1 3b df 26 0e 3c e6 3a 76 bb 75 b2 f8 bb
       0.004914418 0.00867626 -0.0037571727 -0.007589633
000020 1b 4c e5 bb 7e 9f ef ba 28 e9 bf bb a4 90 ee 3b
       -0.006997598 -0.0018281785 -0.005856652 0.007280426
000030 f5 9b 93 3b df 7c 12 3c 16 a2 d3 3b f4 19 92 b9
       0.0045046755 0.008940904 0.006458531 -0.00027866627
000040 09 45 81 3b f8 0f 0a 3b a7 66 05 bc e2 05 9e bb
       0.003944997 0.0021066647 -0.00814215 -0.0048224786
000050 d6 3b 99 39 52 7a bd 3b 5c 6d 29 3b 92 14 7f bb
       0.00029227015 0.005782404 0.0025852537 -0.0038922173
000060 29 86 ca bb 37 e2 bd bb ac 68 d0 3a 75 94 0b bb
       -0.006180544 -0.005794789 0.0015900335 -0.0021298204
000070 0e d0 89 3b e2 04 29 bb 12 e1 ca 3b 2e 79 48 ba
       0.0042057103 -0.0025790264 0.0061913813 -0.0007647452
000080 0b 2e 05 3c 28 01 97 3b 51 62 e1 ba 7a 2e fb 3a
       0.008128653 0.004608292 -0.0017195438 0.0019163631
000090 f2 91 c4 3a 6d 08 92 3b 39 d7 64 bb 56 51 7d 3b
       0.0014997108 0.004456571 -0.0034918322 0.0038653216
0000a0 6f a0 f4 3b 8d 71 4b bb a1 ba 96 bb e4 79 0b bc
       0.0074654142 -0.0031043023 -0.0045998846 -0.008512948
0000b0 04 54 a7 bb 4e 2d bf bb 1c a6 0c bc b4 e0 f5 bb
       -0.005106451 -0.005834258 -0.008584525 -0.0075035933
0000c0 3f af 4a bb 28 8c 6a 3b
       -0.0030927209 0.0035789106

module.gcn_layers.0.bnEdges.W3.weight f4 [50, 50]
000000 08 92 cd 3c bb d9 41 3d 29 0d bd bc bb 80 bd 3c
       0.025094047 0.047326785 -0.023077564 0.023132673
000010 c9 93 28 3c df 1c 84 bd 13 01 aa 3c e7 22 a4 3d
       0.010289141 -0.06450819 0.020752465 0.080144696
000020 da 6b 2a 3d 5f f3 f8 3d 5e df dd 3d 42 f5 c7 bc
       0.04160676 0.12155794 0.108336195 -0.02440894
000030 03 28 8e 3c 80 1d 9e 3d 46 e7 8a bd a0 f3 73 bd
       0.017353063 0.077204704 -0.06782393 -0.05955851
000040 f4 46 0e be 57 d0 b4 bd bd 79 2c bc 58 ee 02 be
       -0.13894254 -0.088288 -0.010527072 -0.12786233
000050 de 2e 08 3e 8a a8 46 bb 85 5a 7e 3d 8a 05 b3 3d
       0.13299128 -0.003031286 0.062098045 0.08741291
000060 73 bb 0d be 35 fa bf bd 62 13 1d bd 2b 9c 1d 3c
       -0.13841037 -0.09373895 -0.038348563 0.009619753
000070 99 32 c6 bd 46 22 e8 bd c0 5c 32 36 57 25 0d 3d
       -0.096776195 -0.11334662 2.6578055e-06 0.03445944
000080 29 1e 00 be 86 63 37 3d d9 31 8a bd 21 0d 8b bb
       -0.12511505 0.044772647 -0.06747789 -0.0042435084
000090 a8 f2 0a bb 39 b0 77 bd 83 a6 e9 bc 7a dd a0 bd
       -0.0021201763 -0.060470793 -0.028521782 -0.07854743
0000a0 6a 4d aa 3d 2a 81 ba bd ac 03 5e bd 66 8c ea bd
       0.08315547 -0.09106667 -0.05420272 -0.1145256
0000b0 5a a9 c2 3d de bc a8 bd 64 80 b9 bd 08 31 c3 bd
       0.095049575 -0.082391486 -0.09057692 -0.09530836
0000c0 9c d3 45 3d 38 f4 a9 bd d0 30 ee 3d 91 e6 32 bd
       0.04829751 -0.08298534 0.11630404 -0.043676917
0000d0 e7 d2 f0 bd 86 36 a0 bd f1 c4 2c bd 24 60 9b bd
       -0.117589764 -0.078228995 -0.042180005 -0.07586697
0000e0 01 ff 9d 3c aa 5a 90 bd 65 89 c2 3c 82 f2 52 bd
       0.019286634 -0.07048543 0.023747155 -0.051500805
0000f0 e2 99 10 bd 8d 05 9f 3d c7 55 44 3c 90 2e 17 3e
       -0.035303004 0.077647306 0.011983342 0.14763856
000100 1d 89 fc bd 5a ab 18 bd 48 28 0a 3e c7 ac f3 bd
       -0.1233084 -0.03727279 0.13491929 -0.11898189
000110 52 89 8a bd bd 6b 05 bd 58 61 fc bd 0d 65 de 3d
       -0.06764473 -0.03257345 -0.12323254 0.10859118
000120 8d cc d2 bd 9d 1b 2b 3d 6f 0a 52 3d f0 2e 43 3d
       -0.10292921 0.04177438 0.05127948 0.047652185
000130 a5 25 ff 3d 8b c4 36 3d 9e 32 ad 3d b0 3c 48 bb
       0.12458352 0.04462103 0.0845692 -0.003055375
000140 2d 60 53 3c c2 1b 9b bd e9 da 13 be c6 d4 12 3e
       0.012901348 -0.07573654 -0.14438976 0.14338979
000150 92 f5 3c 3c 12 a7 cc bd c2 6b 5f 3d 97 6e f6 3d
       0.011533158 -0.09992804 0.054546125 0.12032812
000160 e5 3e 4c 3d 9b 3f e7 3c 60 d2 de 3d 8b 40 fa 3d
       0.04986467 0.028228572 0.108799696 0.12219342
000170 db 8b f8 3d 82 03 8b 3c 74 b2 fb bd 52 d4 3c bd
       0.1213605 0.016969446 -0.122898966 -0.046100922
000180 a5 5b f0 3d 3c e1 73 3d b3 54 4d bd c6 b3 20 3c
       0.1173623 0.059540972 -0.050129604 0.009808486
000190 c3 4b bd bd 5a d3 ba bc 8e ec fd 3d 84 21 ac 3c
       -0.09242966 -0.022805858 0.12398635 0.021012075
0001a0 95 25 0b bd f1 c9 56 bc bd a3 e7 bd 0f d8 a4 3d
       -0.033971388 -0.01310967 -0.113105275 0.080490224
0001b0 a7 a8 00 be 00 cc a7 bd e0 b7 93 3b 9a 01 67 3d
       -0.12564336 -0.08193207 0.0045080036 0.05639801
0001c0 e0 dd 80 3d d9 34 4d bc 6e 48 e4 3d 70 f2 11 be
       0.06292319 -0.012524807 0.11146627 -0.14252639
0001d0 8a de da bd 58 57 42 bd 12 fb d3 3d b1 a6 82 3d
       -0.10686977 -0.04744658 0.10350622 0.0637945
0001e0 95 51 02 be 01 f1 03 be 9b 58 0d be 50 a9 02 be
       -0.12726434 -0.12884904 -0.13803332 -0.127599
0001f0 02 6e ca 3d 3e 2c a1 ba d7 9c 4f bc 11 0e a5 bb
       0.098842636 -0.001229651 -0.012671671 -0.0050370772
000200 29 c2 91 bd 31 ce af 3d 9d de 0f bd 45 8a d4 3d
       -0.07117111 0.0858425 -0.03512441 0.10377935
000210 7a 7c f5 bd 42 2b ba bd 12 aa bc 3d cc 7f 45 3c
       -0.11986633 -0.09090282 0.09212126 0.012054395
000220 8f 4b 03 be 4c e6 1d 3d f5 8b 85 bc ee 8a 6f bd
       -0.12821792 0.038549706 -0.016302088 -0.058482103
000230 37 61 09 3e 9f b7 db bd 38 2e 68 3d 8e 67 5d bd
       0.13415991 -0.10728382 0.056684703 -0.054053836
000240 5f ed 61 3d 14 4c fc bd bf 73 6e bd 78 aa 14 3d
       0.055158015 -0.12319198 -0.058215853 0.036295384
000250 55 6d a3 bd 1e fe 03 3d ac 2c d3 3d d1 60 9b bd
       -0.07979838 0.032224767 0.10311255 -0.07586826
000260 67 8b 60 3d ce 1e 57 3d 9a f4 8c 3c 48 87 be bd
       0.054820444 0.052519612 0.017206479 -0.093031466
000270 ac 03 26 bd 6d d7 b8 bc 73 dd 0c 3b e8 d4 e7 bd
       -0.040530846 -0.02256366 0.0021494299 -0.113199055
000280 67 95 e0 3d 51 ab 12 3d 94 4f 15 bd de af 80 3d
       0.10965996 0.03580791 -0.036452845 0.06283544
000290 53 b7 71 bc c9 d8 9a 3d c6 73 0a 3e ff 82 06 bd
       -0.014753181 0.0756088 0.13520727 -0.03283977
0002a0 25 46 3e bd 52 de be 3d bb 56 17 bd 05 fd da 3d
       -0.046453614 0.09319748 -0.036947947 0.10692791
0002b0 e3 ed 97 3b 6b 7e 93 bd 9f 17 07 3e 66 0e 83 bc
       0.0046365126 -0.07201847 0.13192604 -0.015998077
0002c0 1c 7c d4 3d 04 c6 81 3d 02 e0 07 be 75 94 d1 3c
       0.103752345 0.063365966 -0.13269046 0.025583485
0002d0 43 53 d9 3d 10 c1 cb 3d 47 fc 10 3e 2e cf f4 bd
       0.10611584 0.09948933 0.14158736 -0.11953579
0002e0 d5 a7 94 3d 84 51 06 be 7b fa 03 be f3 8b 9c bd
       0.07258574 -0.13117033 -0.1288852 -0.07643881
0002f0 bd e3 0f bd 06 db 3f 3d 61 1a a0 bd c1 75 37 bd
       -0.035129298 0.046839736 -0.078175314 -0.044790033
000300 07 76 f7 bd 27 5f 4a 3d 22 27 ce 3b 7d d1 4f 3c
       -0.12083059 0.04940715 0.006291286 0.012684223
000310 67 06 43 3d d6 df b3 bb 6e fa ae 3d 6e 64 ad bd
       0.047613528 -0.00548933 0.085438594 -0.08466421
000320 85 b5 2f 3d 6d 7b fe 3d 04 57 82 3d 3e 4a 58 3b
       0.04289772 0.12425885 0.06364253 0.0033003236
000330 48 cb d9 bd 39 06 09 3e 61 d2 e7 bd e0 42 18 3e
       -0.10634476 0.1338128 -0.113194235 0.14869261
000340 a5 7f 34 3d 71 8f 00 3e c8 94 a8 3d 49 6d c3 3d
       0.044067044 0.12554719 0.08231503 0.09542329
000350 87 ac 03 be 1c 4a a0 bd 7d 07 83 bd 23 dd 60 3d
       -0.12858783 -0.07826635 -0.06397913 0.054898392
000360 e0 53 44 bd 91 ef a0 bc 75 5d 16 be c6 27 80 3d
       -0.047931552 -0.019645484 -0.14684089 0.06257586
000370 28 4e 8c bd 62 33 9c 3d 84 b2 8e bd d9 fe 12 3e
       -0.068508446 0.07626988 -0.06967643 0.14355029
000380 1a 36 0c ba d2 e3 4d 3c ac bb eb 3c 75 4e 08 be
       -0.0005348638 0.012566524 0.028776012 -0.13311179
000390 ff bb 9a bb b7 af a3 3d 25 d3 84 bc 61 c9 06 3c
       -0.004722118 0.07992499 -0.016213963 0.008226723
0003a0 f5 92 c8 3d 1e 81 03 3e 3e 78 0c be 1e 19 aa 3d
       0.09793655 0.12842223 -0.13717744 0.08305572
0003b0 52 99 e5 3c 58 87 2a 3d 2f 41 33 bd a9 37 98 bd
       0.02802721 0.04163298 -0.043763336 -0.07432491
0003c0 9f c2 c2 bd 8b 06 9e bc 71 51 b7 3c 5d 37 7f bd
       -0.09509777 -0.01929023 0.022377701 -0.062308658
0003d0 8b 0a 8c 3d 69 71 06 3e c6 f8 29 3d d6 a4 c3 3d
       0.068379484 0.131292 0.041497014 0.09552924
0003e0 0e e0 c0 3d da e1 3b bd b8 9b fd 3d 6c 19 c0 bd
       0.09417735 -0.045869686 0.123832166 -0.09379849
0003f0 6d 4d e5 bd 29 5b de bb 95 54 76 bd 13 cb 09 3d
       -0.111964084 -0.0067857695 -0.060139257 0.033640932

module.gcn_layers.0.bnEdges.W4.weight f4 [50, 50]
000000 4b ce 0e bd 14 a2 cf 3d 95 58 e1 3d 2a e8 49 3c
       -0.034864705 0.10138336 0.11003224 0.012323419
000010 fb c2 76 3d c6 bd 77 3d e2 66 a9 3d c8 5e 35 3d
       0.06024454 0.060483716 0.082715765 0.044279844
000020 8e df e5 bd 6e bc 72 bc 54 5e e2 bd 32 61 b3 3d
       -0.1122428 -0.014815433 -0.11053148 0.08758773
000030 4f a2 1e 3d e7 60 82 bd eb bc f2 3d bf 6d 8e bd
       0.03872901 -0.06366139 0.118524395 -0.06954526
000040 ce cc c2 bd 5c 47 f7 bd c3 bd 3b bd 57 aa d4 3c
       -0.0951172 -0.120741576 -0.045835268 0.02596013
000050 6b 91 0e 3e 96 d8 b3 3c 9c 32 88 bd f4 35 b7 3d
       0.1392266 0.021953862 -0.06650278 0.089458376
000060 bc f7 ed 3d 52 eb a7 3d 46 62 5b bd 9e 75 bd 3d
       0.11619517 0.08199181 -0.053560518 0.09250949
000070 40 80 24 bd 03 d3 dc bc 8d 29 13 3b 2e 94 85 bd
       -0.04016137 -0.026956087 0.0022455186 -0.06522404
000080 71 36 07 be 2b fb db bd fc 38 f0 bd 46 64 bb 3d
       -0.13204361 -0.10741266 -0.11729619 0.09149985
000090 62 10 4c 3d 55 8f 2a 3d 8d 70 a3 bd 6c e2 b7 bd
       0.04982031 0.0416406 -0.07980452 -0.089787334
0000a0 13 41 e2 bd 12 13 5f 3d 50 f7 ef bc 22 88 92 3d
       -0.11047568 0.054461546 -0.029292732 0.071548715
0000b0 2f 9f 95 3d 60 40 d0 bd 47 be f4 3c 4b 50 04 3e
       0.073057525 -0.101685286 0.029875888 0.12921254
0000c0 55 f3 b8 3b c2 86 72 bd 33 f2 9c 3d 25 a6 06 3e
       0.005644242 -0.059210546 0.07663383 0.13149317
0000d0 23 3a ce bd 9d 40 6e 3d 4b d8 fb bc ec 6a c7 3c
       -0.100696824 0.05816709 -0.030742785 0.024342977
0000e0 a7 2b d0 3d 3c a7 c6 3d b0 67 fe bd 24 2d 4a 38
       0.10164576 0.09699866 -0.124221206 4.8202593e-05
0000f0 9a a6 c6 3d 8c 22 07 3e 67 14 9f 3d d2 e4 0d 3d
       0.096997455 0.13196772 0.07767563 0.03464205
000100 c4 0f 63 3c 3d dc 08 be cf 5f 4d 3d 59 79 a6 bd
       0.013858739 -0.13365264 0.0501402 -0.08128614
000110 aa 7a 9a 3c 80 db fe 3d c4 f9 3e 3d 50 41 3c bd
       0.018857319 0.1244421 0.046624914 -0.045960724
000120 fa 39 1c bb e3 05 fd bc 0d 66 b6 3d 55 2d b9 bc
       -0.0023838268 -0.030886596 0.089061834 -0.022604624
000130 af d0 10 3d 34 4f 59 3b 77 7a 0a 3e cd 7d 2f bd
       0.035355266 0.003315878 0.13523279 -0.042844582
000140 e6 a9 bb bd 50 1f 27 bd b2 87 40 3d 2b 9e 07 be
       -0.09163265 -0.040801346 0.04700441 -0.1324393
000150 40 18 d1 bd 5d ee ea 3c 7e 67 ac bd b3 11 96 bd
       -0.102097034 0.028678114 -0.08418177 -0.073275946
000160 a7 5e 2b 3d ea a5 c6 3d 7a 1d 93 3d 12 da d7 bd
       0.041838314 0.09699614 0.071833566 -0.105396405
000170 f2 59 cb 3d 95 cd ae bd 26 8b 04 3e 3f c3 ed 3d
       0.09929265 -0.085353054 0.12943706 0.11609506
000180 2e 30 9d bc 05 60 27 3d d3 21 dd 3c 1b 16 3a bd
       -0.019188013 0.040863056 0.026993668 -0.045431238
000190 94 a2 c2 39 26 a8 af bd c0 3a 3c 3d a6 17 85 3d
       0.00037123694 -0.08576994 0.045954466 0.06498651
0001a0 98 5b 88 bd 99 eb 52 bd bb 9d ea bc 6d 44 ae bd
       -0.06658095 -0.051494215 -0.028639665 -0.08509145
0001b0 34 82 cc bd 03 f8 a0 3d 1a b3 2d bd cd 65 96 bd
       -0.09985772 0.078598045 -0.042407133 -0.07343636
0001c0 31 56 fd 3d 45 41 92 bd d5 a8 06 3e 6e da e7 bd
       0.12369955 -0.071413554 0.13150342 -0.11320959
0001d0 dd 72 93 3d d2 1c 99 3d 16 b3 0c 3e 37 72 08 be
       0.07199643 0.074762 0.13740191 -0.1332482
0001e0 93 62 be 3d 2c 0f f0 bd 42 04 27 bd 67 d1 e6 bd
       0.09296145 -0.11721644 -0.040775545 -0.11270409
0001f0 2d 02 83 3c 84 95 79 3c 2c af 22 3d 3e 2c dc 3c
       0.015992248 0.015233401 0.03971784 0.026876565
000200 dc 56 31 3d 5e ef 15 bd 15 1e c1 3d 74 39 70 39
       0.043295726 -0.03660523 0.09429566 0.00022909587
000210 82 15 e7 bd 18 d4 09 3e bb ad bd 3d 4e 95 68 bc
       -0.11283399 0.13459814 0.09261652 -0.014195753
000220 9a ce 87 3d 19 18 2c bd b7 68 e4 3d 4f 3d fc bd
       0.06631203 -0.04201517 0.11152785 -0.12316381
000230 7d a7 02 be a7 89 8f bd 96 9c dd bd 98 b7 b5 3d
       -0.12759204 -0.07008677 -0.10820882 0.08872908
000240 37 40 44 bb 12 d2 77 bd 44 64 93 bd 4d 11 e2 bd
       -0.0029945502 -0.060503073 -0.071968585 -0.11038456
000250 6f e2 10 3b 1d 5d 08 be 86 f1 ee bd 0a 1f 05 3d
       0.0022107621 -0.1331677 -0.11667161 0.032500304
000260 e6 38 b4 3b e7 b0 a5 3d 92 49 1c 3c 9d e5 ec bd
       0.005499947 0.08090382 0.009539025 -0.11567233
000270 79 b3 a7 3d 3f 4d d1 3d 8f a5 13 3d e0 83 92 3c
       0.081885286 0.10219812 0.03604656 0.017885149
000280 a0 bb 21 3d aa ef ff 3c 3a 5e 93 bd 1c 29 86 bd
       0.039485574 0.03124221 -0.07195707 -0.0655081
000290 17 70 fb 3c 31 42 10 3e 6b a0 5c ba 44 7f d7 3b
       0.030693097 0.1408775 -0.0008416238 0.0065764505
0002a0 5b f5 c4 bd 1e 66 6f bd 3a ee 32 3d 6f 5e 21 3c
       -0.0961711 -0.058446996 0.04368422 0.009849175
0002b0 83 b8 06 3e 76 61 89 3d 51 81 92 bc ff f9 53 bd
       0.13156323 0.06708042 -0.017883928 -0.051752087
0002c0 7a 35 d3 bd b2 bd ee 3b cd 5c 8e bb a7 de 91 3d
       -0.10312934 0.007285797 -0.004344559 0.07122546
0002d0 3f 1c 45 3d 25 c1 1c 3c 82 ee c4 3d e6 86 fa 3c
       0.04812264 0.009567534 0.09615804 0.030581903
0002e0 a3 37 88 3d 92 eb d9 bd cc 68 63 bd 9b 25 ac 3d
       0.06651237 -0.106406346 -0.055519864 0.0840561
0002f0 e9 e1 b0 3d 36 2a b1 3d 8b ab 4a 3d 40 1b 8a 3b
       0.08636839 0.08650629 0.049480002 0.0042146742
000300 07 7e 16 be c1 fd a9 bd 0f b4 d6 3d 1d b6 33 bd
       -0.14696513 -0.08300353 0.10483562 -0.04387485
000310 b5 4b e8 3d ca 86 e8 bd 04 cd 53 bd e1 db 0d 3c
       0.11342565 -0.11353834 -0.05170919 0.00865838
000320 9e a9 ab bd 86 93 ce 3d 8a 40 da 3d 53 05 52 bd
       -0.08381961 0.100867316 0.10656841 -0.05127461
000330 8a 01 08 3e 0f fa ba 3d e3 a0 ec 3d 4a 09 cd bd
       0.13281837 0.09129726 0.11554124 -0.100115374
000340 a3 e0 f8 bd 54 4e 66 3c 22 24 28 3c 1d d1 80 3d
       -0.12152221 0.014056761 0.010262521 0.06289885
000350 35 71 ed bd db a8 ff 3d 58 90 e5 3b bc ea c4 3d
       -0.11593858 0.124833785 0.0070057325 0.096150845
000360 d3 35 87 3d ec 1d a3 3d 32 9e 6b bd ed 29 e3 bb
       0.06602063 0.079646915 -0.057523914 -0.006932488
000370 88 41 fc bd cc a7 23 3c d8 2f 70 bd 84 b0 c8 bd
       -0.123171866 0.009988736 -0.058639377 -0.09799293
000380 ef a5 2a 3d 49 0b d6 bd d5 17 a7 3d b2 78 ce bd
       0.041662153 -0.10451371 0.081588425 -0.100816146
000390 5f b6 20 3c de e0 27 3d ef 63 06 3e 3f e2 7d bd
       0.009809106 0.040985934 0.13124059 -0.061983343
0003a0 0e c8 f8 bd 29 52 af bd 05 c9 8c bd ad 09 8c bd
       -0.121475324 -0.08560593 -0.06874279 -0.06837783
0003b0 03 2c c8 bd 9c 0d 13 3e b1 ab 29 bb 93 c5 eb bd
       -0.097740196 0.1436066 -0.002588969 -0.11512294
0003c0 f9 79 1a 3d cf 57 7f 3c b7 b2 af 3c 0a e8 0a 3d
       0.03771398 0.0155849 0.021447523 0.033912696
0003d0 50 6d 20 3d 05 05 b9 3d ae 83 8f 3d c4 e6 97 3c
       0.03916675 0.090341605 0.07007538 0.018542655
0003e0 d9 06 e0 3d 99 52 f0 3b 4f a8 64 bd 2a bd 05 bd
       0.10938806 0.007334065 -0.055824574 -0.032651104
0003f0 4b 1d ed ba c3 4b 60 bd e2 62 0c 3e 6a f7 05 3d
       -0.0018090395 -0.054759752 0.13709596 0.032706656

module.gcn_layers.0.bnEdges.W5.weight f4 [50, 50]
000000 26 e7 c8 3d 72 ee b0 bd 71 14 5d bc 8c da 11 3c
       0.09809713 -0.0863923 -0.013493643 0.008902203
000010 85 e7 0d 3e d9 b1 6b bd b5 1b 8c bd 82 ef 12 3d
       0.13857849 -0.057542656 -0.06841222 0.035872944
000020 2a 19 e0 3c e7 a2 44 3d 2b da f3 3d f9 98 e7 bd
       0.02735575 0.04800692 0.119068466 -0.11308474
000030 31 9f 32 3c 6b 17 e8 bc b4 fa ff bd 06 53 bd bc
       0.010902212 -0.028331479 -0.1249899 -0.023110878
000040 99 fa 1a 3d 7c 82 99 3d 5b f2 ed 3b 04 ff d4 bd
       0.037836645 0.07495591 0.007261557 -0.10400203
000050 77 99 04 bd 63 2b 9d 3d 24 2d 5c 3d 34 11 e3 bd
       -0.032372918 0.07674291 0.053753987 -0.110872656
000060 37 c5 0f 3d e8 2c dd bc 7d 9c 83 3c c1 d0 c9 3d
       0.035100188 -0.026998952 0.01606583 0.0985427
000070 42 df 9a bd 6b a6 0a bc c1 76 e1 3d 8d c4 87 bc
       -0.07562114 -0.008462529 0.11008979 -0.016573215
000080 98 f3 18 3e cd 58 80 bc 40 1e cb 3c 94 74 b3 bc
       0.14936674 -0.015667344 0.024794698 -0.021906175
000090 e0 32 19 3d c4 d0 35 bd 01 67 0c 3e 9b 2f fd 3d
       0.037402034 -0.044388548 0.13711168 0.12362596
0000a0 8d 7d 09 3b aa b3 a1 bd ca 2a 11 3d 9c 9c b2 bc
       0.0020979375 -0.07895596 0.035441197 -0.021803193
0000b0 19 ae fb bd a3 f1 15 3c ec 66 d7 bd d2 9a 2b bd
       -0.12289066 0.009151849 -0.10517678 -0.041895695
0000c0 f7 0f e4 bd 0f c0 df 3d 4f 7d 7a 3d a0 5b 94 bd
       -0.111358576 0.10925304 0.06115466 -0.072440386
0000d0 85 e3 a8 3d c2 e2 cb bd 9b eb 89 3c e8 26 f3 bd
       0.08246521 -0.0995536 0.016835978 -0.11872655
0000e0 a3 09 95 3d 77 e2 9a bd af b6 5b bd 3d 46 1b 3d
       0.07277229 -0.07562726 -0.053641018 0.03790878
0000f0 06 2c 09 be ec 78 94 3d bc 78 25 3a 29 11 d0 bd
       -0.133957 0.072496265 0.00063122413 -0.10159523
000100 b1 7c c6 bc 2d 0c be bd 5b ca 21 3d 4b 11 2e 3d
       -0.02422938 -0.09279666 0.03949962 0.04249696
000110 db 77 e0 bd 5f a7 bf 3d 81 e2 4f bd c9 e0 fb 3d
       -0.109603606 0.093580954 -0.05075312 0.12298734
000120 fa b3 21 bc db 00 c3 3c 31 8c 50 bd 12 6f a2 bb
       -0.00986957 0.023804119 -0.050914947 -0.0049570883
000130 22 35 fb bb 04 93 0e bd 65 bc a7 bd 39 ff ca 3b
       -0.007666246 -0.034808174 -0.0819023 0.0061949757
000140 30 a2 f8 bd dc 7b a0 bd 61 59 49 bd 4b 10 a1 bb
       -0.1214031 -0.07836124 -0.049157504 -0.0049152724
000150 e4 f9 bc bd 4c 8e 8a bd 62 34 65 3b c5 e3 02 3c
       -0.0922735 -0.06765422 0.003497385 0.007988875
000160 b8 91 f4 3b a6 e3 a7 bd c3 ba d6 3d 6a 81 2a bd
       0.00746366 -0.08197717 0.10484841 -0.041627325
000170 dc 6b ee bd 97 0c a3 3d 15 1c 5a 3c 92 57 69 bc
       -0.11641666 0.07961386 0.013312359 -0.01424207
000180 45 64 07 be 79 f2 ac bd 20 3c 9e 3d e5 7d 35 bd
       -0.13221844 -0.084446855 0.07726312 -0.044309516
000190 b5 02 c1 bd 40 96 ab 3d e3 16 f3 bd e9 4f aa 3d
       -0.094243445 0.08378267 -0.118696 0.08316023
0001a0 93 dd 32 bd 55 3b 61 3d 64 7a 7a 3c f3 94 08 3e
       -0.04366834 0.054988224 0.015287969 0.1333807
0001b0 00 50 7a 3d 44 a9 af bb 67 1e 0d 3e 71 59 ee bd
       0.06111145 -0.005360754 0.13781129 -0.11638153
0001c0 f5 e4 6c 3c 82 4d 2e 3d 1d 4a eb bd ac d2 a2 bd
       0.0144588845 0.042554386 -0.11488745 -0.07950339
0001d0 f3 93 7c bd 55 cc 9b bd c2 2f 71 bc 8c 25 bc bd
       -0.061664533 -0.076073326 -0.014720859 -0.09186849
0001e0 8d 04 0d 3e 4f a9 04 bc 0b 1a 14 3e 2d 4c 00 3d
       0.13771267 -0.008097007 0.1446306 0.031322647
0001f0 44 ed 9c bc 69 70 87 3c 1c bf a0 bd 42 3b b7 bd
       -0.019156106 0.016533094 -0.07848951 -0.089468494
000200 c8 c6 5d 3d fd a6 68 bc 0d 82 6f 3c c1 0a 3c bc
       0.05414465 -0.014199969 0.014618409 -0.011477173
000210 93 52 ea 3d c8 56 13 be b3 31 bc bd cc 72 8f bd
       0.11441531 -0.14388573 -0.09189167 -0.07004318
000220 49 13 49 bd 62 45 e9 3d 20 34 cd 3d 9c 7b db bd
       -0.049090657 0.11390187 0.10019708 -0.10716936
000230 20 5d 39 bd 4d 7b e9 3d db 50 e8 bd e1 24 2b 3c
       -0.045254827 0.11400471 -0.11343547 0.010445804
000240 35 3d 48 3d 94 91 82 3d 14 bf c0 3d cf c3 c6 3d
       0.048886497 0.06375423 0.09411445 0.09705316
000250 65 c6 05 3d 97 b5 0c be f0 7f 87 bd a4 5c f1 bc
       0.032659907 -0.13741146 -0.06616199 -0.02946312
000260 65 60 c9 bd 9b 3d 9f bd 1a 50 e0 3c cd a4 50 bd
       -0.09832839 -0.07775422 0.027381945 -0.050938416
000270 bd f6 e1 3c e5 1f 4a 3d 85 0e 9a 3d 36 5e e2 bd
       0.027583474 0.049346823 0.07522301 -0.110531256
000280 36 8a fb 3d b7 f2 7c 3d 3c e5 91 3c 1c ec 0e bd
       0.12282221 0.06175491 0.017809503 -0.03489314
000290 80 a2 27 bd 30 46 2f 3c 99 4b 99 bc bc 6a 02 be
       -0.040926456 0.010697886 -0.018712806 -0.12736028
0002a0 3f 21 9a 3c 64 1c c2 bd 23 71 f0 bd 96 fb b1 3d
       0.018814681 -0.09478071 -0.11740329 0.08690564
0002b0 e2 e3 b5 bc 48 29 04 bd e3 8c c7 bc 4c ff 5f bd
       -0.02220339 -0.03226593 -0.024359172 -0.05468683
0002c0 91 23 8e 3d ca 7a 0e bc 51 81 61 bd 10 07 0b 3e
       0.069403775 -0.008696267 -0.055054966 0.13576913
0002d0 62 65 ce 3d b0 ec df 3d fc 25 15 be 7e e9 03 3d
       0.10077931 0.109338164 -0.14565271 0.032205097
0002e0 63 dc a1 3c 6c a2 05 3e 31 9e 3d 3d df 51 ce 3c
       0.019758409 0.1305024 0.04629344 0.025185524
0002f0 2d 40 b9 3d 25 76 8d 3d d1 45 fb bd b7 bd 07 be
       0.09045444 0.069073 -0.12269176 -0.13255964
000300 f4 55 8c bd 15 62 d9 bc f6 bf 1e 3d 44 1e c8 3d
       -0.06852332 -0.026536027 0.038757287 0.09771398
000310 24 07 fc bd 6a 57 c3 bc 3c 0f d9 bd 34 83 f8 3d
       -0.123060495 -0.023845393 -0.10598609 0.121344
000320 1f 3a a1 3d a2 93 b5 3d 80 9b 8a bc 47 86 a7 bd
       0.07872414 0.08866049 -0.016919851 -0.08179908
000330 8d d7 a2 bd dc c1 e4 3b ff e7 24 3c f3 15 01 3c
       -0.07951269 0.0069811177 0.010065078 0.007878768
000340 f6 22 ed 3d eb 2b a3 bd f3 54 c9 3d 1b 2a 61 3d
       0.11578934 -0.07967361 0.09830656 0.054971796
000350 81 1d f0 bd ee 21 68 bd e5 8b 98 bd 47 b4 e7 3b
       -0.117243774 -0.056672983 -0.07448558 0.0070710513
000360 43 ac aa 3d de b1 a6 3d a6 e4 97 bc 22 82 0b 3e
       0.083336376 0.08139394 -0.018541645 0.1362386
000370 42 c8 74 3d 82 ad 17 3d 31 5d fc bd e8 b0 e3 bd
       0.059761293 0.037030704 -0.12322462 -0.111177266
000380 ef d7 be 3d 65 93 89 3d 9b 43 78 bd 5b 9b cf bd
       0.0931853 0.067175664 -0.06061135 -0.101370536
000390 5a ee 7e ba fc 28 0d be 65 d2 d3 3d 5a 48 87 3d
       -0.0009724848 -0.13785166 0.10342864 0.06605597
0003a0 8a 9e 00 3d 0f c8 d9 bd f4 7f d9 bc a5 1b 9a bd
       0.031401195 -0.10633861 -0.02655027 -0.07524804
0003b0 16 09 9e 3d c0 8e 12 3e 28 df af ba b0 d1 35 bd
       0.07716577 0.14312267 -0.0013417946 -0.044389427
0003c0 65 49 dd 3d 10 6e 27 bd 33 8b 76 bd 29 0f de bd
       0.108050145 -0.04087645 -0.060191344 -0.10842735
0003d0 9f a0 e8 3c 3e 1b d9 3d e8 a0 cc 3d 3d 21 44 3d
       0.028396903 0.10600899 0.09991628 0.04788326
0003e0 2e 03 d6 3d 6b 69 d5 bd 65 e4 05 3e 1e 12 1b bd
       0.10449825 -0.104204975 0.13075407 -0.037859075
0003f0 21 d7 07 be a4 5a 94 3d 3f de f4 3c fe a1 c0 bc
       -0.13265659 0.07243851 0.029891131 -0.023514744

module.gcn_layers.0.bnEdges.batch_norm.weight f4 [50]
000000 28 29 80 3f 17 4a 81 3f 08 3d 81 3f f8 bc 7d 3f
       1.001256 1.0100735 1.009675 0.9911647
000010 dd 9b 7e 3f 12 38 81 3f 49 04 80 3f 54 f9 80 3f
       0.9945658 1.0095236 1.0001308 1.0076089
000020 06 56 7f 3f d5 37 81 3f c5 7f 80 3f 3e ba 7e 3f
       0.99740636 1.0095164 1.0038992 0.99502933
000030 b5 0b 80 3f 96 83 7f 3f 75 fd 7e 3f 53 0e 81 3f
       1.0003573 0.9981016 0.99605495 1.0082496
000040 a4 d1 7d 3f ab b8 7e 3f 45 07 7e 3f 01 83 80 3f
       0.9914801 0.9950053 0.9922984 1.0039979
000050 49 9c 80 3f fa e4 7f 3f 82 f7 80 3f 8a 3d 81 3f
       1.0047694 0.99958766 1.0075533 1.0096905
000060 1d 48 80 3f 41 77 7f 3f 0f 44 7f 3f dc c5 7d 3f
       1.0022007 0.9979134 0.99713224 0.99130034
000070 3f 1e 81 3f c1 c2 7f 3f 62 24 7f 3f d9 6c 80 3f
       1.0087355 0.99906546 0.9966489 1.0033218
000080 7b f9 7e 3f f5 10 81 3f 6a 21 81 3f ca c1 80 3f
       0.99599427 1.00833 1.0088322 1.005914
000090 b1 2b 7f 3f c1 2f 81 3f e5 85 80 3f bb bc 80 3f
       0.9967604 1.0092698 1.0040861 1.0057596
0000a0 f5 cb 7e 3f e8 2c 81 3f b8 62 7e 3f c3 29 81 3f
       0.99529964 1.0091829 0.9936938 1.009087
0000b0 34 e7 80 3f 33 73 80 3f 4c 1d 80 3f a5 6e 7e 3f
       1.0070558 1.0035156 1.0008941 0.9938758
0000c0 67 26 80 3f ed 13 81 3f
       1.001172 1.0084206

module.gcn_layers.0.bnEdges.batch_norm.bias f4 [50]
000000 17 da 0d 3b 0a 24 06 3c a9 ea 14 ba b0 0f 0e bc
       0.0021644884 0.008187303 -0.0005680719 -0.008670732
000010 41 27 d6 bb 39 51 01 3c 05 68 63 bb d2 e6 c9 3a
       -0.006535441 0.0078929 -0.0034699452 0.0015403873
000020 e4 b3 97 bb 5f 28 bd 3b b7 03 a2 3b 26 48 62 b9
       -0.004629599 0.005772635 0.0049442905 -0.00021579917
000030 43 38 e2 bb 25 12 c6 3b 5d 4d 23 bb 41 2d 0d 3c
       -0.0069036796 0.0060446435 -0.0024917938 0.008616746
000040 42 7f 0b bc 06 97 a8 bb 91 1d ec bb c1 18 8f 3b
       -0.008514227 -0.0051449565 -0.007205673 0.0043669646
000050 b7 24 47 bb 01 1f 17 bb 59 f2 d7 3b 36 80 1d 3c
       -0.0030386874 -0.0023059251 0.0065901694 0.009613087
000060 c9 82 17 ba 6a 4e ef 3b 16 ff f8 ba bb b9 e5 bb
       -0.00057796814 0.007303049 -0.001899692 -0.007010666
000070 c3 f6 a7 3b f1 16 96 bb 88 25 af ba 66 8c ae 3b
       0.005125852 -0.0045803715 -0.0013362626 0.0053267954
000080 ed dc 4b 3a 4d 87 0b 3c 3f 5c 01 3c b8 ce 82 bb
       0.0007776756 0.008516145 0.007895528 -0.003991928
000090 c5 6f 91 bb f8 aa 15 3c 59 6d d8 3a 4f cb 14 3c
       -0.004438373 0.009135 0.001651208 0.009081676
0000a0 d8 fd d0 bb a8 7b 17 3c a7 a8 14 bc d0 95 10 3c
       -0.006377917 0.009245791 -0.009073413 0.008824781
0000b0 1f 1a 03 bb a1 ed b0 3b 79 12 89 3a f7 0f 04 39
       -0.0020004583 0.0053994213 0.0010457776 0.00012594448
0000c0 5e e8 85 b9 41 f4 0a 3c
       -0.00025540864 0.008481086
