logs/deafult/best_val_checkpoint.tar (torch, 489841 bytes, 103 tensors)

module.NodesEncoding.A1.weight f4 [50, 2]
00000000: e474 11bf f5b6 c03e b41b 13bf 8a30 14bf
00000010: 407b cb3e 6b4c 833e 9c9c c7be 96a6 2dbf
00000020: e1cc 5abe fe10 3c3e 8fd5 b03e d655 15be
00000030: 3c93 033f da3f 6bbe e356 033e 2880 d8be
00000040: a6fc 98bd 344e e93e 4750 c3be f9e1 103f
00000050: 296d 24bf d327 113e f0a9 f23e 33e3 2b3f
00000060: 6b61 203f e39c 333f bc39 513e 7a11 773d
00000070: 1062 ae3e 9ef6 babe b04d c13e 8269 ebbe
00000080: 7785 75be 2e6a f8be 3bf5 253f 27bb ac3e
00000090: b6bb 3bbe 2801 a1be 4877 303e ffc5 ddbe
000000a0: d757 17be 1e5a a13e 6594 0d3f 1a22 cdbe
000000b0: ddd9 91be 868a 023f 6558 363f 633b 4c3e
000000c0: 1d65 33bf 7167 f4be 91fc f7bd 890e 113f
000000d0: 21bc cfbe bcdd eebe ef43 ddbe b100 61be
000000e0: aa9a bc3d 0ef0 133f a9cb c4be a03d 133f
000000f0: 95e2 97be 89aa 19bf 6d5a 25bf 13e9 2a3f
00000100: d092 32bf 6c3b 64bc 7499 7f3d 3850 9a3d
00000110: 013e bb3d 3bd0 0a3f 73ed 52be 8841 db3e
00000120: 4612 933e 7618 693c 5839 f0bd c694 a9be
00000130: 86fd 13bf b2a8 f43e 378c b73e 1b02 203f
00000140: 103b a93e 5e4e 7ebe d09b b73e 0f5f 283f
00000150: 4884 293f 54b4 6e3d 4e89 fc3d ccf7 c9be
00000160: 4165 af3e 870d 96be 3070 333f 33f9 013f
00000170: 26b3 3a3e 031f 1bbe 6790 95be f42d 1f3e
00000180: 358e 293f 35c6 5a3e 2821 0b3e daf0 9abe
-0.56818986 0.37639585 -0.57464147 -0.57886565 0.3974247 0.2564424 -0.3898667 -0.67832315
-0.21367218 0.18365857 0.34537932 -0.14583525 0.51396537 -0.22973576 0.12826113 -0.42285275
-0.07470064 0.45567477 -0.38147184 0.56594807 -0.64229065 0.14175348 0.47395277 0.67143553
0.6264865 0.70161265 0.2043218 0.0603194 0.3405919 -0.3651628 0.37754583 -0.45978934
-0.23976694 -0.4851851 0.64827317 0.33736536 -0.18333325 -0.31446195 0.17233002 -0.43315122
-0.14779602 0.31514066 0.5530456 -0.4006508 -0.2848653 0.5099262 0.7122863 0.19944529
-0.7007616 -0.4773517 -0.1210872 0.56662804 -0.40573218 -0.46653545 -0.43215892 -0.2197292
0.09209187 0.5778817 -0.3843663 0.5751591 -0.29665056 -0.6002584 -0.64591104 0.66761893
-0.6975527 -0.013930183 0.062402204 0.07534832 0.09142686 0.54223984 -0.20598392 0.42823434
0.2872488 0.014227023 -0.117296875 -0.33121318 -0.5780872 0.47784954 0.35849163 0.6250321
0.33052874 -0.24834582 0.35861063 0.6577005 0.6621747 0.058277443 0.12330876 -0.39446867
0.34256938 -0.29307196 0.7009306 0.5077087 0.18232402 -0.15148549 -0.29211733 0.15544873
0.66232616 0.21364672 0.13586867 -0.3026188

module.NodesEncoding.A1.bias f4 [50]
00000000: 5710 833e c785 0f3f d34e 243f 9d5a 793e
00000010: 2174 c5bd 2c83 9b3e aaba 133f 57cb 9cbe
00000020: bc0a 3dbe 1fec 90be d8aa d53b 71d7 e73e
00000030: 88ab b73e c806 343f 99c0 0bbf a6b2 9c3e
00000040: 9259 acbe 56af 1f3f 4400 9c3d af33 8fbe
00000050: a9c7 e5be c210 f1be 86f0 7abe 5c4d d9be
00000060: f452 b33e ffba 77be c7c5 07bf 0a24 103d
00000070: a5a7 05be 0f58 cc3e ae56 b4be 02d4 f7bd
00000080: 5a52 bbbe 025b c1be 02be 43be 5d92 e53e
00000090: b0ae 14bd 1444 90be a266 263d b1ac 033f
000000a0: df1a 1e3f 7d47 793c 77f3 323f 98a9 263e
000000b0: d0fe fd3e 6642 323f e5b3 ecbe fea0 883e
000000c0: 8888 20bd e267 3a3e
0.25598404 0.56063503 0.64182776 0.24350972 -0.096412905 0.30373514 0.577067 -0.30623886
-0.18461126 -0.28305146 0.0065206103 0.45281556 0.35873055 0.7032285 -0.54590756 0.30605048
-0.33662087 0.62376916 0.07617238 -0.2796912 -0.4487889 -0.47083098 -0.24505815 -0.42441833
0.35024226 -0.24192427 -0.5303616 0.03519062 -0.13052233 0.39910933 -0.3522238 -0.12100984
-0.36586267 -0.37764746 -0.19115451 0.4483823 -0.036299407 -0.2817694 0.040625222 0.5143538
0.6175975 0.015214798 0.6990275 0.16275632 0.4960847 0.69632566 -0.46231 0.26685327
-0.039192706 0.1820369

module.EdgesEncoding.A2.weight f4 [25, 1]
00000000: 3c62 a03d f618 3cbf c9c9 703f 033b 26bf
00000010: 3062 80bf 943f 56bf c377 8f3e a442 72bd
00000020: da60 1f3f 24b9 09be 0efc d93c bb13 173f
00000030: 817e 5a3f 87de 9b3d 2e38 8fbe a4bb 513f
00000040: 92e0 313f 7d0a 133f 382e c33d 5778 f33e
00000050: e27f 383f 5ee6 643f 2274 213e 334a c9be
00000060: a8c6 be3e
0.07831237 -0.7347559 0.940579 -0.64933795 -1.0029964 -0.8369076 0.28021058 -0.059145585
0.6225716 -0.13449532 0.026609447 0.5901448 0.8534928 0.07610803 -0.2797255 0.8192694
0.6948329 0.5743788 0.095303 0.4755275 0.72070134 0.8941401 0.15766957 -0.39314422
0.37260938

module.EdgesEncoding.A2.bias f4 [25]
00000000: b4f0 14be 73ac 673d 87a7 66bf 9a86 3dbe
00000010: 05f5 1b3f cbb8 133f bb48 53be ac76 b23d
00000020: 5b23 3cbf 55c8 1b3e 2b7f e9be 484e 3b3f
00000030: efee 45be 0602 05be 3f19 a23e 1ed6 363f
00000040: 10f5 413f e2e5 9dbe 0782 1b3f 2e0e 183e
00000050: 9449 2e3e ea92 a1be c283 d73e d3fd 223e
00000060: 4cd8 ce3e
-0.14544946 0.056560945 -0.90099376 -0.18508378 0.60920745 0.57703847 -0.20633213 0.08714041
-0.7349145 0.1521314 -0.45604834 0.7316632 -0.19329427 -0.12989053 0.31659886 0.71420467
0.7576456 -0.3083945 0.6074528 0.14849159 0.17020255 -0.315574 0.4209271 0.15917139
0.40399396

module.EdgesEncoding.A3.weight f4 [25, 1]
00000000: 888a e4be 160b 4c3d 39cf 6bbf 7c99 7a3d
00000010: cccd 66bf fd51 413e 5243 fabd 1e38 0bbf
00000020: b4bd 633f 9905 31bd f2ce 423e 5b06 93bd
00000030: a665 283f c5e6 cb3e 0890 863c e3cc abbe
00000040: 062b 243f 74fd 823e b85d 683e 388b 66be
00000050: 176b 2dbf 2ff2 22bd 9ae1 b33e 74ff dfbe
00000060: e986 c43e
-0.4463694 0.04981526 -0.9211307 0.06118153 -0.9015777 0.18878932 -0.122198716 -0.54382503
0.8896134 -0.04321823 0.19024256 -0.071789466 0.65780103 0.398245 0.016426101 -0.33554754
0.6412815 0.25583994 0.22692001 -0.22514045 -0.6774153 -0.039781746 0.35133058 -0.43749583
0.38384178

module.EdgesEncoding.A3.bias f4 [25]
00000000: 999b 253f fa37 2d3f f699 0bbe b777 8b3e
00000010: 6e54 9cbe b525 9ebe 371f 253f 4b7c 52bf
00000020: 0daf 213f da8c 7dbe a866 6fbf 50aa 353f
00000030: 2b99 623f afea 3dbf bab9 783e 7e55 04bf
00000040: eee1 82be a969 7cbf 3cea 9ebe fe5e 743e
00000050: 4dc4 7f3f 698e 3a3e 0910 4ebf 13c1 41bf
00000060: 3bc3 81be
0.6469055 0.6766354 -0.1363295 0.27239773 -0.30533165 -0.30888143 0.64500755 -0.82220906
0.6315773 -0.24760762 -0.93516016 0.70963 0.88514966 -0.74186224 0.24289599 -0.5169295
-0.25562996 -0.98598725 -0.31038082 0.23864362 0.99908906 0.18218388 -0.8049322 -0.7568523
-0.25344262

module.gcn_layers.0.bnNodes.W1.weight f4 [50, 50]
00000000: bbbf 0e3e bb20 793c c9fc 49bd 7eb0 823a
00000010: b883 e23d be49 95bd e673 f3bd 6d12 0fbe
00000020: 15b3 893d 34f2 d53d 9a9f 113e 7a43 d6bd
00000030: b2d8 d2bc 627e bf3c 41cf 903d b181 0eba
00000040: dfec 03be ff24 c9bd 60f8 8d3d 3fdf 1c3d
00000050: 58e0 f63d bf72 7f3d fed9 eebc 165d c4bd
00000060: 3041 05bc 0d6e 66bd 560a cc3c b848 c0bd
00000070: aa2d 9cbd 4500 1cbd 2107 0f3e c87e 96bd
00000080: cab7 b9bd 6fdf 913d 4d36 60bd 4e24 ecbd
00000090: ace8 f6bc ec02 06bd 4362 e23c 93f5 803d
000000a0: 3016 373d 06e3 f23c 77dd 9d3d 235f 973d
000000b0: 605e 053e d003 0dbe 989c 323d 793e b9bd
000000c0: b38d 71bd 5009 acbd 046f 4bbc 1dc4 ecbd
000000d0: a7b9 0a3e a201 39bd 95a7 89bc 7c25 283d
000000e0: 840b 113d 1a1f aa3d 37cb f4bd 3e66 d6bd
000000f0: 4106 963d e55b ee3c 4f5e fa3d fa40 0c3e
00000100: e2e3 b1bb af84 5dbc c2f8 adbd bb11 fbbd
00000110: 053d 06be f235 98bd bc24 cb3c 5ff3 e9bd
00000120: f01a 463d 5199 403c 3ee4 8bbc 0784 e53c
00000130: fdcd ee3d 6033 543c 79d8 13be 3382 1ebd
00000140: 1ec5 a9bd d0ca 263c 8dc8 b83d 2029 c63d
00000150: 2d08 773d 9013 a1bd 571f b6bd 0bee 033e
00000160: 3bf1 b3bd cbf3 083e 4af0 f93d 4224 eb3d
00000170: d204 03bd 4742 f0bc 45e4 09be 2b15 0abe
00000180: 9af4 7ebd 7341 dc3b c193 0b3e d241 34bd
00000190: b25b f2bd 6ef2 17bd 426b 57bc ce00 273d
000001a0: 2b9b c5bc 5f9a 3e3d 5076 a43d 2d01 e3bd
000001b0: 5c8d 91bd 2974 07be 0f7b 373d fc29 52bd
000001c0: c5b3 623d 33a2 6bbd ccf5 a13d d4c3 c73d
000001d0: c927 f33d 2ace 9dbc 6229 53bb 8b8c 16bd
000001e0: 90f8 17be e0e4 d0bd 95bd e4bd 873a c43c
000001f0: c6d4 91bd 827c 043e 986e ddbd 5d65 023e
00000200: 87b0 f2bd 7d0c 8dbd 638c 603d b2d8 1bbd
00000210: 6c79 94bd 62d6 ecba 8276 7f3d 8a22 da3d
00000220: da09 f63d 3ae8 efbd e8ec 0c3d cf33 053c
00000230: 0f9e 1cbd b11b d8bd e0e4 363d 6f30 bb3d
00000240: 6dff dcbd 6f07 73bd e4b7 2cbd 02a4 8c3d
00000250: be7f b4bd d64e c7bd a8e5 e0bd e1ba a4bd
00000260: 7de0 a73d 6ab0 2fbc 27c1 e43b 906c b8bd
00000270: bfc6 8e3c 552f 5f3d faa3 7ebd bdcf fc3d
00000280: f143 8d3d 0534 d2bd ef12 793b ab54 b33d
00000290: 27d9 863d 53a9 bbbd 45fb a63d 24c8 d33c
000002a0: 2681 163e 2645 84bd 338b 1d3d 293b ee3d
000002b0: 9f98 c63d 8278 0a3c 21c8 b33d 087c ba3d
000002c0: c151 74bb 5617 52bd 6460 f53d c526 86ba
000002d0: 68f8 293d 7a71 89bc c4a7 cabd 994f eb3d
000002e0: 62c5 0ebe b5c1 c9bd 088c 983c 3488 0e3c
000002f0: b71d 85bd 0504 bb3d e2bf ddbd 7902 193d
00000300: 7c8f b8bd 4efc e43d b78a 10be 162e 233d
00000310: 2d60 883d da90 023e f022 14be d972 9ebd
00000320: 5c72 d23c dd24 1bbd 15e7 01be 6b01 ccbd
00000330: 3ec4 edbd 6f59 d63d 0aa5 0cb9 b9d4 06be
00000340: 4cc7 08be 2b46 4fbd 1c56 8c3c 322b 3abd
00000350: 2a31 cbbb b6f3 a1bd 9550 72bd 7d75 b2bd
00000360: 0ec9 e43d 0a61 30bd cb68 c1bb 09d4 d53d
00000370: 45b8 44bd 5192 febc af1e 853d 3128 0b3e
00000380: 5056 3d3a 6bfa ca3c 0056 d3bd dd0a dc3d
00000390: a84e 8ebd 7d0f c53d 4d36 f7bd d29d 8abd
000003a0: a579 edbd a987 9c3d 3d1a 08bd 6fbd a4bd
000003b0: 5a51 a9bd 36f9 693d 90ed 44bd e8a8 523d
000003c0: 3f31 943d d565 253d 2ec2 7fbd d401 0f3e
000003d0: e028 dabd 6aaa 2d3d c6ce 063e 5538 9dbd
000003e0: cc77 8bbc a553 ba3d 48c5 1cbd 2105 05be
000003f0: 33d7 a53d bcd4 c23c dc80 0c39 3d25 f83d
0.13940327 0.015205557 -0.04931334 0.0009970812 0.110602796 -0.07289456 -0.1188734 -0.13971873
0.0672361 0.10446587 0.1422104 -0.10462089 -0.025738094 0.023375694 0.070707805 -0.00054361956
-0.12883328 -0.098215096 0.069321394 0.03829884 0.12054509 0.06236529 -0.029156681 -0.09588067
-0.008133218 -0.056257296 0.024907272 -0.0938887 -0.07625897 -0.038086195 0.13967563 -0.073484
-0.09068258 0.07122695 -0.054739285 -0.11530362 -0.030140243 -0.03271763 0.027634745 0.062968396
0.044698894 0.029649269 0.07708257 0.07391193 0.13024282 -0.13770986 0.04360637 -0.09045119
-0.058973026 -0.08400214 -0.012416605 -0.11560843 0.13547383 -0.045167573 -0.016803542 0.041051373
0.035411373 0.083067134 -0.11952823 -0.1046872 0.073254116 0.029096553 0.12225019 0.13696662
-0.005428777 -0.013520404 -0.084947124 -0.12259241 -0.13109215 -0.07432164 0.02479779 -0.114233725
0.048365533 0.0117553035 -0.017076608 0.028017057 0.11660383 0.012951702 -0.14438047 -0.038698386
-0.0828955 0.01018019 0.09022627 0.09675813 0.06031053 -0.078650594 -0.08892696 0.12883775
-0.087862454 0.1337425 0.122040346 0.11481525 -0.03198702 -0.029328479 -0.13465984 -0.13484637
-0.06224499 0.0067216693 0.13630582 -0.044008084 -0.11833896 -0.037096433 -0.013148131 0.04077225
-0.024121841 0.04653394 0.08030379 -0.11084209 -0.0710704 -0.13227905 0.044795092 -0.05130957
0.055347223 -0.057527732 0.0790821 0.09754148 0.11872823 -0.019263346 -0.003222071 -0.036755126
-0.14840913 -0.101999044 -0.111689724 0.02395369 -0.071206614 0.12938121 -0.1081211 0.1273398
-0.11850076 -0.068871476 0.054821383 -0.038048454 -0.07249722 -0.0018069262 0.062368877 0.10651119
0.12013598 -0.117142156 0.03440562 0.008130028 -0.038236674 -0.10552157 0.044651866 0.09140097
-0.10790906 -0.05933326 -0.04216756 0.068672195 -0.088134274 -0.09731834 -0.109813035 -0.08043457
0.081971146 -0.010723213 0.0069810334 -0.09005082 0.017428754 0.0544885 -0.0621681 0.123443104
0.068977244 -0.10263828 0.003800567 0.087563835 0.06584387 -0.091631554 0.081533946 0.02585227
0.14697704 -0.064585015 0.03846283 0.11632378 0.09697079 0.008451583 0.08778406 0.09105688
-0.0037280174 -0.051291786 0.11981276 -0.0010234943 0.041496664 -0.016777743 -0.0989528 0.114897914
-0.13942483 -0.098514 0.01862146 0.008699466 -0.06499808 0.09131626 -0.10827614 0.037355874
-0.090117425 0.11180936 -0.14115416 0.039838873 0.06658969 0.12750569 -0.14466453 -0.07736749
0.025689296 -0.037876952 -0.12685807 -0.09961208 -0.11609696 0.10466277 -0.00013412922 -0.13167085
-0.13357276 -0.050604027 0.017130904 -0.04545135 -0.006200929 -0.07907812 -0.05915888 -0.08713815
0.11171161 -0.043061294 -0.005902385 0.10440833 -0.048027296 -0.031075628 0.06499993 0.1358955
0.00072226394 0.024777612 -0.103191376 0.107442595 -0.06948596 0.09622095 -0.12070904 -0.06768383
-0.115954675 0.076430626 -0.033228148 -0.08043944 -0.0826747 0.05712243 -0.04807812 0.051430613
0.072359554 0.040380318 -0.062441044 0.13965541 -0.106523275 0.042398848 0.13164815 -0.0767676
-0.017024897 0.09097985 -0.03827408 -0.12990238 0.080976866 0.02378308 0.00013399444 0.12116478

module.gcn_layers.0.bnNodes.W2.weight f4 [50, 50]
00000000: 48a5 d2bd 11e0 df3d 0462 ccbc 322b 073e
00000010: aa85 cabd 2007 3b3d 0ace d6bb 4c93 cbbc
00000020: dcbf df3d c7e5 babc ca03 223c ab54 d1bd
00000030: 7432 fabd a35a 103e 2d23 12bd 3973 723d
00000040: bd16 3ebc b453 d5bd f641 033e 75ac 523c
00000050: 5923 843d 224a 233d 3b96 eabd 09e7 2ebd
00000060: 93a6 b53d 607d 89bd 05c9 a6bd f930 d3bd
00000070: e51f a1bb 4434 173d f5fa f9bd 0177 913d
00000080: 953d 7fbd 1ed6 1f3d bcef 9bbd ae21 fe3d
00000090: 4d37 c5bd 532e 523d 0d70 afbd 0cb3 7ebc
000000a0: 7fb3 ef3d 42f9 963d 32d1 4bbd b388 863d
000000b0: 9591 2cbd 7dac 88bd 2f60 cdbc a6cf e13d
000000c0: 345d a23d 6289 f0bd ba9b e13d bdd1 b53b
000000d0: c484 003e 9b65 2b3c 835b bfbc 751d 98bd
000000e0: 8f31 0cbd cd74 39bd 9744 4b3d 735c 8ebd
000000f0: 6d95 09be f561 b8bd 8f15 c63d 4a77 903c
00000100: 22f3 a8bc 4643 93bc 7598 0c3e d254 a23d
00000110: 213b 09bb 5117 d83d d967 063e b08f 0c3e
00000120: 1edc 0a3b 7bd0 af3d b9fd 2bbd 6a24 033d
00000130: 2cab ff3d 12f7 03be d9e5 98bc 19f2 ec3d
00000140: df8f e9bd fa3d c0bc 0f5c 40bd d5e3 8f3d
00000150: 990f d7b9 fb7a 0ebe 1aee d7bd 0750 9c3d
00000160: 8d29 593b fe59 063e e9cb 923c a953 e53d
00000170: 9540 6f3d 4d32 00be a95f c53d 1e6c d73c
00000180: a7aa 54bd cd09 243d d7ef 6abd 98f8 3fbd
00000190: 3fe2 a6bc 045e b93d 297c 06be fed5 8dbd
000001a0: 74da 0a3e d706 cd3d c877 073e bd25 48bd
000001b0: 410d f6bc e252 0fbe 204e debd 4c2c 1c3c
000001c0: 8dfb 41bc 000e 1abd bf21 6fbd b962 aabd
000001d0: 91b0 ca3d 4591 313d 1608 3ebc 1c8b 103e
000001e0: fad4 12bb 5946 dc3d a8b8 81bc ed67 56bd
000001f0: 7703 d4bd aa05 adbd 11a1 8ebd 472e 80bd
00000200: 5667 013e 1b97 0dbe 793e 023e 7760 bfbd
00000210: 3f65 0abe 0844 553d a442 e5bd 64a3 6abd
00000220: 1234 383d 06e5 66bd 6f91 023d ea1f ae3d
00000230: 5982 18bc 76bc 9dbd d038 a8bd c0fe 063d
00000240: 6644 85bd df65 94bd 69b4 933d f439 643c
00000250: d838 4c3d f955 953d 1943 08be 63d9 853c
00000260: eaab 623c 9d5f a53b e435 103b 2592 0abd
00000270: 4b3e 02be ee75 e73d a917 5ebc 028f eabc
00000280: 633e fa3d 615e 7fbd 14b2 a8bd f748 d8bc
00000290: 1c90 ccbd 19ca 97bd fe49 56bd 0275 063e
000002a0: 18e1 ebbc 4794 02be a150 c7bc cd59 88bd
000002b0: c918 c7bd 0846 66bd 9830 06be 4dac 78bd
000002c0: 1a6a f7bd 5dad 4dbd 9bdf 10be fc45 9f3c
000002d0: 6ba8 f63c b75c 97bd bea5 26ba 6aec cabd
000002e0: e2d3 f0bd bbeb 12bb a6e1 12bd fe0d e8bd
000002f0: 7faa a93d 8fe4 e63c d7b1 18be 581d debd
00000300: 030e 6c3d 8fae d13c a713 aa3d 07ed 03bb
00000310: cf0b 263a 92d4 82bd 1d41 87bd 1445 d3bd
00000320: 6fa1 503d 5919 e73d f2d6 5d3d 6a16 07bd
00000330: 45b2 8b3c 5430 18be cb1f debc 8c45 f43d
00000340: 9e2a b1bc 1986 e53b 955a 0f3e 8d08 d93d
00000350: 4719 86bc c864 0bbe 446c f93d ce5c 723d
00000360: 52e4 6fbb f52b fa3d a91e 523d 053e 90bc
00000370: 7bc9 fc3d 3b97 dd3c fa47 9d3d 5295 bc3a
00000380: 7657 8e3d 82f3 f4bc 010b 083d 7f82 12be
00000390: 2b38 cc3d 6c54 f23c 84c1 a23d db5e a7bd
000003a0: 9336 b0bb e6f4 f23c 29e0 75bc 70a2 21bd
000003b0: d54b 803d 6fce fa3c 47b0 04be abaa b63c
000003c0: 2ada af3d d712 ed3d fb31 c43d 4866 a73d
000003d0: 676f 9ebb 3e4e f3bd 7775 c1bd 178f 163d
000003e0: b038 36bd 7315 82bd f36e cdbc cdf1 913d
000003f0: cb51 67bd 08f8 92bd f8e5 cdba 549b 0e3e
-0.10285431 0.10931409 -0.024949081 0.13200071 -0.09888776 0.04566109 -0.0065553235 -0.02485051
0.10925266 -0.022814645 0.009888599 -0.10221227 -0.122166544 0.14097075 -0.035678077 0.059191916
-0.011602101 -0.10416356 0.12818131 0.0128585 0.064520545 0.03986562 -0.114544354 -0.0427008
0.08869662 -0.067133665 -0.0814381 -0.10312075 -0.004917132 0.03691508 -0.122060694 0.07102776
-0.06231459 0.039022557 -0.07614085 0.12408768 -0.096296884 0.05131371 -0.08566294 -0.015545618
0.11704158 0.07371761 -0.04976005 0.06569042 -0.042131025 -0.066735245 -0.025070278 0.11025934
0.07927933 -0.11744954 0.110160306 0.0055486844 0.12550646 0.010461236 -0.023359066 -0.074274935
-0.03422695 -0.045277406 0.04962596 -0.06951227 -0.13435908 -0.09003059 0.09672081 0.017635006
-0.020623747 -0.017976414 0.13730033 0.079263344 -0.0020939785 0.10551322 0.13125552 0.13726687
0.002118833 0.08584686 -0.041990016 0.03201715 0.1248382 -0.12887219 -0.018664287 0.11569614
-0.11404394 -0.023467053 -0.046962794 0.070258774 -0.00041019617 -0.13914101 -0.10543461 0.076324515
0.0033136338 0.13120267 0.017919498 0.111975975 0.0584112 -0.12519188 0.09637386 0.026296671
-0.05192056 0.04004841 -0.057357635 -0.046867937 -0.020371554 0.09051135 -0.13133301 -0.069255814
0.13559896 0.1001107 0.13229287 -0.048864115 -0.030035617 -0.13996461 -0.10854745 0.009532046
-0.01183976 -0.037611008 -0.058381792 -0.08319611 0.098969586 0.04335143 -0.0115986075 0.14115566
-0.0022404776 0.10755605 -0.015835121 -0.052345205 -0.10352223 -0.08448346 -0.06964315 -0.06258827
0.12637076 -0.13827173 0.12719144 -0.09344571 -0.13515185 0.052066833 -0.11194351 -0.057284728
0.044971533 -0.056370758 0.031876978 0.08502181 -0.009308421 -0.07701962 -0.08213961 0.032957792
-0.065071866 -0.07245993 0.07212145 0.013929833 0.049858898 0.072917886 -0.13306846 0.01633901
0.013834933 0.0050467984 0.0022004778 -0.03383078 -0.12719075 0.1130179 -0.013555446 -0.028632645
0.122189306 -0.062345866 -0.08237091 -0.02640198 -0.09988424 -0.07411594 -0.05231666 0.13130572
-0.028793857 -0.12751876 -0.024330439 -0.06657753 -0.09721524 -0.05621913 -0.13104475 -0.060711194
-0.12080784 -0.05021416 -0.14147799 0.01944255 0.030109605 -0.07390731 -0.0006357095 -0.09908374
-0.117591634 -0.0022418338 -0.035859726 -0.11330794 0.08284473 0.028185157 -0.1491159 -0.108454406
0.05763055 0.025595931 0.0830453 -0.0020130293 0.0006334157 -0.06388201 -0.06604216 -0.1031591
0.050935205 0.112841316 0.054160066 -0.03298036 0.017052779 -0.14862186 -0.02711477 0.119273275
-0.021626767 0.007004511 0.13999398 0.10597334 -0.016369475 -0.13612664 0.12178853 0.059170537
-0.0036604595 0.122154154 0.05129877 -0.017607698 0.12343117 0.027049651 0.07679744 0.0014387763
0.069502756 -0.02990127 0.03321362 -0.14307593 0.09971651 0.029581271 0.079470664 -0.08172389
-0.0053775995 0.029657792 -0.015007057 -0.039461553 0.06264464 0.030616013 -0.1295787 0.022298178
0.08586533 0.11575859 0.095798455 0.081738055 -0.0048350575 -0.11880158 -0.09446233 0.036757555
-0.044487655 -0.06351747 -0.025077319 0.07126198 -0.05647449 -0.071762145 -0.0015708795 0.1392644

module.gcn_layers.0.bnNodes.batch_norm.weight f4 [50]
00000000: 7979 7f3f 3ac4 7e3f 7767 7e3f 8219 7e3f
00000010: 66bc 803f 000b 813f a7ad 7e3f 492a 7e3f
00000020: a3f4 7d3f 36f0 7f3f f2d5 7e3f abcf 803f
00000030: b0ff 7f3f 87ad 7f3f 69d5 803f be3c 803f
00000040: c489 803f d586 803f b161 7e3f e28f 7e3f
00000050: afa2 7d3f 9307 813f d208 803f c2e2 7e3f
00000060: 6df1 7e3f 558f 7e3f b3d6 803f 7843 7e3f
00000070: 7b8c 803f 08e6 7f3f ab2e 813f de1e 803f
00000080: a82d 813f 58c3 803f 2dd0 803f 227f 803f
00000090: 6109 803f 633c 803f cebe 7e3f e2e6 7f3f
000000a0: dfc1 803f d9a3 7f3f 1fb4 7e3f acb2 7e3f
000000b0: 3c08 7e3f 31da 7d3f fea6 7d3f c7d9 7d3f
000000c0: 2c9e 7d3f e133 7f3f
0.9979473 0.9951817 0.99376625 0.9925767 1.0057495 1.0081482 0.9948372 0.9928327
0.9920141 0.9997591 0.99545205 1.0063375 0.99999523 0.99874157 1.0065128 1.0018537
1.0042043 1.0041147 0.99367815 0.994383 0.9907636 1.0080436 1.0002692 0.99564755
0.99587137 0.9943746 1.0065521 0.993217 1.0042871 0.99960375 1.0092367 1.000942
1.0092058 1.0059614 1.006353 1.0038798 1.0002862 1.0018429 0.99509895 0.99961674
1.0059165 0.99859387 0.9949359 0.9949138 0.99231315 0.9916106 0.99082935 0.99160427
0.99069476 0.99688536

module.gcn_layers.0.bnNodes.batch_norm.bias f4 [50]
00000000: 7afb b9bb 67bf b1bb ae56 b7bb fdaf fabb
00000010: 2cdc ba3b f7af 143c 368c 15ba ef6c e5bb
00000020: 8642 04bc a67f 12bb f42f 99bb feb8 fe3b
00000030: 834a 3f3a 6e9c 2d3b 8e10 0c3c 4e74 c339
00000040: 0219 293b 1c17 f5b9 135c a2bb 16f7 a9bb
00000050: 6166 91bb faf0 0e3c 56ed 8c3b 478f 0b3a
00000060: 54a6 bdbb d941 69bb a948 083c 3bfe 08bc
00000070: 497a 013c 976c e0bb 0b75 f93b 9bff 9f3b
00000080: f3eb 123c 2d56 e73b c731 073c 7a1e 613b
00000090: 8ef2 713a 4e2b 293b 3162 b6bb 959d 0cbb
000000a0: 2d2e f03b 059a a53a 60f9 c637 5fa2 0ebb
000000b0: 4637 9bbb 03b9 bfbb e03e 11bc b84e 0dbc
000000c0: ee56 19bc 5d89 deba
-0.0056757303 -0.0054244283 -0.00559505 -0.007650374 0.005702516 0.009075156 -0.0005704792 -0.0070015113
-0.008072501 -0.0022353916 -0.004674906 0.0077735176 0.0007297175 0.0026490944 0.008548869 0.00037279952
0.002580226 -0.0004674726 -0.0049548238 -0.0051869256 -0.0044372533 0.0087244455 0.0043007536 0.0005323779
-0.00578765 -0.0035592227 0.008318105 -0.0083613945 0.00790269 -0.0068488824 0.0076128296 0.0048827655
0.0089673875 0.0070598335 0.008251614 0.003435044 0.0009229564 0.0025813165 -0.0055659045 -0.002145623
0.0073297233 0.0012634402 2.3719564e-05 -0.0021764261 -0.0047368137 -0.0058509125 -0.008865088 -0.008624725
-0.009359105 -0.0016978193

module.gcn_layers.0.bnEdges.W3.weight f4 [50, 50]
00000000: a4d6 a73c f395 543d 5b6e e2bc 07fb e23c
00000010: 687d 733c 497e 75bd 94b5 843c d38a ad3d
00000020: 24ae 173d b431 013e 4605 d43d d84f edbc
00000030: b361 513c e6a3 943d f982 81bd 8057 83bd
00000040: 64f2 12be 0f27 bebd 9589 76bc 5d9d 07be
00000050: 5281 033e 75d7 f8bb fd8e 6b3d 255a bc3d
00000060: 9165 12be abf8 bebd a392 1ebd c282 253c
00000070: 6204 c7bd 9122 e7bd 0016 05ba 8450 0f3d
00000080: a145 ffbd 026a 353d a2f4 88bd c7fa 99bb
00000090: b64f e0ba a1ad 79bd 597c edbc 083f a1bd
000000a0: 0848 ab3d d07f bbbd d7e7 5fbd 1085 ebbd
000000b0: e2b0 c33d 34be a7bd 0ea5 b8bd 3033 c4bd
000000c0: c3c1 473d 83f5 aabd 3980 e53d 6e9b 21bd
000000d0: f876 f9bd c290 97bd 397a 1bbd 96ba 92bd
000000e0: b2e8 763c 57c9 87bd f7f1 9f3c bc9d 41bd
000000f0: ab15 22bd ff61 963d 9951 fe3b 55d7 123e
00000100: d4e1 f3bd 7ef7 29bd 7cd6 053e 5e50 fcbd
00000110: 7927 93bd beb8 16bd ca82 02be efc0 d53d
00000120: 0172 dbbd 9961 3c3d b6c4 403d 316e 353d
00000130: 3d0a 033e 9602 293d 8b1c b43d 6e1a d2bb
00000140: 4f2d 853c b6f9 a1bd 004c 17be ca45 163e
00000150: 6351 063c 73c3 c5bd ed98 513d c94e fd3d
00000160: 7c01 5a3d 2628 013d 58f3 d73d ba90 003e
00000170: c16e ff3d 3a7a a63c 5648 01be 8095 4abd
00000180: 4d81 e93d 80d0 803d 6b14 5bbd feaf 573c
00000190: d2a1 bbbd 265e c1bc b88b ff3d bd95 a53c
000001a0: ec69 0ebd a7dd 63bc b906 e6bd 0859 a33d
000001b0: 87ae ffbd 7e78 a9bd 1642 b23b c93d 6a3d
000001c0: 4c80 823d 1e8a 3fbc 51a2 e23d 1421 11be
000001d0: 1840 d9bd c31a 3fbd 578d d53d 3a4a 843d
000001e0: 5182 01be 7521 03be 4389 0cbe a577 03be
000001f0: c40a cc3d 8d9f 83bb ee6b 22bc ca42 00bc
00000200: bc16 8cbd 5618 aa3d 297a 04bd 89db ce3d
00000210: 3e31 fbbd e676 b4bd dcf3 b63d fd13 733c
00000220: 1c21 06be 5854 293d fe68 5dbc 1296 63bd
00000230: 4287 063e 3b01 d6bd d196 733d 2c05 52bd
00000240: 1f82 563d 0e01 01be c3b0 79bd 2d18 203d
00000250: df24 a9bd a36d 0f3d b0d7 c83d 332b 91bd
00000260: 1519 4c3d b189 6b3d f7cc b53c 6351 b4bd
00000270: 2f7a 3abd 7fe7 8fbc a7d1 39bb e8a7 ddbd
00000280: 86ab d63d 306f fc3c c5bb 29bd 5115 6d3d
00000290: 5823 20bc 38a2 903d 1657 053e 07f7 1abd
000002a0: 49ce 52bd b6a8 b43d 05bd 2bbd 20c4 d03d
000002b0: 1da8 adb9 c242 89bd 17fa 013e 0f62 4bbc
000002c0: d93f cd3d ae17 893d fa80 0bbe 74e6 ee3c
000002d0: 53fb d13d 8f1c d33d ffa5 143e e426 fcbd
000002e0: e40e 9c3d 18f9 09be a958 00be 28e3 a3bd
000002f0: 7f89 1ebd 3f0a 323d 83be 98bd c922 46bd
00000300: 1dc7 febd 31a1 3b3d bad7 213c 8f44 853c
00000310: 0b22 523d e8a9 14bc d74b b63d 18bc b4bd
00000320: 1d02 303d 416c fe3d fc65 823d e363 563b
00000330: 68da d9bd a0fe 083e a9c2 e7bd f44e 183e
00000340: 899d 343d 6387 003e 04a5 a83d ec7b c33d
00000350: eca4 03be 5d36 a0bd eb16 83bd 2dfd 603d
00000360: 7e36 44bd c9b3 a0bc 6156 16be f437 803d
00000370: cb42 8cbd 4642 9c3d b8ac 8ebd a4f7 123e
00000380: 7fec 04ba 69fb 273c 06ed fe3c 25ad 0abe
00000390: f327 1cbb fcf1 9e3d 82b3 63bc a48c c13b
000003a0: 41d4 c33d fadf 053e 03d3 0ebe 72da ae3d
000003b0: 2878 d23c 6b00 343d 0cc3 29bd 8c7c 93bd
000003c0: f97f c7bd 5a14 8bbc db52 ca3c 9cb9 75bd
000003d0: 234e 873d 0813 043e 4c75 203d c760 c83d
000003e0: 4b22 bc3d 7b6a 32bd 3cc0 fa3d 3942 bdbd
000003f0: 351f e8bd 80e2 b0bb a5a7 70bd c178 0f3d
0.02048809 0.051900815 -0.027640512 0.02770759 0.014861442 -0.059934888 0.016199864 0.08473744
0.037031308 0.12616616 0.10352568 -0.028968737 0.012779641 0.07257824 -0.06323809 -0.06413174
-0.14350277 -0.092847936 -0.015047451 -0.13243623 0.128423 -0.007594044 0.05750941 0.09196881
-0.14296557 -0.093247734 -0.038714062 0.010101976 -0.09717633 -0.1128589 -0.00050768256 0.034988895
-0.124644525 0.04429055 -0.06687285 -0.0046990844 -0.00171136 -0.0609566 -0.028989958 -0.078733504
0.08363348 -0.09155238 -0.05466446 -0.11499989 0.09555222 -0.08190575 -0.09015857 -0.09580076
0.04876877 -0.08347609 0.11206097 -0.03945487 -0.121808946 -0.07400657 -0.037958357 -0.07164495
0.015070127 -0.066301994 0.019524558 -0.047269568 -0.039571445 0.0734291 0.007761192 0.14339955
-0.11908308 -0.041495793 0.130701 -0.12320016 -0.07185263 -0.036797278 -0.12745205 0.1043719
-0.10715104 0.045991514 0.0470626 0.04429454 0.12796874 0.04126223 0.08794507 -0.006411842
0.016256956 -0.07908957 -0.14775085 0.1467506 0.008198115 -0.096564196 0.051171232 0.12368543
0.05322407 0.03153243 0.10544461 0.12555209 0.124722965 0.020321954 -0.1262525 -0.04945898
0.11401615 0.06289768 -0.05348627 0.013164518 -0.09161724 -0.023604464 0.12477821 0.020213002
-0.034768984 -0.0139078265 -0.11231751 0.07975966 -0.1248446 -0.08274935 0.005440007 0.05718783
0.06372127 -0.011690645 0.11066116 -0.14172775 -0.10607928 -0.04665638 0.10427349 0.0645947
-0.12647368 -0.12805732 -0.13724236 -0.1283861 0.09962991 -0.0040168227 -0.009913428 -0.007828424
-0.06840274 0.08305423 -0.032343064 0.10100467 -0.122652516 -0.088117406 0.08933231 0.014836309
-0.13098568 0.041340202 -0.013513802 -0.05556304 0.13137534 -0.104494534 0.05947 -0.051274464
0.052370187 -0.12598059 -0.06095959 0.039085556 -0.08258986 0.035016667 0.09806764 -0.07088318
0.049828608 0.05750436 0.022192461 -0.08804586 -0.04552668 -0.01756644 -0.0028353722 -0.10823041
0.10481934 0.030814737 -0.041438837 0.057881657 -0.009774052 0.07062191 0.13021502 -0.03783324
-0.05146626 0.088212416 -0.04192831 0.10193658 -0.00033122386 -0.06702186 0.12693058 -0.012413516
0.100219436 0.0669397 -0.1362342 0.029162623 0.102530144 0.103081815 0.14516447 -0.12312105
0.07620028 -0.13473928 -0.12533821 -0.08002311 -0.038705345 0.043466803 -0.07458212 -0.048373017
-0.124403216 0.04580802 0.009878093 0.016268043 0.051301997 -0.009073712 0.08901184 -0.088249385
0.042970765 0.124229915 0.06367108 0.0032713346 -0.10637361 0.13378382 -0.11316425 0.14873868
0.04409555 0.12551646 0.08234599 0.095451206 -0.12855881 -0.07822869 -0.06400856 0.054928947
-0.04790353 -0.019616978 -0.14681388 0.06260672 -0.06848677 0.07629828 -0.06966537 0.1435228
-0.0005070641 0.010252812 0.031118881 -0.13542612 -0.0023827523 0.077609986 -0.0138977785 0.0059066582
0.095619686 0.13073722 -0.13947682 0.08537759 0.02569206 0.04394571 -0.041445777 -0.0720149
-0.09741206 -0.016977478 0.024697712 -0.059991464 0.066067 0.12897885 0.039174363 0.09784084
0.09186228 -0.04355858 0.12243697 -0.092411466 -0.11334077 -0.0053980947 -0.05875363 0.03502727

module.gcn_layers.0.bnEdges.W4.weight f4 [50, 50]
00000000: ba33 08bd 59c7 cd3d 7b5c de3d 92d8 273c
00000010: 464e 7d3d bc08 713d 0908 a63d 0ea5 2e3d
00000020: a73e e2bd 288a 58bc a200 dfbd c77c b63d
00000030: 35ac 223d 5bb2 85bd eb68 ef3d 29bf 91bd
00000040: 4d15 c8bd c15e fabd 5ba6 43bd ef65 c73c
00000050: 643f 103e bf78 a63c 42ee 84bd 63fd b33d
00000060: 3ad6 f03d 7977 ab3d d8a0 5fbd 9b83 c03d
00000070: ff67 1bbd 7497 cfbc 239b 04ba 3944 82bd
00000080: 328c 05be c50a d9bd 7500 ecbd 25a9 be3d
00000090: 5b6b 453d 7ea0 193d f020 a0bd 2e99 b3bd
000000a0: bb89 e5bd bd02 683d 6045 fdbc f221 8f3d
000000b0: 7946 923d d810 d3bd 8c5f e73c 0bf4 053e
000000c0: d061 853b 2f4a 79bd 2eab a43d c3dd 0c3e
000000d0: 7e31 d6bd fbb7 823d 1cff dfbc b50b a63c
000000e0: a4ee c73d 4b86 cb3d fc3d 02be ce66 a0b9
000000f0: dc32 cf3d a01f 013e f0b9 923d 40ef fa3c
00000100: 7e2d 543c 6f37 09be 7f02 643d 0a59 aebd
00000110: 9ee9 c83c 7c58 013e afe4 383d e044 4bbd
00000120: 8a2d 58bb bee5 0ebd 7875 be3d f045 d0bc
00000130: ee6f 293d d368 ea3b efdb 053e bc98 30bd
00000140: 3c6e b0bd b730 23bd ee99 513d b6cd 0dbe
00000150: 6c46 dabd 9035 df3c 01e3 b4bd e983 8bbd
00000160: 7566 393d f101 bb3d 33a1 8b3d 0560 e3bd
00000170: 9de1 c23d 26f6 a9bd ad13 013e bb9f e53d
00000180: 4c61 b9bc 2981 373d edb8 bc3c d873 33bd
00000190: 115d af3a 2434 b0bd 4ff8 3d3d 5856 843d
000001a0: 838b 86bd 11d2 57bd ff93 f3bc 1d9e afbd
000001b0: 0242 cbbd e489 a23d 37ae 26bd f6c5 95bd
000001c0: f9f0 fd3d 1ed4 8dbd aed2 053e e172 e9bd
000001d0: 90aa 923d 4646 9a3d 8e4e 0c3e e128 09be
000001e0: 89cb bf3d 74f3 f1bd b7f2 23bd d648 e2bd
000001f0: 006b 803c c5ef 813c 0465 213d be24 d83c
00000200: da5b 333d 80cf 12bd 0359 c03d db98 893a
00000210: c6fd debd 7dfe 093e 9abf be3d f8b0 5cbc
00000220: 640f 843d 17d6 2dbd 2231 e63d d188 fbbd
00000230: 6c9f 03be ebc4 8ebd 0120 e1bd 6458 b43d
00000240: 6e71 7cbb c28f 76bd 9625 95bd 2deb dfbd
00000250: 348b 973b 2813 09be a4f9 eebd e095 0f3d
00000260: ca08 603b af72 ab3d 88fa 2e3c ca79 e9bd
00000270: 2287 aa3d b5b7 cf3d 462e 153d a77b a03c
00000280: 04fd 183d b95e e93c 9eb2 98bd f772 84bd
00000290: 4507 ee3c 7c77 0e3e 985f 003b fda7 9a3b
000002a0: 1f3e bfbd 850d 74bd d16c 383d f842 1b3c
000002b0: 474e 083e e1f2 8a3d cd99 80bc 5d05 52bd
000002c0: 3ccf cdbd f9f3 153c c0c2 a1bb 3e66 953d
000002d0: f1a8 503d fa3e 363c 489d c13d 6009 e43c
000002e0: b016 873d a822 d7bd 1d7d 5dbd 0bc9 b13d
000002f0: d7f7 b23d 3c6d ab3d a4fe 483d 631f b93a
00000300: 5606 15be ab9e abbd 7370 d43d c6f1 3cbd
00000310: ad58 e63d bc49 eabd a562 59bd db04 f03b
00000320: 36e0 aabd 77c3 cf3d 2bda d83d f881 50bd
00000330: b113 083e 45b6 b93d c873 eb3d 8cc1 d1bd
00000340: cb85 f4bd db66 513c e9b4 333c 0dc6 7f3d
00000350: ba92 eebd 0724 fe3d 5052 193c a6bc ca3d
00000360: 65d4 873d 7caa a13d ac09 6abd f149 0dbc
00000370: 0c9a fbbd da9b 1e3c 43ce 74bd 2539 cabd
00000380: be5f 2d3d 5674 d1bd 2f35 a83d 0c08 cdbd
00000390: c342 263c 46a4 1a3d 31ae 063e f7b0 83bd
000003a0: 9e3d f7bd 5248 b0bd be22 8cbd 84d2 8bbd
000003b0: 7eb7 c9bd 342a 133e 1f8e 23bb 0083 ecbd
000003c0: 7e41 193d 79a2 793c ad7f a93c 42fd 003d
000003d0: 0440 203d 75ac b73d fe4a 8f3d e21d 9c3c
000003e0: 6382 de3d c752 cc3b 8571 6dbd 242a 0dbd
000003f0: 1ce3 043a 9abd 62bd 4d52 0a3e bdd4 0f3d
-0.033252455 0.10047788 0.10857483 0.0102445055 0.061842225 0.05884622 0.08107001 0.042637877
-0.11047106 -0.013216533 -0.108887926 0.08910518 0.03971501 -0.06528159 0.116899334 -0.07116539
-0.09769688 -0.12225104 -0.04776607 0.024340598 0.14086682 0.020321248 -0.064907566 0.08788564
0.117596105 0.08372397 -0.054596752 0.09400102 -0.037940975 -0.025340773 -0.00050585176 -0.06360669
-0.13041762 -0.10597757 -0.11523525 0.093096055 0.048198085 0.037506573 -0.07818782 -0.08769451
-0.112079106 0.056643236 -0.03091687 0.069888964 0.07142348 -0.10305947 0.028243802 0.13081376
0.004070498 -0.060861763 0.080404624 0.1375647 -0.10458659 0.06382748 -0.027343325 0.020269254
0.09762314 0.09937724 -0.12718958 -0.00030594174 0.101171225 0.1260972 0.07164371 0.030631661
0.012950299 -0.13400052 0.055666443 -0.085130766 0.02452546 0.1263141 0.045139965 -0.04962623
-0.0032986128 -0.034887068 0.09299749 -0.025423974 0.04136651 0.0071536093 0.1307218 -0.04311441
-0.086147755 -0.03984138 0.05117219 -0.13848004 -0.10657963 0.02724722 -0.0883236 -0.06812269
0.045263726 0.0913123 0.06817856 -0.11102299 0.095156886 -0.08298902 0.12605162 0.11212107
-0.022629403 0.04480091 0.023037398 -0.04381165 0.0013379176 -0.08603695 0.046379384 0.06461781
-0.065695785 -0.05269057 -0.029733656 -0.085750796 -0.09924699 0.07936457 -0.040693488 -0.07313149
0.123994775 -0.06925224 0.13068649 -0.113988645 0.071614385 0.07532935 0.13701841 -0.133945
0.09364993 -0.11814013 -0.040026393 -0.110490486 0.015676022 0.015861401 0.039402977 0.026384708
0.04378877 -0.03584242 0.09391978 0.0010497825 -0.10888247 0.13475986 0.09313889 -0.013469927
0.06448248 -0.0424405 0.1123984 -0.12281955 -0.12853783 -0.06971153 -0.109924324 0.08805922
-0.0038519758 -0.060195692 -0.072825596 -0.10933528 0.0046247486 -0.13386214 -0.11668709 0.03505504
0.0034184926 0.083714835 0.0106798485 -0.114001825 0.08326556 0.10142461 0.036421083 0.019590212
0.03735067 0.02848755 -0.074559435 -0.0646724 0.0290562 0.13912767 0.0019588228 0.004719733
-0.093380205 -0.059583206 0.04502565 0.009476416 0.1331111 0.06784607 -0.015698338 -0.051274646
-0.100492924 0.009152406 -0.004936546 0.07294892 0.050942365 0.011123413 0.09453827 0.027836502
0.06596124 -0.10504657 -0.054074395 0.08680924 0.08738678 0.08370444 0.04907097 0.0014123734
-0.14553198 -0.08379873 0.103730105 -0.04612901 0.11247382 -0.11439845 -0.05307259 0.0073247976
-0.08343546 0.10144704 0.10588487 -0.050905198 0.13288762 0.09067968 0.11496693 -0.10241994
-0.119395815 0.01278087 0.010968425 0.062444735 -0.116490796 0.124092154 0.009358004 0.09899263
0.06632308 0.078938454 -0.05713813 -0.008623586 -0.122852415 0.009680713 -0.05976702 -0.09874181
0.042327635 -0.102272674 0.08213269 -0.100113004 0.010147753 0.03775432 0.13152386 -0.06430238
-0.120722994 -0.08607544 -0.06842564 -0.06827262 -0.098494515 0.14371568 -0.0024956537 -0.11548424
0.037415974 0.01523649 0.020690763 0.031491525 0.03912355 0.089684404 0.069967255 0.019057218
0.10864713 0.0062354538 -0.05796959 -0.034464017 0.00050692423 -0.0553566 0.13507958 0.035114992

module.gcn_layers.0.bnEdges.W5.weight f4 [50, 50]
00000000: 004b bd3d 62df acbd 0116 73bc 7200 3f3c
00000010: 42ee 073e a2f2 5abd 7ca0 82bd 48ad 263d
00000020: 74ab ba3c be34 2e3d ca81 f03d 87a7 ecbd
00000030: 3dc4 0f3c f044 ecbc 8134 f4bd 8778 8fbc
00000040: fbe9 263d a053 973d 7ad0 233c b3a8 cabd
00000050: bfbe 19bd 5cf7 a83d bb22 463d 1d0e e4bd
00000060: 028d 153d ca74 01bd 9aa5 953c f7e5 cb3d
00000070: aa70 a2bd b515 65bc 7e75 e73d 20e2 b6bc
00000080: 0dcc 183e d836 92bc 0154 ac3c f234 debc
00000090: 8d67 193d e979 28bd 127b 063e 4e9b f73d
000000a0: eae5 013c 8a6c a7bd 8b07 113d d018 8bbc
000000b0: 6bd1 efbd ac54 fa3b 7a61 cbbd 19e5 40bd
000000c0: 7d42 e5bd 8631 ea3d 6d54 863d 3684 93bd
000000d0: 601e a83d c9af c6bd 1807 b23c c4a5 fabd
000000e0: 791e 8d3d 6e8e 99bd fd6b 62bd c2ff 213d
000000f0: 0924 06be 297b 933d 3c17 5539 7fb6 d1bd
00000100: 7eea debc 0897 c2bd 2351 2c3d 4a62 2c3d
00000110: 634a dbbd 1bf7 be3d 1c2a 4cbd 3673 f23d
00000120: 52c8 0bbc f2b6 bc3c f60e 4fbd 722e cfbb
00000130: a0b3 ecbb ccea 0cbd fe1f adbd 7d99 013c
00000140: 775f f3bd 5f76 9abd 94de 41bd 8cec aebb
00000150: 9a7d c2bd 35a7 88bd bdd6 fc3a 9bf9 2d3c
00000160: d59c 493c 990f adbd 864c cd3d d3e6 34bd
00000170: ef8d f1bd 8e2b a43d 2e10 0a3c b264 6fbc
00000180: 3b59 0cbe 5a95 a4bd 76de 9c3d fdcb 38bd
00000190: eaa1 c4bd e4e4 a13d 5dae e9bd 3222 a13d
000001a0: 59d7 39bd a820 683d f339 8b3c 7555 0a3e
000001b0: 73b8 733d 5494 e2bb 6688 0b3e ceeb e4bd
000001c0: 00f6 9c3c 073b 353d 08eb e7bd e588 9fbd
000001d0: e43b 87bd 8fd9 96bd 035f 9dbc c3de b8bd
000001e0: 1072 0b3e 5dcf cfbb 4586 123e 29aa 073d
000001f0: 9d14 c3bc 4706 733c b25b aabd 453a bcbd
00000200: 43cd 6b3d 2e03 81bc 993e 283c f061 57bc
00000210: 3b68 e73d 9a7c 0ebe 4048 b5bd 56a4 92bd
00000220: c618 43bd a8f2 e03d 32ab c93d 2448 d2bd
00000230: 5b26 32bd f399 f23d 0c66 e5bd a654 473c
00000240: 5e3d 4f3d 7f2a 8c3d 4d3d c43d c328 c33d
00000250: a192 0d3d 2b26 0bbe 843f 8dbd e9ee 06bd
00000260: e9f7 c1bd 6235 a6bd da9e d63c 4954 40bd
00000270: 1cb3 003d fa5c 3c3d 61e5 9f3d cb82 dbbd
00000280: e21b f33d 4976 853d 7e5f ae3c 6a51 febc
00000290: bf77 27bd c16e 023c c3ab a4bc 3452 fdbd
000002a0: c232 7c3c 216d c9bd 5f06 e9bd 91cf b63d
000002b0: 2a4c 98bc 842c e9bc 2fdf e4bc cdcd 53bd
000002c0: f506 873d da53 4abc 5d82 5bbd 7f60 0e3e
000002d0: 3693 cb3d c2c4 df3d c73d 19be 8190 113d
000002e0: d449 ae3c 4060 093e 93d4 4d3d ec0d c33c
000002f0: fa86 b63d dd62 943d 05b0 f6bd 4342 04be
00000300: af3b 84bd 5590 f4bc 489d 233d 906c cf3d
00000310: cb47 f9bd 6762 e0bc 544d d1bd 8c42 f13d
00000320: ee0b a03d 393d b13d 7c47 7dbc 80dc a6bd
00000330: 528f a4bd 21a2 df3b 6529 263c 3c3b 143c
00000340: 39d0 ea3d 9d7b a5bd 47c0 cb3d 05ab 683d
00000350: b7d9 ebbd 2cb0 7ebd 827e 96bd d9aa 053c
00000360: 4c8a ab3d e12b a63d 26ba 95bc 28b5 0c3e
00000370: 62ec 6f3d 5880 1a3d aebc febd daf7 eebd
00000380: 3b4f bb3d ab3e 873d 275e 80bd 6ce6 cebd
00000390: da8a f1ba 9450 0ebe bcc5 d43d 6b3d 853d
000003a0: 8dec 0e3d 690d d6bd 448a e0bc 4180 9cbd
000003b0: 18dc 953d 8f34 133e 3120 0fbb a02e 37bd
000003c0: 9eb3 de3d d6d0 28bd 90bb 83bd 3db1 dbbd
000003d0: 14b8 ef3c f609 dd3d 5b57 ce3d 20f5 423d
000003e0: 6d9a ca3d 5406 d3bd 1484 063e 20cd 1fbd
000003f0: fd99 0abe 5791 913d dcb9 f73c 1c74 cdbc
0.09242821 -0.084410444 -0.014836789 0.011657821 0.13274482 -0.05345405 -0.06378266 0.040692598
0.022786833 0.042530768 0.11743505 -0.11555391 0.008774814 -0.028841466 -0.11924077 -0.017513527
0.040750485 0.07388997 0.009998435 -0.09895458 -0.037535425 0.08250305 0.048372965 -0.111355044
0.03651143 -0.03160552 0.018267442 0.09955972 -0.07931645 -0.013982226 0.11301707 -0.022324622
0.14921589 -0.017848417 0.02103615 -0.027124856 0.03745227 -0.041131888 0.13132885 0.12090169
0.007928351 -0.08174999 0.035407584 -0.016979605 -0.11709865 0.007639488 -0.099307016 -0.047093485
-0.11194322 0.11435227 0.06559072 -0.072029516 0.082089186 -0.09701497 0.021731898 -0.122386485
0.06890578 -0.074978694 -0.055278767 0.03955055 -0.13099684 0.07201225 0.00020321918 -0.102398865
-0.027211424 -0.09501463 0.042069566 0.042085923 -0.107075475 0.093244754 -0.049844846 0.11838381
-0.008531647 0.023036454 -0.050551377 -0.0063226754 -0.0072235614 -0.034403607 -0.08453368 0.00791013
-0.11883443 -0.07542109 -0.047331408 -0.005338257 -0.09496613 -0.06672517 0.0019290071 0.010618593
0.012305458 -0.08450241 0.10024361 -0.044165444 -0.1179465 0.0801612 0.008426709 -0.01461141
-0.13705914 -0.08036299 0.076596186 -0.045116413 -0.09601195 0.079049855 -0.1141021 0.0786785
-0.045371387 0.05667177 0.016995406 0.13509162 0.059502076 -0.0069146547 0.1362625 -0.11177789
0.01916027 0.044245746 -0.113241255 -0.077897824 -0.0660322 -0.07365715 -0.019210344 -0.090268634
0.1361773 -0.0063418583 0.14309032 0.03312126 -0.02381354 0.01483304 -0.08318271 -0.091908015
0.0575688 -0.015748587 0.010268831 -0.013145909 0.11299177 -0.13914719 -0.08851671 -0.07160251
-0.047631048 0.10983783 0.09847106 -0.10267666 -0.04349361 0.1184577 -0.112011045 0.012166178
0.050595634 0.06844043 0.09582005 0.09529259 0.034563664 -0.13588779 -0.0689688 -0.032942686
-0.09471113 -0.08115651 0.026198793 -0.04695538 0.031420812 0.045987107 0.078074224 -0.10718306
0.118705526 0.06516702 0.021285769 -0.03104468 -0.040885683 0.007960976 -0.020101434 -0.123691946
0.015392961 -0.09835268 -0.11378168 0.08926309 -0.018591005 -0.02846361 -0.027938453 -0.05170994
0.06593124 -0.012349093 -0.05359112 0.13903998 0.09940188 0.109262004 -0.14964972 0.0355382
0.021275438 0.13415623 0.050251555 0.02381035 0.089124635 0.07245419 -0.12045292 -0.12915902
-0.06456696 -0.02985398 0.039944917 0.101281285 -0.121718965 -0.027390672 -0.10219827 0.11780271
0.078147754 0.086542554 -0.015458938 -0.08147526 -0.08035149 0.006824747 0.010141705 0.009047326
0.114654966 -0.08080218 0.09948783 0.056803722 -0.11516135 -0.06217973 -0.07348348 0.008158409
0.083759874 0.08113838 -0.018277239 0.1374098 0.05857504 0.037720054 -0.124383315 -0.11668368
0.091459714 0.0660375 -0.06267958 -0.10102543 -0.0018428222 -0.13897926 0.10389277 0.06505855
0.03489356 -0.104517765 -0.02740968 -0.0764165 0.0731737 0.14375518 -0.0021839256 -0.0447222
0.10874103 -0.041214786 -0.06432259 -0.10727165 0.02926258 0.107929155 0.100752555 0.04759705
0.09892736 -0.10303941 0.13136321 -0.03901398 -0.13535304 0.071077995 0.030239992 -0.02507978

module.gcn_layers.0.bnEdges.batch_norm.weight f4 [50]
00000000: d984 803f 6f45 813f 0dc5 803f 84e7 7d3f
00000010: d0e6 7e3f 8041 813f 461f 803f 531f 813f
00000020: 593b 7f3f 8335 813f 0b91 7f3f e4b9 7f3f
00000030: b068 7f3f ebcd 7e3f 5739 7f3f c727 813f
00000040: beff 7d3f d7f5 7e3f f7e7 7d3f 4d79 803f
00000050: 2963 803f 2036 7f3f 0807 813f 443e 813f
00000060: 44a4 803f e819 7f3f 3242 7f3f c5f7 7e3f
00000070: 23c3 803f 46f4 7f3f 486a 7f3f 1cbb 803f
00000080: fa77 7e3f 0523 813f 2934 813f 6dd2 803f
00000090: ce62 7f3f 3719 813f 6bd4 803f 71df 7f3f
000000a0: a491 7d3f 8a38 813f fa73 7f3f 3d38 813f
000000b0: b30d 813f b511 813f fbb8 7f3f 6189 7e3f
000000c0: 2a87 7f3f 5fee 803f
1.0040542 1.0099314 1.0060135 0.9918139 0.9957094 1.0098114 1.0009544 1.0087684
0.9969993 1.0094455 0.99830693 0.9989302 0.99769115 0.99532956 0.9969687 1.0090264
0.99218357 0.9959387 0.99182075 1.0037018 1.0030261 0.99691963 1.0080271 1.0097127
1.005013 0.99648905 0.9971038 0.99596816 1.0059551 0.99982107 0.9977155 1.0057101
0.9940182 1.0088812 1.0094043 1.0064217 0.9976014 1.008582 1.0064825 0.9995032
0.99050355 1.0095379 0.9978634 1.0095288 1.0082306 1.0083529 0.9989163 0.99428374
0.9981562 1.0072745

module.gcn_layers.0.bnEdges.batch_norm.bias f4 [50]
00000000: 2e60 5a3b ce3c 1c3c a62c 34ba a282 04bc
00000010: 0590 95bb c4a4 1b3c 4ce5 abbb ac20 9a3b
00000020: da32 b5bb fa36 f03b 93db dc3b 5aa1 eb3a
00000030: f513 84bb 8a3e 9d3b d3a9 28bb f8c6 133c
00000040: d93e fcbb 7090 99bb e487 dbbb 7a51 953b
00000050: d9f0 08bb fccb 97bb 3edd e43b ef4a 1c3c
00000060: 80ce 2cbb f50f a73b 08c8 17b9 4abd c1bb
00000070: 4044 d83b 7633 8dbb 556c 7fbb 6bca dc3b
00000080: 1ad3 143b e950 0c3c f638 1a3c 48c8 06bb
00000090: 2788 f3bb 0458 123c da3c 6a3a 68af cd3b
000000a0: a00d 0bbc 6bcc 1a3c 1ca6 16bc 8bc4 0b3c
000000b0: e7b1 1e3b bba0 103c ae0c 373a 0620 c639
000000c0: cd78 5b3b 0aba ec3b
0.0033321488 0.009535981 -0.0006873108 -0.008087786 -0.0045642876 0.009499732 -0.00524584 0.004703602
-0.0055297436 0.0073307725 0.0067400425 0.0017977164 -0.0040306994 0.004798715 -0.0025735989 0.009019606
-0.0076979217 -0.0046864077 -0.006699549 0.004556832 -0.002089551 -0.004632471 0.006984382 0.00953935
-0.00263682 0.005098338 -0.00014475 -0.0059124576 0.006599933 -0.004309113 -0.0038974483 0.0067379973
0.0022708834 0.008564212 0.009412995 -0.0020566154 -0.007432002 0.008932117 0.0008935459 0.0062770136
-0.008487135 0.009448151 -0.009194877 0.008530746 0.0024214925 0.008827384 0.00069827854 0.00037789362
0.003348875 0.007224326

module.gcn_layers.1.bnNodes.W1.weight f4 [50, 50]
00000000: bb42 a9bd 0edd c6bd bf33 12be cbfb 00be
00000010: 162c 21bb bff3 aebd 6c9d c6bd f204 9bbd
00000020: f374 afbd a6ea f63d 1e02 b33c b209 bc3d
00000030: c893 a03d 788d 94bd 7069 b23d 24bb a53d
00000040: a5c8 d83d feaa 003e e48d c93d 3f89 0c3e
00000050: 94b2 b13d d9e1 db3c 9a79 103e 6a89 73bc
00000060: b427 9ebd be3f ba3b 5990 fabd fcac 14be
00000070: 172a cb3d 324b 7b3d 4af8 0dbc 14c1 fd3d
00000080: f76e fdbd aa8a 6f3c 205a f4bd 1132 ed3d
00000090: b7db 04bd 7e34 bb3d 23ed c7bd c22e f0bb
000000a0: 9bd4 81bd 4bab b4bc 2d07 82bd 5eb5 22bd
000000b0: 4c35 f93d 891b 34bb 427b a7bd 7f63 8a3d
000000c0: 8b9a 88bd e0f8 b1bd e6ea 3fbd bca3 213d
000000d0: 4721 dcbd e373 0c3e 1168 eebd 7fec c33d
000000e0: b757 09be 09c7 11bd 8f0a eebd f2d7 033d
000000f0: 762f d93b 52fe 373c 5676 f4bd b1fe 083e
00000100: 9d30 053e b52f f93d 776c fc3d 8656 023e
00000110: a45e 7bbd 92c6 b2bb d4da 26bd f3d9 04be
00000120: 7801 7a3d 65b7 fdbd 382c 063e 894f 3b3d
00000130: 0a7f f9bc bff7 02be 088b 84bd 45f3 b8bd
00000140: ed3e a23d 0710 4abd 30f4 f4bd 9b7c 22bc
00000150: f5e2 8a3d bccb 00be 7ce6 f73d 6efb 2dbd
00000160: decc b8bd c578 f4bc 6aa5 78bd eb7d 93bd
00000170: 0751 6b3d c127 073e f531 5ebd cca2 c4bd
00000180: fb75 9cbd a931 593c cedd f7bd 3b59 d93d
00000190: f815 a83d 73c0 d7bb 99be 8d3c c4ae fe3c
000001a0: 9cc5 913d e20d 0ebe ba6c f8bd be11 aebd
000001b0: d1aa 9c3d 3f78 c7bc 97a1 043e f301 0d3c
000001c0: e658 ee3c f0bd 83bd 2a15 39bc aa94 493d
000001d0: 09ff f3bb a4cf ee3d 0bfe 993d 2b6b 0abd
000001e0: e874 113c bd60 f03c e59d 78bd a75e 63bd
000001f0: 6adf febd 57d1 a53d d89f 0bbe a80d e1bc
00000200: 1b3c c5bc 2b3d ee3d bf8b d23c 9630 40bc
00000210: 72a5 3ebd 98ef 82bd 2691 8f3b c680 df3d
00000220: 111e 86bd ab41 4cbc a03f 8dbd 463f e93d
00000230: 9564 3bbd 9dbb ad3d 78fd cf3d 8d04 643d
00000240: 4a0c bbbd 2add 0cbe 96d6 afbc 8ba2 55bd
00000250: 248b 5ebb f3db 683d d443 00be 85a4 1a3d
00000260: aa75 f0bd 9ee8 bebd fbfd 5cbd 0551 05ba
00000270: b0de 093d afda 583d 7f5e 40bd 357a 883d
00000280: 5d1f 98bd a4eb b83d 4232 e93c e898 d93d
00000290: fba0 95bd 6139 953c f092 c1bd bc91 bb3d
000002a0: 97e5 73bd 927c 6cbd 253d 07be e3ab 953d
000002b0: a464 08bd 5e14 79bd 930f b1bd 4b24 94bd
000002c0: 2b1d e03d ea7e 713d f666 d43d 889f a63d
000002d0: d772 af3d 1137 fc3d 0730 d93d f860 3bbc
000002e0: 01b4 e73d e134 47bd 73f5 983b 6c7e 813d
000002f0: b01b 8ebd 4d32 4c3d 9996 bdbc d131 3d3d
00000300: 28fa 1f3c 0253 2abd d1f4 8f3d 1d8e 003e
00000310: 82b2 203d 0ddf 9abb 067d c53d 4e0e dbbc
00000320: 00b9 08be f956 0a3e d947 f83d fb90 333d
00000330: 727c cbbc 06c5 573d fc62 fd3c 6ef2 7fbd
00000340: 1295 713d bb2d 13bd 6777 bc3a 31c2 20bd
00000350: 72b3 b5bb ad47 94bd 8e7a 2ebd 8ef8 1ebc
00000360: 60b0 7a3d b693 063e 7835 b9bd 546a 583d
00000370: ef59 ed3d 80b6 32bb 5e35 f63d d6dc 0ebe
00000380: 1d10 083e 03aa 633c 22a5 55bd ec26 293d
00000390: 8c86 bebd 071e 183d 8dff b43c d28e 953c
000003a0: 9c65 d3bd 4ce5 db3a 2c9b fabd 2e17 fabd
000003b0: b68d 643d 87f3 6fbd 576d 033e 535d af3d
000003c0: 7723 6a3d b893 6a3b 8207 e03d b228 fb3d
000003d0: 9c36 8e3d fb58 f13d f583 09be 9bc9 a83a
000003e0: 06a3 a93d 4f66 3abd 25d0 213d a700 89bd
000003f0: a1f6 3f3d aba1 03be 2df1 0dbe 7858 2bbd
-0.08264681 -0.097101316 -0.14277552 -0.12596051 -0.0024592928 -0.08542585 -0.096979946 -0.075693026
-0.08567228 0.120564744 0.021851595 0.09181537 0.07840687 -0.072535455 0.08711517 0.08092335
0.10585145 0.12565228 0.098415166 0.1372423 0.08676639 0.026841091 0.14108887 -0.014864305
-0.077224165 0.005683868 -0.122345634 -0.14519113 0.099201374 0.06135101 -0.008665154 0.12390342
-0.123746805 0.014620462 -0.119312525 0.11581815 -0.0324361 0.091408715 -0.09762027 -0.0073297927
-0.063393794 -0.022054335 -0.06349025 -0.039723746 0.12168369 -0.0027482233 -0.081778064 0.067572586
-0.06670102 -0.08690047 -0.046854876 0.03946279 -0.10748535 0.13716082 -0.11640943 0.095665924
-0.13412367 -0.035590205 -0.11623108 0.032188363 0.0066279722 0.011230068 -0.11936633 0.13378407
0.13006826 0.121673025 0.123253755 0.12728319 -0.061369553 -0.0054558003 -0.040736035 -0.12973766
0.061036557 -0.12388495 0.13102806 0.045730148 -0.030456085 -0.1278982 -0.064718306 -0.09030775
0.079221584 -0.04933169 -0.119606376 -0.009917404 0.0678157 -0.12577718 0.12104508 -0.04247611
-0.0902345 -0.029842744 -0.060704626 -0.07201751 0.05745032 0.13198759 -0.05424686 -0.096013635
-0.076396905 0.013256469 -0.12102853 0.106127225 0.08207315 -0.006584221 0.017302798 0.031089194
0.07117769 -0.13872483 -0.12130113 -0.08499478 0.07649768 -0.02434933 0.12952267 0.008606422
0.029095124 -0.06432712 -0.01129655 0.049214043 -0.007446174 0.11660698 0.07519158 -0.03379361
0.00887797 0.029343003 -0.060697455 -0.05551019 -0.124449566 0.08096569 -0.13635194 -0.027472332
-0.024076512 0.116327606 0.025701402 -0.011730334 -0.0465445 -0.06393355 0.0043813167 0.109132335
-0.065487035 -0.012466828 -0.06896901 0.113890216 -0.04575022 0.0848305 0.10155767 0.055668402
-0.09133203 -0.13756242 -0.021464627 -0.052156966 -0.0033957446 0.056850385 -0.12525874 0.037754554
-0.11741193 -0.09321712 -0.053953152 -0.000508562 0.033659637 0.052942928 -0.04696512 0.06663934
-0.07427857 0.0902932 0.028466348 0.10624868 -0.07306095 0.018215837 -0.09451854 0.09158656
-0.059545126 -0.057735987 -0.13206919 0.073081754 -0.033299103 -0.06081044 -0.08645549 -0.07233485
0.10943063 0.058958925 0.10371201 0.08135897 0.08566826 0.123151906 0.106048636 -0.011436693
0.1131363 -0.048634414 0.0046679317 0.06322941 -0.06938875 0.049852658 -0.0231431 0.046190087
0.009764232 -0.04158307 0.07029117 0.12554212 0.03923274 -0.0047262968 0.09642987 -0.02674022
-0.13351822 0.1350974 0.12123079 0.043839436 -0.024839614 0.05267813 0.030930988 -0.06248706
0.058980055 -0.035932284 0.0014378846 -0.039247695 -0.005545073 -0.072402336 -0.042597346 -0.009702815
0.06120336 0.13142285 -0.090434015 0.052835777 0.11589419 -0.0027269423 0.12021898 -0.1395143
0.13287397 0.013895514 -0.052159436 0.041296884 -0.093030065 0.03713801 0.022094512 0.018256579
-0.10322115 0.001677671 -0.12236628 -0.122114524 0.05579921 -0.058581855 0.12834679 0.08562722
0.05716273 0.0035793614 0.10938932 0.122636214 0.0694401 0.1178455 -0.13429244 0.0012877466
0.082830474 -0.045507725 0.039505143 -0.066895775 0.046866063 -0.1285464 -0.13861533 -0.041832417
