logs/deafult/checkpoint_epoch1.tar (torch, 489841 bytes, 103 tensors)

module.NodesEncoding.A1.weight f4 [50, 2]
0	0xbf12f0c6	-0.5739864
1	0x3ec1a627	0.37822077
2	0xbf12bae8	-0.57316446
3	0xbf144ef7	-0.5793299
4	0x3ec8698a	0.3914302
5	0x3e81fc5a	0.2538784
6	0xbec7b329	-0.39003876
7	0xbf2df6f3	-0.6795494
8	0xbe59011a	-0.21191826
9	0x3e3fe201	0.18738557
10	0x3eb2859d	0.34867564
11	0xbe0bbda5	-0.13646562
12	0x3f01430c	0.5049293
13	0xbe6aca53	-0.22928743
14	0x3e09c940	0.13455677
15	0xbed8f20a	-0.4237216
16	0xbd88125b	-0.06644126
17	0x3ee7aac4	0.4524747
18	0xbec2e232	-0.38063198
19	0x3f0f168d	0.55893785
20	0xbf244a1b	-0.64175576
21	0x3e0f083e	0.13967988
22	0x3ef5013e	0.4785251
23	0x3f2938c5	0.6610225
24	0x3f1f494f	0.62221235
25	0x3f334bd9	0.7003761
26	0x3e5646c9	0.2092544
27	0x3d61aac1	0.055094484
28	0x3eaac66b	0.33354506
29	0xbeb6db25	-0.3571407
30	0x3ebf6cc5	0.37387672
31	0xbeedcc4b	-0.46444926
32	0xbe72f57d	-0.23726459
33	0xbef53fe3	-0.47900304
34	0x3f258f2c	0.6467159
35	0x3ead6a6c	0.33870256
36	0xbe3866bd	-0.18007942
37	0xbea30483	-0.3183938
38	0x3e2fdaf1	0.17173363
39	0xbedca2c4	-0.4309293
40	0xbe0d008c	-0.1376974
41	0x3e9ee3df	0.31033227
42	0x3f0d6fed	0.5524891
43	0xbecd2a2e	-0.40071243
44	0xbe9678e3	-0.29389104
45	0x3f032604	0.5122988
46	0x3f3608c2	0.71107113
47	0x3e4a613c	0.19763654
48	0xbf339a9a	-0.7015778
49	0xbef6830f	-0.48146865
50	0xbdff6a42	-0.12471439
51	0x3f116c3d	0.56805784
52	0xbecc7faf	-0.39941165
53	0xbef0ea85	-0.47053924
54	0xbee2a4b4	-0.44266284
55	0xbe5bfaec	-0.21482438
56	0x3dc08314	0.09400001
57	0x3f13419e	0.57522
58	0xbec1e77e	-0.37871927
59	0x3f137604	0.5760195
60	0xbe98d9f4	-0.29853785
61	0xbf1793a5	-0.5920966
62	0xbf237a14	-0.6385815
63	0x3f2bda15	0.6712964
64	0xbf326f41	-0.6970101
65	0xbc38e3f5	-0.011284818
66	0x3d88ce55	0.0667998
67	0x3d977b55	0.073965706
68	0x3db52789	0.08845431
69	0x3f0b33a9	0.543757
70	0xbe544204	-0.20728308
71	0x3edbd123	0.42932996
72	0x3e97fae8	0.29683614
73	0x3c5c6ef4	0.013454188
74	0xbdfcdc00	-0.12346649
75	0xbea3f01e	-0.32019132
76	0xbf13d14b	-0.5774123
77	0x3ef268de	0.47345632
78	0x3eb955b0	0.36198187
79	0x3f201f04	0.62547326
80	0x3eae25f2	0.34013325
81	0xbe7f3e4a	-0.24926105
82	0x3eb6a8ac	0.3567556
83	0x3f283336	0.6570314
84	0x3f295dee	0.6615895
85	0x3d79d1e2	0.060991175
86	0x3df99627	0.121868424
87	0xbeca360b	-0.39494357
88	0x3eb0cb90	0.34530306
89	0xbe94f831	-0.29095605
90	0x3f3400a5	0.70313483
91	0x3f0230ca	0.50855696
92	0x3e3a9a5a	0.18222943
93	0xbe1a78c2	-0.15085128
94	0xbe959147	-0.292124
95	0x3e200fa1	0.15630962
96	0x3f28b699	0.6590362
97	0x3e5e9238	0.21735466
98	0x3e0d337a	0.13789168
99	0xbe9c3789	-0.3051112

module.NodesEncoding.A1.bias f4 [50]
0	0x3e844f68	0.25841832
1	0x3f0edf03	0.5580904
2	0x3f244480	0.6416702
3	0x3e74b718	0.2389797
4	0xbdcbcc7d	-0.099511124
5	0x3e9b679f	0.30352494
6	0x3f13f406	0.57794225
7	0xbe9ddc95	-0.30832353
8	0xbe36bc68	-0.17845309
9	0xbe91ea2d	-0.28498974
10	0x3be8aa4b	0.0071003786
11	0x3eea333b	0.4574221
12	0x3eb814aa	0.35953265
13	0x3f33463e	0.70029056
14	0xbf0bb784	-0.545769
15	0x3e9d918e	0.30775112
16	0xbeadd856	-0.33954114
17	0x3f1e6b92	0.6188289
18	0x3da3abd3	0.07991757
19	0xbe910055	-0.28320566
20	0xbee67abf	-0.45015523
21	0xbeef31d4	-0.46717703
22	0xbe77d6ea	-0.24203077
23	0xbed809f3	-0.4219509
24	0x3eb5b9f4	0.35493433
25	0xbe778fdf	-0.24175976
26	0xbf06f17c	-0.52712226
27	0x3d1dc689	0.038519416
28	0xbe090889	-0.13382162
29	0x3ecc74ac	0.39932764
30	0xbeb48fee	-0.3526606
31	0xbdfad38b	-0.1224738
32	0xbebc0b19	-0.36727217
33	0xbec3c922	-0.3823939
34	0xbe41ec8e	-0.18937895
35	0x3ee5bc27	0.4487011
36	0xbd0b27c2	-0.033973463
37	0xbe919ae4	-0.28438485
38	0x3d2aed4e	0.041730218
39	0x3f0308c7	0.5118527
40	0x3f1e9716	0.6194929
41	0x3c7a790c	0.015287649
42	0x3f3326ec	0.69981265
43	0x3e24f5cd	0.1610939
44	0x3eff741e	0.49893278
45	0x3f321193	0.69558066
46	0xbeedaad0	-0.46419382
47	0x3e894916	0.26813573
48	0xbd1c6ab3	-0.038187694
49	0x3e3c22f6	0.18372712

module.EdgesEncoding.A2.weight f4 [25, 1]
0	0x3db9ebfd	0.09078214
1	0xbf3cc7cf	-0.73742384
2	0x3f703c9c	0.9384248
3	0xbf27f31f	-0.6560535
4	0xbf809dcb	-1.0048155
5	0xbf57924f	-0.84207624
6	0x3e8b77bb	0.27239785
7	0xbd7e4587	-0.062078025
8	0x3f20ff6c	0.6288974
9	0xbe112aad	-0.14176436
10	0x3d032f9f	0.032027837
11	0x3f15932b	0.58427685
12	0x3f5bf3c3	0.85918826
13	0x3d9ff398	0.07810134
14	0xbe923209	-0.285538
15	0x3f53eb69	0.8278108
16	0x3f3094c5	0.68977004
17	0x3f122f58	0.5710349
18	0x3dbac975	0.09120456
19	0x3ef4291e	0.4768762
20	0x3f36d254	0.71414685
21	0x3f65f909	0.8983312
22	0x3e261fec	0.16223115
23	0xbec83b4b	-0.39107737
24	0x3ebca23b	0.36842522

module.EdgesEncoding.A2.bias f4 [25]
0	0xbe0fbf42	-0.14037803
1	0x3d7f79c1	0.062371973
2	0xbf663ead	-0.89939386
3	0xbe461a90	-0.1934607
4	0x3f1b40f5	0.6064599
5	0x3f139050	0.5764208
6	0xbe5778be	-0.21042153
7	0x3db07d00	0.08617592
8	0xbf3c1af4	-0.7347863
9	0x3e14863f	0.14504336
10	0xbee72b59	-0.4515026
11	0x3f3f2bda	0.7467629
12	0xbe4e164d	-0.20125695
13	0xbe02ab08	-0.12760556
14	0x3ea044c3	0.3130246
15	0x3f36cc76	0.7140573
16	0x3f4189a1	0.7560063
17	0xbe9ccbfc	-0.30624378
18	0x3f195d72	0.5990821
19	0x3e201746	0.15633878
20	0x3e2e6fbb	0.1703481
21	0xbea3934f	-0.31948325
22	0x3ed7b5e4	0.4213096
23	0x3e287e70	0.16454482
24	0x3ecfe647	0.40605375

module.EdgesEncoding.A3.weight f4 [25, 1]
0	0xbee80280	-0.45314407
1	0x3d50f586	0.0510154
2	0xbf6caf0a	-0.9245459
3	0x3d70b4c3	0.058766138
4	0xbf680e99	-0.90647274
5	0x3e4c3c62	0.19944909
6	0xbe0414bd	-0.12898536
7	0xbf0b01a5	-0.54299384
8	0x3f6495d6	0.8929113
9	0xbd4bad24	-0.049725667
10	0x3e4a84bf	0.19777201
11	0xbd9e4ee2	-0.077298895
12	0x3f27d5ef	0.6556081
13	0x3ec936da	0.3929966
14	0x3c9e5055	0.019325415
15	0xbeae1876	-0.34003037
16	0x3f253cc3	0.6454584
17	0x3e80368b	0.25041613
18	0x3e75fcfd	0.24022289
19	0xbe630f06	-0.221737
20	0xbf2ffd1e	-0.687456
21	0xbd2b9c03	-0.04189683
22	0x3eb187fe	0.34674066
23	0xbee3f678	-0.44523978
24	0x3ec6edf6	0.38853425

module.EdgesEncoding.A3.bias f4 [25]
0	0x3f246f7e	0.64232624
1	0x3f2eca6d	0.6827763
2	0xbe0b9059	-0.13629283
3	0x3e936668	0.28789067
4	0xbe9e6a85	-0.30940643
5	0xbe9a2437	-0.30105755
6	0x3f260ebe	0.64866245
7	0xbf4fac1b	-0.8112199
8	0x3f1efcfa	0.6210476
9	0xbe834ef4	-0.25646174
10	0xbf6b8566	-0.92000425
11	0x3f34b7b5	0.70592815
12	0x3f61e05c	0.8823297
13	0xbf3fb19c	-0.74880385
14	0x3e7da487	0.24769793
15	0xbf06e26d	-0.5268925
16	0xbe8246ac	-0.25444543
17	0xbf7e3faa	-0.99315894
18	0xbe9e2319	-0.30886152
19	0x3e70e2f3	0.23524074
20	0x3f7e8e43	0.99435824
21	0x3e3f8250	0.18702054
22	0xbf4e7ea3	-0.8066198
23	0xbf405d2c	-0.7514217
24	0xbe7ea624	-0.24868065

module.gcn_layers.0.bnNodes.W1.weight f4 [50, 50]
0	0x3e14bfa7	0.14526235
1	0x3c643a63	0.013929936
2	0xbd4b18f8	-0.04958436
3	0xbb88f46f	-0.0041795294
4	0x3dee9b9c	0.11650774
5	0xbda12465	-0.0786827
6	0xbdff6343	-0.124701045
7	0xbe153e68	-0.14574587
8	0x3d95eb99	0.07320327
9	0x3de241dc	0.11047718
10	0x3e1766f6	0.1478537
11	0xbdccc747	-0.09998947
12	0xbcc93342	-0.024560574
13	0x3c99b6ee	0.018763985
14	0x3d8498fd	0.06474493
15	0xbbd5b874	-0.0065222327
16	0xbe095c05	-0.13414009
17	0xbdcc5cc0	-0.09978628
18	0x3d839527	0.06424933
19	0x3d044b8c	0.03229861
20	0x3e019c08	0.12657177
21	0x3d674989	0.056466613
22	0xbcbdc096	-0.023163121
23	0xbdcd764c	-0.10032329
24	0xbc023bfa	-0.00794887
25	0xbd4dcf21	-0.05024636
26	0x3cc174b8	0.023615226
27	0xbdbcfbca	-0.092277125
28	0xbd9049e0	-0.070453405
29	0xbd03868c	-0.032110736
30	0x3e098308	0.1342889
31	0xbd8a58cf	-0.0675522
32	0xbdaed8e6	-0.08537464
33	0x3d9ac2ee	0.07556711
34	0xbd48773a	-0.04894183
35	0xbddfe29b	-0.109318934
36	0xbd107d02	-0.035275467
37	0xbd1cf9de	-0.03832423
38	0x3d09849e	0.03357374
39	0x3d8b84ff	0.06812476
40	0x3d1efc75	0.03881498
41	0x3d0eb3a7	0.0348393
42	0x3d9324d6	0.0718476
43	0x3d8b1683	0.06791403
44	0x3dfe8db7	0.12429374
45	0xbe0d32aa	-0.13788858
46	0x3d1a4ef3	0.037672948
47	0xbdad6afa	-0.0846767
48	0xbd81506f	-0.063141696
49	0xbdb85651	-0.090008385
50	0xbc1ef9c0	-0.0097031
51	0xbdf33277	-0.1187486
52	0x3e0c771f	0.13717316
53	0xbd65cc34	-0.056102946
54	0xbc61370f	-0.013746037
55	0x3d1ec32f	0.03876036
56	0x3d071d6d	0.032987047
57	0x3da06e2e	0.07833515
58	0xbdea0708	-0.11427122
59	0xbdcea3bf	-0.10089826
60	0x3d99e036	0.07513468
61	0x3d089ae7	0.03335085
62	0x3e006136	0.12537083
63	0x3e0c02af	0.13672899
64	0xbc0fb281	-0.008770586
65	0xbc8b79f8	-0.017025933
66	0xbdc2a722	-0.09504534
67	0xbdf894f5	-0.12137786
68	0xbe111e3d	-0.14171691
69	0xbda13252	-0.07870926
70	0x3cee5be0	0.029096544
71	0xbdefcecb	-0.117093645
72	0x3d564854	0.05231507
73	0x3c3ff828	0.01171688
74	0xbc9caab9	-0.019124376
75	0x3d0781e0	0.033082843
76	0x3de80ad3	0.113301896
77	0x3c3f7af8	0.011687033
78	0xbe0cacc5	-0.13737781
79	0xbd0f1a0e	-0.034936957
80	0xbdbe67db	-0.092971526
81	0x3c5ccf18	0.013477109
82	0x3dbb4291	0.09143556
83	0x3dcf56ba	0.10123964
84	0x3d89d809	0.067306586
85	0xbd989a71	-0.07451332
86	0xbdb834ba	-0.08994432
87	0x3df67482	0.12033941
88	0xbdadc19a	-0.08484192
89	0x3e142744	0.14468104
90	0x3df41ad4	0.119191796
91	0x3e006c9f	0.12541436
92	0xbd06ff6e	-0.03295844
93	0xbd0b64a5	-0.03403153
94	0xbe0d0ec6	-0.13775167
95	0xbe07cf31	-0.13262631
96	0xbd85d5fa	-0.065349534
97	0x3c16507c	0.009174462
98	0x3e0bc12f	0.13647912
99	0xbd45dc48	-0.04830578
100	0xbdf6f635	-0.12058679
101	0xbd21add4	-0.039472416
102	0xbc27f2e2	-0.010250779
103	0x3d217a99	0.03942356
104	0xbcd49cf8	-0.025953755
105	0x3d4a0bbd	0.0493276
106	0x3daa1072	0.08303918
107	0xbde7eba8	-0.11324245
108	0xbd8d10b7	-0.06887954
109	0xbe045f97	-0.1292709
110	0x3d2a9548	0.041646272
111	0xbd4aaf8d	-0.049483825
112	0x3d6c0a44	0.057626978
113	0xbd5e07fd	-0.054206837
114	0x3da46ebe	0.08028935
115	0x3dc7180e	0.09721385
116	0x3df11787	0.117720656
117	0xbc84ffba	-0.016235221
118	0xbb994e0f	-0.0046784948
119	0xbd20f7dd	-0.03929888
120	0xbe153c48	-0.14573777
121	0xbdcc8127	-0.09985571
122	0xbddeaa47	-0.108723216
123	0x3cded431	0.02720079
124	0xbd9799a8	-0.074023545
125	0x3e06cd4b	0.1316425
126	0xbde1efab	-0.11032041
127	0x3dfe98ad	0.12431464
128	0xbdf24ef1	-0.11831463
129	0xbd8b4a37	-0.06801265
130	0x3d5cfdeb	0.053953093
131	0xbd20f395	-0.039294798
132	0xbd9b4fc6	-0.07583575
133	0x3930767b	0.00016828805
134	0x3d801fb7	0.06256049
135	0x3ddfc478	0.10926145
136	0x3dfcdcaa	0.12346776
137	0xbdf06e75	-0.11739818
138	0x3d058f22	0.032607205
139	0x3c1b9f25	0.009498392
140	0xbd14073f	-0.036139723
141	0xbdd57944	-0.1042352
142	0x3d4486fe	0.0479803
143	0x3db661ba	0.089053586
144	0xbdd95ebe	-0.10613774
145	0xbd67be17	-0.05657777
146	0xbd24fafb	-0.040278416
147	0x3d8782ab	0.0661672
148	0xbdadece3	-0.08492448
149	0xbdccca7d	-0.09999559
150	0xbdd956d8	-0.10612267
151	0xbda37584	-0.07981399
152	0x3da590f0	0.08084285
153	0xbc4e2d50	-0.0125840455
154	0x3c2deccc	0.010615539
155	0xbdbf9e17	-0.09356325
156	0x3c632361	0.013863415
157	0x3d5cdb0a	0.05391983
158	0xbd7e68df	-0.06211173
159	0x3e00d739	0.12582101
160	0x3d93c0b3	0.07214489
161	0xbdcebad9	-0.10094232
162	0x3b566d9b	0.0032719139
163	0x3daf7822	0.085678354
164	0x3d801d6a	0.0625561
165	0xbdc1c4d9	-0.09461374
166	0x3da30267	0.079594426
167	0x3cc8c992	0.024510179
168	0x3e149a7f	0.1451206
169	0xbd8622c1	-0.065495975
170	0x3d2289ed	0.039682318
171	0x3de6b50a	0.11264999
172	0x3dca749b	0.09885522
173	0x3bd85c02	0.006602765
174	0x3db5f0e9	0.088838406
175	0x3dbae356	0.09125392
176	0xbb54a0b2	-0.0032444415
177	0xbd4c793b	-0.049920302
178	0x3df98e82	0.12185384
179	0x3ab2555a	0.0013605759
180	0x3d22043b	0.039554816
181	0xbc5bbad7	-0.013411245
182	0xbdc57637	-0.09641688
183	0x3dea4fc5	0.11440996
184	0xbe0ca521	-0.13734867
185	0xbdc6f20d	-0.09714136
186	0x3c84adab	0.016196093
187	0x3bd921eb	0.006626358
188	0xbd7b4321	-0.061343316
189	0x3dbecf6b	0.093169056
190	0xbde54bb3	-0.11196079
191	0x3d20ba17	0.03923997
192	0xbdbd60a8	-0.09246951
193	0x3de40269	0.11133272
194	0xbe143d8a	-0.144766
195	0x3d1f272d	0.03885572
196	0x3d80fbaf	0.06298005
197	0x3e06583d	0.13119598
198	0xbe15e8a9	-0.14639534
199	0xbda0c0a6	-0.07849245
200	0x3ceca2ec	0.028886281
201	0xbd39ac05	-0.045330066
202	0xbdf90c4d	-0.12160549
203	0xbddb86f2	-0.10719098
204	0xbde5662a	-0.11201127
205	0x3dd33921	0.10313631
206	0xbb0ce6fe	-0.0021499987
207	0xbe0d5a39	-0.13803948
208	0xbe01fc8c	-0.12693995
209	0xbd39147d	-0.045185555
210	0x3c8d90e5	0.017281005
211	0xbd1b0c6f	-0.037853654
212	0x3aac13bc	0.001312844
213	0xbd9e3465	-0.07724837
214	0xbd82b93f	-0.06382989
215	0xbdbcd89d	-0.09221003
216	0x3dd55d34	0.10418168
217	0xbd214bb1	-0.039378826
218	0xbc5d254e	-0.013497664
219	0x3dc9460c	0.098278135
220	0xbd2c5ebe	-0.04208254
221	0xbd0d8572	-0.03455109
222	0x3d90c1a3	0.07068183
223	0x3e0d1323	0.13776831
224	0xbb557780	-0.0032572448
225	0x3d0076bb	0.03136323
226	0xbde2cb5a	-0.110739425
227	0x3dd477a5	0.10374383
228	0xbd7ef8d5	-0.062249023
229	0x3dd01918	0.10161036
230	0xbe0352ab	-0.12824504
231	0xbd812325	-0.063055314
232	0xbdf0bfaf	-0.11755311
233	0x3dac4952	0.08412422
234	0xbcd5100d	-0.02600863
235	0xbd9899b9	-0.07451195
236	0xbda5f9c8	-0.081042826
237	0x3d4ba342	0.04971624
238	0xbd349350	-0.0440858
239	0x3d71b65b	0.0590118
240	0x3d8cf278	0.06882185
241	0x3d446555	0.0479482
242	0xbd7869ea	-0.060647883
243	0x3e0874a2	0.13325742
244	0xbde277fe	-0.11058043
245	0x3d3fb994	0.04680784
246	0x3e02c187	0.12769137
247	0xbd981a95	-0.07426945
248	0xbc75aa28	-0.014994182
249	0x3dadfec5	0.08495859
250	0xbd08c34d	-0.03338938
251	0xbe03198d	-0.12802716
252	0x3da158fc	0.078783005
253	0x3ccf440e	0.025301006
254	0x3bf3d502	0.007441164
255	0x3def1c95	0.116753735

module.gcn_layers.0.bnNodes.W2.weight f4 [50, 50]
0	0xbdd42440	-0.10358477
1	0x3ddcdab5	0.107839026
2	0xbcc61083	-0.024177795
3	0x3e072d47	0.13200866
4	0xbdcbc54e	-0.09949742
5	0x3d3efba6	0.04662671
6	0xbbbb15df	-0.0057093943
7	0xbcc44954	-0.023960747
8	0x3ddde726	0.10835104
9	0xbcbf9696	-0.023387235
10	0x3c0f6200	0.008751392
11	0xbdd04938	-0.10170215
12	0xbdf7de3b	-0.12102934
13	0x3e0f5335	0.13996585
14	0xbd0ff549	-0.03514603
15	0x3d74c291	0.059755865
16	0xbc39e607	-0.011346347
17	0xbdd3d048	-0.10342461
18	0x3e034797	0.12820278
19	0x3c5fa0e3	0.013649198
20	0x3d82ddc4	0.06389955
21	0x3d25ff5c	0.040526733
22	0xbdebf5ea	-0.11521514
23	0xbd331fe4	-0.043731585
24	0x3db43302	0.087987915
25	0xbd8b6a9e	-0.06807445
26	0xbda8d877	-0.082444124
27	0xbdd4e9c4	-0.1039615
28	0xbbc0b637	-0.0058810967
29	0x3d14e03d	0.036346663
30	0xbdf97562	-0.12180592
31	0x3d905ea2	0.070493
32	0xbd81d1bf	-0.06338834
33	0x3d24ab2a	0.040202297
34	0xbd9df447	-0.07712608
35	0x3dfc9a2c	0.123340935
36	0xbdc330a2	-0.0953076
37	0x3d54c723	0.051947724
38	0xbdb0b008	-0.08627325
39	0xbc7ea006	-0.015541082
40	0x3df11766	0.11772041
41	0x3d96b565	0.07358817
42	0xbd48466e	-0.048895292
43	0x3d88567e	0.06657122
44	0xbd2a4840	-0.04157281
45	0xbd879d2e	-0.066217765
46	0xbcc8f5f5	-0.024531344
47	0x3de00887	0.109391265
48	0x3d9e9e4a	0.07745035
49	0xbdef1c4b	-0.11675318
50	0x3ddb34d8	0.107034385
51	0x3c2ae7b3	0.010431218
52	0x3df97b89	0.121817656
53	0x3c84c696	0.016207974
54	0xbcdcbc40	-0.026945233
55	0xbd93804c	-0.07202205
56	0xbd021c79	-0.031765435
57	0xbd24b6f4	-0.04021354
58	0x3d359155	0.044328053
59	0xbd973084	-0.073823005
60	0xbe0afa67	-0.13572083
61	0xbdc392bb	-0.09549471
62	0x3dbb9411	0.09159101
63	0x3c5943e7	0.013260818
64	0xbc8928b5	-0.016743043
65	0xbc635937	-0.013876251
66	0x3e12a471	0.14320542
67	0x3d984b37	0.07436221
68	0x3b70be42	0.0036734496
69	0x3de2178c	0.110396475
70	0x3e0199e9	0.12656368
71	0x3e0fe481	0.14052011
72	0xbb1d8f5a	-0.0024041743
73	0x3da6ed25	0.081507005
74	0xbd1c3153	-0.038132977
75	0x3cdb535d	0.02677315
76	0x3e052320	0.1300168
77	0xbdfe15e6	-0.124065205
78	0xbcca6245	-0.024705062
79	0x3de412a4	0.11136368
80	0xbddd99b6	-0.10820334
81	0xbcdff3bf	-0.027337907
82	0xbd3d9de5	-0.046293158
83	0x3d85ce2b	0.06533464
84	0xbbd2730e	-0.006422407
85	0xbe1350bd	-0.14386268
86	0xbdda5ea9	-0.10662586
87	0x3da896b6	0.08231871
88	0xb93da938	-0.00018087483
89	0x3e00769c	0.12545246
90	0x3cade556	0.02122752
91	0x3dd963f6	0.10614769
92	0x3d693b8a	0.056941546
93	0xbdf5f42b	-0.12009462
94	0x3dcc94b2	0.09989299
95	0x3cb62cf3	0.02223823
96	0xbd466846	-0.048439287
97	0x3d188797	0.037238684
98	0xbd7f3d25	-0.06231417
99	0xbd2c7c8c	-0.042110965
100	0xbcd25616	-0.025675815
101	0x3da1a8e6	0.07893543
102	0xbdf4fd9e	-0.11962436
103	0xbda42859	-0.08015508
104	0x3e0b6bc2	0.13615325
105	0x3ddc6fae	0.10763489
106	0x3e0eb816	0.1393741
107	0xbd635d36	-0.055508815
108	0xbcb7dfb7	-0.022445543
109	0xbe0b5d73	-0.13609867
110	0xbdefdc91	-0.117119916
111	0x3ca9b3d6	0.020715635
112	0xb9b4c30a	-0.0003447759
113	0xbce50c17	-0.027959866
114	0xbd76cb13	-0.06025226
115	0xbdb0373c	-0.08604285
116	0x3db4bd27	0.088251404
117	0x3d60f90e	0.054925017
118	0xbcb8a2ea	-0.022538621
119	0x3e0a6aa7	0.13517247
120	0x3b52be97	0.0032157057
121	0x3de4ee53	0.11178269
122	0xbc37f39e	-0.011227516
123	0xbd2de673	-0.0424561
124	0xbdec05cd	-0.11524544
125	0xbd9e1404	-0.077186614
126	0xbda611e2	-0.081088796
127	0xbd97cd0d	-0.07412157
128	0x3e0b1b00	0.13584518
129	0xbe09a8ed	-0.13443346
130	0x3deea85f	0.11653208
131	0xbdbbc69e	-0.091687426
132	0xbe122481	-0.14271738
133	0x3d81ae83	0.063321136
134	0xbdd1cebe	-0.10244511
135	0xbd54c901	-0.051949505
136	0x3d578f3e	0.05262684
137	0xbd886d10	-0.06661427
138	0x3d03fc27	0.032222893
139	0x3dc47ab6	0.09593718
140	0xbbafedff	-0.0053689475
141	0xbd877b39	-0.066153
142	0xbd983f97	-0.07434004
143	0x3cd70bac	0.026250683
144	0xbd864781	-0.06556607
145	0xbd78b911	-0.060723368
146	0x3d92d999	0.0717041
147	0x3bf21878	0.007388171
148	0x3d773c25	0.060360093
149	0x3d89dcd7	0.06731575
150	0xbe0df4d7	-0.1386293
151	0x3ca0541c	0.019571356
152	0x3c289ff1	0.010292039
153	0x3be7425b	0.0070574707
154	0xbb55dbc0	-0.0032632202
155	0xbceb22f4	-0.02870319
156	0xbdf98dae	-0.121852264
157	0x3de7d36b	0.11319622
158	0xbc6095cd	-0.01370759
159	0xbcf22dc8	-0.029562846
160	0x3df158b2	0.117844954
161	0xbd84fb1e	-0.06493209
162	0xbdaef486	-0.08542733
163	0xbcee85d6	-0.029116552
164	0xbdc1c1fb	-0.09460827
165	0xbd955d47	-0.07293182
166	0xbd4f4ca2	-0.050610192
167	0x3e02eb0f	0.1278498
168	0xbcdb382c	-0.026760183
169	0xbe02370b	-0.1271631
170	0xbccbef22	-0.0248943
171	0xbd79de26	-0.061002873
172	0xbdc88fe3	-0.09793069
173	0xbd7184f2	-0.058964677
174	0xbe028738	-0.12746894
175	0xbd791603	-0.060812008
176	0xbdf15578	-0.1178388
177	0xbd3f6603	-0.046728145
178	0xbe1152b9	-0.14191712
179	0x3c975778	0.018474326
180	0x3d024774	0.031806424
181	0xbda228cd	-0.079179384
182	0xb94f7dbe	-0.00019787901
183	0xbdd157ad	-0.10221801
184	0xbdf1af92	-0.118010655
185	0xbb33de28	-0.0027445648
186	0xbd193699	-0.037405584
187	0xbde5bafd	-0.11217306
188	0x3d9e65c8	0.07734257
189	0x3cd63e0a	0.02615263
190	0xbe1300e1	-0.14355804
191	0xbde202d9	-0.110356994
192	0x3d6597ec	0.056053087
193	0x3cd32b4a	0.025777478
194	0x3db556cc	0.08854446
195	0xbbb65596	-0.005564402
196	0x3bc9adea	0.0061547654
197	0xbd8ded98	-0.06930083
198	0xbd8d4099	-0.06897087
199	0xbdd253f3	-0.10269918
200	0x3d4c4816	0.049873434
201	0x3de6f89f	0.112778895
202	0x3d56eb0a	0.052470244
203	0xbd0d51b3	-0.034501743
204	0x3c8931ff	0.016747473
205	0xbe16364d	-0.14669152
206	0xbccfa84d	-0.025348807
207	0x3df062c5	0.11737589
208	0xbc9ec261	-0.019379796
209	0x3c01ac7c	0.007914659
210	0x3e0f4fb9	0.13995256
211	0x3ddb3b16	0.10704629
212	0xbc83809d	-0.016052539
213	0xbe0f51ca	-0.13996044
214	0x3df90344	0.12158826
215	0x3d702d9f	0.058637258
216	0xbbb0aa18	-0.0053913705
217	0x3df5c483	0.12000372
218	0x3d4c25a3	0.04984058
219	0xbc9e1e7d	-0.019301647
220	0x3dffed25	0.124964036
221	0x3ce44dfb	0.027869215
222	0x3d9fc274	0.07800761
223	0xbb1cbb1f	-0.0023915244
224	0x3d914369	0.070929356
225	0xbce3c1ab	-0.027802309
226	0x3d061804	0.032737747
227	0xbe104216	-0.1408771
228	0x3dd11686	0.10209374
229	0x3cfa2a83	0.03053785
230	0x3d9f142d	0.0776752
231	0xbda708b2	-0.081559554
232	0xbb8102d7	-0.003937106
233	0x3cf8eb8c	0.030385755
234	0xbc4e58ce	-0.012594415
235	0xbd1b9745	-0.03798606
236	0x3d782e1a	0.06059084
237	0x3ce8fb31	0.02844009
238	0xbe052c54	-0.13005191
239	0x3cc31152	0.02381197
240	0x3db175c1	0.08665038
241	0x3df04d67	0.11733513
242	0x3dbffbd4	0.09374204
243	0x3da374b9	0.079812475
244	0xbb9174ed	-0.0044389875
245	0xbdf5b2a1	-0.119969614
246	0xbdc0a86e	-0.094071254
247	0x3d105d72	0.035245366
248	0xbd4694f6	-0.048481904
249	0xbd85409d	-0.06506465
250	0xbcfcaa22	-0.030842844
251	0x3d8cf039	0.06881756
252	0xbd5220ef	-0.05130094
253	0xbd93e8b2	-0.072221175
254	0xbbd84f97	-0.0066012847
255	0x3e141098	0.14459455

module.gcn_layers.0.bnNodes.batch_norm.weight f4 [50]
0	0x3f7e573c	0.9935186
1	0x3f7c6874	0.9859688
2	0x3f7c0127	0.9843926
3	0x3f7cf06f	0.9880437
4	0x3f812edb	1.0092424
5	0x3f804f6e	1.002424
6	0x3f805579	1.0026084
7	0x3f7d7ef1	0.9902182
8	0x3f7cd88d	0.9876793
9	0x3f7d9e93	0.9907009
10	0x3f7d1e59	0.9887443
11	0x3f816fda	1.0112259
12	0x3f7f6579	0.9976421
13	0x3f80fb06	1.0076606
14	0x3f80be11	1.0058004
15	0x3f800335	1.0000979
16	0x3f80f66f	1.0075206
17	0x3f80267e	1.0011747
18	0x3f7b953a	0.98274577
19	0x3f7c9d83	0.98677844
20	0x3f7cc11a	0.9873215
21	0x3f819a8c	1.0125289
22	0x3f80253a	1.0011361
23	0x3f7cabdc	0.98699737
24	0x3f7f9db5	0.99850017
25	0x3f7e01cd	0.992215
26	0x3f81e727	1.0148667
27	0x3f7bf094	0.9841397
28	0x3f807e5e	1.0038564
29	0x3f7f3762	0.9969388
30	0x3f80c28e	1.0059373
31	0x3f7f0663	0.9961912
32	0x3f810a45	1.0081259
33	0x3f800576	1.0001667
34	0x3f802d39	1.0013801
35	0x3f80480b	1.0021986
36	0x3f8185d7	1.011897
37	0x3f7f19a7	0.9964852
38	0x3f8083a4	1.0040174
39	0x3f7ee60b	0.9956977
40	0x3f8049b7	1.0022496
41	0x3f7f20fd	0.9965971
42	0x3f7f2f96	0.99681985
43	0x3f7b5a63	0.98184794
44	0x3f7bd7e0	0.98376274
45	0x3f7e897e	0.99428546
46	0x3f7c276d	0.9849766
47	0x3f7c82dc	0.98637176
48	0x3f7b9105	0.9826816
49	0x3f7ec717	0.99522537

module.gcn_layers.0.bnNodes.batch_norm.bias f4 [50]
0	0xb98d4168	-0.00026942347
1	0xbc680746	-0.01416189
2	0xbc464952	-0.012102442
3	0xbc49fe51	-0.0123287
4	0x3c2e275e	0.010629503
5	0x3c29f06f	0.010372265
6	0x3b3f44ff	0.0029185412
7	0xbc493cd2	-0.012282567
8	0xbc6e6c3e	-0.014552174
9	0xbc0d1f89	-0.008613476
10	0xbbfb0020	-0.007659927
11	0x3c52fdaf	0.012877866
12	0x3b83046e	0.003998331
13	0x3c293661	0.010327906
14	0xba6fa0e7	-0.0009141103
15	0x3c1f66ee	0.00972913
16	0x3b5e1321	0.0033885913
17	0x3be307c7	0.0069284174
18	0xbc804a4c	-0.015660428
19	0xbc03ee32	-0.008052396
20	0x3b01281c	0.0019707745
21	0x3c788b19	0.015169882
22	0x3c02dd08	0.007987268
23	0xbbc60880	-0.0060434937
24	0xbb7ba192	-0.0038395864
25	0xbbadf45c	-0.005308671
26	0x3c5a01fd	0.013306138
27	0xbc6b54f4	-0.014363516
28	0x3bc72525	0.006077426
29	0xbbd24472	-0.0064168507
30	0x3c4a95f0	0.012364849
31	0x3c3d4288	0.011551507
32	0x3c440434	0.011963893
33	0x3bae7ee8	0.005325187
34	0xbabeb159	-0.0014548703
35	0xbb02ea66	-0.0019976138
36	0x3c62fc5a	0.013854111
37	0x3c048122	0.008087428
38	0x3c0044ff	0.00782895
39	0xbc0b6cf4	-0.008509863
40	0x3bb70908	0.0055857934
41	0xb9178e18	-0.00014453416
42	0xbbb40600	-0.0054938793
43	0xbc5e3764	-0.013563011
44	0xbc85b70e	-0.016322639
45	0xbc470077	-0.012146107
46	0xbc573b6a	-0.013136724
47	0xbc822fbb	-0.0158919
48	0xbc6950be	-0.014240442
49	0x3b4f08de	0.0031590979

module.gcn_layers.0.bnEdges.W3.weight f4 [50, 50]
0	0x3c8f81be	0.01751792
1	0x3d60e8bc	0.054909453
2	0xbcfb052c	-0.030642115
3	0x3cfb9c14	0.030714072
4	0x3c926638	0.017871007
5	0xbd692ceb	-0.056927603
6	0x3c580ae1	0.0131861875
7	0x3db36b5e	0.08760713
8	0x3d0b60ec	0.03402798
9	0x3e04440f	0.12916587
10	0x3dcdd440	0.10050249
11	0xbd02f361	-0.031970385
12	0x3c202082	0.0097733755
13	0x3d8eaa74	0.06966105
14	0xbd76b2e4	-0.060229197
15	0xbd897eb4	-0.0671362
16	0xbe1605d6	-0.14650664
17	0xbdc44b83	-0.09584715
18	0xbc93d19c	-0.018044285
19	0xbe0ab1ce	-0.1354439
20	0x3e006d0c	0.12541598
21	0xbc2dac87	-0.010600216
22	0x3d5f3a6b	0.05449907
23	0x3dc27aa3	0.09496047
24	0xbe1577cb	-0.14596479
25	0xbdb2be46	-0.08727698
26	0xbd372e18	-0.044721693
27	0x3c837bdb	0.01605027
28	0xbdd318d5	-0.10307471
29	0xbddaed75	-0.106898226
30	0xbbd45218	-0.006479513
31	0x3d27c43a	0.04095862
32	0xbdf3128b	-0.11868771
33	0x3d1d056c	0.03833525
34	0xbd78e239	-0.060762618
35	0xbc2f197d	-0.010687229
36	0x3b8d80a2	0.0043183127
37	0xbd8906ac	-0.06690726
38	0xbd0f095f	-0.034921046
39	0xbdaf4232	-0.08557548
40	0x3db788d6	0.08961646
41	0xbdc7b4b8	-0.09751266
42	0xbd78364e	-0.060598664
43	0xbdf7cb18	-0.12099284
44	0x3dcfcff1	0.101470836
45	0xbd9b87ef	-0.07594287
46	0xbdac606e	-0.0841683
47	0xbdd05790	-0.10172951
48	0x3d603663	0.054739367
49	0xbdb725d1	-0.0894276
50	0x3dfa3bda	0.12218447
51	0xbd4afecb	-0.049559396
52	0xbde4c339	-0.11170048
53	0xbdac42c4	-0.08411172
54	0xbd44dd7a	-0.04806278
55	0xbda76cad	-0.08175025
56	0x3cce37bd	0.025173062
57	0xbd9c84c7	-0.07642513
58	0x3cf2bd06	0.029631149
59	0xbd6afdb7	-0.057370868
60	0xbcf277f8	-0.029598221
61	0x3dab1522	0.0835364
62	0x3c925e1f	0.017867146
63	0x3e1d3824	0.15353447
64	0xbe04496a	-0.1291863
65	0xbd009169	-0.031388674
66	0x3e102fec	0.1408078
67	0xbde79c59	-0.11309118
68	0xbd7ce045	-0.061737318
69	0xbcdaab06	-0.026692878
70	0xbdf0531c	-0.11734602
71	0x3dea73cf	0.1144787
72	0xbdc6c250	-0.09705031
73	0x3d12f62a	0.03587929
74	0x3d6a2c71	0.05717129
75	0x3d233386	0.03984406
76	0x3e07954e	0.13240549
77	0x3d16c03a	0.036804415
78	0x3dbd4baa	0.092429474
79	0xbc3202c9	-0.010864922
80	0x3ca9a89e	0.020710286
81	0xbdab1b8a	-0.08354862
82	0xbe1bdbbc	-0.15220541
83	0x3e1ad574	0.15120488
84	0x3b77d828	0.0037818048
85	0xbdbcaa73	-0.09212198
86	0x3d3f6f94	0.04673727
87	0x3e03372c	0.12814015
88	0x3d6c484b	0.05768613
89	0x3d128ab1	0.035776798
90	0x3dced3f8	0.100990236
91	0x3e051f36	0.13000187
92	0x3e04489f	0.12918328
93	0x3ccaf187	0.024773372
94	0xbe05de04	-0.13072973
95	0xbd5ccfe5	-0.0539092
96	0x3de087b8	0.10963386
97	0x3d89f85b	0.06736823
98	0xbd6d5018	-0.05793771
99	0x3c9054d1	0.017618569
100	0xbdc23203	-0.09482195
101	0xbca74510	-0.020418674
102	0x3df90b0d	0.12160311
103	0x3cbfb192	0.023400102
104	0xbd015f9d	-0.031585325
105	0xbc2faf21	-0.010722906
106	0xbdec8183	-0.1154814
107	0x3da9bcdb	0.082879744
108	0xbe031abd	-0.12803169
109	0xbda2e1df	-0.07953238
110	0x3b083108	0.0020781178
111	0x3d5d4016	0.054016195
112	0x3d77f4f6	0.060536347
113	0xbc72bd55	-0.014815648
114	0x3de92e34	0.11385766
115	0xbe146434	-0.1449135
116	0xbddfbf73	-0.10925188
117	0xbd4c1893	-0.049828123
118	0x3dcf22f2	0.10114087
119	0x3d7b84f1	0.06140608
120	0xbe04c196	-0.12964472
121	0xbe066255	-0.13123448
122	0xbe0fd1e4	-0.1404491
123	0xbe0038e4	-0.12521702
124	0x3dc58e2a	0.09646256
125	0x3ba12ada	0.0049184384
126	0xbc9c19cb	-0.019055268
127	0x3a915410	0.0011087675
128	0xbd9e9b11	-0.0774442
129	0x3dbc62ca	0.0919853
130	0xbd29415a	-0.04132209
131	0x3de14723	0.109998964
132	0xbde8e0ad	-0.113709785
133	0xbdc6be69	-0.097042866
134	0x3dc9584a	0.09831293
135	0x3bbf5906	0.00583947
136	0xbdf99512	-0.12186636
137	0x3d04d589	0.032430205
138	0xbcb7d4db	-0.022440365
139	0xbd839593	-0.064250134
140	0x3e0fac4a	0.14030567
141	0xbde844f4	-0.11341277
142	0x3d4f0073	0.050537538
143	0xbd76ce4f	-0.060255345
144	0x3d7b0ef9	0.061293576
145	0xbdefb549	-0.11704499
146	0xbd55a7bb	-0.052161913
147	0x3cf7193d	0.030163402
148	0xbd96ce47	-0.07363563
149	0x3cd5d92f	0.026104538
150	0x3ddb1235	0.10696832
151	0xbda33c60	-0.079705
152	0x3d70386b	0.058647554
153	0x3d476855	0.048683483
154	0x3c5b1457	0.013371549
155	0xbdc6621e	-0.09686683
156	0xbd165cec	-0.03670971
157	0xbcd833b8	-0.026391849
158	0x3bc429da	0.0059864344
159	0xbdefbc10	-0.11705792
160	0x3de8b1b7	0.113620214
161	0x3d225354	0.03963025
162	0xbd059999	-0.032617185
163	0x3d887cc0	0.06664419
164	0xbc985b08	-0.018598095
165	0x3da2b355	0.07944361
166	0x3e0e5e38	0.13903129
167	0xbcedb293	-0.029015815
168	0xbd2eb694	-0.04265459
169	0x3dc6b882	0.09703161
170	0xbd07a58a	-0.033116855
171	0x3de2d40f	0.11075603
172	0x3c0b2d4a	0.0084946845
173	0xbd9b5127	-0.07583838
174	0x3e0b00d3	0.13574533
175	0xbca41514	-0.020029582
176	0x3ddd5c5e	0.10808633
177	0x3d72ec47	0.059307363
178	0xbe037bbb	-0.12840168
179	0x3cb077af	0.021541445
180	0x3de1a6ab	0.110181175
181	0x3dc36913	0.09541526
182	0x3e0cd2f4	0.13752347
183	0xbdec89ef	-0.11549746
184	0x3d8c9c00	0.06865692
185	0xbe021b77	-0.1270579
186	0xbe0858e1	-0.13315155
187	0xbd9451e5	-0.07242183
188	0xbcfe7ed1	-0.03106633
189	0x3d522abf	0.051310297
190	0xbda85c77	-0.08220761
191	0xbd26fce8	-0.040768534
192	0xbdef1c27	-0.116752915
193	0x3d5af25a	0.05345378
194	0x3b133db4	0.0022467198
195	0x3c0ddcd6	0.008658608
196	0x3d33b71f	0.04387581
197	0xbabe2368	-0.0014506401
198	0x3da6a8a8	0.081376374
199	0xbda52ce8	-0.08065206
200	0x3d18958c	0.037251994
201	0x3e04f557	0.12984215
202	0x3d6ddcb3	0.058071803
203	0x3c119512	0.008885639
204	0xbdce5cc7	-0.100762896
205	0x3e0ebda8	0.13939536
206	0xbdf3349f	-0.11875271
207	0x3e1dff9a	0.15429536
208	0x3d1d9fd0	0.038482487
209	0x3e065054	0.1311658
210	0x3d9cb168	0.07651025
211	0x3db806be	0.08985661
212	0xbe0963fa	-0.13417044
213	0xbdab9400	-0.08377838
214	0xbd6f220c	-0.05838208
215	0x3d49ff80	0.04931593
216	0xbd5b229d	-0.053499807
217	0xbcce86c4	-0.025210746
218	0xbe1c05f6	-0.15236649
219	0x3d697493	0.05699594
220	0xbd97b8ac	-0.0740827
221	0x3d90c6bf	0.07069158
222	0xbd9a3995	-0.07530514
223	0x3e18b0b2	0.14911154
224	0xbbc7c259	-0.006096166
225	0x3c802f2f	0.015647499
226	0x3cce036d	0.025148118
227	0xbe052507	-0.13002406
228	0xbc04cb26	-0.008105075
229	0x3da9fc0d	0.08300028
230	0xbc9ed343	-0.019387847
231	0x3c3b53c6	0.011433547
232	0x3dceef46	0.101042315
233	0x3e005d4e	0.12535593
234	0xbe093d7d	-0.13402362
235	0x3da37947	0.07982116
236	0x3d0157b8	0.031577796
237	0x3d1e24ba	0.038609244
238	0xbd3fd1ff	-0.046831127
239	0xbd9f62cc	-0.07782516
240	0xbdbc751b	-0.092020236
241	0xbcb6f9a3	-0.022335833
242	0x3c9dff03	0.019286638
243	0xbd8614e0	-0.0654695
244	0x3d9246f1	0.07142437
245	0x3e09969a	0.13436356
246	0x3d351719	0.04421148
247	0x3dbd68bd	0.09248493
248	0x3dc743ac	0.09729704
249	0xbd484247	-0.048891332
250	0x3df39f5e	0.11895631
251	0xbdb64dd4	-0.08901563
252	0xbdef10bc	-0.11673114
253	0xbb03039a	-0.001999116
254	0xbd62c192	-0.055360384
255	0x3d1d61a5	0.0384232

module.gcn_layers.0.bnEdges.W4.weight f4 [50, 50]
0	0xbce35d4d	-0.02775445
1	0x3dd6fe83	0.10497763
2	0x3dd70e85	0.10500816
3	0x3c5e2e9b	0.013560916
4	0x3d89a57e	0.06721018
5	0x3d5a544d	0.05330305
6	0x3d9abadc	0.07555172
7	0x3d21d89d	0.03951322
8	0xbddd9dec	-0.10821137
9	0xbc0c9def	-0.008582576
10	0xbdd3d01d	-0.10342429
11	0x3daee65e	0.08540033
12	0x3d1180d8	0.035523266
13	0xbd8f2569	-0.06989557
14	0x3de4efc4	0.11178544
15	0xbd9bd680	-0.07609272
16	0xbdc18731	-0.09449614
17	0xbe013f79	-0.12621869
18	0xbd365f19	-0.044524286
19	0x3ca9609c	0.02067595
20	0x3e144dad	0.14482756
21	0x3c73a197	0.014870069
22	0xbd77d420	-0.060505033
23	0x3daa7978	0.083239496
24	0x3df7f624	0.121074945
25	0x3db09028	0.086212456
26	0xbd4ed9e3	-0.05050076
27	0x3dc8d633	0.0980648
28	0xbd2bb530	-0.04192084
29	0xbca924e6	-0.020647477
30	0x3b37aeb5	0.0028027717
31	0xbd6f5f11	-0.05844027
32	0xbe0038dd	-0.12521692
33	0xbde25b5d	-0.110525824
34	0xbdf3e3db	-0.11908694
35	0x3dc6fe8d	0.097165205
36	0x3d304784	0.043036953
37	0x3d27bc5a	0.04095111
38	0xbd9531e8	-0.072849095
39	0xbdba6830	-0.091019034
40	0xbdf0b5a0	-0.11753392
41	0x3d5adcad	0.05343311
42	0xbd135a52	-0.035974808
43	0x3d88d992	0.06682123
44	0x3d876975	0.06611911
45	0xbdd9e536	-0.10639422
46	0x3cbba1a3	0.022904223
47	0x3e0bb017	0.13641392
48	0xb9e046d6	-0.00042777386
49	0xbd8495e0	-0.06473899
50	0x3d96f579	0.07371039
51	0x3e0d69a8	0.13809836
52	0xbdd2e005	-0.102966346
53	0x3d861f52	0.065489426
54	0xbd0a2864	-0.033729926
55	0x3cde1fd4	0.027114786
56	0x3dd5ee7d	0.10445879
57	0x3dd1f6dd	0.102521636
58	0xbe050086	-0.12988481
59	0xbba839e0	-0.0051338524
60	0x3dc15035	0.094391264
61	0x3dff565e	0.12467645
62	0x3d90e481	0.07074834
63	0x3d10dfc5	0.035369653
64	0x3c9ae2ca	0.01890697
65	0xbe039a3b	-0.12851803
66	0x3d6b2551	0.057408635
67	0xbda8b932	-0.08238448
68	0x3cd6ce4e	0.02622142
69	0x3e04f99c	0.12985843
70	0x3d2933d5	0.041309197
71	0xbd304293	-0.04303224
72	0xbbfa1e67	-0.007633019
73	0xbcf63889	-0.030056255
74	0x3dbbb24a	0.09164865
75	0xbce75e7a	-0.028243292
76	0x3d2d82af	0.042360958
77	0x3b8be98a	0.0042697834
78	0x3e03e7fa	0.12881461
79	0xbd44b13b	-0.048020583
80	0xbdacf206	-0.084446
81	0xbd3bd447	-0.04585674
82	0x3d3802fb	0.044924717
83	0xbe0e9eff	-0.1392784
84	0xbdde217f	-0.108462326
85	0x3cbf3da1	0.023344817
86	0xbda86d47	-0.08223968
87	0xbd87f455	-0.066383995
88	0x3d1f17d6	0.03884109
89	0x3db79d97	0.08965605
90	0x3d991f7d	0.07476709
91	0xbde6e144	-0.11273435
92	0x3dcf2f86	0.10116486
93	0xbda37fcd	-0.079833604
94	0x3e079b74	0.13242894
95	0x3de7979f	0.11308216
96	0xbc84c8c9	-0.016209023
97	0x3d1b8e31	0.0379774
98	0x3ce1405a	0.027496506
99	0xbd242bd0	-0.040080845
100	0xbb975e57	-0.0046194005
101	0xbdb02896	-0.08601491
102	0x3d4176d3	0.04723246
103	0x3d863ccf	0.06554567
104	0xbd917e4f	-0.071041696
105	0xbd3b9a9a	-0.045801736
106	0xbcbd52cb	-0.023110768
107	0xbda8ae37	-0.08236354
108	0xbdd138f6	-0.102159426
109	0x3d99a4f5	0.07502166
110	0xbd462bd1	-0.04838163
111	0xbd96f930	-0.073717475
112	0x3dfd8ecf	0.12380754
113	0xbd89f1f9	-0.06735606
114	0x3e0adb87	0.13560306
115	0xbddfe5c2	-0.10932495
116	0x3d94eb88	0.072714865
117	0x3d9ce924	0.076616555
118	0x3e0d3782	0.13790706
119	0xbe056f8c	-0.13030833
120	0x3db81086	0.089875266
121	0xbde63196	-0.112399265
122	0xbd34c6ee	-0.044135027
123	0xbdded799	-0.10880966
124	0x3c73e2ae	0.014885588
125	0x3c50e948	0.012750931
126	0x3d228b65	0.03968372
127	0x3cccb669	0.024989324
128	0x3d2b2dc4	0.041791692
129	0xbd2483bc	-0.040164694
130	0x3dc2aaa8	0.09505206
131	0xbb802111	-0.003910192
132	0xbdeb708e	-0.114960775
133	0x3e09b782	0.13448909
134	0x3dbaaf4c	0.091154665
135	0xbc8e0284	-0.017335184
136	0x3d8f7e0f	0.07006466
137	0xbd27e26b	-0.040987413
138	0x3ddb06d8	0.10694665
139	0xbdfd64c9	-0.12372739
140	0xbdfb814a	-0.12280519
141	0xbd90c81b	-0.07069417
142	0xbdd5b610	-0.10435116
143	0x3dbb3af9	0.091421075
144	0x3ac8d0e5	0.0015321044
145	0xbd7402de	-0.059573047
146	0xbd8a1e13	-0.067440175
147	0xbded01c0	-0.115725994
148	0x3bb66187	0.0055658254
149	0xbe0539fb	-0.13010399
150	0xbdf38bab	-0.11891874
151	0x3d0d654a	0.034520425
152	0x3b9b1dcf	0.004733778
153	0x3dacb6ea	0.084333256
154	0x3c0f3a92	0.008741992
155	0xbde458db	-0.1114976
156	0x3daf903a	0.08572431
157	0x3dd24c3e	0.10268448
158	0x3d102d45	0.035199422
159	0x3c94f505	0.01818324
160	0x3d0e0831	0.03467578
161	0x3ce8124b	0.028329035
162	0xbd980c65	-0.07424239
163	0xbd8026e2	-0.06257416
164	0x3cfc2bf0	0.03078267
165	0x3e100f56	0.1406835
166	0x3b3a357a	0.0028413222
167	0x3bd0733b	0.006361393
168	0xbdbe0a54	-0.09279314
169	0xbd6ee0a2	-0.058319695
170	0x3d333e38	0.04376051
171	0x3c3e0468	0.01159773
172	0x3e06f485	0.13179214
173	0x3d8f6cba	0.0700316
174	0xbc8b105c	-0.016975574
175	0xbd574da8	-0.052564293
176	0xbdce4829	-0.10072357
177	0x3bf3e69e	0.007443263
178	0xbc1195d9	-0.008885824
179	0x3d927b7f	0.07152461
180	0x3d544a41	0.051828627
181	0x3c199388	0.009373553
182	0x3dbc6268	0.09198457
183	0x3ce6952d	0.028147304
184	0x3d7e0a7b	0.062021714
185	0xbdd9bd71	-0.10631836
186	0xbd5304fd	-0.05151843
187	0x3db48aca	0.088155344
188	0x3daef599	0.08542938
189	0x3daa324d	0.08310375
190	0x3d51bbbd	0.05120443
191	0x3a39f884	0.00070942217
192	0xbe1279ef	-0.14304326
193	0xbda8fc3a	-0.082512334
194	0x3dd8629a	0.10565682
195	0xbd383745	-0.044974584
196	0x3dea52a6	0.11441545
197	0xbdef41cd	-0.116824724
198	0xbd50d279	-0.050981972
199	0x3c0d5e48	0.008628435
200	0xbd986134	-0.07440415
201	0x3dd7651d	0.10517333
202	0x3dcfdb65	0.10149268
203	0xbd44bbde	-0.048030727
204	0x3e11de7e	0.1424503
205	0x3da97e53	0.082760476
206	0x3ddaa3ab	0.106757484
207	0xbdd3384d	-0.10313473
208	0xbdf543c0	-0.11975813
209	0x3c936ec7	0.017997159
210	0x3c94ace2	0.018148843
211	0x3d72940c	0.05922322
212	0xbdf5e666	-0.12006836
213	0x3df33ac3	0.11876442
214	0xbb0489f3	-0.0020223826
215	0x3db7fce7	0.08983784
216	0x3d8d506c	0.06900105
217	0x3d981218	0.07425326
218	0xbd5e290e	-0.05423837
219	0xbc246a10	-0.010035053
220	0xbdf76479	-0.120797105
221	0x39f3025e	0.00046350335
222	0xbd653936	-0.055962764
223	0xbdd529dc	-0.10408375
224	0x3d3f1b83	0.046657097
225	0xbdd1588d	-0.10221968
226	0x3daf614e	0.08563481
227	0xbdc35612	-0.09537901
228	0x3c0c7034	0.008571673
229	0x3d30a620	0.04312718
230	0x3e096823	0.13418631
231	0xbd585d78	-0.052823514
232	0xbdea9127	-0.11453467
233	0xbdb7924e	-0.08963452
234	0xbd8f50b4	-0.06997815
235	0xbd86c2b9	-0.06580109
236	0xbdd6161b	-0.10453435
237	0x3e157d1e	0.1459851
238	0x3be6ac50	0.007039584
239	0xbdf27055	-0.11837832
240	0x3ce69ace	0.028149989
241	0x3c4b8df7	0.012423984
242	0x3c7119f8	0.014715664
243	0x3cfd7ab6	0.030942302
244	0x3cf21139	0.029549228
245	0x3daf0605	0.0854607
246	0x3d77976a	0.060447134
247	0x3ce214cf	0.027597813
248	0x3dd3d840	0.10343981
249	0x3b8e089e	0.0043345233
250	0xbd73c338	-0.059512347
251	0xbd1c2a37	-0.038126197
252	0x3b7c68b0	0.0038514547
253	0xbd6f7158	-0.058457702
254	0x3e090c61	0.13383628
255	0x3d15e332	0.036593623

module.gcn_layers.0.bnEdges.W5.weight f4 [50, 50]
0	0x3dcabce4	0.09899309
1	0xbda5503a	-0.080719426
2	0xbca201f4	-0.019776322
3	0x3c41c592	0.01182689
4	0x3e0e4ccc	0.13896483
5	0xbd7371c3	-0.059434664
6	0xbd8f3d5f	-0.069941275
7	0x3d1c3be0	0.03814304
8	0x3cc9173b	0.02454721
9	0x3d40f115	0.047104914
10	0x3dfa556d	0.12223325
11	0xbdf2438b	-0.11829289
12	0x3bb12cd1	0.005406954
13	0xbd0f0c3a	-0.03492377
14	0xbdffb48f	-0.12485611
15	0xbcb9c26d	-0.022675717
16	0x3d2627fe	0.040565483
17	0x3d8c2e16	0.06844728
18	0x3c26afd3	0.010173756
19	0xbdd11607	-0.102092795
20	0xbd0b866f	-0.034063753
21	0x3d9ba632	0.076000586
22	0x3d5744a7	0.052555706
23	0xbdf0b018	-0.11752337
24	0x3d29492a	0.04132954
25	0xbcf2d173	-0.029640889
26	0x3cb05e83	0.021529442
27	0x3dd74c71	0.10512627
28	0xbd9ecad4	-0.0775353
29	0xbc18c675	-0.00932466
30	0x3de72032	0.11285438
31	0xbc8818cc	-0.016613387
32	0x3e1eaef4	0.15496427
33	0xbcae7385	-0.021295318
34	0x3cbb78b6	0.022884708
35	0xbcc019ac	-0.023449741
36	0x3d00c8fe	0.03144168
37	0xbd2bc18e	-0.041932635
38	0x3e0cdfa1	0.13757183
39	0x3df73abd	0.1207175
40	0x3abab106	0.0014243431
41	0xbda787b8	-0.08180183
42	0x3cf137a6	0.02944548
43	0xbc9fa5b8	-0.0194882
44	0xbdfc76bd	-0.12327335
45	0x3b440e76	0.0029915846
46	0xbdd82ee8	-0.10555822
47	0xbd260204	-0.040529266
48	0xbdf1afb2	-0.11801089
49	0x3de337f8	0.110946596
50	0x3d917e8d	0.07104216
51	0xbd834a31	-0.06410635
52	0x3d96f07d	0.07370088
53	0xbdb8ee5a	-0.09029837
54	0x3cdb770d	0.026790166
55	0xbe0578fa	-0.1303443
56	0x3d813135	0.063082136
57	0xbda6cbf1	-0.081443675
58	0xbd51d3e4	-0.051227465
59	0x3d42199b	0.0473877
60	0xbdfb57da	-0.12272616
61	0x3d848703	0.06471064
62	0xbbf7a8cf	-0.0075579653
63	0xbde35368	-0.11099893
64	0xbd0bd5d6	-0.034139477
65	0xbdd224c2	-0.10260917
66	0x3d462b1a	0.04838095
67	0x3d0981b2	0.033570953
68	0xbdcd7074	-0.10031214
69	0x3db06621	0.086132295
70	0xbd2e8418	-0.042606443
71	0x3de7938c	0.11307439
72	0xba5030e3	-0.0007941855
73	0x3c6be355	0.014397462
74	0xbd2cc31d	-0.042178262
75	0xbaab222f	-0.0013056452
76	0x39ed0ae2	0.0004521227
77	0xbcd3d06a	-0.025856216
78	0xbdb30190	-0.087405324
79	0x3c807320	0.015679896
80	0xbde6860b	-0.112560354
81	0xbd8c3d49	-0.06847627
82	0xbd1ee9f6	-0.03879734
83	0xbc55cfcc	-0.013050031
84	0xbdc83ea6	-0.09777574
85	0xbd72a4ff	-0.059239384
86	0xbbd9ec55	-0.0066504874
87	0x3c822529	0.01588686
88	0x3c8ed86c	0.017437182
89	0xbdbae1a1	-0.091250665
90	0x3dc26f80	0.09493923
91	0xbd4ff392	-0.050769396
92	0xbe01936b	-0.12653892
93	0x3d9764f7	0.073923044
94	0x3b5b0744	0.0033421079
95	0xbcbbcbc1	-0.022924306
96	0xbe118a93	-0.14213018
97	0xbd98e11b	-0.074648105
98	0x3d8b2e81	0.06795979
99	0xbd568945	-0.052377004
100	0xbdcabcb6	-0.09899275
101	0x3dab8cd8	0.08376473
102	0xbdf20886	-0.11818032
103	0x3dab4f7e	0.08364771
104	0xbd47fff7	-0.04882809
105	0x3d6fde6b	0.058561724
106	0x3c9d352b	0.019190392
107	0x3e0f0290	0.13965821
108	0x3d60cdca	0.054883756
109	0xbc34d9b6	-0.011038234
110	0x3e089e08	0.13341534
111	0xbdeeebb3	-0.1166605
112	0x3c6ae7b0	0.014337465
113	0x3d32eef3	0.04368491
114	0xbde03c6f	-0.10949027
115	0xbd976b39	-0.07393498
116	0xbd7a01b6	-0.061036788
117	0xbd9a0f5b	-0.0752246
118	0xbc68cfb7	-0.014209679
119	0xbdafbc1f	-0.08580803
120	0x3e07071d	0.13186307
121	0xbb534114	-0.0032234835
122	0x3e0e2a53	0.13883333
123	0x3d05bb34	0.032649234
124	0xbca0e906	-0.019642364
125	0x3c26cf94	0.010181326
126	0xbda0733b	-0.078344785
127	0xbdb934ec	-0.09043297
128	0x3d57b095	0.052658636
129	0xbca2981c	-0.019847922
130	0x3c7908f1	0.015199886
131	0xbc8a6caf	-0.016897528
132	0x3de57ab1	0.11205042
133	0xbe133d13	-0.14378767
134	0xbdbf569c	-0.09342691
135	0xbd9b992c	-0.075975746
136	0xbd404271	-0.046938363
137	0x3deaed95	0.114710964
138	0x3dc2ab44	0.095053226
139	0xbddc754b	-0.10764559
140	0xbd25190b	-0.040307086
141	0x3de860e4	0.113466054
142	0xbde48a30	-0.1115917
143	0x3c8940df	0.016754566
144	0x3d5d5d3b	0.05404399
145	0x3d8363bc	0.06415507
146	0x3dcb2bfe	0.099205
147	0x3dbde3b0	0.092719436
148	0x3d0b1bbf	0.033962008
149	0xbe06a09f	-0.1314721
150	0xbd877c0e	-0.066154584
151	0xbcc966ad	-0.024585092
152	0xbdd2d191	-0.10293878
153	0xbd95230f	-0.072820775
154	0x3cda96fb	0.026683321
155	0xbd556df7	-0.052106824
156	0x3cdaa47f	0.026689766
157	0x3d5078f7	0.05089661
158	0x3d9114fa	0.07084079
159	0xbde4e02f	-0.11175572
160	0x3dffe4a7	0.12494784
161	0x3d68911a	0.056779005
162	0x3c5367ac	0.012903135
163	0xbd1f55f5	-0.038900334
164	0xbd2378d1	-0.03991014
165	0x3c419793	0.011815923
166	0xbc40c51e	-0.011765746
167	0xbe07007d	-0.1318378
168	0x3cc27d77	0.023741467
169	0xbdbe3fef	-0.09289538
170	0xbdf3e48e	-0.11908828
171	0x3db2852c	0.08716807
172	0xbcc0d45a	-0.023538757
173	0xbd14e3e8	-0.03635016
174	0xbca13b07	-0.019681467
175	0xbd709308	-0.05873397
176	0x3d982bb9	0.074302144
177	0xbb8a8e17	-0.004228364
178	0xbd7c4a82	-0.061594494
179	0x3e09b1da	0.13446751
180	0x3ddc94ec	0.10770592
181	0x3ddde57c	0.10834786
182	0xbe11debf	-0.14245127
183	0x3cdf9f78	0.02729772
184	0x3c58a367	0.013222552
185	0x3e040263	0.12891535
186	0x3d2ffcbc	0.042965636
187	0x3d037941	0.03209806
188	0x3db825dd	0.08991597
189	0x3d834ca6	0.06411104
190	0xbdfab7c1	-0.122420795
191	0xbe0cce7d	-0.13750644
192	0xbd9380f0	-0.07202327
193	0xbccdbb5d	-0.025113756
194	0x3d214c63	0.03937949
195	0x3dbe7b0f	0.09300815
196	0xbdfaad92	-0.12240137
197	0xbcbf32b3	-0.023339605
198	0xbde19f20	-0.11016679
199	0x3dfc16a6	0.12309007
200	0x3d951db8	0.07281059
201	0x3dbf2d12	0.09334768
202	0xbc839402	-0.016061787
203	0xbd9a79b4	-0.07542744
204	0xbdaf4da9	-0.085597344
205	0x3c4ceb7f	0.0125073185
206	0x3c80b466	0.01571102
207	0x3c6ca929	0.014444628
208	0x3ddf8760	0.109144926
209	0xbdb02980	-0.086016655
210	0x3dbec842	0.0931554
211	0x3d4856fa	0.048911072
212	0xbdfac1d7	-0.12244003
213	0xbd5cea60	-0.053934455
214	0xbd8bdaf0	-0.068288684
215	0x3c5aead4	0.013361651
216	0x3db7f874	0.089829355
217	0x3dafb654	0.08579698
218	0xbc47f3f9	-0.012204164
219	0x3e122ebd	0.14275642
220	0x3d5a4c70	0.053295553
221	0x3d30272e	0.043006115
222	0xbe04c394	-0.12965232
223	0xbdde23f3	-0.108467005
224	0x3dbef811	0.09324659
225	0x3d781b9e	0.060573213
226	0xbd621cc1	-0.055203203
227	0xbdd90a09	-0.10597617
228	0xbbfb77f6	-0.0076742126
229	0xbe13adb6	-0.14421734
230	0x3de12141	0.10992671
231	0x3d751943	0.059838545
232	0x3cdeaf35	0.027183155
233	0xbde55bf7	-0.111991815
234	0xbd083486	-0.033253215
235	0xbda76258	-0.081730545
236	0x3da6541a	0.0812151
237	0x3e19550c	0.14973849
238	0xbbf2a328	-0.0074047036
239	0xbd4ff077	-0.050766435
240	0x3de98a4b	0.114033304
241	0xbd41b188	-0.047288448
242	0xbd66ac80	-0.056316853
243	0xbdd09cd9	-0.10186166
244	0x3d0d3549	0.034474645
245	0x3dd710e9	0.10501272
246	0x3dd90dfc	0.105983704
247	0x3d2c7594	0.04210432
248	0x3ddac9df	0.10683035
249	0xbdc82301	-0.097723015
250	0x3e02f10c	0.12787265
251	0xbd2c71e3	-0.0421008
252	0xbe05ae41	-0.13054754
253	0x3d8de2a7	0.06927996
254	0x3cdcdf36	0.026961904
255	0xbcaaee41	-0.020865561

module.gcn_layers.0.bnEdges.batch_norm.weight f4 [50]
0	0x3f80cd63	1.0062679
1	0x3f82a08e	1.0205247
2	0x3f822e23	1.017033
3	0x3f7bb68e	0.9832543
4	0x3f7e2b1c	0.9928453
5	0x3f8200d5	1.0156504
6	0x3f80f3cc	1.0074401
7	0x3f81805c	1.0117297
8	0x3f80aa82	1.0052035
9	0x3f821eb0	1.0165615
10	0x3f819487	1.0123452
11	0x3f809354	1.0044961
12	0x3f81060b	1.0079969
13	0x3f7f43c6	0.9971279
14	0x3f7dcefc	0.9914396
15	0x3f819156	1.0122478
16	0x3f7bbfe4	0.98339677
17	0x3f7e286b	0.9928042
18	0x3f7c0751	0.98448664
19	0x3f822b42	1.0169451
20	0x3f812c8a	1.0091717
21	0x3f7dd5d7	0.9915442
22	0x3f8192ef	1.0122966
23	0x3f8226b6	1.0168064
24	0x3f81ec93	1.0150322
25	0x3f7ce9d7	0.9879431
26	0x3f801645	1.0006796
27	0x3f7e8808	0.9942632
28	0x3f824e4e	1.0180147
29	0x3f7f4e20	0.99728584
30	0x3f80f9f2	1.0076277
31	0x3f802668	1.0011721
32	0x3f7e9f48	0.99461794
33	0x3f81201f	1.0087928
34	0x3f814b64	1.0101132
35	0x3f825a9c	1.0183902
36	0x3f7fbd50	0.9989824
37	0x3f81fe43	1.015572
38	0x3f813ef1	1.0097333
39	0x3f810bef	1.0081767
40	0x3f7dfedc	0.9921701
41	0x3f820ba0	1.0159798
42	0x3f7eb0bc	0.99488425
43	0x3f8211d8	1.0161695
44	0x3f81a620	1.0128822
45	0x3f817520	1.0113869
46	0x3f815548	1.0104151
47	0x3f7e6f5c	0.9938867
48	0x3f8031c2	1.0015185
49	0x3f81c09c	1.0136905

module.gcn_layers.0.bnEdges.batch_norm.bias f4 [50]
0	0x3c10a621	0.008828671
1	0x3c8d0377	0.017213566
2	0x39a70882	0.0003185906
3	0xbc880426	-0.01660354
4	0xbc212b19	-0.009836935
5	0x3c86de5a	0.016463447
6	0xbb623494	-0.0034516202
7	0xba7048ec	-0.00091661396
8	0xbbc94bbd	-0.006143062
9	0x3c1b5a21	0.009481938
10	0x3bdd0502	0.0067449817
11	0x3b9ff749	0.0048817736
12	0x3abb0113	0.0014267288
13	0x3be872f1	0.00709378
14	0xbc0a4027	-0.008438147
15	0x3c6aff58	0.014343105
16	0xbc80d314	-0.01572565
17	0xbb705d3e	-0.003667667
18	0xbc800025	-0.015625069
19	0x3c6cf144	0.014461819
20	0xbba208e1	-0.004944906
21	0xbbf6abf0	-0.0075278208
22	0x3c04cf04	0.008105997
23	0x3c8efe4c	0.017455243
24	0x3bba8c40	0.0056929886
25	0x3b6541f2	0.0034981933
26	0x3bc0af06	0.0058802394
27	0xbc60ac5d	-0.01371297
28	0x3c8d1ebf	0.017226575
29	0xbc228fda	-0.009921992
30	0x3ab94722	0.0014135579
31	0x3c0c25c6	0.008553928
32	0x3c2e1ba9	0.010626712
33	0x3c1b192b	0.00946645
34	0x3bc3da4b	0.0059769503
35	0x3c434216	0.011917612
36	0xbb58dfd4	-0.0033092396
37	0x3c781741	0.015142263
38	0x3bd0fcdb	0.006377799
39	0x3c433ce7	0.011916376
40	0xbc119288	-0.008885033
41	0x3c8673a8	0.016412571
42	0xbc497a26	-0.012297189
43	0x3c78af14	0.015178461
44	0xbb5def7c	-0.0033864668
45	0x3c2253e5	0.009907697
46	0x3c133bc6	0.008986419
47	0xbb69299b	-0.0035577777
48	0x3b3b72dc	0.0028602397
49	0x3c44e175	0.012016644
