logs/deafult/checkpoint_epoch14.tar (torch, 489841 bytes, 103 tensors)

module.NodesEncoding.A1.weight f4 [50, 2]
-0.58581644 0.378551 -0.5746296 -0.58155495 0.39000157 0.24531607 -0.37619412 -0.66960853
-0.20498715 0.19039057 0.3359235 -0.13498056 0.5087347 -0.22810346 0.13781787 -0.41971314
-0.07180298 0.45920324 -0.37846977 0.5582127 -0.6165634 0.15109245 0.48378566 0.65308523
0.6094685 0.7060837 0.19314526 0.054554023 0.33258262 -0.3688526 0.35793456 -0.46384767
-0.24919741 -0.46832275 0.64285165 0.3463373 -0.18129228 -0.31146765 0.18962802 -0.42655525
-0.1470584 0.30095527 0.5420804 -0.41220367 -0.27892932 0.509157 0.7167023 0.18025851
-0.7081335 -0.48079854 -0.13110133 0.5630981 -0.38869596 -0.47968742 -0.42037946 -0.21522552
0.105930835 0.5716393 -0.36448306 0.56615585 -0.31771606 -0.59708506 -0.62726724 0.6594753
-0.6875357 -0.012707689 0.06543083 0.08806637 0.08090524 0.53959596 -0.20979936 0.42054823
0.28988793 0.0003129268 -0.1151971 -0.32060567 -0.56407905 0.47276965 0.3771971 0.6094917
0.32405683 -0.24955228 0.36376292 0.6520673 0.659304 0.061688825 0.12090821 -0.39291355
0.33267295 -0.29470086 0.6972139 0.49918464 0.19114988 -0.13569443 -0.2906901 0.17596418
0.62395775 0.210139 0.14319156 -0.31434932
00000000: 11f8 15bf 70d1 c13e ed1a 13bf c9e0 14bf
00000010: 49ae c73e 2334 7b3e 849c c0be 776b 2bbf
00000020: 27e8 51be bff5 423e 2afe ab3e 5838 0abe
00000030: 703c 023f f493 69be 2120 0d3e a4e4 d6be
00000040: 710d 93bd b01c eb3e cac6 c1be 07e7 0e3f
00000050: 19d7 1dbf fbb7 1a3e c1b2 f73e 9830 273f
00000060: 2106 1c3f e7c1 343f dfc7 453e 0a74 5f3d
00000070: 4548 aa3e 3fda bcbe 3343 b73e 717d edbe
00000080: 9b2d 7fbe 00c8 efbe ed91 243f 1f53 b13e
00000090: afa4 39be b078 9fbe d92d 423e 7365 dabe
000000a0: 7a96 16be cf16 9a3e c8c5 0a3f 5c0c d3be
000000b0: d3cf 8ebe 1d58 023f cd79 373f b095 383e
000000c0: 3d48 35bf 3a2b f6be 6d3f 06be 3227 103f
000000d0: 2803 c7be 9799 f5be fa3b d7be 1464 5cbe
000000e0: 44f2 d83d f456 123f 869d babe 97ef 103f
000000f0: aeab a2be 91da 18bf 9694 20bf 60d3 283f
00000100: 5702 30bf e933 50bc 9900 863d 245c b43d
00000110: a5b1 a53d f622 0a3f a5d5 56be 1952 d73e
00000120: 316c 943e 5310 a439 75ec ebbd 6d26 a4be
00000130: 7c67 10bf dd0e f23e fa1f c13e a607 1c3f
00000140: c7ea a53e a28a 7fbe 223f ba3e e2ed 263f
00000150: 26c8 283f 6cad 7c3d b99e f73d f72b c9be
00000160: 1c54 aa3e 08e3 96be 9c7c 323f 2195 ff3e
00000170: cbbc 433e 7bf3 0abe 55d5 94be f42f 343e
00000180: b2bb 1f3f ae2e 573e cfa0 123e 65f2 a0be

module.NodesEncoding.A1.bias f4 [50]
0.25578883 0.561897 0.64565325 0.24673684 -0.100463964 0.3102111 0.58113706 -0.3003286
-0.18346107 -0.28402144 0.0068088165 0.46147737 0.35142344 0.7028419 -0.5459889 0.30945382
-0.33393297 0.62473303 0.08495639 -0.27919266 -0.45292118 -0.47332036 -0.24995637 -0.42094237
0.35599777 -0.24123754 -0.52900034 0.03268347 -0.12697004 0.4029341 -0.35534838 -0.12819198
-0.36778116 -0.3674558 -0.1934649 0.4545196 -0.036076095 -0.28541875 0.04124276 0.51468825
0.6204958 0.011770017 0.7008522 0.15830933 0.49785474 0.6969844 -0.4638851 0.26500604
-0.039989974 0.17571288
00000000: c1f6 823e 7bd8 0f3f 8849 253f 95a8 7c3e
00000010: 0dc0 cdbd fdd3 9e3e 66c5 143f acc4 99be
00000020: 38dd 3bbe 426b 91be 7e1c df3b c346 ec3e
00000030: c6ed b33e 72ed 333f eec5 0bbf bb70 9e3e
00000040: 43f9 aabe 81ee 1f3f 9efd ad3d 57f2 8ebe
00000050: 49e5 e7be 0c57 f2be 90f4 7fbe c285 d7be
00000060: 5745 b63e f906 77be 916c 07bf 1adf 053d
00000070: 6f04 02be 614d ce3e 39f0 b5be c244 03be
00000080: d04d bcbe 2b23 bcbe aa1b 46be cbb6 e83e
00000090: 87c4 13bd 6822 92be 2bee 283d 9cc2 033f
000000a0: d0d8 1e3f 08d7 403c 0d6b 333f d71b 223e
000000b0: d1e6 fe3e 926d 323f 5982 edbe dfae 873e
000000c0: 87cc 23bd 14ee 333e

module.EdgesEncoding.A2.weight f4 [25, 1]
0.10430626 -0.76423883 0.9261922 -0.679174 -1.0183916 -0.8546762 0.27141914 -0.083324425
0.62792665 -0.14550865 0.036130447 0.57606363 0.8702171 0.11038927 -0.30661872 0.84359175
0.682743 0.55946153 0.0692376 0.5009916 0.73864746 0.9379854 0.17160113 -0.38109687
0.3598554
00000000: 859e d53d 28a5 43bf ef1a 6d3f 59de 2dbf
00000010: a85a 82bf 0fcc 5abf 73f7 8a3e ffa5 aabd
00000020: cdbf 203f 3800 15be 85fd 133d e878 133f
00000030: 8cc6 5e3f c513 e23d 21fd 9cbe a1f5 573f
00000040: 3fc8 2e3f df38 0f3f 71cc 8d3d fc40 003f
00000050: 0018 3d3f d01f 703f 35b8 2f3e 211f c3be
00000060: f83e b83e

module.EdgesEncoding.A2.bias f4 [25]
-0.1381785 0.05012572 -0.9079483 -0.206184 0.59980625 0.5614484 -0.22961693 0.09083337
-0.7544549 0.12579651 -0.4365902 0.7493195 -0.1713214 -0.10107898 0.297977 0.7392244
0.74626344 -0.31822067 0.58782464 0.17280766 0.18427765 -0.32836762 0.43765038 0.17781413
0.3925542
00000000: aa7e 0dbe a150 4d3d 4d6f 68bf e621 53be
00000010: e78c 193f 15bb 0f3f b320 6bbe d906 ba3d
00000020: f523 41bf cdd0 003e c088 dfbe 67d3 3f3f
00000030: e16e 2fbe 7f02 cfbd 7190 983e cf3d 3d3f
00000040: 1f0b 3f3f d2ed a2be ad7b 163f 7ef4 303e
00000050: 48b3 3c3e cd1f a8be b613 e03e e814 363e
00000060: ddfc c83e

module.EdgesEncoding.A3.weight f4 [25, 1]
-0.4730265 0.048273947 -0.9510727 0.07401921 -0.9282352 0.23073356 -0.15738201 -0.5454693
0.86363924 -0.03769248 0.21737231 -0.037604697 0.6792401 0.43297434 0.017261071 -0.30524644
0.6769113 0.28114983 0.21791965 -0.23929176 -0.67818415 -0.021478089 0.362279 -0.44141227
0.39593476
00000000: 8830 f2be e7ba 453d 8079 73bf 6297 973d
00000010: d2a0 6dbf 6b45 6c3e c028 21be e0a3 0bbf
00000020: 7617 5d3f 6e63 1abd d996 5e3e 6207 1abd
00000030: aee2 2d3f d0ae dd3e 1767 8d3c 4349 9cbe
00000040: 0f4a 2d3f dff2 8f3e 5426 5f3e e608 75be
00000050: 7a9d 2dbf d1f2 afbc a27c b93e ca00 e2be
00000060: f6b7 ca3e

module.EdgesEncoding.A3.bias f4 [25]
0.65991414 0.69424284 -0.11355961 0.2889461 -0.27960807 -0.29432085 0.66730756 -0.79265034
0.6063008 -0.27323747 -0.9314339 0.7198689 0.9155493 -0.73157805 0.25521076 -0.530815
-0.24308841 -1.0075021 -0.2921904 0.2570597 0.99113303 0.18419307 -0.823496 -0.75882405
-0.22955249
00000000: 22f0 283f e6b9 313f f191 e8bd bef0 933e
00000010: ca28 8fbe 39b1 96be abd4 2a3f 22eb 4abf
00000020: 8736 1b3f c8e5 8bbe 7472 6ebf 5449 383f
00000030: 7061 6a3f b348 3bbf fcaa 823e 7ee3 07bf
00000040: 2bec 78be d4f5 80bf fb99 95be 549d 833e
00000050: e5ba 7d3f 1c9d 3c3e a2d0 52bf 4b42 42bf
00000060: cf0f 6bbe

module.gcn_layers.0.bnNodes.W1.weight f4 [50, 50]
0.16389832 0.005850788 -0.05251291 -0.013333212 0.133747 -0.09926798 -0.1448585 -0.15974146
0.086421564 0.12597348 0.17111795 -0.09182695 -0.015109774 -0.000101037265 0.04813208 -0.02240646
-0.14362307 -0.10918966 0.05518828 0.017792372 0.14111112 0.038481284 -0.008083295 -0.12027533
-0.0070700706 -0.036639407 0.013477012 -0.081749216 -0.058931034 -0.016801903 0.12486402 -0.050962456
-0.05796609 0.084859766 -0.037224766 -0.094479434 -0.06368103 -0.04868756 0.050921574 0.077011436
0.020918032 0.044056747 0.04535786 0.053942185 0.10698963 -0.13706154 0.019931035 -0.06512028
-0.079611816 -0.10475375 -0.007465846 -0.11687786 0.13675761 -0.052590217 -0.011182291 0.036989026
0.031065997 0.07454583 -0.11011368 -0.09787112 0.07681235 0.02915989 0.12334081 0.1359774
-0.011419723 -0.019944822 -0.093934424 -0.121587224 -0.13867523 -0.08208509 0.032293476 -0.1194548
0.055633735 0.010833241 -0.018552238 0.036939427 0.11539292 0.012161534 -0.13243261 -0.031799864
-0.09177531 0.016092256 0.09253653 0.097210035 0.07217398 -0.07106213 -0.09144521 0.11756829
-0.082414165 0.14069928 0.11684339 0.122670665 -0.033955798 -0.03780312 -0.14023875 -0.13335209
-0.067371435 0.011407551 0.13576986 -0.05185472 -0.12337315 -0.029538024 -0.019509954 0.049881294
-0.03206506 0.04910544 0.083195634 -0.09734997 -0.084988415 -0.14088967 0.045731496 -0.05974926
0.047434032 -0.062020596 0.08857868 0.107765846 0.12831245 -0.025216483 0.0060704458 -0.02435081
-0.16001144 -0.09574233 -0.122650385 0.019297522 -0.064597294 0.115223505 -0.10000055 0.13293593
-0.13034886 -0.08053468 0.06435466 -0.047269877 -0.06939726 -0.011125481 0.05041717 0.09473935
0.11721587 -0.10678793 0.027229292 -0.0009575166 -0.031855352 -0.11484315 0.04098292 0.10509239
-0.10042716 -0.06591062 -0.03647256 0.064147346 -0.09300541 -0.084924765 -0.09651441 -0.08547594
0.08550614 -0.018992208 0.025064005 -0.09766943 0.008780252 0.040360734 -0.048791382 0.14112054
0.07337716 -0.0947515 0.009143279 0.08909242 0.0466461 -0.11032132 0.07299697 0.02906118
0.13868894 -0.07958105 0.05382963 0.10095613 0.1136512 0.009952095 0.083884194 0.104628816
-0.009171707 -0.0543448 0.1292046 0.016525848 0.032908812 0.0019119667 -0.09798779 0.12052149
-0.12977889 -0.082677536 0.017897965 -0.00025910535 -0.047919966 0.09955345 -0.12332518 0.045714665
-0.09020835 0.097567245 -0.15818535 0.043859772 0.05134506 0.13879482 -0.14267085 -0.09309887
0.030040909 -0.06781256 -0.08818661 -0.12211881 -0.110127375 0.10273026 -0.0027499998 -0.14227094
-0.12180823 -0.04250847 0.016404869 -0.020397138 0.021210779 -0.05871487 -0.065854624 -0.09461535
0.09015157 -0.0057469807 -0.028160445 0.09463534 -0.03880324 -0.036011454 0.0736236 0.15573086
-0.037200805 0.036085438 -0.1295633 0.07211369 -0.05405539 0.104320206 -0.14236234 -0.061030157
-0.1232609 0.10283746 -0.018113172 -0.07116655 -0.0742268 0.03952881 -0.042482674 0.074212916
0.067414336 0.06261187 -0.05234396 0.12897241 -0.11215565 0.078650735 0.12617074 -0.07329854
0.006621575 0.08165888 -0.03507705 -0.14243302 0.09247988 0.01027644 0.01770191 0.124221414
00000000: f6d4 273e f8b7 bf3b c717 57bd 8b73 5abc
00000010: f9f4 083e 034d cbbd c955 14be 4493 23be
00000020: cafd b03d 31ff 003e 8b39 2f3e c50f bcbd
00000030: fc8e 77bc f8e3 d3b8 2526 453d c18d b7bc
00000040: ed11 13be d49e dfbd 1b0d 623d 4fc1 913c
00000050: 6f7f 103e 8d9e 1d3d cc6f 04bc ea52 f6bd
00000060: 0dac e7bb 3413 16bd afce 5c3c 226c a7bd
00000070: ab61 71bd 25a4 89bc b5b8 ff3d 02be 50bd
00000080: da6d 6dbd f5ca ad3d ff78 18bd 6f7e c1bd
00000090: 336b 82bd 9b6c 47bd 2493 503d 2cb8 9d3d
000000a0: 4b5c ab3c d974 343d 2ac9 393d 7bf2 5c3d
000000b0: 611d db3d dc59 0cbe 6946 a33c c85d 85bd
000000c0: 850b a3bd 2289 d6bd 0ea4 f4bb a95d efbd
000000d0: 300a 0c3e d768 57bd ee35 37bc ce81 173d
000000e0: 1e7e fe3c 7cab 983d 4883 e1bd a770 c8bd
000000f0: cb4f 9d3d b9e0 ee3c 1b9a fc3d a93d 0b3e
00000100: ca19 3bbc 5363 a3bc b160 c0bd b902 f9bd
00000110: e100 0ebe 3a1c a8bd 2a46 043d b8a4 f4bd
00000120: 33e0 633d e87d 313c ddfa 97bc cc4d 173d
00000130: 2053 ec3d 2c41 473c 6a9c 07be 9340 02bd
00000140: b2f4 bbbd e8d3 833c cb83 bd3d 0e16 c73d
00000150: f4cf 933d 0689 91bd a047 bbbd a5c7 f03d
00000160: c2c8 a8bd 7913 103e 964b ef3d c23a fb3d
00000170: 3c15 0bbd 72d7 1abd bf9a 0fbe 738d 08be
00000180: 09fa 89bd bde6 3a3c 4107 0b3e 9d65 54bd
00000190: 10ab fcbd baf9 f1bc 57d3 9fbc 5450 4c3d
000001a0: a756 03bd c922 493d 7962 aa3d 6c5f c7bd
000001b0: 680e aebd 6245 10be f350 3b3d a4bb 74bd
000001c0: 304a 423d 4f09 7ebd bd68 b53d 57b4 dc3d
000001d0: 5764 033e cc92 cebc 97ea c63b 5a7b c7bc
000001e0: 0ada 23be 8e14 c4bd 2030 fbbd d615 9e3c
000001f0: 964b 84bd 4dfa eb3d 17cd ccbd 5b20 083e
00000200: 2c7a 05be 5eef a4bd 60cc 833d 0f9e 41bd
00000210: 2720 8ebd a647 36bc 3c82 4e3d b406 c23d
00000220: e00e f03d a1b3 dabd f70f df3c da01 7bba
00000230: c27a 02bd e332 ebbd b5dd 273d ae3a d73d
00000240: c1ac cdbd 26fc 86bd 4064 15bd af5f 833d
00000250: 9f79 bebd 09ed adbd 59a9 c5bd 020e afbd
00000260: d81d af3d 8c95 9bbc 0753 cd3c e906 c8bd
00000270: 0cdb 0f3c 4c51 253d 79d9 47bd e781 103e
00000280: c446 963d 130d c2bd b1cd 153c 1676 b63d
00000290: fb0f 3f3d 25f0 e1bd 6f7f 953d b611 ee3c
000002a0: 7904 0e3e 64fb a2bd 757c 5c3d 16c2 ce3d
000002b0: f6c1 e83d 1d0e 233c 7acb ab3d a247 d63d
000002c0: ed44 16bc a798 5ebd 364e 043e 3761 873c
000002d0: 64cb 063d f59a fa3a d3ad c8bd f9d3 f63d
000002e0: c2e4 04be d752 a9bd c19e 923c 88d8 87b9
000002f0: ba47 44bd aee2 cb3d e991 fcbd 4d3f 3b3d
00000300: 28bf b8bd 56d1 c73d 57fb 21be 4ea6 333d
00000310: 334f 523d 3b20 0e3e 4f18 12be 9faa bebd
00000320: 5a18 f63c 50e1 8abd 2e9b b4bd 6d19 fabd
00000330: 768a e1bd 3e64 d23d 5739 34bb 79af 11be
00000340: 9876 f9bd 5d1d 2ebd 8163 863c e617 a7bc
00000350: 3ac2 ad3c 017f 70bd cade 86bd b1c5 c1bd
00000360: 63a1 b83d 2b51 bcbb bcb0 e6bc 2cd0 c13d
00000370: 25f0 1ebd bf80 13bd f8c7 963d e977 1f3e
00000380: df5f 18bd 53ce 133d 3eac 04be 58b0 933d
00000390: 2f69 5dbd d5a5 d53d 6fc7 11be c2fa 79bd
000003a0: 3670 fcbd 729c d23d 1362 94bc c5bf 91bd
000003b0: 3804 98bd f6e8 213d 5002 2ebd f1fc 973d
000003c0: 8710 8a3d a73a 803d 9f66 56bd 5811 043e
000003d0: ddb1 e5bd a313 a13d e732 013e 8c1d 96bd
000003e0: ccf9 d83b c53c a73d f4ac 0fbd f6d9 11be
000003f0: 1766 bd3d 835e 283c 9903 913c cc67 fe3d

module.gcn_layers.0.bnNodes.W2.weight f4 [50, 50]
-0.112697996 0.1010468 -0.016886113 0.12651898 -0.10734126 0.05670183 0.0043312437 -0.024893792
0.11135367 -0.028153056 -0.0017449236 -0.09553679 -0.11481308 0.15103255 -0.02850154 0.065408364
-0.01660826 -0.0953182 0.12299067 0.014379098 0.061742127 0.04903058 -0.11837241 -0.03220007
0.080828406 -0.06574213 -0.088354364 -0.1121672 -0.0021455698 0.031755917 -0.1273705 0.06350235
-0.07381515 0.04552023 -0.07360611 0.121286795 -0.08478941 0.047434412 -0.09423081 -0.009773426
0.1263755 0.0790779 -0.038277756 0.06555472 -0.033558063 -0.059127294 -0.015967548 0.099830486
0.08927466 -0.115012065 0.10645033 -0.02050292 0.14889346 -0.016660506 -0.02523923 -0.068453774
-0.028730761 -0.05197386 0.059272654 -0.067986965 -0.14196354 -0.0630426 0.12343043 0.02942568
-0.020039724 -0.018488783 0.110687524 0.09523325 -0.029231269 0.100948974 0.13506027 0.1402926
0.004808424 0.0977596 -0.06634415 0.04000941 0.09775754 -0.14458069 0.00062256807 0.11749493
-0.14058694 -0.024097353 -0.056979816 0.098392665 0.018324308 -0.13530925 -0.09523842 0.051757745
0.0010054724 0.15822037 0.02085886 0.13905075 0.068947375 -0.13161355 0.09838762 0.051063094
-0.049415335 0.035349198 -0.044856567 -0.050413944 -0.014386394 0.06657731 -0.11102145 -0.096876614
0.14973216 0.09969994 0.13092932 -0.07735644 -0.00023826383 -0.1182564 -0.111926705 0.035798807
0.013132277 -0.022180581 -0.07574221 -0.102772735 0.070504956 0.062471718 -0.03957152 0.11451114
0.023150774 0.09955724 0.008148291 -0.03730039 -0.124469236 -0.054936852 -0.09511385 -0.08128292
0.15702818 -0.11642195 0.09902411 -0.07658465 -0.145592 0.078405984 -0.080798164 -0.03188661
0.055561803 -0.08591861 0.04538436 0.1124598 -0.017440809 -0.04909167 -0.07037334 0.0045241653
-0.07909486 -0.05111542 0.059177313 0.017809087 0.06598222 0.04694996 -0.10981278 0.012420118
0.01070696 -0.0059530647 0.027556133 -0.053809185 -0.14777227 0.08273943 0.01493771 0.0025947099
0.13968135 -0.054230675 -0.07690178 -0.03478807 -0.12627734 -0.10507035 -0.06487375 0.1265859
-0.039863452 -0.15890568 0.0065586036 -0.09041075 -0.065560445 -0.06524686 -0.12862973 -0.031484086
-0.12703493 -0.044910714 -0.12095212 0.050801944 0.01756218 -0.047793712 0.01265781 -0.091469094
-0.096329555 0.029352866 -0.049122747 -0.12938315 0.10759431 0.038891748 -0.17302717 -0.09700478
0.04546161 -0.0046930355 0.058227897 -0.0039538583 -0.02332736 -0.041165214 -0.073817484 -0.1349996
0.05756493 0.11642583 0.049720995 -0.030511942 0.023471147 -0.1550437 -0.03369119 0.116185576
-0.019547282 0.0122044 0.1476313 0.10318936 -0.01986848 -0.1408581 0.115862474 0.053603694
-0.0015919138 0.117564656 0.053929232 -0.021445006 0.1276925 0.020438915 0.08142404 -0.003374605
0.07377845 -0.027379878 0.036671937 -0.13836697 0.099529564 0.034703936 0.081531376 -0.075726315
0.0014736054 0.025974778 -0.015124502 -0.035126433 0.055980034 0.03181556 -0.12318238 0.019896146
0.07937021 0.1133476 0.08909752 0.07851044 -0.011128126 -0.1228803 -0.101199165 0.043249812
-0.049452603 -0.0676004 -0.052007202 0.059052635 -0.041474085 -0.07975533 -0.026960094 0.16357721
00000000: 35ce e6bd a0f1 ce3d bf54 8abc 318e 013e
00000010: bcd5 dbbd 2e40 683d 1bed 8d3b 11ee cbbc
00000020: 650d e43d 3da1 e6bc ecb5 e4ba cba8 c3bd
00000030: 1f23 ebbd 47a8 1a3e 107c e9bc d2f4 853d
00000040: 0c0e 88bc 3036 c3bd 88e2 fb3d 4f96 6b3c
00000050: 50e5 7c3d 4ad4 483d 3c6d f2bd 38e4 03bd
00000060: 5d89 a53d cfa3 86bd 22f3 b4bd ebb7 e5bd
00000070: b09c 0cbb 7e12 023d 6a6d 02be 850d 823d
00000080: 662c 97bd 6c73 3a3d cdbe 96bd 3665 f83d
00000090: 12a6 adbd 964a 423d 15fc c0bd b820 20bc
000000a0: 9468 013e 98f3 a13d 23c9 1cbd 8e41 863d
000000b0: 2e74 09bd 762f 72bd 60ce 82bc ed73 cc3d
000000c0: a2d5 b63d 728b ebbd a102 da3d bdf5 a7bc
000000d0: 8777 183e 9d7b 88bc 80c2 cebc 7e31 8cbd
000000e0: c65c ebbc 8be2 54bd e2c7 723d c03c 8bbd
000000f0: e45e 11be 7b1c 81bd 18c9 fc3d 200e f13c
00000100: 592a a4bc ca75 97bc 24b0 e23d a609 c33d
00000110: 6a76 efbc 56be ce3d 3d4d 0a3e dda8 0f3e
00000120: fc8f 9d3b 2f36 c83d 71df 87bd e8e0 233d
00000130: 1b35 c83d f60c 14be d633 233a 2fa1 f03d
00000140: 06f6 0fbe d067 c5bc ab63 69bd 1882 c93d
00000150: dc1c 963c 828e 0abe 5c0c c3bd eeff 533d
00000160: 0eca 833a 8504 223e 33e0 aa3c 5263 0e3e
00000170: 4834 8d3d b4c5 06be 737f c93d 8927 513d
00000180: bc67 4abd 52ca 103d 85bb 37bd da7e 4ebd
00000190: e9b4 6bbc af59 883d 375f e3bd 3f67 c6bd
000001a0: 6353 193e 7b2f cc3d 5612 063e 0e6d 9ebd
000001b0: 76d6 79b9 6930 f2bd d439 e5bd c5a1 123d
000001c0: c328 573c 0db4 b5bc bb1e 9bbd 837a d2bd
000001d0: e764 903d 58e2 7f3d bf15 22bd d184 ea3d
000001e0: b1a6 bd3c abe4 cb3d 6980 053c 4bc8 18bd
000001f0: bae9 febd 7705 61bd 0dcb c2bd a977 a6bd
00000200: ffcb 203e a26e eebd 27cd ca3d 6ad8 9cbd
00000210: 1216 15be 5193 a03d 8279 a5bd 899b 02bd
00000220: c694 633d 19f6 afbd f3e4 393d 5351 e63d
00000230: 07e0 8ebc 5914 49bd e61f 90bd 733f 943b
00000240: 7cfc a1bd 675e 51bd e963 723d 5de4 913c
00000250: b021 873d 9a4e 403d 86e5 e0bd c07d 4b3c
00000260: 3f6c 2f3c ed11 c3bb 66bd e13c 0567 5cbd
00000270: 9d51 17be 4a73 a93d 4cbd 743c 020c 2a3b
00000280: a108 0f3e fc20 5ebd ae7e 9dbd ef7d 0ebd
00000290: d94e 01be 202f d7bd 87dc 84bd bc9f 013e
000002a0: dc47 23bd 2cb8 22be 8ee9 d63b 4529 b9bd
000002b0: 8e44 86bd 25a0 85bd 83b7 03be 75f5 00bd
000002c0: 7215 02be 4cf4 37bd bfb5 f7bd b315 503d
000002d0: 90de 8f3c 57c3 43bd b462 4f3c 2654 bbbd
000002e0: 6e48 c5bd 6c75 f03c ef34 49bd 047d 04be
000002f0: 685a dc3d f44c 1f3d 092e 31be 71aa c6bd
00000300: f435 3a3d 09c8 99bb 6080 6e3d 5e8f 81bb
00000310: 0519 bfbc db9c 28bd 9f2d 97bd 563d 0abe
00000320: 34c9 6b3d aa70 ee3d 3ea8 4b3d 2ef4 f9bc
00000330: 9046 c03c c7c3 1ebe c6ff 09bd b4f2 ed3d
00000340: 9f21 a0bc f7f4 473c a92c 173e f154 d33d
00000350: 39c3 a2bc 1b3d 10be 4e49 ed3d 8c8f 5b3d
00000360: c3a7 d0ba bdc5 f03d e6e4 5c3d 70ad afbc
00000370: d3c1 023e 836f a73c a6c1 a63d 7a28 5dbb
00000380: 2819 973d c44b e0bc 5035 163d 12b0 0dbe
00000390: 28d6 cb3d b725 0e3d ecf9 a63d 6616 9bbd
000003a0: fe25 c13a 0fc9 d43c c2cc 77bc bce0 0fbd
000003b0: 524b 653d 0851 023d 0b47 fcbd 3efd a23c
000003c0: d98c a23d c922 e83d c378 b63d 15ca a03d
000003d0: be52 36bc aba8 fbbd 8241 cfbd b726 313d
000003e0: d08e 4abd 1472 8abd 8105 55bd 2de1 713d
000003f0: bbe0 29bd c356 a3bd 6adb dcbc c980 273e

module.gcn_layers.0.bnNodes.batch_norm.weight f4 [50]
0.9848564 0.9751535 0.96979415 0.9475717 1.00634 0.99187046 0.9908294 0.9803584
0.9678943 0.99804026 0.9695873 1.0107096 0.98493505 0.9835695 0.9960549 1.0037038
0.9769834 1.0011722 0.9678664 0.98014414 0.97980464 1.0011934 0.9903375 0.97997135
0.96941257 0.9772122 1.0011557 0.94267493 0.99848855 0.9709558 1.0054871 0.9936884
0.995468 0.9873367 0.9966215 0.9838375 0.9962086 0.97137344 0.98953635 0.9707787
1.0100287 1.0147202 0.9949926 0.9707498 0.99918866 0.9819453 0.9738594 0.983314
0.9800535 0.9581047
00000000: 8d1f 7c3f a9a3 793f 6e44 783f 0f94 723f
00000010: c0cf 803f 39eb 7d3f ffa6 7d3f c5f8 7a3f
00000020: ecc7 773f 917f 7f3f e036 783f ef5e 813f
00000030: b424 7c3f 36cb 7b3f 74fd 7e3f 5e79 803f
00000040: 961b 7a3f 6926 803f 18c6 773f baea 7a3f
00000050: 7ad4 7a3f 1b27 803f c286 7d3f 67df 7a3f
00000060: 6c2b 783f 942a 7a3f df25 803f 2553 713f
00000070: f29c 7f3f 8f90 783f cdb3 803f 5d62 7e3f
00000080: fed6 7e3f 19c2 7c3f 9622 7f3f c6dc 7b3f
00000090: 8707 7f3f eeab 783f 4152 7d3f f484 783f
000000a0: 9f48 813f 5ae2 813f d6b7 7e3f 0f83 783f
000000b0: d4ca 7f3f c460 7b3f da4e 793f 77ba 7b3f
000000c0: c9e4 7a3f 5a46 753f

module.gcn_layers.0.bnNodes.batch_norm.bias f4 [50]
0.013529424 -0.031789713 -0.02133465 -0.033447564 0.035760075 0.023229258 0.016526138 -0.009376232
-0.023405373 -0.009559842 -0.036247585 0.00939472 -0.022718215 0.006307741 0.023907883 0.015052854
0.005349733 -0.017088592 -0.015555161 -0.026746085 -0.027519254 0.0019165031 -0.023300467 -0.011785854
-0.0102604 -0.02426889 0.010840222 -0.063419625 0.017756794 -0.026331289 -0.0063379235 -0.0016026857
0.018132804 0.008297603 0.01463179 -0.023969542 -0.0050351648 0.0038197206 0.016422188 -0.013063031
0.00998657 0.028460976 0.011591149 -0.018743573 -0.01674696 -0.006750798 -0.035280228 -0.02483592
-0.022732608 -0.022849986
00000000: 84aa 5d3c ee35 02bd 01c6 aebc 5000 09bd
00000010: 2879 123d 494b be3c d361 873c c49e 19bc
00000020: a0bc bfbc e2a0 1cbc 5978 14bd 50ec 193c
00000030: 8d1b babc 2bb1 ce3b 77da c33c 3fa0 763c
00000040: d04c af3b 60fd 8bbc 13db 7ebc 9b1a dbbc
00000050: 0f70 e1bc 2c33 fb3a 9fe0 bebc 7419 41bc
00000060: 3d1b 28bc 8dcf c6bc 309b 313c 26e2 81bd
00000070: b276 913c b7b4 d7bc 5bae cfbb 3511 d2ba
00000080: 3f8b 943c abf2 073c 2dba 6f3c c65b c4bc
00000090: 06fe a4bb 4754 7a3b d387 863c 5306 56bc
000000a0: b69e 233c fe26 e93c cde8 3d3c 1f8c 99bc
000000b0: ec30 89bc cc35 ddbb 0082 10bd b374 cbbc
000000c0: bc39 babc e52f bbbc

module.gcn_layers.0.bnEdges.W3.weight f4 [50, 50]
0.022357097 0.051623087 -0.027521681 0.027324103 0.014595576 -0.060264688 0.016101586 0.08366942
0.03731533 0.124998964 0.10925967 -0.028859384 0.013121259 0.07540438 -0.06379405 -0.06378949
-0.14342944 -0.09273447 -0.01579163 -0.13188863 0.12873581 -0.007233609 0.058337122 0.0918871
-0.14298159 -0.078257844 -0.054967333 0.024938293 -0.11379065 -0.0980492 -0.0160056 0.050595198
-0.10972706 0.0298619 -0.05266507 -0.02058572 0.013809727 -0.075571544 -0.043829355 -0.085157454
0.09800181 -0.10622492 -0.06989744 -0.12928402 0.110589355 -0.067371264 -0.08449268 -0.11055785
0.06351072 -0.098042324 0.1369385 -0.06405847 -0.097239 -0.09862005 -0.06259225 -0.096294306
0.03929575 -0.089179896 0.04406828 -0.07234622 -0.014576824 0.097912125 0.032366496 0.16797787
-0.14370799 -0.016855398 0.15520744 -0.09865923 -0.0477334 -0.0122128315 -0.10296192 0.1289701
-0.08237973 0.02143314 0.07161545 0.02846627 0.14434837 0.025441866 0.10420159 -0.02222408
0.032371167 -0.09516732 -0.16361518 0.16248553 -0.006624595 -0.080532916 0.036067095 0.13946721
0.06921023 0.044503402 0.08987096 0.14139497 0.14074346 0.035852876 -0.14218257 -0.06528321
0.09898233 0.07881514 -0.06928336 0.029002765 -0.12628648 0.009202679 0.09241508 0.05311021
-0.002095756 0.01886098 -0.14415291 0.11346099 -0.15749055 -0.048871577 -0.032071963 0.024967566
0.030963553 -0.04726834 0.14391576 -0.1744783 -0.13830903 -0.07882233 0.0744581 0.03167533
-0.15907402 -0.16084237 -0.17075208 -0.09615059 0.06752442 0.003989711 -0.019412136 0.00015065132
-0.077840425 0.09095734 -0.040898103 0.109604344 -0.11451862 -0.09582609 0.09518176 0.0061873896
-0.122668445 0.033600826 -0.0216182 -0.052707646 0.13878722 -0.112333074 0.051046263 -0.058574762
0.060727857 -0.11818311 -0.057649158 0.030958451 -0.07478668 0.02709427 0.08676912 -0.060273297
0.03932935 0.06817076 0.03275977 -0.077408835 -0.055844914 -0.005531528 -0.01342109 -0.09720457
0.09312304 0.020332186 -0.052039612 0.046048112 0.0009869687 0.06000448 0.1197599 -0.048337106
-0.061021578 0.077519774 -0.05258256 0.09129159 -0.010988362 -0.05650098 0.116473876 0.016621832
0.07148617 0.09568538 -0.16574216 0.057959363 0.07287564 0.1329948 0.17379135 -0.15143812
0.10546217 -0.16449507 -0.09862016 -0.10877634 -0.067589134 0.012914002 -0.046443187 -0.07710601
-0.15343565 0.017276032 0.038510162 0.044861984 0.07331294 -0.037619628 0.117816456 -0.11667836
0.009385827 0.15551966 0.032866966 0.03470299 -0.07520149 0.16501318 -0.14345427 0.18178453
0.012936963 0.15778951 0.04518809 0.06479549 -0.1598101 -0.11313549 -0.03213259 0.023686862
-0.07857528 -0.05016674 -0.17469178 0.031103238 -0.09960894 0.044979017 -0.10201487 0.17410782
-0.03095012 0.014148637 0.026376104 -0.13153018 -0.0072116433 0.08146282 -0.01805868 0.0100111505
0.09963274 0.12698005 -0.13698378 0.08107824 0.029679019 0.040219493 -0.045429945 -0.068229884
-0.09382185 -0.020766383 0.020509688 -0.06345646 0.07019501 0.13274825 0.040058162 0.093825184
0.0956232 -0.047423422 0.10763261 -0.07804025 -0.12761909 0.008957018 -0.044373777 0.049388047
00000000: 3b26 b73c bb72 533d 2675 e1bc ccd6 df3c
00000010: 4822 6f3c 1bd8 76bd 79e7 833c df5a ab3d
00000020: f6d7 183d 75ff ff3d 89c3 df3d 846a ecbc
00000030: 8dfa 563c 9d6d 9a3d 74a6 82bd 10a4 82bd
00000040: 2bdf 12be 92eb bdbd 735d 81bc d00d 07be
00000050: 52d3 033e e907 edbb e8f2 6e3d 4e2f bc3d
00000060: c469 12be a645 a0bd 6d25 61bd 644b cc3c
00000070: 130b e9bd 05ce c8bd 2d1e 83bc e93c 4f3d
00000080: 95b8 e0bd f1a0 f43c 54b7 57bd 62a3 a8bc
00000090: 3142 623c 41c5 9abd 6986 33bd 0867 aebd
000000a0: 2cb5 c83d 738c d9bd 6426 8fbd 0863 04be
000000b0: ac7c e23d f2f9 89bd 800a adbd 276c e2bd
000000c0: e911 823d 6aca c8bd 9b39 0c3e 1631 83bd
000000d0: 3e25 c7bd 4ff9 c9bd 5e30 80bd f335 c5bd
000000e0: 95f4 203d f3a3 b6bd f180 343d 412a 94bd
000000f0: a2d3 6ebc 2786 c83d bb92 043d 6402 2c3e
00000100: 3028 13be 5514 8abc b3ee 1e3e da0d cabd
00000110: 1984 43bd 5418 48bc b3dd d2bd bd10 043e
00000120: b4b6 a8bd 8d94 af3c 1fab 923d 1832 e93c
00000130: 0fd0 133e 766b d03c a567 d53d 460f b6bc
00000140: a197 043d 15e7 c2bd bd8a 27be 9b62 263e
00000150: 2113 d9bb 71ee a4bd 17bb 133d 7ed0 0e3e
00000160: 18be 8d3d 3349 363d 440e b83d d8c9 103e
00000170: 0e1f 103e 77da 123d 4f98 11be 34b3 85bd
00000180: 3fb7 ca3d d569 a13d 6fe4 8dbd 3597 ed3c
00000190: 3e51 01be d5c6 163c 1e44 bd3d 178a 593d
000001a0: f358 09bb 5882 9a3c d29c 13be 3c5e e83d
000001b0: 3445 21be 902d 48bd e45d 03bd c888 cc3c
000001c0: 47a7 fd3c 729c 41bd a75e 133e 71aa 32be
000001d0: e2a0 0dbe 9a6d a1bd 7d7d 983d febd 013d
000001e0: 4de4 22be ddb3 24be a2d9 2ebe 9aea c4bd
000001f0: 3e4a 8a3d 1fbc 823b 3306 9fbc 28f8 1d39
00000200: cd6a 9fbd d847 ba3d c584 27bd 3e78 e03d
00000210: bd88 eabd 7840 c4bd a8ee c23d 96bf ca3b
00000220: 9839 fbbd 05a1 093d a718 b1bc f9e3 57bd
00000230: 3d1e 0e3e e20e e6bd e315 513d 17ec 6fbd
00000240: c6bd 783d fd09 f2bd 8621 6cbd 949c fd3c
00000250: c229 99bd cdf4 dd3c 02b4 b13d 22e1 76bd
00000260: d017 213d 1d9d 8b3d 1c2f 063d 8688 9ebd
00000270: a3bd 64bd d241 b5bb 22e4 5bbc 3113 c7bd
00000280: 4bb7 be3d af8f a63c 7d27 55bd f29c 3c3d
00000290: 2d5d 813a 42c7 753d ae44 f53d 21fd 45bd
000002a0: c3f1 79bd b0c2 9e3d cf60 57bd 16f7 ba3d
000002b0: 8808 34bc 926d 67bd db89 ee3d 822a 883c
000002c0: 5767 923d b2f6 c33d 50b8 29be cc66 6d3d
000002d0: d33f 953d ca2f 083e 5cf6 313e 9812 1bbe
000002e0: 8dfc d73d 6571 28be 5ef9 c9bd 21c6 debd
000002f0: 2c6c 8abd 4095 533c 363b 3ebd c1e9 9dbd
00000300: 3c1e 1dbe 7786 8d3c d5bc 1d3d 33c1 373d
00000310: 1825 963d 0a17 1abd c149 f13d 10f5 eebd
00000320: 03c7 193c 8c40 1f3e 839f 063d b924 0e3d
00000330: 3d03 9abd 37f9 283e ade5 12be b925 3a3e
00000340: 8ef5 533c 9393 213e 2617 393d 7fb3 843d
00000350: 42a5 23be 94b3 e7bd 769d 03bd f30a c23c
00000360: 14ec a0bd a47b 4dbd 67e2 32be 38cc fe3c
00000370: c6ff cbbd eb3b 383d 2ced d0bd 5249 323e
00000380: 1b8b fdbc afcf 673c b312 d83c d9af 06be
00000390: a64f ecbb fbd5 a63d ccef 93bc cf05 243c
000003a0: 400c cc3d 0f07 023e 7a45 0cbe 590c a63d
000003b0: 6a21 f33c 32bd 243d c014 3abd 1cbc 8bbd
000003c0: ac25 c0bd 431e aabc ef03 a83c 76f5 81bd
000003d0: 67c2 8f3d 28ef 073e 0714 243d 6b27 c03d
000003e0: 19d6 c33d 103f 42bd 7c6e dc3d 91d3 9fbd
000003f0: 94ae 02be 75c0 123c 47c1 35bd 1f4b 4a3d

module.gcn_layers.0.bnEdges.W4.weight f4 [50, 50]
-0.030835453 0.104324654 0.10622357 0.0114838425 0.06438759 0.056401484 0.07871322 0.038563196
-0.10560426 -0.010290701 -0.106587365 0.08657187 0.03591744 -0.06780477 0.11418789 -0.07399393
-0.097941495 -0.124676935 -0.0464427 0.020853247 0.1443043 0.017848551 -0.061779033 0.08572701
0.1198269 0.088201165 -0.05090201 0.09637915 -0.028878596 -0.022354335 -0.0011928236 -0.06085259
-0.12803617 -0.108439215 -0.10627777 0.09649659 0.045992862 0.033149414 -0.07565678 -0.08862019
-0.11458491 0.055836983 -0.03327225 0.06598576 0.06882716 -0.10530194 0.025446163 0.1330461
0.0016419168 -0.06410761 0.06351168 0.12528093 -0.08888959 0.057961505 -0.04266575 0.03837487
0.11554125 0.10441073 -0.13012126 -0.010073554 0.08230944 0.13465132 0.08260505 0.049581878
0.02495903 -0.123156965 0.05119471 -0.06821241 0.018838722 0.13283908 0.037795372 -0.033556484
-0.011536481 -0.01602026 0.07755625 -0.029514177 0.031143937 -0.0098792035 0.13002701 -0.052570503
-0.09056833 -0.05198538 0.0316709 -0.1299024 -0.107365 0.0196488 -0.068789095 -0.06894059
0.029707208 0.097291425 0.08406275 -0.105721354 0.11454426 -0.07754633 0.14138518 0.12695624
-0.006346968 0.027578184 0.041405614 -0.036710713 -0.0035127068 -0.089124955 0.05117743 0.06343076
-0.07024502 -0.04644727 -0.02350808 -0.08267571 -0.101935536 0.07535012 -0.049068853 -0.071210414
0.12671372 -0.064890325 0.13490981 -0.109702595 0.070675515 0.0805252 0.13572101 -0.13035206
0.09010571 -0.113264106 -0.043956563 -0.105840355 0.01117594 0.013129925 0.036819514 0.0210249
0.04278225 -0.039778944 0.09315771 -0.0031894324 -0.114471674 0.13671297 0.09204865 -0.017000351
0.06974856 -0.042726807 0.10778158 -0.12142552 -0.12355505 -0.06863258 -0.104350224 0.09104817
0.0006093108 -0.055787183 -0.06892359 -0.11483889 0.008806152 -0.12986645 -0.11906065 0.044339824
-0.0061316025 0.09164365 0.008415507 -0.112168364 0.08509488 0.10514374 0.032121282 0.016801493
0.03666408 0.019914253 -0.08385957 -0.0722714 0.031627327 0.14185326 0.009679657 -0.004381454
-0.085212044 -0.056204062 0.041648466 0.01187062 0.13004813 0.060447663 -0.006145829 -0.055447944
-0.09131013 0.018063921 -0.011603202 0.07014661 0.05830767 0.0085293325 0.098670356 0.019815657
0.059355453 -0.108054996 -0.05866207 0.093120135 0.08494272 0.07573193 0.051546913 -0.006400421
-0.15044418 -0.0801766 0.1063315 -0.05567927 0.1151389 -0.116711594 -0.060877457 0.010709418
-0.05914751 0.11906374 0.08696151 -0.03557818 0.15429783 0.06724 0.09115601 -0.102656975
-0.12246744 0.025094526 0.033792894 0.04608029 -0.13358124 0.10367307 -0.010932728 0.082560904
0.08098295 0.059538577 -0.041954927 -0.011939082 -0.11779621 -0.014490447 -0.051478177 -0.11925326
0.061054725 -0.103579745 0.09894319 -0.08071884 0.00013389975 0.049994912 0.14628713 -0.043687977
-0.09901451 -0.10219988 -0.077992834 -0.062575206 -0.12002487 0.15664633 0.019050764 -0.1309629
0.013393488 9.744019e-05 -0.00068396557 0.030902462 0.017749047 0.07110201 0.048206042 0.043055695
0.08847195 0.0010059447 -0.06442858 -0.033878587 -0.0033229499 -0.056617133 0.12800051 0.039912257
00000000: a29a fcbc 2aa8 d53d be8b d93d ba26 3c3c
00000010: a4dd 833d 3e05 673d 6634 a13d 71f4 1d3d
00000020: 0c47 d8bd 549a 28bc 7a4a dabd 984c b13d
00000030: 2a1e 133d 3add 8abd 57db e93d 218a 97bd
00000040: 8d95 c8bd 9f56 ffbd b33a 3ebd 6ed4 aa3c
00000050: 82c4 133e 2037 923c 030c 7dbd a591 af3d
00000060: ce67 f53d d0a2 b43d a07e 50bd 6f62 c53d
00000070: ce92 ecbc 7020 b7bc 8558 9cba 9140 79bd
00000080: ea1b 03be 6115 debd 29a8 d9bd 01a0 c53d
00000090: 0363 3c3d aec7 073d f1f1 9abd 817e b5bd
000000a0: 7eab eabd 52b5 643d 7c48 08bd 8b23 873d
000000b0: 41f5 8c3d 8ba8 d7bd 7974 d03c 3d3d 083e
000000c0: 9635 d73a da4a 83bd 6912 823d a549 003e
000000d0: bf0b b6bd 0b69 6d3d 48c2 2ebd f82e 1d3d
000000e0: e4a0 ec3d 4bd5 d53d 823e 05be 8c0b 25bc
000000f0: da91 a83d 09e2 093e d62c a93d 5e16 4b3d
00000100: e176 cc3c b839 fcbd 8bb1 513d f3b2 8bbd
00000110: aa53 9a3c f806 083e 52cf 1a3d 8672 09bd
00000120: 8203 3dbc ec3c 83bc d0d5 9e3d b7c7 f1bc
00000130: 9221 ff3c 62dc 21bc cd25 053e 2b54 57bd
00000140: e37b b9bd 9fee 54bd 58b9 013d 2205 05be
00000150: 2ee2 dbbd 85f6 a03c 4ce1 8cbd b930 8dbd
00000160: 885c f33c ba40 c73d 1729 ac3d 7084 d8bd
00000170: 2e96 ea3d 9cd0 9ebd 47c7 103e d100 023e
00000180: 3afa cfbb a5eb e13c ef98 293d f95d 16bd
00000190: 7135 66bb 2587 b6bd 6d9f 513d fce7 813d
000001a0: 9fdc 8fbd 7e3f 3ebd 0494 c0bc e251 a9bd
000001b0: 94c3 d0bd 2a51 9a3d 6cfc 48bd c4d6 91bd
000001c0: 3ec1 013e 38e5 84bd cc25 0a3e c1ab e0bd
000001d0: 53be 903d 65ea a43d 73fa 0a3e 037b 05be
000001e0: 5889 b83d 03f7 e7bd cc0b 34bd d4c2 d8bd
000001f0: 4a1b 373c e61e 573c 0fd0 163d 693c ac3c
00000200: 713c 2f3d 3fef 22bd 78c9 be3d cc05 51bb
00000210: 2070 eabd 7cfe 0b3e 0184 bc3d 5244 8bbc
00000220: 55d8 8e3d 4e02 2fbd 97bc dc3d f1ad f8bd
00000230: 6e0a fdbd 3d8f 8cbd 92b5 d5bd 7777 ba3d
00000240: 28ba 1f3a 1a81 64bd d027 8dbd a730 ebbd
00000250: ae47 103c b6fb 04be 12d6 f3bd ad9d 353d
00000260: 9ceb c8bb aaaf bb3d 32e1 093c 87b8 e5bd
00000270: 3946 ae3d 9a55 d73d 9b91 033d 49a3 893c
00000280: 132d 163d 3723 a33c 91be abbd 0703 94bd
00000290: a88b 013d fb41 113e 6d97 1e3c 4d92 8fbb
000002a0: a783 aebd 3b36 66bd 9597 2a3d fd7c 423c
000002b0: 562b 053e f897 773d f362 c9bb 621d 63bd
000002c0: ce00 bbbd cafa 933c 5b1b 3ebc 07a9 8f3d
000002d0: 06d4 6e3d 9dbe 0b3c af13 ca3d 7254 a23c
000002e0: b41e 733d f04b ddbd a447 70bd c5b5 be3d
000002f0: 73f6 ad3d 5819 9b3d db22 533d 9fba d1bb
00000300: 0a0e 1abe a133 a4bd 54c4 d93d f20f 64bd
00000310: f2cd eb3d 7d06 efbd a45a 79bd 8e76 2f3c
00000320: a944 72bd b1d7 f33d e018 b23d 6dba 11bd
00000330: 4000 1e3e 20b5 893d 01b0 ba3d d23d d2bd
00000340: 36d0 fabd 0993 cd3c 6b6a 0a3d b0be 3c3d
00000350: 85c9 08be 8c52 d43d 2f1f 33bc b115 a93d
00000360: 64da a53d b9de 733d eed8 2bbd 249c 43bc
00000370: 243f f1bd 5769 6dbc c8da 52bd 0e3b f4bd
00000380: 8514 7a3d 9e21 d4bd baa2 ca3d eb4f a5bd
00000390: 7167 0c39 77c7 4c3d 4bcc 153e 2af2 32bd
000003a0: 1fc8 cabd 2c4e d1bd b5ba 9fbd 6e27 80bd
000003b0: 99cf f5bd e567 203e 5910 9c3c 231b 06be
000003c0: 5c70 5b3c ce58 cc38 274c 33ba 2927 fd3c
000003d0: 7366 913c ee9d 913d b373 453d 2b5b 303d
000003e0: c830 b53d e7d9 833a 22f3 83bd 46c4 0abd
000003f0: d9c5 59bb 5ee7 67bd 9112 033e 097b 233d

module.gcn_layers.0.bnEdges.W5.weight f4 [50, 50]
0.11805285 -0.07491393 -0.029823968 0.015035706 0.15476826 -0.082224816 -0.09098129 0.029659953
0.031239253 0.059652463 0.14593105 -0.12130048 0.0007787241 -0.05195316 -0.13924086 -0.036043946
0.042963576 0.056486223 0.013320966 -0.11199757 -0.02354001 0.0581071 0.06394371 -0.13553807
0.050810307 -0.022199184 0.025525013 0.11771227 -0.07542136 0.0028413911 0.115286514 -0.0021516387
0.17796715 -0.024163397 0.025283983 -0.012798363 0.008446577 -0.041523967 0.15390193 0.11731427
-0.016303372 -0.08472987 0.0072367312 -0.028029194 -0.13924792 -0.0059356513 -0.12227069 -0.020225793
-0.13417642 0.10028869 0.071674645 -0.057956368 0.06592523 -0.08865755 0.025078502 -0.13188672
0.05982565 -0.07619547 -0.055100847 0.0431641 -0.11821016 0.06006923 -0.01292545 -0.118758544
-0.031191932 -0.09898008 0.049620923 0.025446832 -0.0989193 0.09118144 -0.04739386 0.11318212
-0.0057157427 0.0059409747 -0.034680102 -0.00564674 0.0056046443 -0.017453942 -0.08814133 0.011110656
-0.11123837 -0.071119 -0.03171565 -0.018073283 -0.09831687 -0.06443447 -0.013870108 0.016663989
0.016364526 -0.09301176 0.09507591 -0.052228108 -0.1341635 0.07915568 0.0047439593 -0.030387241
-0.14087306 -0.072545685 0.05967037 -0.047956407 -0.12293266 0.06565822 -0.09606684 0.070322506
-0.06826637 0.08814856 0.0473606 0.14299522 0.054820247 -0.02277328 0.1007388 -0.10136088
0.03125895 0.07062336 -0.092924416 -0.060006253 -0.0733877 -0.0519186 -0.027340285 -0.07952442
0.12399142 0.01954389 0.12931289 0.060159307 -0.041005913 0.008773502 -0.09483736 -0.11406937
0.059659094 -0.030964645 0.0027511895 -0.03372851 0.08038879 -0.12838748 -0.087073155 -0.08344661
-0.01559842 0.10463479 0.074682154 -0.09394637 -0.017889375 0.12652618 -0.08070772 0.020031864
0.07392731 0.085152894 0.120056845 0.066122204 0.06020575 -0.123924114 -0.08664041 -0.03778783
-0.08641506 -0.08065755 0.007815939 -0.028777413 0.049739085 0.061740763 0.06436527 -0.12738638
0.101574585 0.06697081 0.024887342 -0.018748185 -0.022264386 0.028637422 -0.018286802 -0.1141197
0.01625484 -0.08103057 -0.13209291 0.10725972 -0.038125772 -0.01608758 -0.035802845 -0.06615563
0.06294167 -0.02215163 -0.061256412 0.11879504 0.10095956 0.090583205 -0.16453028 0.036897406
0.013348556 0.115603045 0.06511252 0.02806971 0.07081636 0.07221967 -0.10231243 -0.13002872
-0.05023576 -0.014121669 0.0584063 0.10881768 -0.10364497 -0.046831466 -0.09050214 0.13627224
0.08144826 0.08954327 -0.0115765575 -0.079653546 -0.07693196 0.00419751 0.00722376 0.005436169
0.118225634 -0.07710661 0.10151834 0.0523675 -0.1184358 -0.06016278 -0.07710763 0.0044832095
0.08506445 0.08481589 -0.016727744 0.13374852 0.06234103 0.03431068 -0.12060572 -0.114586286
0.08770619 0.06960614 -0.05926674 -0.10484397 -0.00036527522 -0.1352251 0.105515234 0.06860978
0.035055533 -0.10807789 -0.02564583 -0.07269235 0.073214106 0.14394544 0.0013456529 -0.04690243
0.105332375 -0.043020464 -0.063856326 -0.110956 0.025690667 0.11140009 0.09741642 0.0507646
0.10152137 -0.10687389 0.12094553 -0.0392514 -0.13252412 0.073628895 0.020001449 -0.014181163
00000000: b1c5 f13d 796c 99bd 6551 f4bc 5258 763c
00000010: 927b 1e3e 7c65 a8bd 6654 babd 6ef9 f23c
00000020: 76e9 ff3c 2456 743d f36e 153e 636c f8bd
00000030: 4a23 4c3a d6cc 54bd 2895 0ebe d1a2 13bd
00000040: 93fa 2f3d 195e 673d 2e40 5a3c fb5e e5bd
00000050: fbd6 c0bc b601 6e3d ebf4 823d 7eca 0abe
00000060: 781e 503d 10db b5bc d519 d13c 2113 f13d
00000070: 8476 9abd a236 3a3b 561b ec3d 8202 0dbb
00000080: 053d 363e 51f2 c5bc 5b20 cf3c 3ab0 51bc
00000090: 8363 0a3c 0915 2abd 7898 1d3e 7742 f03d
000000a0: a68e 85bc db86 adbd 1a22 ed3b 7b9d e5bc
000000b0: 0297 0ebe da7f c2bb 0e69 fabd 90b0 a5bc
000000c0: 8b65 09be 2864 cd3d 28ca 923d a863 6dbd
000000d0: cf03 873d 1792 b5bd 6e71 cd3c 500d 07be
000000e0: be0b 753d 5f0c 9cbd 6db1 61bd d7cc 303d
000000f0: 2b18 f2bd 270b 763d 44c5 53bc ae37 f3bd
00000100: 3986 ffbc 11b6 cabd 4f3f 4b3d e075 d03c
00000110: 3496 cabd 56bd ba3d 1020 42bd 07cc e73d
00000120: 204b bbbb 82ac c23b b90c 0ebd 4a08 b9bb
00000130: 2aa7 b73b 92fb 8ebc 7183 b4bd 7809 363c
00000140: f1d0 e3bd d7a6 91bd 45e8 01bd 6c0e 94bc
00000150: 5b5a c9bd 38f6 83bd 733f 63bc eb82 883c
00000160: e60e 863c f37c bebd 29b7 c23d 24ed 55bd
00000170: 2862 09be 601c a23d 3773 9b3b aaee f8bc
00000180: 0741 10be d592 94bd eb68 743d f06d 44bd
00000190: 1ec4 fbbd d177 863d b1be c4bd 3f05 903d
000001a0: 3dcf 8bbd 3b87 b43d 30fd 413d 576d 123e
000001b0: 328b 603d 088f babc 2550 ce3d 4b96 cfbd
000001c0: 6209 003d fba2 903d 284f bebd 1ec9 75bd
000001d0: 4a4c 96bd 99a8 54bd bcf8 dfbc b3dd a2bd
000001e0: 37ef fd3d 821a a03c 996a 043e 9b69 763d
000001f0: d1f5 27bd bcbe 0f3c 173a c2bd 349d e9bd
00000200: 185d 743d 91a9 fdbc 4d4d 343b e826 0abd
00000210: e1a2 a43d 0278 03be 6953 b2bd 0ee6 aabd
00000220: 8490 7fbc c44a d63d f5f2 983d f466 c0bd
00000230: bd8c 92bc 1490 013e 174a a5bd dd19 a43c
00000240: 3467 973d a464 ae3d 5de0 f53d 146b 873d
00000250: 4e9a 763d edcb fdbd 8770 b1bd 69c7 1abd
00000260: 61fa b0bd c92f a5bd 6d0e 003c 9cbe ebbc
00000270: 36bb 4b3d e2e3 7c3d f0d1 833d 9371 02be
00000280: 5606 d03d fe27 893d 8ae0 cb3c cb95 99bc
00000290: cd63 b6bc 0799 ea3c 34ce 95bc 97b7 e9bd
000002a0: df28 853c 5bf3 a5bd 5d43 07be fcaa db3d
000002b0: c529 1cbd 1aca 83bc 01a6 12bd 9a7c 87bd
000002c0: 90e7 803d 5677 b5bc 01e8 7abd d04a f33d
000002d0: e3c3 ce3d b083 b93d a07a 28be bc21 173d
000002e0: e7b3 5a3c 4ac1 ec3d b659 853d 73f2 e53c
000002f0: 2b08 913d e8e7 933d 2e89 d1bd 4026 05be
00000300: 03c4 4dbd 935e 67bc 723b 6f3d cedb de3d
00000310: d043 d4bd 5ad2 3fbd 3059 b9bd f38a 0b3e
00000320: 58ce a63d 7662 b73d 9aab 3dbc 6621 a3bd
00000330: 818e 9dbd 448b 893b 4ab5 ec3b e421 b23b
00000340: 4820 f23d 12ea 9dbd d9e8 cf3d 4e7f 563d
00000350: 788e f2bd 3f6d 76bd 9bea 9dbd e3e7 923b
00000360: 4536 ae3d f4b3 ad3d 9f08 89bc 5ff5 083e
00000370: 4f59 7f3d 5b89 0c3d 2200 f7bd 37ac eabd
00000380: 4e9f b33d aa8d 8e3d aec1 72bd 6fb8 d6bd
00000390: 6982 bfb9 7378 0abe 5f18 d83d 4983 8c3d
000003a0: 6496 0f3d f157 ddbd 3417 d2bc badf 94bd
000003b0: 47f1 953d 6f66 133e 9e60 b03a c31c 40bd
000003c0: 80b8 d73d 3a36 30bd 1bc7 82bd e63c e3bd
000003d0: 3c75 d23c bb25 e43d 4382 c73d 8bee 4f3d
000003e0: 70ea cf3d b3e0 dabd 4ab2 f73d 13c6 20bd
000003f0: 67b4 07be bfca 963d 14da a33c 1c58 68bc

module.gcn_layers.0.bnEdges.batch_norm.weight f4 [50]
1.0078433 1.0594943 1.0272052 0.96760917 0.98753524 1.0105492 1.0248283 1.0276719
1.0217605 1.0323269 1.028334 1.0121813 1.0281187 1.0217589 0.9859156 1.0186917
0.9842963 0.97820765 1.0195043 1.0151825 1.0167623 0.9681403 1.0180051 1.0197594
1.0097821 1.0112382 0.9953198 0.97804195 1.0164219 0.97629523 1.0654211 1.0208411
0.9945262 0.9896778 1.0077665 1.0587678 0.9831678 1.0108874 1.0407975 1.0641322
0.9977045 1.0323193 1.026335 1.0220118 1.0209199 1.0183944 0.9957665 0.96253747
0.99842155 1.0390533
00000000: 0201 813f 829d 873f 767b 833f 3cb5 773f
00000010: 1ccf 7c3f ad59 813f 932d 833f c18a 833f
00000020: 0cc9 823f 4a23 843f 73a0 833f 288f 813f
00000030: 6599 833f ffc8 823f f764 7c3f 7d64 823f
00000040: d8fa 7b3f d16b 7a3f 1e7f 823f 80f1 813f
00000050: 4425 823f 0bd8 773f fe4d 823f 7a87 823f
00000060: 8a40 813f 4170 813f 47cd 7e3f f560 7a3f
00000070: 1d1a 823f 7cee 793f b85f 883f ecaa 823f
00000080: 4599 7e3f 865b 7d3f 7efe 803f b485 873f
00000090: e3b0 7b3f c264 813f da38 853f 7c35 883f
000000a0: 9069 7f3f 0a23 843f f25e 833f 48d1 823f
000000b0: 81ad 823f bf5a 823f 8eea 7e3f db68 763f
000000c0: 8e98 7f3f b3ff 843f

module.gcn_layers.0.bnEdges.batch_norm.bias f4 [50]
0.008900107 -0.0046120817 0.006951692 -0.025291521 0.00087483844 0.021002162 -0.033334058 0.041551676
-0.037445534 0.0023379761 0.04522996 0.006585184 0.0077196183 0.02890468 -0.024178974 0.028404286
-0.011439471 -0.022532674 0.014475344 0.027873639 0.0004509135 -0.024525171 0.02400569 0.03111765
0.0076804883 0.013810186 0.04059715 -0.021090655 0.007843636 0.00029339147 -0.007963403 0.02453591
0.025983721 0.0035836683 -0.028971644 0.0029734932 -0.009871214 -0.0016407593 0.026656283 0.020357504
0.018891815 0.045220055 0.02534724 0.008929667 0.028762277 0.031953115 -0.0076946304 -0.03843425
0.0067047765 0.041320343
00000000: c1d1 113c f220 97bb 05cb e33b 2a30 cfbc
00000010: 6a55 653a ba0c ac3c 4b89 08bd 1732 2a3d
00000020: 7d60 19bd bb38 193b 0d43 393d 87c8 d73b
00000030: daf4 fc3b 82c9 ec3c fc12 c6bc 1bb0 e83c
00000040: 9e6c 3bbc 7196 b8bc fe29 6d3c 4257 e43c
00000050: 9668 ec39 03e9 c8bc 95a7 c43c 71ea fe3c
00000060: 9bac fb3b 1e44 623c 3249 263d 4fc6 acbc
00000070: 9882 003c 56d2 9939 ef78 02bc 88ff c83c
00000080: d0db d43c fadb 6a3b f155 edbc f0de 423b
00000090: dfba 21bc bf0e d7ba 475e da3c c8c4 a63c
000000a0: 02c3 9a3c aa38 393d 04a5 cf3c bd4d 123c
000000b0: de9e eb3c 45e1 023d 3d23 fcbb 3b6d 1dbd
000000c0: beb3 db3b 853f 293d

module.gcn_layers.1.bnNodes.W1.weight f4 [50, 50]
-0.09225847 -0.088817336 -0.14383274 -0.14560054 0.012965371 -0.088504076 -0.079709694 -0.087245435
-0.05709877 0.11134218 0.05024742 0.10185488 0.10123662 -0.067837566 0.08864101 0.07353033
0.09571573 0.14859991 0.07040512 0.12202876 0.1106992 0.04661883 0.11641007 -0.0043778555
-0.084051214 0.021538379 -0.12790965 -0.14216408 0.08486606 0.05642708 -0.009140349 0.14549941
-0.101934016 0.0090366155 -0.09745612 0.11598006 -0.043080177 0.071866915 -0.078546785 0.00010170543
-0.06738989 -0.0012239247 -0.058545668 -0.049675096 0.106412336 -0.003682549 -0.092205495 0.06360759
-0.05627811 -0.08905322 -0.048137393 0.052638642 -0.1019148 0.13190402 -0.124520674 0.10519176
-0.12096658 -0.020632485 -0.11678281 0.051622953 0.016849741 0.006981577 -0.11346442 0.16110839
0.14428093 0.12849143 0.13043115 0.13978496 -0.03818736 0.004627703 -0.035390873 -0.1227958
0.071152985 -0.11576791 0.13139942 0.0517947 -0.021190882 -0.12006449 -0.06771583 -0.091086805
0.08858558 -0.05814176 -0.11323885 -0.009327242 0.07287857 -0.123212665 0.1459341 -0.0366332
-0.08991411 -0.026199596 -0.055364758 -0.06965009 0.06638878 0.1285876 -0.038040835 -0.08236731
-0.059422344 0.02590226 -0.11754894 0.11254021 0.086030945 -0.020730449 0.017694108 0.047405086
0.054731958 -0.11203591 -0.09087846 -0.073858224 0.08013393 -0.0125832455 0.11737069 0.0239178
0.052327298 -0.060781017 -0.023746977 0.039147258 -0.0052390303 0.14074068 0.061762594 -0.04097654
0.01986901 0.007916917 -0.061627194 -0.067382835 -0.1259095 0.05986278 -0.1315247 -0.06531128
-0.040287413 0.12978597 0.046261992 -0.014009762 -0.0672524 -0.06780663 0.03037933 0.1054848
-0.062146008 0.0023540198 -0.04585023 0.13752589 -0.046083916 0.077066086 0.102683045 0.034050982
-0.094377406 -0.13114087 -0.037109237 -0.052177686 -0.011237592 0.05242306 -0.11700216 0.023620903
-0.09051452 -0.085359104 -0.04004002 0.0085336985 0.042898253 0.056182824 -0.049443595 0.091832615
-0.061199825 0.10516046 0.030843584 0.12822774 -0.04450252 0.03975571 -0.07642804 0.091705024
-0.03543114 -0.030246057 -0.12972869 0.08837859 0.0012429563 -0.046723127 -0.04480913 -0.06988431
0.13079607 0.07040911 0.11037168 0.08865957 0.08926776 0.12336933 0.12040602 0.007958816
0.11609606 -0.02284445 0.027928172 0.07055198 -0.06665649 0.04771727 -0.0013308399 0.059129227
0.011459064 -0.0064047268 0.097975664 0.14788812 0.055113725 0.023757322 0.110217534 0.00034842384
-0.12281934 0.14352718 0.09488871 0.053670466 -0.03638774 0.053241055 0.0354248 -0.065311775
0.06271437 -0.04778404 -0.0014397858 -0.039325137 -0.002335214 -0.096885055 -0.049687345 -0.025681945
0.032185804 0.14293247 -0.1137246 0.028484134 0.11923738 0.0011305977 0.11300744 -0.14885174
0.12248068 -0.0057060337 -0.068750225 0.037094742 -0.08740638 0.03922799 0.014868652 0.016838726
-0.10126797 -0.0008873893 -0.11459273 -0.12450726 0.029132262 -0.06173878 0.12588048 0.092124
0.050935533 -0.0017422516 0.08739171 0.11730106 0.05338161 0.14011712 -0.14955883 -0.008334977
0.06200025 -0.07302475 0.043903377 -0.07338887 0.019785192 -0.13048129 -0.14079666 -0.045209393
00000000: 02f2 bcbd dde5 b5bd e448 13be 4f18 15be
00000010: b56c 543c a041 b5bd d63e a3bd bcad b2bd
00000020: 66e0 69bd 5e07 e43d 3dd0 4d3d 4b99 d03d
00000030: 2555 cf3d 6cee 8abd 6b89 b53d 1297 963d
00000040: 9c06 c43d 932a 183e 8f30 903d 37ea f93d
00000050: 43b6 e23d 63f3 3e3d 6768 ee3d 1d74 8fbb
00000060: 0b23 acbd 4171 b03c bffa 02be 7693 11be
00000070: 42ce ad3d 1520 673d 67c1 15bc ccfd 143e
00000080: c8c2 d0bd 500e 143c 1397 c7bd f486 ed3d
00000090: d774 30bd f62e 933d 23dd a0bd b04a d538
000000a0: b603 8abd 196c a0ba 95cd 6fbd 1d78 4bbd
000000b0: b6ee d93d ec56 71bb 3cd6 bcbd b244 823d
000000c0: e083 66bd 8961 b6bd b72b 45bd 9e9b 573d
000000d0: b5b8 d0bd d911 073e b204 ffbd c76e d73d
000000e0: 54bd f7bd 7505 a9bc d32b efbd 9772 533d
000000f0: 7808 8a3c b6c5 e43b 0960 e8bd 99f9 243e
00000100: 61be 133e 4293 033e be8f 053e ca23 0f3e
00000110: 596a 1cbd fda3 973b 05f6 10bd 5d7c fbbd
00000120: a8b8 913d ba17 edbd 928d 063e ae26 543d
00000130: 8098 adbc 5fe4 f5bd 99ae 8abd b88b babd
00000140: 5b6c b53d 0e26 6ebd c5e9 e7bd 4ad1 18bc
00000150: 5c41 953d ec56 fcbd c06f 153e b20c 16bd
00000160: e424 b8bd 89a0 d6bc 28c6 62bd b5a4 8ebd
00000170: d7f6 873d 78ac 033e b5d0 1bbd 31b0 a8bd
00000180: d864 73bd fa30 d43c 80bd f0bd 7b7b e63d
00000190: fe30 b03d e7d2 a9bc 3cf3 903c d62b 423d
000001a0: 9e2e 603d 1573 e5bd 7c1e babd fb42 97bd
000001b0: 421d a43d f529 4ebc 0b60 f03d 43ef c33c
000001c0: 2655 563d 84f5 78bd 0589 c2bc e058 203d
000001d0: 2cac abbb 531e 103e c6fa 7c3d 04d7 27bd
000001e0: 56c4 a23c f5b5 013c cc6c 7cbd 0300 8abd
000001f0: 6cee 00be ad32 753d 69ae 06be ecc1 85bd
00000200: 6a04 25bd 9de6 043e 377d 3d3d 3389 65bc
00000210: a0bb 89bd 34de 8abd 13de f83c 6a08 d83d
00000220: d08c 7ebd e645 1a3b 73cd 3bbd 96d3 0c3e
00000230: 7dc2 3cbd d3d4 9d3d 7d4b d23d 0b79 0b3d
00000240: f148 c1bd cb49 06be dbff 17bd 45b8 55bd
00000250: e11d 38bc 90b9 563d d49e efbd a080 c13c
00000260: ad5f b9bd c1d0 aebd 0101 24bd edd0 0b3c
00000270: 14b6 2f3d f61f 663d 5e85 4abd bd12 bc3d
00000280: abac 7abd 5e5e d73d afab fc3c 224e 033e
00000290: 4648 36bd e2d6 223d 4e86 9cbd d8cf bb3d
000002a0: 3e20 11bd 94c6 f7bc 99d7 04be d6ff b43d
000002b0: b1ea a23a c060 3fbd c789 37bd 811f 8fbd
000002c0: 68ef 053e a732 903d 8c0a e23d 2693 b53d
000002d0: 04d2 b63d 0fa9 fc3d 6e97 f63d b265 023c
000002e0: c5c3 ed3d 4924 bbbc 9fc9 e43c 8e7d 903d
000002f0: 3383 88bd 2f73 433d 946f aeba 7d31 723d
00000300: ccbe 3b3c bede d1bb 77a7 c83d fc6f 173e
00000310: eebe 613d b79e c23c bbb9 e13d a8ac b639
00000320: b588 fbbd caf8 123e 0355 c23d 90d5 5b3d
00000330: 500b 15bd 4b13 5a3d 9819 113d 2ec2 85bd
00000340: 6470 803d 33b9 43bd 32b7 bcba 6513 21bd
00000350: 640a 19bb ac6b c6bd f584 4bbd f162 d2bc
00000360: 43d5 033d e45c 123e 71e8 e8bd 8f57 e93c
00000370: ba32 f43d 9030 943a 7270 e73d 976c 18be
00000380: 27d7 fa3d aef9 babb ebcc 8cbd a8f0 173d
00000390: 1e02 b3bd 87ad 203d a69b 733c 5ef1 893c
000003a0: 9565 cfbd b09f 68ba 98af eabd aafd febd
000003b0: c8a6 ee3c cee1 7cbd d0e6 003e 82ab bc3d
000003c0: c7a1 503d 435c e4ba 6dfa b23d 8a3b f03d
000003d0: ada6 5a3d dd7a 0f3e f325 19be 6d8f 08bc
000003e0: f9f3 7d3d 008e 95bd 07d4 333d e74c 96bd
000003f0: 8e14 a23c e39c 05be 002d 10be 7c2d 39bd
