logs/deafult/checkpoint_epoch14.tar (torch, 489841 bytes, 103 tensors)

module.NodesEncoding.A1.weight f4 [50, 2]
000000 e3 43 14 bf 28 1c c0 3e 4f 50 0f bf 80 26 10 bf
       -0.57916087 0.37521482 -0.55981916 -0.56308746
000010 ce df c9 3e 66 9a 82 3e a0 f0 c2 be 5e 92 2c bf
       0.39428562 0.25508422 -0.38074207 -0.6741084
000020 d3 ee 57 be b6 ac 3b 3e 5d 92 a9 3e 9b 24 15 be
       -0.21087198 0.18327603 0.3311948 -0.14564745
000030 ff 5a 01 3f f8 a2 61 be 01 27 0e 3e b6 2c d6 be
       0.50529474 -0.22034824 0.13882066 -0.41830987
000040 e1 f6 99 bd ab 51 ec 3e f9 01 c2 be 37 b5 0c 3f
       -0.075177915 0.46156058 -0.3789213 0.5496401
000050 64 ba 21 bf e0 6d 21 3e 44 5d f8 3e 76 f7 27 3f
       -0.63175035 0.1576457 0.48508656 0.6561197
000060 45 a4 1c 3f 20 8d 32 3f 7e 1a 3f 3e 6c 9f 5b 3d
       0.61188155 0.6974659 0.1866245 0.053618833
000070 3b 27 af 3e eb df ba be 46 88 b9 3e 23 31 eb be
       0.34209618 -0.3649896 0.3623678 -0.45935926
000080 2f 9a 84 be 0c 6b f5 be f1 6c 24 3f e7 17 b0 3e
       -0.25898883 -0.47933233 0.6422873 0.34393236
000090 d7 ec 33 be dc 1c 99 be 8d 3c 3e 3e 3a b7 d4 be
       -0.17570816 -0.2990483 0.18577786 -0.4154604
0000a0 58 14 1b be e1 8a 98 3e cc 9e 0d 3f 2a 40 c8 be
       -0.1514448 0.29793456 0.5532043 -0.39111453
0000b0 48 7c 97 be 3a 99 03 3f ef 1a 39 3f 3d ee 4f 3e
       -0.29587007 0.5140568 0.7230672 0.20305724
0000c0 54 36 32 bf f1 f1 f6 be 8b 80 0d be bf 1d 11 3f
       -0.6961415 -0.48231462 -0.13818567 0.56686014
0000d0 f9 fe c4 be db 52 f3 be 28 a3 da be 09 b3 62 be
       -0.3847578 -0.4752415 -0.42702603 -0.22138609
0000e0 73 69 c7 3d bc 4a 10 3f 57 cf bf be 9c 71 10 3f
       0.0973691 0.56364036 -0.37462875 0.56423354
0000f0 28 91 a2 be bf e2 19 bf e7 d5 1f bf be 8c 29 3f
       -0.3175137 -0.6011161 -0.62435764 0.6623038
000100 de 5f 31 bf fc 02 9a bc 88 fb 6b 3d ab 5a c3 3d
       -0.69286907 -0.018800251 0.057612926 0.09538778
000110 81 9c a4 3d 15 30 0b 3f f4 ea 50 be 6b 87 d4 3e
       0.08037663 0.5437024 -0.20402128 0.41509566
000120 8f 0b 97 3e c0 9a b2 3b 2e 17 eb bd 2c 46 a9 be
       0.29501006 0.0054505765 -0.114790305 -0.3306135
000130 1d c6 10 bf 83 90 f2 3e ec 0e be 3e 8b a9 22 3f
       -0.56552297 0.4737588 0.3712076 0.6353995
000140 5a be a1 3e 47 92 72 be 33 8c ba 3e 51 6b 27 3f
       0.3159054 -0.23688613 0.3643509 0.65398127
000150 db 84 29 3f ca 20 97 3d c1 53 06 3e 72 19 c7 be
       0.66218346 0.07379301 0.13117887 -0.388866
000160 97 6f a9 3e c9 3f 9a be 31 e2 30 3f e8 ea fb 3e
       0.3309295 -0.3012679 0.6909514 0.49202657
000170 73 51 3b 3e cf a7 06 be 5f 98 9c be 6f 82 1c 3e
       0.18292789 -0.13149951 -0.30585 0.15284131
000180 34 2d 22 3f 51 50 57 3e 46 09 0f 3e 34 d2 99 be
       0.63350224 0.21026732 0.13968381 -0.30043185

module.NodesEncoding.A1.bias f4 [50]
000000 07 29 84 3e 68 73 0f 3f bf 56 25 3f ce c3 77 3e
       0.2581255 0.5603547 0.6458549 0.24195787
000010 ee 62 ce bd 1f ee 99 3e 87 f4 14 3f 52 fa 9b be
       -0.10077463 0.30064484 0.5818562 -0.30464417
000020 97 43 36 be 8f db 92 be 70 b9 91 3b b6 0d e3 3e
       -0.17799221 -0.28683135 0.0044471547 0.44346398
000030 8d 90 b6 3e e1 91 33 3f 3d 82 0d bf 9c 91 9c 3e
       0.35657158 0.7014447 -0.5527685 0.3057984
000040 74 ae ad be b2 19 20 3f 4e ab a2 3d 8f 0c 93 be
       -0.3392216 0.6253921 0.0794283 -0.2872052
000050 43 19 e3 be ed f7 ee be 73 99 78 be 9b 60 d7 be
       -0.4435521 -0.46673527 -0.24277286 -0.42065892
000060 d8 3f b4 3e f6 da 70 be d7 8e 06 bf c8 6d 0f 3d
       0.3520496 -0.23521027 -0.52561706 0.035016805
000070 de 26 0b be 49 eb ca 3e 9a b8 b1 be c7 af f7 bd
       -0.13589045 0.39632633 -0.34711152 -0.12094074
000080 34 ce ba be 31 06 c2 be 83 2b 41 be 0a 51 e6 3e
       -0.36485445 -0.3789535 -0.18864255 0.44983703
000090 b8 7d ff bc 3f 66 8f be df 54 29 3d 2a 93 03 3f
       -0.031187877 -0.28007695 0.041340705 0.5139643
0000a0 a4 4d 1d 3f 40 8b 19 3c aa be 33 3f b8 9d 20 3e
       0.61446595 0.009371579 0.70212805 0.15685165
0000b0 cb ca fd 3e df 3c 31 3f 22 28 ee be cd 66 88 3e
       0.4956878 0.69233507 -0.46514994 0.2664093
0000c0 f1 7d 2e bd dc 81 37 3e
       -0.042600576 0.17920631

module.EdgesEncoding.A2.weight f4 [25, 1]
000000 a6 f4 e2 3d d6 04 42 bf 28 63 6f 3f f6 3a 2f bf
       0.11081819 -0.7578863 0.93510675 -0.6844934
000010 04 30 83 bf 38 58 5e bf 8e e3 87 3e 6d 77 b7 bd
       -1.0249028 -0.8685336 0.26540798 -0.089583255
000020 e1 58 20 3f 15 29 1c be 3b 58 39 3d 1c e4 14 3f
       0.6263562 -0.15250047 0.04525016 0.5816057
000030 15 14 61 3f d1 dc d6 3d 51 59 a2 be d8 b6 55 3f
       0.8792127 0.10491336 -0.31708768 0.8348212
000040 d2 25 2f 3f d9 29 0e 3f 73 d1 97 3d bc f5 02 3f
       0.68417084 0.55532604 0.07412996 0.5115621
000050 7e 8a 3c 3f d0 52 71 3f 9e 48 34 3e cd ab c6 be
       0.7364882 0.94266987 0.17605826 -0.3880295
000060 c7 af b4 3e
       0.35290357

module.EdgesEncoding.A2.bias f4 [25]
000000 da ce 0c be 25 40 2a 3d b9 a3 67 bf ff 7b 57 be
       -0.13750783 0.04156508 -0.90484196 -0.21043395
000010 1a c2 18 3f 81 6a 0f 3f 39 0b 6d be 4a a4 9f 3d
       0.59671175 0.5602189 -0.23148812 0.077950075
000020 bb 28 40 bf d9 10 03 3e 98 83 e1 be 9f f1 3d 3f
       -0.7506215 0.12799396 -0.4404571 0.7419681
000030 aa 8f 31 be 3c 6c d9 bd d3 9f 98 3e 12 dd 3c 3f
       -0.1733996 -0.10616347 0.29809436 0.73774827
000040 6d db 3e 3f 9e a4 9f be 6f ed 15 3f 87 a2 3d 3e
       0.7455357 -0.3118028 0.5856542 0.1851903
000050 d6 bd 39 3e d7 26 a7 be 98 05 de 3e 45 b3 30 3e
       0.18138823 -0.3264682 0.43363643 0.17255886
000060 47 b9 c9 3e
       0.39399168

module.EdgesEncoding.A3.weight f4 [25, 1]
000000 a8 aa f1 be 9f 2f 5c 3d da 5a 72 bf f5 74 94 3d
       -0.47200513 0.053756353 -0.9466988 0.0724887
000010 b3 e6 6b bf f7 31 71 3e b5 cb 1d be bd e9 0c bf
       -0.92148894 0.23554216 -0.1540974 -0.55044156
000020 33 e8 5d 3f af 8e 06 bd 33 82 61 3e f3 2f 51 bd
       0.8668243 -0.032850917 0.22022323 -0.05107112
000030 a4 7a 2d 3f 1f 39 da 3e 14 9c d2 3b 61 a0 9e be
       0.6776526 0.42621705 0.0064272974 -0.30981734
000040 c7 89 2a 3f 8c af 8e 3e 77 e9 66 3e d9 0a 70 be
       0.6661648 0.27868307 0.22549997 -0.23441638
000050 3f ca 2e bf d9 1c a7 bc 91 7e b8 3e 92 ba e5 be
       -0.68277353 -0.020399498 0.36034063 -0.44868904
000060 81 11 cc 3e
       0.39857104

module.EdgesEncoding.A3.bias f4 [25]
000000 c5 e2 2a 3f d1 f3 32 3f b4 bf e7 bd a7 39 90 3e
       0.6675227 0.69903284 -0.11315861 0.28168985
000010 6a 83 8f be 34 84 93 be f9 1e 2b 3f 1e ee 49 bf
       -0.28029948 -0.288118 0.66844136 -0.78878963
000020 f0 43 1a 3f 0e 03 8d be 36 ec 6f bf 3e 1f 3a 3f
       0.60259914 -0.27541393 -0.93719804 0.7270392
000030 26 91 64 3f 2c ae 3a bf 23 c4 7b 3e c4 fc 07 bf
       0.8928398 -0.72922015 0.24586539 -0.53120065
000040 8f a4 79 be e1 7c 81 bf 6d 6a 96 be 4f 23 82 3e
       -0.2437918 -1.0116235 -0.2937807 0.25417563
000050 12 97 7d 3f 15 df 42 3e d2 3a 52 bf 0d 27 42 bf
       0.9905864 0.19030412 -0.82121 -0.75840837
000060 e7 99 65 be
       -0.2242199

module.gcn_layers.0.bnNodes.W1.weight f4 [50, 50]
000000 8f 2f 2b 3e c3 ba e4 39 34 55 3f bd aa 1f 9a bc
       0.16717361 0.00043626697 -0.046712115 -0.018813927
000010 c5 e3 0c 3e 8d 1a d0 bd ef f5 16 be 9a 9c 28 be
       0.13758762 -0.10161314 -0.14742254 -0.16465989
000020 31 79 bb 3d 26 88 05 3e e4 62 30 3e 7d 00 b1 bd
       0.09153975 0.13040218 0.17225224 -0.08642671
000030 a2 49 1e bc 6b aa bc 3a bb 2d 34 3d 89 5e dc bc
       -0.00966111 0.001439405 0.043988924 -0.026900547
000040 08 9c 18 be 51 52 d1 bd b4 b6 4b 3d 2b 6e 57 3c
       -0.14903271 -0.10220779 0.049734786 0.013148825
000050 13 9c 15 3e 35 a1 0e 3d 3e cd 52 bb 0f b8 ee bd
       0.14610319 0.034821708 -0.003216579 -0.116562
000060 b9 ad 46 bc d3 5c 01 bd af 8a 01 3c 9e 83 b5 bd
       -0.01212638 -0.031582665 0.0079066 -0.088629946
000070 a8 b6 5b bd 8f 6e 47 bc 6e 5c f4 3d fb c8 3f bd
       -0.05364099 -0.012172355 0.11931692 -0.04682253
000080 9d 82 79 bd bf 1d b8 3d e9 75 03 bd ba 1c b8 bd
       -0.06091558 0.089900486 -0.03209487 -0.08989854
000090 80 6c 78 bd 51 22 5d bd bf d2 60 3d 74 30 a9 3d
       -0.06065035 -0.053987805 0.054888483 0.08261195
0000a0 20 89 8c 3c e9 e8 4a 3d 9c 30 48 3d a6 c2 48 3d
       0.01715523 0.049538527 0.048874483 0.049013756
0000b0 c0 fb d2 3d f6 b1 07 be 15 b2 85 3c 40 87 7e bd
       0.10301924 -0.1325148 0.016320268 -0.062140703
0000c0 12 e9 9d bd 31 f8 df bd 01 da c3 bb dc 67 0a be
       -0.0771047 -0.10936011 -0.005976916 -0.13516182
0000d0 01 cc 14 3e 7a 11 9c bd 9d c3 15 bc 57 7f 14 3d
       0.14530946 -0.07620521 -0.009140876 0.036254253
0000e0 26 4a f7 3c 03 40 90 3d 63 33 d7 bd 00 d1 c2 bd
       0.030186724 0.07043459 -0.10507848 -0.0951252
0000f0 1c 5c 9d 3d 38 86 69 3d f0 ae 15 3e 87 3f 0d 3e
       0.07683584 0.057012767 0.14617515 0.13793765
000100 41 e4 61 bc 89 b2 b7 bc 85 33 eb bd 81 0c ed bd
       -0.01378733 -0.022424 -0.11484436 -0.115746506
000110 f4 77 25 be f8 1a b0 bd 75 51 11 3d 8f e0 f7 bd
       -0.1615904 -0.08598894 0.035478074 -0.12103378
000120 f6 33 70 3d 6b a2 52 3c 78 55 e3 bc 9a 04 2a 3d
       0.058643304 0.012856106 -0.027750716 0.041508295
000130 9a 2c b9 3d ec 77 f0 3b e1 95 fd bd a1 a4 ed bc
       0.0904171 0.0073385146 -0.12382103 -0.029009165
000140 89 8f e6 bd 33 c3 96 3c d5 5e ba 3d 65 a2 02 3e
       -0.11257846 0.018403625 0.09100119 0.12757261
000150 76 21 a5 3d 9c 90 8a bd 14 b2 b7 bd c7 80 d1 3d
       0.08063023 -0.06765863 -0.089695126 0.102296405
000160 43 f4 a4 bd 2f 0d 29 3e 45 33 ec 3d ec e4 14 3e
       -0.08054402 0.16508935 0.115332164 0.14540452
000170 16 d4 01 bd 94 a7 2b bd 8a 78 11 be f6 ae fc bd
       -0.0316964 -0.04190786 -0.14206138 -0.12338059
000180 a1 5e 8d bd 6b 7a 4a 3c 5d ac 0d 3e 79 f9 61 bd
       -0.06902815 0.012358288 0.13835283 -0.055169556
000190 bf 62 ec bd b5 f4 07 bd ae 47 8b bc d0 3b 41 3d
       -0.11542272 -0.033192355 -0.017001953 0.047176182
0001a0 ec 38 c3 bc 40 a4 2d 3d 3e bf 9a 3d da e9 d9 bd
       -0.023830853 0.04239297 0.07556008 -0.10640307
0001b0 74 56 9d bd c1 26 07 be 08 f2 4a 3d a5 11 6b bd
       -0.07682505 -0.13198377 0.049547225 -0.057389874
0001c0 d1 19 4a 3d 7b fc 79 bd 58 2c a5 3d 11 15 ca 3d
       0.049341027 -0.0610318 0.080650985 0.09867299
0001d0 3d 22 00 3e c9 3d bc bc 23 62 42 3b 47 d2 09 bd
       0.12513061 -0.02297868 0.0029660545 -0.0336478
0001e0 4c 04 1a be 30 f2 d4 bd b5 96 e7 bd 8e e5 a3 3c
       -0.15040702 -0.10397756 -0.11308042 0.020006921
0001f0 06 1a 8a bd a4 7d fe 3d 33 0f d1 bd 1c 33 06 3e
       -0.06743245 0.12426308 -0.10207977 0.13105434
000200 87 13 00 be 07 04 92 bd fa fe 7a 3d d4 36 21 bd
       -0.12507449 -0.071296744 0.06127832 -0.03935893
000210 8e 14 8b bd 59 f9 0a bc 59 4d 64 3d 34 79 d5 3d
       -0.0679103 -0.008482301 0.055737827 0.10423508
000220 54 73 ed 3d 8d b0 e2 bd 35 d8 10 3d 58 9f ea 3a
       0.11594263 -0.11068831 0.03536244 0.0017900271
000230 c7 6d 24 bd 5b 01 e5 bd 16 df 24 3d 41 78 c3 3d
       -0.040143754 -0.11181899 0.040251814 0.09544421
000240 2d 41 dd bd c5 f7 80 bd aa 82 36 bd 18 35 94 3d
       -0.10803447 -0.06297258 -0.044558205 0.07236689
000250 34 20 bc bd 4d 22 c1 bd 58 44 bd bd 44 e9 ac bd
       -0.0918583 -0.094303705 -0.09241551 -0.084429294
000260 57 58 ad 3d f8 19 93 bc ab e6 c1 3c 5b 0a d7 bd
       0.08464115 -0.017956719 0.023669561 -0.10500022
000270 fd c9 fc 3a 4f cc 30 3d 56 cd 5c bd af 45 0d 3e
       0.0019286271 0.043163594 -0.05390676 0.13796113
000280 78 c3 a1 3d 78 28 c4 bd 52 52 06 3c 09 10 b4 3d
       0.07898611 -0.09578031 0.008198338 0.08792121
000290 92 f4 4b 3d 55 06 db bd 47 cd 97 3d ff 15 e6 3c
       0.049793787 -0.10694567 0.074122004 0.02808666
0002a0 e8 45 0f 3e 69 f5 9c bd b9 1b 52 3d 2d 15 cb 3d
       0.13991511 -0.07663996 0.05129597 0.09916148
0002b0 e7 8a e2 3d c7 29 10 3c f1 ae ad 3d 84 8c d0 3d
       0.1106165 0.008799023 0.08480633 0.10183051
0002c0 fd ad 08 bc 93 39 5a bd 9d 71 02 3e ed 73 5b 3c
       -0.008342263 -0.053277563 0.12738653 0.013394338
0002d0 39 99 0b 3d 12 45 47 ba c6 d7 c3 bd 18 49 f5 3d
       0.03408167 -0.000760154 -0.0956264 0.11976832
0002e0 d9 c7 06 be c1 6c af bd e5 81 7d 3c be 6b 72 3a
       -0.13162173 -0.08565665 0.015472864 0.0009247622
0002f0 70 9c 44 bd 25 e8 c9 3d d1 1b 00 be f7 f3 36 3d
       -0.048000753 0.09858731 -0.12510611 0.044666257
000300 3f ff bb bd c8 d9 cd 3d c6 83 21 be a2 04 30 3d
       -0.09179544 0.10051304 -0.15772924 0.04297317
000310 df 99 4b 3d f3 1a 13 3e c6 58 13 be 0d 23 b8 bd
       0.04970729 0.14365749 -0.14389333 -0.089910604
000320 0c 66 27 3d 35 22 88 bd c6 91 e2 bd f7 10 05 be
       0.040868804 -0.066471495 -0.1106296 -0.12994753
000330 92 7f cb bd d6 96 bc 3d 46 3a 5d bc 3f 0c 1c be
       -0.099364415 0.09208457 -0.013502663 -0.15239047
000340 f2 4e e5 bd 1b 3c 02 bd 63 6e d0 3c d2 25 62 bc
       -0.11196698 -0.031795602 0.025443261 -0.013802962
000350 e4 b0 c8 3c a7 3d 9c bd fa 2e 9d bd d3 b3 d7 bd
       0.02449841 -0.07628947 -0.07674976 -0.105323456
000360 3f 75 a8 3d 29 24 01 bd 24 5c 13 bd c3 96 ac 3d
       0.08225488 -0.031528626 -0.035976544 0.08427193
000370 1f 94 e8 bc f0 a5 3f bd e7 91 ac 3d 81 08 0e 3e
       -0.028390942 -0.04678911 0.08426266 0.13870431
000380 74 bd 8a bc 36 49 3c 3d 8f e2 09 be 78 1e c6 3d
       -0.016936041 0.045968257 -0.13465331 0.0967378
000390 89 39 38 bd bf 80 eb 3d 5a a9 19 be 24 5a 4d bd
       -0.044976745 0.11499166 -0.15006009 -0.050134793
0003a0 e8 21 e5 bd 2a 52 e0 3d 57 d4 12 bc 26 99 78 bd
       -0.11188108 0.109531716 -0.008961759 -0.06069293
0003b0 ee 30 b0 bd c5 d9 f7 3c 20 ef 00 bd ab c4 a7 3d
       -0.086030826 0.030255208 -0.031478047 0.08191808
0003c0 6f c8 67 3d f4 40 90 3d e6 29 85 bd a3 8d f3 3d
       0.056587633 0.07043639 -0.06502132 0.118922494
0003d0 74 7a fc bd 1c 8a 7a 3d cb 11 ec 3d 57 4d 80 bd
       -0.123280436 0.061166868 0.11526831 -0.062647514
0003e0 b2 94 53 bc a1 71 91 3d eb 5e d9 bc 09 68 01 be
       -0.01291387 0.07101751 -0.026534518 -0.12637343
0003f0 b6 45 9c 3d 90 af d6 3c 81 fb 54 3c 7f 08 dd 3d
       0.07630484 0.026206762 0.012999416 0.10792636

module.gcn_layers.0.bnNodes.W2.weight f4 [50, 50]
000000 e8 f9 fb bd 0e 82 a2 3d 79 05 95 3b c6 fd dd 3d
       -0.12303525 0.07934962 0.0045477715 0.10839419
000010 66 0c ed bd 4f e5 8c 3d ad 43 87 3c 21 94 c7 bc
       -0.115746304 0.06879675 0.016511763 -0.024362626
000020 42 b9 e8 3d f4 2a 09 bd 9d df 80 bc d4 b5 98 bd
       0.1136346 -0.03348823 -0.015731627 -0.07456556
000030 97 f8 bd bd 02 09 2e 3e 2a a0 ad bc 1a 6d 93 3d
       -0.092759304 0.16995624 -0.021194536 0.07198544
000040 db b5 0c bd 0b 6b 98 bd 02 fe d5 3d 67 ce 89 3c
       -0.03435312 -0.07442292 0.10448839 0.016822053
000050 27 6b 6f 3d 89 e3 71 3d ed 42 fb bd 8a a9 55 bc
       0.058451798 0.059054885 -0.122686245 -0.01304091
000060 79 b9 72 3d aa 7d 85 bd cc 6e e2 bd 2f 09 08 be
       0.05925891 -0.06518109 -0.11056289 -0.13284753
000070 d5 55 2a 3c 5d 5f dc 3c 11 3c 14 be 1c a6 66 3d
       0.0103964405 0.026900942 -0.14476039 0.056310758
000080 c6 5f b9 bd fb d9 89 3d e9 16 7a bd 97 2a f2 3d
       -0.090514705 0.067310296 -0.061057005 0.118245296
000090 c4 ac 8b bd 5c 3d 00 3d 90 b6 d3 bd 00 f1 05 3c
       -0.06820062 0.031308517 -0.103375554 0.008175135
0000a0 37 5b 0b 3e c9 db c6 3d 20 e5 aa bc d8 5c 88 3d
       0.13609014 0.097098894 -0.020861208 0.066583335
0000b0 9b c0 cd bc 04 09 1a bd ed 74 c6 bb 36 dd b3 3d
       -0.025116256 -0.037606254 -0.006056419 0.08782427
0000c0 b6 0d df 3d 00 a1 e5 bd 2d 85 eb 3d e6 99 f5 3a
       0.10891287 -0.11212349 0.11500011 0.0018737882
0000d0 b5 e3 00 3e 5b 37 30 3b 04 ec 94 bc 96 31 a1 bd
       0.12586863 0.0026888463 -0.018178947 -0.07870786
0000e0 a3 27 1f bd 86 10 60 bd ed 62 73 3d 71 f1 81 bd
       -0.03885616 -0.054703258 0.059420515 -0.063448794
0000f0 c5 5f 05 be a2 29 ab bd ec b9 cf 3d 67 4b 5d 3c
       -0.13024814 -0.0835755 0.10142884 0.013506747
000100 0c c4 d4 bc dd df c1 bc d5 f1 03 3e 94 89 9c 3d
       -0.025972389 -0.023666317 0.1288522 0.076434284
000110 3a 6b 21 bc 81 be c5 3d e8 61 0d 3e 35 89 07 3e
       -0.009852225 0.09655476 0.1380688 0.13235934
000120 81 e1 0a 3c 95 61 a7 3d c6 1a 2e bd de cb 2b 3d
       0.008476616 0.08172909 -0.042506002 0.04194247
000130 d9 0b f5 3d c4 82 00 be 0b da 06 bc 8c 11 f9 3d
       0.119651504 -0.12549883 -0.008230696 0.1216155
000140 d5 83 fa bd da 07 94 bc e4 de 30 bd ac c5 9b 3d
       -0.12232176 -0.01807015 -0.043181315 0.07606062
000150 44 27 21 3c 49 a8 07 be 7e 78 e0 bd ee 0e 89 3d
       0.009836022 -0.1324779 -0.10960482 0.06692301
000160 e2 fe 0a 3c e5 41 0e 3e d3 b7 54 3c 81 b2 f5 3d
       0.00848362 0.13892324 0.01298328 0.119969375
000170 db aa 5f 3d 07 f8 09 be 1d a6 ba 3d af 0d e0 3c
       0.0546063 -0.13473521 0.09113715 0.027350275
000180 62 a1 69 bd ff be 36 3d 3a 45 7c bd 78 be 5b bd
       -0.057038672 0.04461574 -0.061589457 -0.053648442
000190 8f 51 d9 bc 55 e5 2f 3d d3 ed aa bd a2 02 e5 bd
       -0.026528148 0.042943317 -0.083461426 -0.11182143
0001a0 e3 cd 0e 3e 34 68 e8 3d c5 57 14 3e ed 32 94 bd
       0.13945727 0.11348 0.14486606 -0.07236276
0001b0 8a 52 4d bb cf b3 01 be 3f 85 03 be 47 23 5d 3d
       -0.0031329715 -0.12666248 -0.12843798 0.05398872
0001c0 52 5b 10 3d c7 21 92 ba f8 f5 87 bd 7c ae bf bd
       0.03524334 -0.0011148982 -0.06638712 -0.09359452
0001d0 d6 d8 6b 3d c3 d3 b1 3d 1b 3b 5e bd 5c f5 f6 3d
       0.057579838 0.086829685 -0.054255586 0.12058517
0001e0 94 1f 82 3c e2 ac e3 3d 72 d7 78 39 f1 50 79 bc
       0.015884198 0.11116959 0.00023731383 -0.015217052
0001f0 24 6c 1b be e9 1b 72 bd 6c fa ed bd c4 79 d8 bd
       -0.15177971 -0.05910865 -0.1162003 -0.105701
000200 52 18 25 3e 0d e1 fe bd 54 14 b0 3d dc 11 b0 bd
       0.16122559 -0.12445269 0.08597627 -0.085971564
000210 67 fd 27 be ef 55 c8 3d 7a b0 9d bd 68 ab 1f bd
       -0.16405259 0.097820155 -0.07699676 -0.038981825
000220 5b ed 98 3d 98 d9 c2 bd b8 a8 0e 3d 85 ab 02 3e
       0.07467147 -0.09514159 0.03482887 0.12760742
000230 f6 30 bd bb 8b ad 0e bd 3c 67 50 bd 25 53 21 3c
       -0.005773659 -0.034833472 -0.050879702 0.009846483
000240 b8 05 8d bd 8d d2 c5 bc de 0d 91 3d 7e 4d 86 3b
       -0.068858564 -0.02414825 0.07082723 0.0040985933
000250 a8 25 b4 3d d5 88 5b 3d b4 0e e4 bd 5e 19 ae 3c
       0.08796245 0.05359729 -0.11135617 0.02125233
000260 2c f6 92 3b a4 10 3d 3b 12 59 c8 3c 57 02 5d bd
       0.0044849124 0.002884903 0.024456535 -0.05395731
000270 a3 12 17 be 00 6b b2 3d 2b 8f 32 3c ec 93 ee ba
       -0.14753203 0.08711815 0.010898392 -0.0018202043
000280 87 e5 10 3e e6 56 81 bd 78 da af bd 3a 7f 22 bd
       0.14150058 -0.06315403 -0.085865915 -0.039672114
000290 c0 b7 fa bd fa 88 ce bd 37 46 65 bd ee a0 f6 3d
       -0.12242079 -0.1008472 -0.055975165 0.12042414
0002a0 8d e3 fa bc 09 c3 1d be f0 f1 0e 3b ae 89 b4 bd
       -0.030626083 -0.15406431 0.0021811686 -0.08815323
0002b0 9b f5 8f bd 0d 95 90 bd 05 14 fa bd a4 d4 10 bd
       -0.070292674 -0.07059679 -0.1221085 -0.03535904
0002c0 fe 30 f2 bd d9 c8 1e bd 0a 2c 00 be f4 de 3c 3d
       -0.11825751 -0.038765762 -0.125168 0.046111062
0002d0 5d 2a d6 3c 57 f7 52 bd 35 7a 86 3c 11 da cd bd
       0.026143247 -0.051505413 0.016415695 -0.100513585
0002e0 36 74 ce bd 9e 5d ca 3c 1a 90 59 bd eb 72 fe bd
       -0.10080759 0.024702843 -0.05311594 -0.124242626
0002f0 d0 bb d6 3d b9 d4 f7 3c 4b 9e 2e be 33 e4 d8 bd
       0.10485041 0.030252801 -0.17052571 -0.105904005
000300 a8 41 29 3d 94 6a 11 ba e7 95 7a 3d 2d bf 2a bc
       0.04132238 -0.00055471924 0.061178114 -0.010421556
000310 05 b3 ab bc 79 3f 2d bd f7 f5 a2 bd 84 f3 04 be
       -0.020959387 -0.04229686 -0.0795707 -0.12983519
000320 83 b6 7b 3d 1c 86 b6 3d 03 1b 8b 3d a1 48 72 bd
       0.061453354 0.08912298 0.067922615 -0.059151296
000330 c1 f6 f4 3c 56 f9 1f be 57 e8 0f bd e8 64 cb 3d
       0.029902818 -0.15622458 -0.035133686 0.09931356
000340 70 96 f8 b9 cd 3e bd 3c 7e 51 16 3e 3f e5 06 3e
       -0.0004741433 0.023101235 0.14679524 0.13173388
000350 eb 59 07 3c e0 d1 08 be 3f 0f dc 3d 6c 98 34 3d
       0.008261184 -0.13361311 0.107450955 0.044090673
000360 56 94 f2 bc 6c 6f 07 3e 6d f6 ce 3c 35 71 15 bd
       -0.029611748 0.13226098 0.02526399 -0.036484916
000370 b8 ce 10 3e 35 90 80 3c 80 92 c0 3d e7 75 7e 3b
       0.14141357 0.015693763 0.09402943 0.00388276
000380 ed c7 5f 3d 40 27 18 bc 73 db 04 3c 4b 37 1c be
       0.054634023 -0.009286702 0.008108961 -0.15255468
000390 db de fd 3d 78 db 3b 3d 15 7a 5b 3d 7b 95 8a bd
       0.12396022 0.0458636 0.053583223 -0.067667924
0003a0 3a 38 1d bb 37 f1 63 3d 28 5e 18 3c 38 55 b0 bc
       -0.0023989812 0.055649962 0.009299792 -0.02152501
0003b0 98 f6 74 3d 08 25 a6 3b 17 02 f0 bd f5 28 46 3d
       0.059805483 0.0050703324 -0.117191486 0.048378903
0003c0 1f e4 98 3d fd 45 11 3e d1 b8 c0 3d d2 14 7d 3d
       0.07465386 0.14186855 0.09410251 0.061787434
0003d0 18 ab 8f bc 61 b0 d2 bd 76 b2 d9 bd a5 6e 3c 3d
       -0.017537639 -0.10287548 -0.10629742 0.046003956
0003e0 b8 e1 27 bd ee 84 a7 bd 6d 94 83 bd c6 4f 81 3d
       -0.040986747 -0.08179651 -0.06424794 0.06314044
0003f0 ac 0a 26 bd 61 b8 8c bd 71 b9 1f bd d9 af 37 3e
       -0.04053752 -0.06871105 -0.03899521 0.17938174

module.gcn_layers.0.bnNodes.batch_norm.weight f4 [50]
000000 2b f4 78 3f a0 03 7f 3f 58 2f 72 3f 79 9b 75 3f
       0.9724757 0.99614906 0.9460349 0.9594036
000010 df e6 7d 3f 50 8d 7d 3f f8 a2 7c 3f a6 ab 7a 3f
       0.99180406 0.9904375 0.9868617 0.97918165
000020 fb 22 79 3f fc 95 7f 3f fb 00 7a 3f d7 e5 81 3f
       0.97319 0.99838233 0.97657746 1.0148267
000030 bd f8 7a 3f ca 3c 7e 3f 49 27 81 3f e5 ad 7c 3f
       0.98035794 0.99311507 1.0090114 0.9870284
000040 df 1f 78 3f 71 63 7f 3f b5 7b 75 3f 2f 49 79 3f
       0.9692363 0.9976111 0.95891887 0.97377294
000050 1e 37 76 3f 11 76 81 3f fa 96 7a 3f 0a 96 7b 3f
       0.9617785 1.0114156 0.9788662 0.98275816
000060 e9 43 78 3f c3 88 78 3f 8b 26 81 3f fb 8c 75 3f
       0.9697862 0.9708368 1.0089887 0.95918244
000070 f4 f8 7d 3f 78 2d 76 3f 20 11 80 3f 60 99 7e 3f
       0.99208 0.9616313 1.0005226 0.9945278
000080 7a 8a 7f 3f 06 e4 7a 3f 75 00 80 3f 0d e9 7d 3f
       0.99820673 0.98004186 1.000014 0.9918373
000090 f4 2b 81 3f d0 06 7d 3f ec 8e 80 3f 50 38 80 3f
       1.0091538 0.9883852 1.0043616 1.0017185
0000a0 80 a3 7f 3f 21 96 7d 3f 36 68 81 3f 78 ce 75 3f
       0.99858856 0.99057204 1.0109928 0.9601817
0000b0 1f a8 7e 3f 45 3f 79 3f d6 7d 72 3f d2 d8 78 3f
       0.9947528 0.97362167 0.9472326 0.9720584
0000c0 59 32 7a 3f 71 37 78 3f
       0.97733074 0.96959597

module.gcn_layers.0.bnNodes.batch_norm.bias f4 [50]
000000 51 06 14 3c eb da 60 bc 59 95 36 bd 92 7b 39 bd
       0.009034709 -0.013724069 -0.044576023 -0.04528386
000010 59 98 a6 3c f5 8b 10 3c d7 1c 8c 3c 66 e5 20 bb
       0.020336317 0.008822431 0.017103596 -0.0024550795
000020 f4 1e b9 bc 14 4d 39 bc 8d 7d d9 bc 26 67 25 3c
       -0.022597767 -0.011309881 -0.026549125 0.010095393
000030 a9 47 07 bc f6 be a9 3c 2d 61 94 3c 83 cc 3d 3c
       -0.008256831 0.02072094 0.018112743 0.011584404
000040 85 ba a6 bc 63 2d fc bb 0d 27 e4 bc 02 fb 4b bd
       -0.020352611 -0.00769584 -0.027850652 -0.049799927
000050 1a 52 29 bd c9 be b2 3b bb 14 42 bd 03 6d c5 bc
       -0.041338064 0.0054548723 -0.04738305 -0.024099832
000060 6f 1b 6b bc 2d bc bf bc 3d f7 05 3c e0 36 7e bd
       -0.014349802 -0.023405159 0.008176622 -0.06206405
000070 d6 26 d6 3a 49 c3 10 bd 55 b1 52 bc df 04 8d 3b
       0.0016338478 -0.03534249 -0.012859662 0.004303559
000080 15 d0 3a 3c ec 48 6c bc aa a4 c3 3a 9a 4b 54 bc
       0.01140215 -0.014421683 0.0014926393 -0.012957478
000090 07 59 cd 3b 14 6d 2a bb a6 3a 3c 3c 93 83 bd 3c
       0.0062667164 -0.0026004957 0.011488592 0.023134029
0000a0 fb 21 88 3b c8 b2 30 3c 93 c6 3a 3c 8b ff 13 bd
       0.0041544414 0.010784812 0.011399883 -0.036132377
0000b0 ed d2 86 bc b0 13 89 bc a7 66 7d bd 9a 38 eb bc
       -0.016458 -0.01673302 -0.061865475 -0.028713513
0000c0 da e6 2f bd 4d e2 d0 bc
       -0.042944767 -0.025498534

module.gcn_layers.0.bnEdges.W3.weight f4 [50, 50]
000000 a9 84 c9 3c cd 40 4b 3d 0b 50 d1 bc e3 1d cf 3c
       0.02459939 0.049622346 -0.025550863 0.025282806
000010 a5 4a 4e 3c cb 14 7f bd 55 af 92 3c 76 9a a5 3d
       0.012591039 -0.06227569 0.01790587 0.08086102
000020 f7 c7 20 3d b4 8e fb 3d bf f3 e4 3d 48 53 dc bc
       0.0392532 0.12283078 0.111793034 -0.02689518
000030 89 c3 77 3c 0a 45 9f 3d a2 ec 86 bd 39 29 7d bd
       0.015122303 0.0777684 -0.06588103 -0.06180689
000040 b7 e8 10 be 40 f8 b9 bd d8 e0 67 bc 4f ff 04 be
       -0.14151274 -0.09080553 -0.014152728 -0.12988017
000050 53 cf 05 3e 43 d9 ab bb c7 01 78 3d 2d 3c b8 3d
       0.13067369 -0.0052444055 0.06054857 0.089958526
000060 c3 72 10 be f8 72 b0 bd e3 fe 3f bd d9 eb 8c 3c
       -0.14106278 -0.086156785 -0.04687394 0.017202305
000070 e1 8d d8 bd 7b b4 d8 bd fe 4f 01 bc 18 36 2d 3d
       -0.10573936 -0.10581299 -0.007892607 0.042287916
000080 89 78 f0 bd 10 03 19 3d 52 d9 76 bd ee a9 48 bc
       -0.1174174 0.037356436 -0.060265847 -0.012247546
000090 35 19 d7 3b 31 ec 8a bd 61 c4 13 bd ab 89 a1 bd
       0.006564284 -0.06783331 -0.036075953 -0.07887586
0000a0 fe 43 b9 3d f8 cc c9 bd a5 1e 7e bd ce e9 f8 bd
       0.090461716 -0.09853548 -0.062040944 -0.1215397
0000b0 cc bb d2 3d 03 b1 99 bd 9d 13 b5 bd 35 ce d2 bd
       0.10289726 -0.075044654 -0.088416316 -0.10293237
0000c0 2f ed 63 3d 71 49 b9 bd b9 79 0c 3e a2 fd 83 bd
       0.055646118 -0.09047211 0.13718309 -0.06444861
0000d0 f5 57 c6 bd 05 ba ca bd ef ee 80 bd f9 f5 c5 bd
       -0.09684745 -0.09898762 -0.06295573 -0.09666056
0000e0 08 e4 22 3d fc b6 b8 bd 52 2b 36 3d 6a e9 94 bd
       0.03976825 -0.090192765 0.044474907 -0.07271083
0000f0 7d 91 7c bc 09 5d c9 3d a6 06 06 3d f8 1f 2c 3e
       -0.0154155465 0.09832198 0.032721184 0.1680907
000100 7a 85 13 be 5e 2c 87 bc 85 62 1f 3e 40 39 c9 bd
       -0.14406386 -0.016500648 0.15564926 -0.09825373
000110 b6 91 42 bd 3e 4e 42 bc 0f 1b d2 bd 36 6a 04 3e
       -0.047502242 -0.011859475 -0.10259067 0.12931141
000120 f2 54 a8 bd 60 3c ac 3c 16 9d 93 3d a4 4c d4 3c
       -0.08219327 0.021024883 0.07207696 0.025915451
000130 71 60 16 3e 4d d8 ba 3c 55 50 da 3d 55 c0 cb bc
       0.14685227 0.022808218 0.10659853 -0.024871984
000140 be e7 0e 3d 5c 4d c8 bd 72 3d 2a be 3c 3b 29 3e
       0.034888975 -0.0978038 -0.16625002 0.16526502
000150 a7 09 08 bc a0 1f a0 bd b7 58 0a 3d 1c 88 11 3e
       -0.008303083 -0.07818532 0.03377601 0.14212078
000160 63 32 93 3d 27 4f 3e 3d 78 6d b2 3d 1a 90 13 3e
       0.07187345 0.046462204 0.08712286 0.14410439
000170 87 d4 12 3e 77 83 1e 3d a4 5d 14 be 53 43 8b bd
       0.14338885 0.038699593 -0.14488846 -0.067999505
000180 86 4c c2 3d fd 02 a7 3d 0d 60 93 bd 2e fa 01 3d
       0.09487252 0.08154867 -0.071960546 0.03173273
000190 85 5b ff bd e6 ab d3 3b 6d 03 c3 3d 96 b0 4e 3d
       -0.12468628 0.006459701 0.09522138 0.050461374
0001a0 de d0 9d bb 07 ce 84 3c ba 4f 10 be 0c ea e5 3d
       -0.0048161587 0.016211523 -0.14092913 0.112262815
0001b0 d7 5d 1e be 0b 49 50 bd 92 2c 04 bd 0a ae e3 3c
       -0.15465485 -0.05085091 -0.032269068 0.02779295
0001c0 ff e8 09 3d 01 b7 39 bd aa f8 10 3e 68 cf 2f be
       0.033669468 -0.04534054 0.14157358 -0.17168963
0001d0 16 a7 0a be b8 67 9b bd e9 17 9f 3d b1 fd 0b 3d
       -0.135403 -0.07588142 0.077682324 0.034177486
0001e0 d4 01 20 be 37 e9 21 be 1f 7d 2c be de bc ca bd
       -0.15625697 -0.1581162 -0.16844605 -0.09899305
0001f0 44 90 90 3d ec 1b d6 ba e6 6c 5f bc 04 ca b1 bb
       0.070587665 -0.0016335226 -0.013636803 -0.0054256935
000200 8f 7d 94 bd b1 e3 ae 3d c6 a2 10 bd 46 fd d4 3d
       -0.07250511 0.085395224 -0.035311483 0.103998706
000210 70 f7 f5 bd 87 0e b9 bd a2 b6 b7 3d 01 e9 43 3c
       -0.120100856 -0.09035974 0.08970381 0.011957408
000220 56 f5 02 be f3 6b 20 3d 5b 21 83 bc df 0f 46 bd
       -0.127889 0.03916545 -0.016007116 -0.04835498
000230 75 88 08 3e 31 c5 da bd b4 d7 67 3d 8a 74 59 bd
       0.13333304 -0.106821425 0.056602195 -0.053089656
000240 56 d7 61 3d 9d 76 fd bd 09 cd 80 bd a2 81 15 3d
       0.055137 -0.12376139 -0.06289107 0.03650058
000250 01 b5 a4 bd f3 b5 05 3d 72 56 bd 3d 1d 10 86 bd
       -0.08042336 0.032644223 0.09245004 -0.06546042
000260 52 14 36 3d a2 d9 80 3d f1 2b e2 3c a9 30 a9 bd
       0.044452973 0.0629151 0.027608844 -0.08261234
000270 2a 08 50 bd b7 b4 5c bc 96 6c 07 bc e9 11 d2 bd
       -0.050789036 -0.01347082 -0.008265635 -0.10257322
000280 16 47 cd 3d c0 d1 d0 3c 82 d5 3f bd 3d 97 56 3d
       0.10023324 0.025490642 -0.046834476 0.052390326
000290 bf 36 8f bb fa 6b 85 3d 85 97 ff 3d 99 7e 31 bd
       -0.00437054 0.065147355 0.12480072 -0.043333624
0002a0 88 72 67 bd f3 c6 a9 3d 01 98 41 bd 22 ba c5 3d
       -0.05650571 0.082899 -0.047264103 0.09654643
0002b0 13 1e bb bb 31 62 7c bd 4f c9 f8 3d a1 c0 f0 3b
       -0.0057103722 -0.06161708 0.121477716 0.007347182
0002c0 ca 52 a4 3d 4a 3e b1 3d b4 99 1f be 69 b3 47 3d
       0.08023603 0.08654459 -0.15585977 0.048755083
0002d0 d0 ff a8 3d 53 c3 fb 3d 1d ad 28 3e 85 f1 11 be
       0.08251917 0.122931145 0.16472287 -0.14252289
0002e0 bd 27 c5 3d b8 9f 1e be 65 3f d8 bd 9a 17 cc bd
       0.0962672 -0.15490615 -0.105589665 -0.09965439
0002f0 0c d2 6e bd 28 a6 c1 3c 91 dc 61 bd d1 21 8b bd
       -0.058305785 0.0236388 -0.05514199 -0.06793559
000300 23 7b 13 be 34 75 d6 3c 52 1b f0 3c 04 90 12 3d
       -0.14402442 0.026178934 0.029309902 0.035781875
000310 d8 b9 89 3d 80 11 e9 bc 4e 98 de 3d e5 95 dc bd
       0.067249 -0.028450727 0.108688936 -0.107707776
000320 df 02 54 3c 73 e8 1a 3e c5 c4 17 3d 76 ea f9 3c
       0.012940138 0.15127735 0.03705289 0.030507307
000330 81 93 a2 bd 11 c0 24 3e eb 3f 0e be f9 85 36 3e
       -0.079382904 0.16088893 -0.1389157 0.17824544
000340 c0 b9 8d 3c 77 ec 1d 3e 42 64 41 3d 24 3f 8d 3d
       0.017300487 0.15422235 0.047214754 0.06896809
000350 64 62 1f be 00 6a df bd 1e 65 14 bd e9 d2 e4 3c
       -0.15564877 -0.1090889 -0.036229245 0.027932601
000360 c2 11 98 bd bb 05 3c bd 6c cb 2e be 3b 0f 10 3d
       -0.07425262 -0.045903903 -0.17069787 0.035170775
000370 e2 31 c3 bd 9b 61 49 3d 53 b1 c8 bd d9 fb 2d 3e
       -0.09530999 0.04916535 -0.09799447 0.16990604
000380 7a 4f da bc f9 3b 24 3c 2e af fc 3c e2 e2 0a be
       -0.026649226 0.010024064 0.030845251 -0.13563111
000390 e4 c4 16 bb af 7e 9e 3d 84 e9 5f bc 69 dd ac 3b
       -0.002300554 0.07739007 -0.013666514 0.0052754176
0003a0 56 b4 c3 3d 20 0a 06 3e 49 bc 0f be 8d 06 af 3d
       0.09555881 0.130898 -0.14036669 0.08546171
0003b0 18 18 d1 3c fa 24 35 3d 42 9a 29 bd 94 08 84 bd
       0.025524184 0.044224717 -0.041406877 -0.06446949
0003c0 88 fb c7 bd 05 77 89 bc 8c ba ca 3c a2 21 74 bd
       -0.09764773 -0.016780386 0.024747156 -0.059602387
0003d0 3b 25 87 3d 80 de 03 3e 52 41 1f 3d 86 72 c8 3d
       0.06598898 0.12877846 0.038880654 0.097874686
0003e0 91 9f bb 3d 2d f5 31 bd 54 cb c4 3d 89 5c 8a bd
       0.09161294 -0.04344671 0.09609094 -0.06755931
0003f0 69 37 0d be fb d0 9f 3c 1d 1f 0b bd d8 3c 75 3d
       -0.13790669 0.01950883 -0.03396522 0.05987248

module.gcn_layers.0.bnEdges.W4.weight f4 [50, 50]
000000 97 6f 2d bd df 01 d1 3d e6 59 e5 3d 0d 3d 91 3c
       -0.04234275 0.10205435 0.111987874 0.017729307
000010 3c 20 58 3d 8a 89 89 3d 36 8e b7 3d 19 20 54 3d
       0.052765116 0.067156866 0.089626715 0.051788423
000020 b2 94 f2 bd 38 0f b8 bc 8d 87 ef bd b9 98 ac 3d
       -0.11844768 -0.022468194 -0.11695776 0.08427567
000030 74 40 17 3d 12 b4 75 bd 0a 2d 01 3e 93 7f 7d bd
       0.0369267 -0.05998618 0.12614837 -0.061889242
000040 96 7c b8 bd 24 9b f1 bd bd 1a 25 bd 0b 6f 0a 3d
       -0.09008138 -0.11797169 -0.040308703 0.033797305
000050 39 f7 06 3e 65 bb ef 3c fb 80 98 bd 9d 6f c0 3d
       0.13180245 0.029264161 -0.07446476 0.093962885
000060 dc 32 ea 3d 5f 67 99 3d 3e 18 51 bd e3 30 b7 3d
       0.11435482 0.074904196 -0.05104851 0.08944871
000070 bb 05 1d bd 18 06 0e bd 7c ba ec 3b 94 f0 94 bd
       -0.038335543 -0.03467378 0.007224379 -0.07272449
000080 da bf 0c be 94 65 e1 bd 28 12 ee bd b5 4f ab 3d
       -0.1374506 -0.110057026 -0.11624557 0.08364812
000090 fb bc 62 3d db be 2f 3d 18 b6 b2 bd 0d e5 c1 bd
       0.055356007 0.042906623 -0.08726138 -0.09467516
0000a0 e2 01 d4 bd c9 d3 48 3d 8e 30 c5 bc 51 dd a1 3d
       -0.103519216 0.0490301 -0.024071004 0.07903541
0000b0 f0 8f a4 3d 08 e5 cc bd ea e0 16 3d c1 d1 f8 3d
       0.080352664 -0.10004622 0.03683559 0.121493824
0000c0 21 8b 1d 3c d6 ca 52 bd 38 a2 91 3d 05 76 04 3e
       0.00961569 -0.05146297 0.07111019 0.12935646
0000d0 e1 18 c4 bd bd f4 6d 3d ea 1d 16 bd 73 cd f0 3c
       -0.09575058 0.05809473 -0.036649622 0.02939484
0000e0 ad e6 da 3d b2 d1 d5 3d c2 ee 06 be e0 38 d4 bb
       0.10688529 0.10440387 -0.13177016 -0.0064765066
0000f0 cd d8 bc 3d ce 2b 08 3e 11 e6 a2 3d 4c 23 23 3d
       0.09221039 0.1329796 0.07954038 0.039828584
000100 ac e3 a0 3c 47 87 02 be a3 f3 4f 3d 8a f0 9b bd
       0.019639812 -0.12746917 0.05076946 -0.076142386
000110 9b 12 9a 3c 39 c4 06 3e 80 3b 22 3d 46 99 26 bd
       0.0188077 0.1316079 0.039607525 -0.040673517
000120 4d 5a 11 bc 01 96 d2 bc 2f 54 ac 3d 28 81 fb bc
       -0.008871627 -0.025706293 0.08414494 -0.030701235
000130 77 73 0a 3d b6 b0 f4 ba 4b d1 05 3e 92 7c 49 bd
       0.033801522 -0.0018668387 0.1306812 -0.049191065
000140 fa 39 ba bd 4a ce 3e bd 41 68 2c 3d 1f 52 06 be
       -0.090930894 -0.04658345 0.04209161 -0.13117264
000150 36 ac d9 bd 7d 0e b0 3c ab 37 a2 bd c9 fc 8f bd
       -0.1062855 0.021491284 -0.07920774 -0.07030637
000160 01 a6 14 3d a2 90 c6 3d 26 e8 9d 3d 38 6a d8 bd
       0.036291126 0.09695555 0.077102944 -0.105671346
000170 5a 4f d5 3d 1d 71 9e bd 06 57 0a 3e 11 fd f6 3d
       0.10415526 -0.077364184 0.1350976 0.12059987
000180 ca bb 59 bc 57 be 12 3d a5 ac 03 3d 70 3a 1e bd
       -0.013289401 0.035826053 0.03214707 -0.03862995
000190 8b b9 2c bc b0 97 c1 bd 92 b0 6d 3d 20 6f 74 3d
       -0.010542284 -0.0945276 0.05802972 0.05967629
0001a0 b4 61 9b bd 89 23 20 bd e0 4f 85 bc 96 76 a7 bd
       -0.07586995 -0.03909639 -0.016273439 -0.08176915
0001b0 73 11 d0 bd bc 3f 93 3d fd d4 65 bd ca d5 88 bd
       -0.10159578 0.07189891 -0.056111325 -0.06681402
0001c0 28 fd 06 3e e5 1c 64 bd 4d 4b 0f 3e 86 50 d8 bd
       0.13182509 -0.05569162 0.13993569 -0.105622336
0001d0 0e 85 89 3d 29 b6 b4 3d 94 2a 07 3e 65 d9 03 be
       0.06714831 0.08823807 0.13199836 -0.12875898
0001e0 c4 a6 b3 3d 7c 6a da bd cc 60 3f bd da 33 c6 bd
       0.087720424 -0.106648415 -0.046723172 -0.09677859
0001f0 91 f7 92 3b 21 d6 52 3c 9c b3 02 3d bf 50 5c 3c
       0.0044850786 0.012868435 0.03190957 0.013446986
000200 ea 47 38 3d d8 81 30 bd bc 5b b7 3d 3c 7e 07 bc
       0.044990458 -0.04309258 0.08953044 -0.008269843
000210 ee 43 fd bd 29 d3 10 3e d2 fe c0 3d a4 36 9c bc
       -0.12366472 0.14143051 0.09423603 -0.019069023
000220 a0 6a a2 3d e8 20 3b bd 5a 02 d0 3d 19 ea f0 bd
       0.07930493 -0.04568568 0.101566985 -0.117634006
000230 02 de ef bd 53 d2 84 bd c7 24 c2 bd c1 44 bc 3d
       -0.117122665 -0.06485429 -0.09479671 0.09192801
000240 b8 64 d2 3b c3 22 4a bd 7c bf 7d bd ba 99 fa bd
       0.006420698 -0.049349558 -0.06195019 -0.12236352
000250 be 1e 92 3c db 4d 03 be 2d 5c 0b be 03 cd 05 3d
       0.017836925 -0.12822668 -0.13609381 0.032666218
000260 a4 f5 15 3c cd 02 af 3d f7 2c ff bb 7a 22 c2 bd
       0.009152804 0.08545456 -0.0077873426 -0.09479232
000270 09 f5 d1 3d b0 c6 eb 3d 30 d7 c9 3c 35 60 44 3b
       0.10251815 0.11512506 0.024638742 0.002996457
000280 4a 44 9a 3c 4c 34 ea 3c 6c c6 95 bd d3 15 60 bd
       0.01883139 0.02858939 -0.073132366 -0.054708313
000290 8e 3a 41 3d 6b 2d 20 3e 5e df 84 3b 21 99 42 3c
       0.047174983 0.15642326 0.0040549478 0.011877329
0002a0 13 8b bb bd 40 bb 37 bd 5f bb f2 3c 5a 77 eb 3c
       -0.09157386 -0.04485631 0.029630361 0.028743435
0002b0 75 a1 ef 3d 4e 5c a0 3d fd 77 ac bc 9f 75 83 bd
       0.11700717 0.07830106 -0.021053309 -0.06418919
0002c0 e8 52 cf bd 9d 02 eb 3a d8 ec 4f bc 14 5f 67 3d
       -0.10123235 0.0017929856 -0.012690745 0.056487158
0002d0 f9 24 59 3d 37 bd e4 bb 69 09 a5 3d 25 67 e9 3c
       0.053013775 -0.006980564 0.080584355 0.028491566
0002e0 a2 38 6c 3d bb dc f5 bd ba b7 25 bd e3 06 b9 3d
       0.057671197 -0.120049916 -0.04045842 0.09034517
0002f0 ae 62 8c 3d 32 88 a8 3d d6 2e 8b 3d bf 8b dd b9
       0.06854759 0.08229102 0.067960426 -0.00042256524
000300 22 93 07 be 31 a9 8f bd 3a d6 fa 3d 2e 45 28 bd
       -0.1323972 -0.070146926 0.12247892 -0.0410816
000310 6f 81 06 3e ca 6f 09 be 92 ad 31 bd df 20 b7 3c
       0.13135312 -0.1342155 -0.04337842 0.022354541
000320 82 40 63 bd e9 3b f3 3d b1 4a b0 3d d4 4a 1c bd
       -0.05548144 0.11876661 0.08607996 -0.0381573
000330 b8 c7 25 3e 63 e5 83 3d 51 9b b4 3d 7d e9 e1 bd
       0.16189468 0.064402364 0.08818687 -0.110308625
000340 31 a4 e8 bd 31 f6 05 3d 92 4a 15 3d be 07 42 3d
       -0.11359442 0.03270549 0.03644807 0.047370665
000350 b8 29 08 be 51 eb d0 3d 09 b8 b1 bc bd f5 99 3d
       -0.13297164 0.10201133 -0.0216942 0.07517574
000360 26 6e a0 3d f6 01 6f 3d 1c 5c 35 bd d7 00 9b bc
       0.07833509 0.05835148 -0.044277295 -0.018921299
000370 53 29 e2 bd 33 b0 98 bc ce 07 32 bd c5 1f f8 bd
       -0.11043038 -0.018638706 -0.043464474 -0.121154346
000380 90 0c 7d 3d 3e 41 c3 bd ba 92 c8 3d 27 ca a2 bd
       0.06177956 -0.09533928 0.09793611 -0.07948714
000390 eb fd ed 3b 7e ce 6d 3d 47 bf 12 3e 62 b2 08 bd
       0.0072629354 0.058058254 0.14330779 -0.033373244
0003a0 c5 31 c6 bd e3 fe ce bd 2d d4 90 bd 45 21 61 bd
       -0.096774615 -0.101072095 -0.07071719 -0.05496337
0003b0 97 71 fa bd 67 ab 1b 3e 8c 65 d7 3c 11 8c 03 be
       -0.12228697 0.15202104 0.026293539 -0.128464
0003c0 39 48 19 3c 91 8f 2f 3b aa 82 35 bb 85 79 bc 3c
       0.009355598 0.0026788453 -0.002769629 0.023007164
0003d0 e3 57 27 3c f1 20 90 3d 03 ad 29 3d d8 ff 3d 3d
       0.010213825 0.07037533 0.041424762 0.04638657
0003e0 4d cc b1 3d 7c 17 b3 bb 86 ea 5d bd dc b6 0b bd
       0.086815454 -0.005465446 -0.054178737 -0.034109935
0003f0 98 f9 58 bb 93 ab 80 bd 09 32 0d 3e 08 a5 f9 3c
       -0.0033107754 -0.06282725 0.13788618 0.0304742

module.gcn_layers.0.bnEdges.W5.weight f4 [50, 50]
000000 85 76 e6 3d 1e 0d 99 bd a4 d7 e3 bc d4 9e 8c 3c
       0.112530746 -0.07473205 -0.027812786 0.017165579
000010 0f 33 1a 3e f1 c8 9f bd aa c2 ad bd df 40 11 3d
       0.1505854 -0.078019984 -0.08484395 0.035462257
000020 52 a2 d3 3c 37 4b 5f 3d fd 9b 10 3e ca 75 fb bd
       0.025834236 0.05451509 0.14122005 -0.12278326
000030 10 3f da 36 0d 13 44 bd 25 1b 0a be 98 06 01 bd
       6.5042477e-06 -0.04786973 -0.13486917 -0.03150043
000040 28 b5 3a 3d fe 81 71 3d 98 8d 7c 3c 0d 41 d9 bd
       0.04558292 0.05896186 0.015414618 -0.106081106
000050 cb db eb bc 5f 37 81 3d df 12 71 3d 9d 96 05 be
       -0.028791329 0.06309389 0.058855888 -0.13045736
000060 c5 45 49 3d 2d e0 e1 bc c1 a2 d8 3c 72 08 eb 3d
       0.049138803 -0.027572716 0.026444795 0.1147622
000070 70 21 a3 bd 32 0b 0a bb a7 1b f1 3d 8a 46 d3 bb
       -0.07965362 -0.0021063802 0.117728524 -0.006447618
000080 d5 82 2f 3e c3 83 cb bc da 1a a9 3c cf 79 94 bc
       0.17139752 -0.024843102 0.020642687 -0.01812449
000090 2a 6b 7b 3c c6 e6 1b bd 27 35 19 3e ac 0a ec 3d
       0.015345374 -0.03806188 0.14961682 0.11525473
0000a0 b3 ac 3e bc 6c 3c b2 bd 1c f4 5e 3c 5f e4 b8 bc
       -0.011637854 -0.08702931 0.013608005 -0.022569833
0000b0 9c 42 0a be e0 a6 9d bb b8 89 f1 bd cb fb d2 bc
       -0.13501972 -0.004811153 -0.11793846 -0.02575483
0000c0 5f 71 05 be ea 99 d9 3d c8 db 9d 3d f0 9f 72 bd
       -0.13031529 0.1062506 0.077079356 -0.05923456
0000d0 2f ca 84 3d 71 ab b4 bd 55 fe f3 3c 42 93 0c be
       0.06483876 -0.08821762 0.02978436 -0.1372805
0000e0 12 98 5e 3d 38 92 9a bd 56 be 62 bd ec 58 38 3d
       0.054344244 -0.0754742 -0.0553573 0.045006678
0000f0 a6 d1 e7 bd b5 11 7c 3d 5b 7b 3f bc 6e 24 f8 bd
       -0.11319284 0.061540324 -0.011687125 -0.121163234
000100 40 e1 0f bd f2 5b d1 bd 39 b5 4c 3d 5e ea c3 3c
       -0.035126925 -0.10222615 0.049977515 0.023915466
000110 3a e0 c9 bd ee 59 bc 3d f1 59 42 bd 05 e9 dc 3d
       -0.09857221 0.0919684 -0.047449056 0.107866324
000120 21 bf a0 bb fd 3f 65 3b f8 cd 11 bd db 25 be bb
       -0.004905597 0.0034980767 -0.035596818 -0.0058028526
000130 9b 4f 8a 3b 37 bf 81 bc 61 a2 b4 bd d9 b3 54 3c
       0.0042209155 -0.015838249 -0.08820034 0.012982332
000140 37 01 e3 bd ac 73 89 bd 5f f7 e4 bc 7a 1d 8b bc
       -0.11084216 -0.06711516 -0.027949987 -0.016981829
000150 58 c2 c9 bd 01 ad 83 bd a0 89 8f bc a1 7a 8b 3c
       -0.09851521 -0.06429482 -0.01752168 0.017026247
000160 af 3a ae 3c 65 83 bf bd f3 78 b7 3d b9 d1 57 bd
       0.021268217 -0.093512334 0.08958616 -0.05269024
000170 2a 02 0d be 94 ed a2 3d a9 0b 16 39 e2 8d f1 bc
       -0.13770357 0.07955471 0.00014309458 -0.0294866
000180 5d af 15 be 34 5d 88 bd 71 d5 6a 3d bf 34 41 bd
       -0.14617677 -0.06658402 0.05733246 -0.047169443
000190 69 4b da bd 5e 68 85 3d 17 74 c9 bd 8c f0 88 3d
       -0.106589146 0.06514047 -0.098365955 0.06686506
0001a0 0e aa 57 bd e3 87 8f 3d 36 14 f5 3c c8 34 08 3e
       -0.05265241 0.0700834 0.029916864 0.13301384
0001b0 11 92 81 3d 9f 72 1d bc a9 7c f6 3d cc c5 ca bd
       0.06326688 -0.009609847 0.12035496 -0.09901008
0001c0 68 6b 05 3d eb 9b 83 3d 42 7f dc bd 61 de 96 bd
       0.032573134 0.06426223 -0.1076646 -0.07366634
0001d0 60 db 9e bd 34 ea 61 bd 92 3e fe bc f9 0e ba bd
       -0.07756686 -0.055154994 -0.031035695 -0.09084887
0001e0 3d ea 0a 3e c7 e6 64 3b 04 0f 11 3e 43 9a 5b 3d
       0.13565917 0.0034927593 0.14165884 0.053613912
0001f0 d3 d1 20 bd 4e 87 91 3c 4b 71 c5 bd f4 62 e2 bd
       -0.039262604 0.017764714 -0.096407495 -0.1105403
000200 a5 94 88 3d dc f0 93 bc 0f c6 a4 ba dd 75 9b bc
       0.06668977 -0.018059187 -0.0012571233 -0.0189771
000210 f5 1a bf 3d 2d 24 01 be da ed a2 bd ec d0 92 bd
       0.093313135 -0.12611456 -0.07955523 -0.07168755
000220 5a 9b dd bc 2a 12 cb 3d c9 52 b8 3d c1 ab b9 bd
       -0.027051616 0.09915574 0.09000165 -0.090659626
000230 ac 22 0a bd 07 58 05 3e 5f 58 bb bd 41 53 26 3c
       -0.033724472 0.13021861 -0.09147715 0.010151685
000240 34 12 6f 3d 9c a4 ab 3d da 25 d6 3d fb 30 a9 3d
       0.05836697 0.08381006 0.10456438 0.082612954
000250 15 01 60 3d b7 13 0b be 17 3a 9e bd 6a 32 11 bd
       0.054688532 -0.1358174 -0.077259235 -0.03544847
000260 1d b9 b9 bd 02 78 a5 bd 11 24 85 3c f0 8a 1b bd
       -0.09068511 -0.0807953 0.01625255 -0.037974298
000270 15 bc 1c 3d 0a 4e 76 3d 1f b0 85 3d 31 44 fa bd
       0.038265307 0.060133018 0.06527733 -0.12220038
000280 e7 6a e2 3d 25 3e 87 3d b9 ab be 3c 0c 53 cd bc
       0.11055546 0.0660365 0.023275243 -0.025064014
000290 fe c0 f0 bc 40 8a b6 3c 1b b6 9b bc f1 a5 f3 bd
       -0.0293889 0.02228272 -0.019007733 -0.11896885
0002a0 77 84 80 3c e9 e3 aa bd b3 10 04 be 14 da c8 3d
       0.015688164 -0.08344252 -0.12896995 0.0980722
0002b0 b9 6d 0b bd 1d 9d b9 bc 22 4c 02 bd 18 ca 84 bd
       -0.034040187 -0.022657925 -0.031810887 -0.06483859
0002c0 b0 9c 83 3d b8 ca 8b bc 0f a5 72 bd 28 0e fe 3d
       0.0642637 -0.017064437 -0.059239443 0.12405044
0002d0 48 c6 cd 3d 2b 75 c8 3d a8 6d 20 be 34 a6 16 3d
       0.10047585 0.09787973 -0.1566683 0.036779597
0002e0 aa db 7c 3c 8b 4c f3 3d 1f 26 6a 3d 1e 44 d8 3c
       0.015433231 0.11879834 0.05716526 0.026399668
0002f0 c2 40 a2 3d b2 e1 93 3d 49 3a e4 bd 92 a0 04 be
       0.07922508 0.07220782 -0.111439295 -0.12951878
000300 d1 24 6d bd 21 ee 80 bc 22 37 4d 3d 18 3a d7 3d
       -0.05789644 -0.015738549 0.050101407 0.105091274
000310 56 49 e5 bd f1 0e 0f bd aa bc c5 bd d4 65 08 3e
       -0.11195628 -0.03492636 -0.096551254 0.13320094
000320 e3 2c 95 3d 20 1d d2 3d 82 6f e3 bc 13 c3 84 bd
       0.07283952 0.102594614 -0.027763132 -0.0648252
000330 23 82 b2 bd 94 3f 30 3c 97 97 66 3c a7 c6 b4 3c
       -0.08716228 0.010757346 0.014074228 0.022067381
000340 76 ea cc 3d fd bd b8 bd a8 b6 c6 3d e1 e8 1e 3d
       0.100056574 -0.090206124 0.09702808 0.03879631
000350 4b 32 07 be ac 13 89 bd 7f 91 86 bd 4f 26 89 3c
       -0.13202779 -0.06693205 -0.0657072 0.0167419
000360 f0 53 ce 3d 66 2a 91 3d 50 46 c4 ba 14 e0 18 3e
       0.100746036 0.07088165 -0.0014974568 0.14929229
000370 21 21 43 3d c9 13 32 3d 63 f9 09 be a0 3a f9 bd
       0.047639016 0.0434759 -0.1347404 -0.12169385
000380 7d 9f d5 3d a1 eb 55 3d 19 0e 3a bd f7 ed ba bd
       0.104308106 0.052226666 -0.0454236 -0.091274194
000390 52 a1 9c bc 81 47 18 be 44 9a f7 3d c5 0b 6b 3d
       -0.019119892 -0.14871027 0.12089971 0.05738427
0003a0 67 30 0c 3d bc e4 f9 bd 0c 88 37 bd c0 6c b3 bd
       0.034225848 -0.12201831 -0.04480748 -0.08760977
0003b0 5b 09 97 3d 00 46 25 3e 20 1c 0d bc 36 f1 7b bd
       0.07374831 0.16139984 -0.008612663 -0.061509334
0003c0 15 87 ea 3d c1 66 6e bd 0b a8 83 bd 52 3f c1 bd
       0.11451546 -0.058203463 -0.06428536 -0.094359055
0003d0 48 0e 13 3d c4 76 c1 3d e8 47 da 3d ed e5 30 3d
       0.03590229 0.09446481 0.10658246 0.043188024
0003e0 cc 03 bf 3d 12 bc bb bd 7a b0 f8 3d c5 b2 3a bd
       0.09326896 -0.09166731 0.12143035 -0.045580644
0003f0 70 73 01 be 34 d6 8a 3d 78 e8 93 3c 14 9e 8a bc
       -0.12641692 0.06779137 0.018055186 -0.01692108

module.gcn_layers.0.bnEdges.batch_norm.weight f4 [50]
000000 28 f2 7f 3f 9e 4a 87 3f 86 f7 80 3f cd ac 78 3f
       0.99978876 1.0569646 1.0075538 0.97138673
000010 43 14 7f 3f 08 2d 81 3f 64 db 85 3f 6c 67 83 3f
       0.9964029 1.0091867 1.0457578 1.0265937
000020 70 b8 83 3f 80 16 84 3f 36 09 83 3f 4e 6d 81 3f
       1.0290661 1.0319366 1.0237186 1.0111482
000030 5e 64 84 3f f9 29 82 3f a7 64 7e 3f fd 09 82 3f
       1.034313 1.0169059 0.99372333 1.0159298
000040 ce ca 7a 3f d2 80 7c 3f f6 33 80 3f 50 e0 81 3f
       0.97965705 0.98634064 1.0015857 1.014658
000050 53 cc 80 3f 74 e1 79 3f 92 3f 82 3f f6 bb 82 3f
       1.0062355 0.9760964 1.017565 1.0213611
000060 ba 63 81 3f c7 4e 82 3f 4d f8 7a 3f 3e 50 78 3f
       1.0108559 1.0180291 0.98035127 0.9699744
000070 f8 3d 7c 3f 9d fe 7a 3f 44 69 88 3f 9b 3f 82 3f
       0.98532057 0.9804476 1.0657125 1.0175661
000080 73 21 7f 3f 75 aa 7b 3f 46 67 81 3f ac 7f 87 3f
       0.99660414 0.9830697 1.0109642 1.0585837
000090 07 36 7f 3f 11 97 80 3f b5 e2 84 3f 8f 75 87 3f
       0.99691814 1.0046102 1.0381685 1.0582751
0000a0 39 4c 7d 3f cc 70 84 3f e4 76 83 3f c4 47 81 3f
       0.9894443 1.0346923 1.0270658 1.0100026
0000b0 84 9d 82 3f f2 60 81 3f 3b c9 80 3f 7d b4 79 3f
       1.020432 1.010771 1.0061411 0.9754103
0000c0 c0 78 7e 3f a0 bb 84 3f
       0.99403 1.0369759

module.gcn_layers.0.bnEdges.batch_norm.bias f4 [50]
000000 5c c5 9a 3b b5 9b 06 bc e0 e8 14 3c 58 46 d8 bc
       0.004723234 -0.008215834 0.009088725 -0.02640073
000010 55 2c 5a 3c 5b a1 96 3c 32 d6 fc bc 63 7b 24 3d
       0.013316234 0.018387487 -0.030863855 0.040156733
000020 23 32 00 bd b4 a0 d4 3b 9c a8 fa 3c 0b 66 06 3c
       -0.031297814 0.006488884 0.030597977 0.00820304
000030 43 f4 06 3c 4b c6 dd 3c 9e 36 c8 3a 4f 75 c8 3c
       0.0082369475 0.027072093 0.0015275066 0.02447
000040 b7 ac 67 bc 57 3b 82 ba 93 1d 87 bb 8d 86 27 3d
       -0.0141402995 -0.0009935898 -0.0041233986 0.040899802
000050 90 ea 54 bb 29 df 9c bc 1e af 79 3c de 9d df 3c
       -0.0032488443 -0.01914938 0.015239505 0.027296957
000060 55 d0 ad 3c ed b4 25 3b c6 f1 03 3d 04 8c bb bc
       0.021217505 0.0025284842 0.032212995 -0.022893913
000070 4b e9 c3 3a 16 e6 df 3b b7 1f 89 bb 8a 72 aa 3c
       0.0014946846 0.0068328483 -0.004184689 0.02080657
000080 ac ba 0a 3d 87 45 54 bc 2a 73 18 bc 43 5e f7 bb
       0.03386943 -0.01295603 -0.009304801 -0.0075490787
000090 de 4a 1f 3a d9 2e ae 3c d4 a6 1d 3d 53 aa 6f 3c
       0.0006076525 0.021262573 0.038489178 0.014628011
0000a0 a0 a1 06 3c 14 18 1e 3d 72 5f 0d 3d c4 62 8a 3c
       0.008217245 0.03859718 0.034514852 0.016892798
0000b0 5e 34 d3 3c ca 2e ed 3c d9 b3 2c 3c 97 56 e3 bc
       0.025781807 0.028952975 0.010540926 -0.02775125
0000c0 83 54 d4 3b 99 23 08 3d
       0.006479801 0.033237074
