logs/deafult/checkpoint_epoch1.tar (torch, 489841 bytes, 103 tensors)

module.NodesEncoding.A1.weight f4 [50, 2]
-0.57981527 0.3763116 -0.58048207 -0.5721454 0.39259443 0.25989434 -0.3917299 -0.6811494
-0.21601029 0.18971221 0.3407263 -0.13683544 0.51449 -0.23569112 0.13486758 -0.4233092
-0.07952318 0.4542237 -0.3717893 0.5640005 -0.6359239 0.14217156 0.47151414 0.6661977
0.6229297 0.7006631 0.20880324 0.060516242 0.33332556 -0.35605752 0.3716517 -0.47034752
-0.2349663 -0.47887754 0.6496351 0.3300786 -0.1770169 -0.31739232 0.1690602 -0.43726078
-0.14340633 0.32412633 0.55267847 -0.38911635 -0.28621617 0.50290996 0.7071663 0.20411928
-0.70393956 -0.4829318 -0.115799494 0.5720382 -0.40657607 -0.4700837 -0.4444035 -0.21709085
0.101078734 0.5728586 -0.38116243 0.57688713 -0.292844 -0.5937096 -0.63894916 0.66839075
-0.696608 -0.015428681 0.06893681 0.07508665 0.08846372 0.5364679 -0.21142034 0.4330073
0.29379746 0.015062227 -0.12302245 -0.33029425 -0.57985085 0.4772661 0.36367354 0.62861174
0.33194828 -0.24986173 0.360121 0.65833163 0.65438 0.06343629 0.12707481 -0.40183955
0.34161878 -0.2927655 0.7010539 0.50406706 0.18521744 -0.14767106 -0.2878045 0.15890446
0.64747274 0.21233663 0.12939434 -0.31370533
00000000: c66e 14bf eaab c03e 799a 14bf 1f78 12bf
00000010: 2302 c93e df10 853e d290 c8be cf5f 2ebf
00000020: cd31 5dbe eb43 423e ad73 ae3e 971e 0cbe
00000030: 9eb5 033f 0359 71be ba1a 0a3e fcbb d8be
00000040: 0ddd a2bd 0290 e83e 2b5b bebe 5662 103f
00000050: e9cb 22bf 6c95 113e 4d6a f13e ef8b 2a3f
00000060: 5278 1f3f a85e 333f 84d0 553e e1df 773d
00000070: a6a9 aa3e 2c4d b6be 2249 be3e 64d1 f0be
00000080: 019b 70be 702f f5be 7c4e 263f 1000 a93e
00000090: eb43 35be 3f81 a2be 1e1e 2d3e a5e0 dfbe
000000a0: 1cd9 12be e3f3 a53e 567c 0d3f 423a c7be
000000b0: ed8a 92be b5be 003f da08 353f a504 513e
000000c0: 6235 34bf d642 f7be 4928 edbd 1871 123f
000000d0: bd2a d0be d0ae f0be db88 e3be 104d 5ebe
000000e0: 5e02 cf3d dca6 123f b927 c3be e0ae 133f
000000f0: a6ef 95be 5afd 17bf 2c92 23bf a81b 2b3f
00000100: e754 32bf 94c8 7cbc be2e 8d3d 08c7 993d
00000110: 782c b53d f655 093f 937e 58be 22b3 dd3e
00000120: 9f6c 963e 8fc7 763c 32f3 fbbd 541c a9be
00000130: 1b71 14bf 395c f43e 6b33 ba3e b3ec 203f
00000140: 20f5 a93e c1db 7fbe c861 b83e 6c88 283f
00000150: 7385 273f e3ea 813d e61f 023e eabd cdbe
00000160: a8e8 ae3e 5ce5 95be 4578 333f 8a0a 013f
00000170: a4a9 3d3e 1537 17be 1d5b 93be dab7 223e
00000180: c6c0 253f c66e 593e f37f 043e fc9d a0be

module.NodesEncoding.A1.bias f4 [50]
0.25836053 0.5650705 0.6426968 0.2426305 -0.0979142 0.30678424 0.5790308 -0.3079513
-0.18068577 -0.2829516 0.005437753 0.45594037 0.3583705 0.70706433 -0.54657745 0.30648574
-0.33516398 0.6202652 0.07601911 -0.27933848 -0.45134264 -0.47054955 -0.24437974 -0.42416424
0.35047463 -0.23999411 -0.5271409 0.038030688 -0.12814514 0.39748245 -0.3532163 -0.12090498
-0.3648689 -0.3791108 -0.18904555 0.45108986 -0.03347307 -0.28477046 0.042094436 0.5117387
0.62102276 0.01671089 0.6991748 0.16049328 0.49801123 0.69882435 -0.46307996 0.2675841
-0.040677022 0.18035235
00000000: d547 843e 76a8 103f c787 243f 2174 783e
00000010: 3d87 c8bd d312 9d3e 5d3b 143f cbab 9dbe
00000020: b105 39be 08df 90be 2e2f b23b 0471 e93e
00000030: 577c b73e 2b02 353f 80ec 0bbf b3eb 9c3e
00000040: 9d9a abbe b3c9 1e3f e8af 9b3d 7405 8fbe
00000050: 6216 e7be dfeb f0be af3e 7abe 0e2c d9be
00000060: 6971 b33e 04c1 75be b5f2 06bf 11c6 1b3d
00000070: 7b38 03be d282 cb3e c4d8 b4be 089d f7bd
00000080: 19d0 babe d01a c2be 2895 41be 40f5 e63e
00000090: 0f1b 09bd 6fcd 91be 376b 2c3d 4f01 033f
000000a0: 59fb 1e3f 47e5 883c 1ffd 323f 5a58 243e
000000b0: 54fb fe3e 27e6 323f d118 edbe c800 893e
000000c0: f39c 26bd 49ae 383e

module.EdgesEncoding.A2.weight f4 [25, 1]
0.08939772 -0.73674154 0.9390286 -0.6548306 -1.0060811 -0.8436257 0.27438733 -0.06638329
0.6283569 -0.14056027 0.03243934 0.5831059 0.85889655 0.07743876 -0.28559878 0.825209
0.69150895 0.56832314 0.095384605 0.4625668 0.71622884 0.90567046 0.16175738 -0.38992423
0.36788398
00000000: 2716 b73d 189b 3cbf 2e64 703f faa2 27bf
00000010: 44c7 80bf dbf7 57bf 7f7c 8c3e f6f3 87bd
00000020: ffdb 203f 08ef 0fbe 1ddf 043d 6e46 153f
00000030: a5e0 5b3f 3698 9e3d 013a 92be e640 533f
00000040: bb06 313f a07d 113f 0159 c33d 8ed5 ec3e
00000050: c65a 373f 05da 673f baa3 253e 26a4 c7be
00000060: 4a5b bc3e

module.EdgesEncoding.A2.bias f4 [25]
-0.13848792 0.064914435 -0.8987005 -0.192164 0.6084138 0.5768036 -0.20992717 0.08445237
-0.73408276 0.14485516 -0.44959646 0.7385231 -0.20176879 -0.12760732 0.31304854 0.7137556
0.75727606 -0.30543512 0.59938943 0.15554936 0.16821726 -0.3168807 0.4205127 0.16250946
0.40734828
00000000: c7cf 0dbe dcf1 843d 3c11 66bf a4c6 44be
00000010: 02c1 1b3f 67a9 133f 26f7 56be 5df5 ac3d
00000020: d9ec 3bbf e954 143e 8231 e6be da0f 3d3f
00000030: 7a9c 4ebe 7eab 02be e647 a03e b0b8 363f
00000040: d8dc 413f fe61 9cbe 9671 193f 5548 1f3e
00000050: 2541 2c3e 303e a2be 714d d73e e168 263e
00000060: f48f d03e

module.EdgesEncoding.A3.weight f4 [25, 1]
-0.4538826 0.054678842 -0.9239523 0.06756671 -0.9067308 0.19927341 -0.12605807 -0.5490191
0.8791385 -0.049879283 0.19925588 -0.07633951 0.6539131 0.3949951 0.025328778 -0.33886716
0.6479749 0.25676093 0.23031625 -0.225456 -0.6820855 -0.04205789 0.34596136 -0.44379386
0.39206386
00000000: 4d63 e8be ecf6 5f3d 2388 6cbf 6a60 8a3d
00000010: 821f 68bf 540e 4c3e 5e15 01be 848c 0cbf
00000020: 390f 613f 384e 4cbd bc09 4c3e e457 9cbd
00000030: d966 273f cc3c ca3e 4c7e cf3c ff7f adbe
00000040: afe1 253f 2b76 833e 06d8 6b3e f0dd 66be
00000050: 289d 2ebf e544 2cbd d921 b13e f338 e3be
00000060: 98bc c83e

module.EdgesEncoding.A3.bias f4 [25]
0.64231014 0.6826209 -0.1362812 0.28805766 -0.30539724 -0.3025972 0.6467935 -0.82462513
0.62676704 -0.2562797 -0.9313782 0.70268327 0.8817206 -0.74677944 0.2483764 -0.52457887
-0.24909563 -0.9914049 -0.31142452 0.23547238 0.99716026 0.18593922 -0.8118714 -0.75520116
-0.25214845
00000000: 706e 243f 3ec0 2e3f 4d8d 0bbe 4b7c 933e
00000010: 075d 9cbe 05ee 9abe 4294 253f a21a 53bf
00000020: ce73 203f 1837 83be cd6e 6ebf 0de3 333f
00000030: 71b8 613f f02c 3fbf 6256 7e3e cd4a 06bf
00000040: ed12 7fbe b6cc 7dbf 0973 9fbe ac1f 713e
00000050: e545 7f3f da66 3e3e ced6 4fbf dd54 41bf
00000060: 9a19 81be

module.gcn_layers.0.bnNodes.W1.weight f4 [50, 50]
0.14434351 0.015627395 -0.050437648 0.001377615 0.115386724 -0.078093246 -0.12397478 -0.14355394
0.068781205 0.10889231 0.14754224 -0.10513521 -0.02622492 0.018585157 0.066044606 -0.005087179
-0.1285796 -0.100386284 0.06973176 0.034261856 0.12470502 0.05745284 -0.024825813 -0.10064041
-0.006907066 -0.054657478 0.02542297 -0.091638856 -0.07575261 -0.033640236 0.13991961 -0.06882104
-0.085223295 0.07057586 -0.05420135 -0.111111335 -0.03555213 -0.032750227 0.032442063 0.06258596
0.039817262 0.029302485 0.071646 0.07008338 0.12545264 -0.13911323 0.03877853 -0.085426554
-0.0633932 -0.08810979 -0.004865883 -0.116302356 0.13465002 -0.05064171 -0.008931826 0.033909723
0.028187191 0.07383342 -0.11006604 -0.09609577 0.07994248 0.031006103 0.12304353 0.13211296
-0.013590675 -0.021851985 -0.09151571 -0.12596379 -0.136143 -0.08336235 0.033761095 -0.12192987
0.057094324 0.0070264246 -0.016574474 0.037429716 0.11560395 0.016296353 -0.1346033 -0.030144712
-0.08994452 0.018308315 0.096178174 0.098789066 0.07007116 -0.06982559 -0.094684236 0.11976792
-0.08001267 0.1392098 0.114320606 0.12052172 -0.037708133 -0.038500268 -0.14259082 -0.13516185
-0.07015886 0.014041676 0.13180587 -0.053009853 -0.11575789 -0.043354355 -0.008041691 0.033139274
-0.019953372 0.045842405 0.07924347 -0.12358703 -0.058349874 -0.12061559 0.04416195 -0.04415795
0.061795164 -0.05393504 0.07322172 0.08945521 0.110791214 -0.014584499 -0.010729594 -0.049449522
-0.1358098 -0.105079755 -0.09947342 0.027581485 -0.07652719 0.14209402 -0.114693835 0.122662574
-0.10892446 -0.05934181 0.046781465 -0.03234952 -0.07465791 0.005196892 0.07197671 0.11899149
0.12253216 -0.12583132 0.03840128 0.01576795 -0.041433904 -0.09781426 0.047197457 0.07869767
-0.11211112 -0.05387474 -0.046228565 0.07030568 -0.08430649 -0.10994186 -0.12100713 -0.09846413
0.09945009 -0.029864665 -0.003019314 -0.0773249 0.029744264 0.055916157 -0.05904101 0.116705514
0.055253156 -0.08285997 0.021851154 0.103764765 0.07477302 -0.08369667 0.06298988 0.042974684
0.12770262 -0.061330758 0.03415161 0.12717365 0.09123801 0.024715312 0.07017886 0.0935561
-0.02177855 -0.068401575 0.13220623 -0.0079307305 0.023146814 -0.025759635 -0.11398194 0.13282083
-0.12716445 -0.10309202 0.033868413 -0.007850371 -0.07512423 0.110475026 -0.097523086 0.056367647
-0.07477317 0.11325548 -0.13118732 0.057524417 0.076730944 0.11557912 -0.12823051 -0.073442906
0.025640845 -0.04533115 -0.12239073 -0.10543684 -0.11519187 0.10675148 0.0012841233 -0.13450298
-0.13045411 -0.048588183 0.01353789 -0.03901864 0.001061799 -0.0774266 -0.06050265 -0.08888313
0.106232405 -0.039913755 -0.01185462 0.10174585 -0.045505833 -0.031245423 0.06723224 0.13752176
-0.004289497 0.027847875 -0.11031407 0.10429434 -0.06542951 0.09822614 -0.12607992 -0.06632476
-0.11998338 0.083074294 -0.029194824 -0.07796756 -0.078751735 0.0523319 -0.047364708 0.057269827
0.071980506 0.046136107 -0.058558576 0.13677098 -0.10732338 0.047727715 0.13104425 -0.07750021
-0.015290149 0.08838953 -0.03457824 -0.1326317 0.08290044 0.020065948 0.0070652226 0.11853578
00000000: c9ce 133e 0605 803c b597 4ebd 1791 b43a
00000010: e04f ec3d 5aef 9fbd 7de6 fdbd ceff 12be
00000020: 29dd 8c3d ee02 df3d 5015 173e 2151 d7bd
00000030: a5d5 d6bc e63f 983c 6542 873d 5ab2 a6bb
00000040: 5faa 03be 5397 cdbd 86cf 8e3d 2956 0c3d
00000050: 5865 ff3d ab53 6b3d 815f cbbc 8f1c cebd
00000060: ab54 e2bb 85e0 5fbd d543 d03c 27ad bbbd
00000070: 2f24 9bbd 58ca 09bd 1647 0f3e 0cf2 8cbd
00000080: 8d89 aebd 148a 903d 3c02 5ebd 578e e3bd
00000090: 1c9f 11bd 1a25 06bd f8e1 043d 112d 803d
000000a0: 6d17 233d c40b f03c 23bb 923d e087 8f3d
000000b0: a876 003e b373 0ebe 3cd6 1e3d 1ef4 aebd
000000c0: 4bd4 81bd e872 b4bd fc71 9fbb ee2f eebd
000000d0: b2e1 093e af6d 4fbd cb56 12bc ece4 0a3d
000000e0: d3e8 e63c fa35 973d 4e6a e1bd dccd c4bd
000000f0: e2b8 a33d 8300 fe3c 3ffe fb3d 9f48 073e
00000100: 6cab 5ebc ef02 b3bc 976c bbbd a7fc 00be
00000110: 1269 0bbe e1b9 aabd 1349 0a3d 5eb6 f9bd
00000120: bddb 693d ec3d e63b 31c7 87bc e74f 193d
00000130: c4c1 ec3d ee7f 853c 73d5 09be 0bf2 f6bc
00000140: d534 b8bd 52fb 953c 10f9 c43d ec51 ca3d
00000150: 7881 8f3d b800 8fbd cfe9 c1bd e248 f53d
00000160: afdd a3bd 048d 0e3e ec20 ea3d 17d4 f63d
00000170: d873 1abd 75b2 1dbd 5403 12be de67 0abe
00000180: 73af 8fbd 0f0f 663c 1ef8 063e dc20 59bd
00000190: 7912 edbd 5694 31bd 4cc1 03bc 0cbd 073d
000001a0: 4175 a3bc 3fc5 3b3d 674a a23d 321b fdbd
000001b0: 4700 6fbd 4e05 f7bd 29e3 343d f7de 34bd
000001c0: ed1c 7d3d fdea 5cbd 45f5 953d 4b34 b73d
000001d0: 81e6 e23d d3f3 6ebc 2ecb 2fbc 958b 4abd
000001e0: b911 0bbe 0e34 d7bd b8b8 cbbd 91f2 e13c
000001f0: 4aba 9cbd 1881 113e 9ae4 eabd 8436 fb3d
00000200: ca13 dfbd 6610 73bd ec9d 3f3d ee80 04bd
00000210: 3fe6 98bd b14a aa3b 8668 933d cfb1 f33d
00000220: 24f2 fa3d edd9 00be a94a 1d3d ca2b 813c
00000230: 99b6 29bd d852 c8bd 1f52 413d 3e2c a13d
00000240: 849a e5bd c2ab 5cbd 2a5a 3dbd 6dfc 8f3d
00000250: e2a8 acbd 3329 e1bd 96d2 f7bd 90a7 c9bd
00000260: 7dac cb3d bea6 f4bc afdf 45bb 845c 9ebd
00000270: 3eaa f33c 5708 653d fcd4 71bd 4d03 ef3d
00000280: 2251 623d 7db2 a9bd 3101 b33c 9f82 d43d
00000290: 9922 993d 2969 abbd d700 813d 3906 303d
000002a0: 7ac4 023e f635 7bbd 8fe2 0b3d cf39 023e
000002b0: feda ba3d c477 ca3c efb9 8f3d 579a bf3d
000002c0: ee68 b2bc 2016 8cbd 1261 073e e5ef 01bc
000002d0: 639e bd3c df05 d3bc 5d6f e9bd 2f02 083e
000002e0: 6637 02be e921 d3bd 9bb9 0a3d d89e 00bc
000002f0: bbda 99bd bb40 e23d 2fba c7bd c3e1 663d
00000300: ad22 99bd 7df2 e73d f855 06be b99e 6b3d
00000310: 1d25 9d3d bfb4 ec3d dc4e 03be 3c69 96bd
00000320: c00c d23c 28ad 39bd fea7 fabd 45ef d7bd
00000330: b7e9 ebbd 85a0 da3d 0750 a83a 26bb 09be
00000340: c395 05be 6704 47bd 07ce 5d3c 02d2 1fbd
00000350: 102c 8b3a d691 9ebd a0d1 77bd 5c08 b6bd
00000360: 6090 d93d 9b7c 23bd e139 42bc 2160 d03d
00000370: 5364 3abd 67f6 ffbc 0fb1 893d 81d2 0c3e
00000380: e98e 8cbb 3a21 e43c 58ec e1bd 4598 d53d
00000390: e8ff 85bd c92a c93d 181b 01be 47d5 87bd
000003a0: d9b9 f5bd db22 aa3d fc29 efbc 75ad 9fbd
000003b0: 9748 a1bd f959 563d 7f01 42bd c493 6a3d
000003c0: 846a 933d 37f9 3c3d 1edb 6fbd b10d 0c3e
000003d0: 5ccc dbbd 237e 433d 7730 063e 6eb8 9ebd
000003e0: 8883 7abc 9205 b53d eaa1 0dbd 9bd0 07be
000003f0: b5c7 a93d 5861 a43c 6283 e73b e3c2 f23d

module.gcn_layers.0.bnNodes.W2.weight f4 [50, 50]
-0.10064644 0.10560165 -0.022578001 0.12879123 -0.096335806 0.04420699 -0.008292441 -0.027927574
0.11227012 -0.019761484 0.010548662 -0.098864675 -0.118574984 0.1444606 -0.038451426 0.05625
-0.014738956 -0.101480715 0.1249761 0.009758048 0.067678176 0.037531346 -0.11147484 -0.03920725
0.08645953 -0.06405324 -0.08497726 -0.10580386 -0.0019474748 0.03991898 -0.12518667 0.07383243
-0.06608761 0.042492304 -0.07318016 0.12714809 -0.09237262 0.048262354 -0.08310001 -0.012336856
0.11469308 0.07688333 -0.045858927 0.06262347 -0.044755075 -0.0645825 -0.02758731 0.112154946
0.082624964 -0.12062321 0.1117902 0.006988077 0.12303682 0.010010683 -0.023575777 -0.0756675
-0.03571236 -0.045642834 0.05037499 -0.06949115 -0.13291846 -0.090192415 0.09565132 0.013904793
-0.020479992 -0.017951475 0.13649848 0.07460751 -0.0024873714 0.10524883 0.13144086 0.13564943
0.0022020927 0.08204627 -0.039588567 0.032665048 0.12579139 -0.12418645 -0.01711584 0.11572565
-0.11487954 -0.023608487 -0.044965934 0.06947419 0.0011397263 -0.13895127 -0.1077404 0.07496566
0.0030390257 0.13164502 0.016239826 0.11256167 0.05608386 -0.12562244 0.09664952 0.023978679
-0.051596317 0.0416125 -0.06143673 -0.047067523 -0.033131458 0.08062234 -0.118268915 -0.07662787
0.12791595 0.11391424 0.14591435 -0.04636594 -0.031495064 -0.14522846 -0.122449756 0.01795499
-0.0022155836 -0.023920408 -0.051513754 -0.077151775 0.09229663 0.056634218 -0.019184772 0.14448571
-0.006131317 0.11954385 -0.020491984 -0.0386768 -0.11641142 -0.08617239 -0.079077005 -0.075859815
0.12887418 -0.14365913 0.120738596 -0.10033667 -0.14901465 0.060795147 -0.10950515 -0.06126071
0.058797337 -0.061274037 0.024163192 0.09240294 0.0024251274 -0.069811106 -0.0682997 0.035446014
-0.057408027 -0.059691347 0.07994774 0.0005221181 0.063477844 0.07656564 -0.13662593 0.010734374
0.019315723 -0.0007252802 -0.00022806299 -0.029465593 -0.12292048 0.10851718 -0.008503497 -0.024377804
0.11748604 -0.056608684 -0.07673393 -0.021033015 -0.09853911 -0.077467196 -0.05810675 0.13673048
-0.034543104 -0.13353851 -0.018700749 -0.06330998 -0.09232056 -0.05080654 -0.13657106 -0.05579387
-0.12647249 -0.055656753 -0.13572009 0.023621969 0.024316464 -0.07529117 -0.005783539 -0.09330825
-0.11181289 0.0032358766 -0.03071962 -0.11917651 0.08021937 0.033971038 -0.14601916 -0.102670334
0.06288973 0.021071477 0.08546529 0.0034909607 0.0032428873 -0.06791019 -0.060640182 -0.10894128
0.049015176 0.11224824 0.053424057 -0.034892146 0.01631732 -0.14542362 -0.024176942 0.11752001
-0.019317035 0.008753866 0.13839324 0.107482366 -0.015558953 -0.13716139 0.12157783 0.05821557
-0.005771639 0.12103252 0.049485195 -0.020941237 0.12646616 0.028621702 0.0791124 0.00038980995
0.07000335 -0.027712435 0.032254495 -0.14197965 0.10250645 0.03128398 0.07729437 -0.081544265
-0.006117499 0.031069797 -0.01219521 -0.036672726 0.06294225 0.02806748 -0.13052064 0.024215028
0.0872479 0.117710635 0.09608176 0.079981245 -0.0041130143 -0.11916733 -0.0935259 0.03419322
-0.045687806 -0.066709265 -0.03570452 0.06298489 -0.047146473 -0.07822714 -0.011354375 0.15106189
00000000: b91f cebd ae45 d83d 80f5 b8bc d9e1 033e
00000010: b54b c5bd 6412 353d 05dd 07bc 5ec8 e4bc
00000020: e0ed e53d d6e2 a1bc 4cd4 2c3c 9079 cabd
00000030: 71d7 f2bd 7bed 133e 3e7f 1dbd 6666 663d
00000040: a97b 71bc 1fd5 cfbd 78f3 ff3d 38e0 1f3c
00000050: db9a 8a3d 78ba 193d ec4c e4bd c897 20bd
00000060: b211 b13d 582e 83bd 8f08 aebd b2af d8bd
00000070: 6942 ffba 1682 233d ef30 00be 7535 973d
00000080: f158 87bd 690c 2e3d 7bdf 95bd 1c33 023e
00000090: db2d bdbd bfae 453d 5730 aabd 8620 4abc
000000a0: 35e4 ea3d 0275 9d3d 92d6 3bbd bc40 803d
000000b0: 1951 37bd d443 84bd c8fe e1bc 7eb1 e53d
000000c0: 4737 a93d 4d09 f7bd 43f2 e43d 3dfc e43b
000000d0: bafa fb3d d903 243c fd21 c1bc 90f7 9abd
000000e0: 2047 12bd fbf3 3abd 0156 4e3d 6051 8ebd
000000f0: c71b 08be cdb6 b8bd d7e4 c33d eed0 633c
00000100: a8c5 a7bc f90e 93bc 42c6 0b3e d2cb 983d
00000110: 2b03 23bb b38c d73d 6f98 063e afe7 0a3e
00000120: fc50 103b e007 a83d 9f27 22bd c9cb 053d
00000130: 75cf 003e 7755 febd 8536 8cbc 9201 ed3d
00000140: f745 ebbd 9666 c1bc 332e 38bd 7c48 8e3d
00000150: de62 953a 3e49 0ebe 00a7 dcbd 9987 993d
00000160: 642a 473b f4cd 063e 6209 853c bc86 e63d
00000170: 31b8 653d 2ba3 00be 2ff0 c53d ef6e c43c
00000180: a956 53bd de71 2a3d 15a5 7bbd e0c9 40bd
00000190: dab4 07bd 531d a53d f936 f2bd 13ef 9cbd
000001a0: 66fc 023e de4b e93d 926a 153e 36ea 3dbd
000001b0: f800 01bd c5b6 14be f0c6 fabd 5816 933c
000001c0: 5333 11bb bbf4 c3bc 1600 53bd c001 9ebd
000001d0: 0406 bd3d 48f9 673d 6229 9dbc 10f4 133e
000001e0: 37e9 c8bb 68d3 f43d cede a7bc 906b 1ebd
000001f0: 1c69 eebd 267b b0bd 20f3 a1bd 645c 9bbd
00000200: 98f7 033e 611b 13be cc45 f73d 507d cdbd
00000210: 4c97 18be 5504 793d 3c44 e0bd 83ec 7abd
00000220: 7ad5 703d 7cfa 7abd e3f1 c53c c13d bd3d
00000230: e3ee 1e3b 20f9 8ebd b7e0 8bbd d72f 113d
00000240: ae24 6bbd ea7e 74bd a4bb a33d c1de 083a
00000250: ac00 823d 72ce 9c3d abe7 0bbe 3adf 2f3c
00000260: 023c 9e3c bb20 3eba 3124 6fb9 d461 f1bc
00000270: bcbd fbbd 413e de3d 4052 0bbc f6b3 c7bc
00000280: 859c f03d 82de 67bd ae26 9dbd 6e4d acbc
00000290: dfce c9bd 1fa7 9ebd 5801 6ebd 1303 0c3e
000002a0: 127d 0dbd 52be 08be 5032 99bc aaa8 81bd
000002b0: 9012 bdbd 851a 50bd 49d9 0bbe 1d88 64bd
000002c0: 0182 01be 56f8 63bd 35fa 0abe dc82 c13c
000002d0: 5233 c73c 4232 9abd d783 bdbb 6518 bfbd
000002e0: 28fe e4bd 0011 543b b6a7 fbbc d012 f4bd
000002f0: 0e4a a43d 3725 0b3d 0c86 15be d344 d2bd
00000300: 55cc 803d 179e ac3c 6d08 af3d 9ac8 643b
00000310: 9f86 543b 7f14 8bbd d761 78bd 9b1c dfbd
00000320: 23c4 483d 68e2 e53d 2fd3 5a3d 11eb 0ebd
00000330: e6ab 853c eee9 14be b90e c6bc 55ae f03d
00000340: c23e 9ebc 606c 0f3c f5b6 0d3e b71f dc3d
00000350: fbea 7ebc 0974 0cbe ccfd f83d 7373 6e3d
00000360: 0420 bdbb e6df f73d fdb0 4a3d f58c abbc
00000370: 5880 013e 0f78 ea3c af05 a23d 685f cc39
00000380: eb5d 8f3d 3005 e3bc 4a1d 043d 1d63 11be
00000390: e7ee d13d a123 003d 834c 9e3d ae00 a7bd
000003a0: 4d75 c8bb 1686 fe3c 6bce 47bc 2436 16bd
000003b0: dee7 803d c6ed e53c 34a7 05be 985e c63c
000003c0: 07af b23d 4612 f13d 84c6 c43d 35cd a33d
000003d0: 77c6 86bb 000e f4bd 828a bfbd 310e 0c3d
000003e0: 2323 3bbd de9e 88bd e73e 12bd 39fe 803d
000003f0: a91c 41bd 8d35 a0bd b307 3abc f8af 1a3e

module.gcn_layers.0.bnNodes.batch_norm.weight f4 [50]
0.9907648 0.990712 0.9836786 0.9864189 1.0091517 1.0081338 0.99663925 0.98959666
0.9865159 1.004515 0.98661894 1.0079781 1.00158 1.0015761 1.0027164 0.99710065
1.0058833 1.000712 0.99051934 0.98715603 0.9880891 1.0108477 0.99290925 0.99339443
0.9987019 0.99138427 1.0108272 0.9850116 1.005228 0.99681026 1.0046369 1.0020965
1.0076799 1.0003973 1.0064676 0.99650925 1.011515 0.9973759 0.99454033 0.99058414
1.0078801 0.995545 0.9972363 0.98182625 0.9832541 0.99864125 0.98359704 0.98675233
0.9879926 0.9850459
00000000: c3a2 7d3f 4d9f 7d3f 5cd2 7b3f f385 7c3f
00000010: e22b 813f 870a 813f c023 7f3f 3556 7d3f
00000020: 4e8c 7c3f f393 803f 0f93 7c3f 6d05 813f
00000030: c633 803f a533 803f 0359 803f fd41 7f3f
00000040: c9c0 803f 5517 803f ad92 7d3f 42b6 7c3f
00000050: 68f3 7c3f 7563 813f 4d2f 7e3f 194f 7e3f
00000060: edaa 7f3f 5ccb 7d3f c962 813f b829 7c3f
00000070: 50ab 803f f52e 7f3f f197 803f b344 803f
00000080: a8fb 803f 050d 803f eed3 803f 3b1b 7f3f
00000090: 5379 813f 0754 7f3f 329a 7e3f ec96 7d3f
000000a0: 3702 813f 0adc 7e3f e14a 7f3f f758 7b3f
000000b0: 8ab6 7b3f f4a6 7f3f 04cd 7b3f cd9b 7c3f
000000c0: 15ed 7c3f f82b 7c3f

module.gcn_layers.0.bnNodes.batch_norm.bias f4 [50]
-0.0062036803 -0.011597886 -0.012853677 -0.008190961 0.012657508 0.011193268 0.0019416673 -0.011760518
-0.01354023 0.0050371606 -0.010505627 0.00872148 -0.0012460132 0.0069529815 -0.0004291276 -0.0018338127
0.0018728927 0.004325766 -0.008314346 0.00016719016 -0.0043898122 0.0115150865 0.00082607544 0.0038613328
-0.0033078555 -0.004665109 0.010989957 -0.012197769 0.0064692874 -0.005792443 0.008523169 0.008042198
0.010773773 0.00011107116 0.0050764624 -0.0035619917 0.014901444 0.0051873415 -0.0039575677 -0.008543269
0.009937871 0.00027733447 -0.0058643124 -0.014316907 -0.009612547 -0.0046276394 -0.010787501 -0.013823031
-0.011735149 -0.0142223835
00000000: 3e48 cbbb 0f05 3ebc 3b98 52bc 6133 06bc
00000010: 7061 4f3c f863 373c 8b7f fe3a 30af 40bc
00000020: d7d7 5dbc c40e a53b cb1f 2cbc 8ae4 0e3c
00000030: 4451 a3ba d6d5 e33b 88fc e0b9 8b5c f0ba
00000040: da7b f53a 28bf 8d3b e538 08bc c44f 2f39
00000050: 6ad8 8fbb c6a9 3c3c fc8c 583a 6a0e 7d3b
00000060: 9bc8 58bb c5dd 98bb 380f 343c 27d9 47bc
00000070: 51fc d33b 89ce bdbb c3a4 0b3c 6cc3 033c
00000080: 7b84 303c e0ee e838 7458 a63b 4e70 69bb
00000090: 3025 743c 93fa a93b 7cae 81bb 11f9 0bbc
000000a0: 74d2 223c 3467 9139 6b29 c0bb 7691 6abc
000000b0: f27d 1dbc 74a3 97bb 0fbe 30bc ff79 62bc
000000c0: c844 40bc 0005 69bc

module.gcn_layers.0.bnEdges.W3.weight f4 [50, 50]
0.022581697 0.04987608 -0.025627524 0.025679627 0.012839004 -0.061960753 0.01818991 0.08259895
0.039062157 0.12408586 0.105865024 -0.026963243 0.014805587 0.07466013 -0.06528213 -0.06210555
-0.14149515 -0.09084185 -0.013078025 -0.13042197 0.13043775 -0.0055775503 0.059571266 0.08996204
-0.14096509 -0.08266084 -0.04946316 0.02068406 -0.107870705 -0.10227385 -0.011106485 0.045578316
-0.11404596 0.033711582 -0.056283463 -0.015333918 0.008988008 -0.07152998 -0.03957519 -0.08978941
0.094235845 -0.10213613 -0.065260045 -0.12561783 0.106120035 -0.07132133 -0.07953021 -0.10636495
0.059372615 -0.094056115 0.119497724 -0.04680255 -0.114463344 -0.0813565 -0.04530474 -0.07899456
0.022402221 -0.07369735 0.026878415 -0.05464578 -0.032172844 0.08076828 0.0151111875 0.1507619
-0.12644093 -0.034144107 0.13804197 -0.11585972 -0.064515084 -0.02945423 -0.120111495 0.11171991
-0.09978767 0.03864619 0.054400373 0.038599644 0.13353762 0.03556025 0.09357111 -0.012110036
0.021936638 -0.08476086 -0.1534442 0.15245442 0.0025625052 -0.09089616 0.045555584 0.12939495
0.058932126 0.036956217 0.09974813 0.13125105 0.13042365 0.026013995 -0.13196011 -0.055158537
0.10826987 0.06861324 -0.059180904 0.018866284 -0.09405265 -0.02108782 0.12226086 0.022728967
-0.03225121 -0.011392014 -0.114839286 0.08220948 -0.12735704 -0.08025359 0.003055996 0.054666717
0.06120594 -0.01418798 0.113171466 -0.14424324 -0.10859972 -0.049176324 0.101755805 0.062082946
-0.12899421 -0.13057622 -0.13974616 -0.12586936 0.09710802 0.0036428203 -0.017972695 -0.0001659061
-0.07635264 0.09070974 -0.040051755 0.108672574 -0.11496339 -0.095748454 0.09701756 0.0070657707
-0.12304527 0.033714514 -0.021180352 -0.06372394 0.1390154 -0.1121352 0.05177323 -0.058917765
0.060002297 -0.118330985 -0.05324654 0.03145653 -0.07490985 0.027386107 0.10019032 -0.07292034
0.05188295 0.05546618 0.020153463 -0.09008553 -0.043470174 -0.019667117 -0.0007951268 -0.110241555
0.10658816 0.032869086 -0.039398655 0.059863694 -0.011800739 0.072665155 0.13226824 -0.03577734
-0.049366806 0.09025956 -0.039891407 0.10398674 0.0016768905 -0.06908849 0.12899217 -0.012519453
0.10032909 0.066831164 -0.13610803 0.029055445 0.10262905 0.102974765 0.14505564 -0.12300927
0.07612208 -0.1346345 -0.12544502 -0.07991402 -0.03858921 0.043718603 -0.07469548 -0.048267152
-0.12428447 0.045923337 0.009763469 0.016162468 0.051213037 -0.008959012 0.08889826 -0.08814323
0.038343877 0.12882845 0.059076138 0.007869593 -0.101775266 0.13838193 -0.11775728 0.15331903
0.039498314 0.13011767 0.077749595 0.090856485 -0.13315682 -0.082807414 -0.059407957 0.05033048
-0.0524993 -0.024211107 -0.15140574 0.05802838 -0.07308005 0.07169733 -0.074266694 0.14811414
-0.0050998596 0.014263404 0.026449794 -0.13143215 -0.0068528554 0.081603564 -0.017996263 0.0100077195
0.09965513 0.12678394 -0.13523494 0.08120976 0.030149328 0.04001081 -0.045429554 -0.07735143
-0.09341803 -0.02094619 0.020660762 -0.0639886 0.07004667 0.13295998 0.042908944 0.09388915
0.09590292 -0.047510512 0.117702104 -0.087756634 -0.11799047 -0.00074137596 -0.054101218 0.039682504
00000000: 40fd b83c dc4a 4c3d d0f0 d1bc 155e d23c
00000010: b05a 523c 8fca 7dbd 0203 953c a329 a93d
00000020: a4ff 1f3d ba20 fe3d c3cf d83d 05e2 dcbc
00000030: 2293 723c 69e7 983d a3b2 85bd 6462 7ebd
00000040: 1be4 10be 4b0b babd 3645 56bc 568d 05be
00000050: 7991 053e e2c3 b6bb 0001 743d 053e b83d
00000060: 2759 10be 164a a9bd e299 4abd 9e71 a93c
00000070: 51eb dcbd f474 d1bd f9f7 35bc 54b0 3a3d
00000080: ee90 e9bd 2815 0a3d 7d89 66bd 1d3b 7bbc
00000090: 7042 133c 4f7e 92bd 9819 22bd 83e3 b7bd
000000a0: b9fe c03d bf2c d1bd 0fa7 85bd f6a1 00be
000000b0: 7655 d93d eb10 92bd bce0 a2bd ded5 d9bd
000000c0: b330 733d 7ea0 c0bd 39bb f43d 08b4 3fbd
000000d0: c26b eabd 3d9e a6bd 7791 39bd e6c7 a1bd
000000e0: dd84 b73c a3ee 96bd 1f30 dc3c 41d4 5fbd
000000f0: acc7 03bd d769 a53d ea94 773c 5461 1a3e
00000100: bb79 01be b1da 0bbd e05a 0d3e dc47 edbd
00000110: 7c20 84bd ff49 f1bc 04fd f5bd 68cd e43d
00000120: 7a5d ccbd 784b 1e3d edd2 5e3d a91a 1e3d
00000130: 16be 083e a0a7 113d 36a2 bf3d 2c69 46bc
00000140: 77b4 b33c 1a97 adbd 7a20 1dbe 031d 1c3e
00000150: b4ef 273b c427 babd 7e98 3a3d 1c80 043e
00000160: d062 713d 675f 173d bf48 cc3d ad66 063e
00000170: c78d 053e 4d1b d53c 8d20 07be ebed 61bd
00000180: 98bc dd3d 1985 8c3d ad67 72bd 778d 9a3c
00000190: ad9e c0bd 5dc0 acbc e763 fa3d 1932 ba3c
000001a0: d819 04bd 92a5 3abc dc30 ebbd 725d a83d
000001b0: e269 02be ff5b a4bd 1b47 483b 35ea 5f3d
000001c0: 14b3 7a3d b474 68bc 71c6 e73d 80b4 13be
000001d0: 8869 debd 1d6d 49bd 5965 d03d b04a 7e3d
000001e0: 0f17 04be c6b5 05be 9e19 0fbe e6e3 00be
000001f0: 92e0 c63d 62bc 6e3b 793b 93bc 14f7 2db9
00000200: c65e 9cbd 07c6 b93d 4f0d 24bd ba8f de3d
00000210: ed71 ebbd c417 c4bd 24b1 c63d fb87 e73b
00000220: 29ff fbbd 3b18 0a3d 6b82 adbc b281 82bd
00000230: 0e5a 0e3e 24a7 e5bd 2b10 543d c153 71bd
00000240: f8c4 753d 8457 f2bd 0b19 5abd 90d8 003d
00000250: 566a 99bd d458 e03c 9530 cd3d 4257 95bd
00000260: 3783 543d 8130 633d e018 a53c c37e b8bd
00000270: c80d 32bd ef1c a1bc 0e70 50ba 53c6 e1bd
00000280: e54a da3d bca1 063d 7c60 21bd a233 753d
00000290: e357 41bc 78d1 943d 5371 073e 438b 12bd
000002a0: d934 4abd 01da b83d 2c65 23bd 00f7 d43d
000002b0: 1ccb db3a 447e 8dbd 8616 043e 641e 4dbc
000002c0: 5779 cd3d c7de 883d e75f 0bbe af05 ee3c
000002d0: 2e2f d23d 6fe4 d23d 7789 143e 49ec fbbd
000002e0: e5e5 9b3d a0dd 09be a974 00be f6a9 a3bd
000002f0: b80f 1ebd 4712 333d f2f9 98bd c7b3 45bd
00000300: db88 febd 1c1a 3c3d f5f6 1f3c 2767 843c
00000310: c3c4 513d d2c8 12bc 4a10 b63d 7084 b4bd
00000320: 780e 1d3d 9beb 033e d2f9 713d 77ef 003c
00000330: 8d6f d0bd feb3 0d3e bb2a f1bd aaff 1c3e
00000340: fcc8 213d 913d 053e 2e3b 9f3d f712 ba3d
00000350: 435a 08be ef96 a9bd c255 73bd 5527 4e3d
00000360: 8209 57bd 5f56 c6bc 1b0a 1bbe 2baf 6d3d
00000370: feaa 95bd 0dd6 923d 2319 98bd 3cab 173e
00000380: b91c a7bb 0db1 693c 3dad d83c 2696 06be
00000390: eb8d e0bb c51f a73d e66c 93bc 6bf7 233c
000003a0: fd17 cc3d a6d3 013e 077b 0abe 4d51 a63d
000003b0: b9fb f63c 60e2 233d 5714 3abd 6d6a 9ebd
000003c0: f451 bfbd 5897 abbc c240 a93c 750c 83bd
000003d0: a174 8f3d a926 083e 4ac1 2f3d f448 c03d
000003e0: c068 c43d 629a 42bd cd0d f13d c0b9 b3bd
000003f0: fda4 f1bd e658 42ba 3d99 5dbd 1f8a 223d

module.gcn_layers.0.bnEdges.W4.weight f4 [50, 50]
-0.032083273 0.103949405 0.10740644 0.014896666 0.06299568 0.057689145 0.07990736 0.042791437
-0.11168797 -0.012281194 -0.10774431 0.08506677 0.036166225 -0.066353716 0.1158038 -0.07220823
-0.092560664 -0.123395324 -0.043247253 0.023998661 0.141435 0.019162891 -0.06408244 0.0867921
0.11879798 0.08276314 -0.050982315 0.09514721 -0.04493138 -0.024378195 0.0048139086 -0.06250484
-0.12930924 -0.10985434 -0.122136205 0.09372482 0.047088396 0.04224216 -0.07703925 -0.092319086
-0.1132446 0.051903598 -0.032016043 0.07009801 0.07027864 -0.10429542 0.027095582 0.13198996
0.002974023 -0.06135681 0.07599964 0.14085129 -0.10698649 0.068189174 -0.03497094 0.022769257
0.1006667 0.10651892 -0.13412881 -0.0074287346 0.09979574 0.122111544 0.06817921 0.029490689
0.019448154 -0.12709884 0.060269922 -0.08714945 0.02884382 0.13351709 0.037873667 -0.044852436
-0.010484289 -0.0360882 0.09553954 -0.03242751 0.044904962 0.009170856 0.12489937 -0.05020962
-0.081488624 -0.04634742 0.051195752 -0.1422094 -0.11243019 0.020062333 -0.08857804 -0.06300617
0.03772451 0.08696973 0.073054165 -0.11543043 0.09481971 -0.07584749 0.13376525 0.10945992
-0.015145499 0.041280814 0.02167543 -0.036542177 -0.0044096727 -0.09224708 0.053416867 0.05969422
-0.07016064 -0.045226935 -0.022691997 -0.08612002 -0.09812607 0.07753548 -0.049088072 -0.067719236
0.13000931 -0.0635859 0.13408808 -0.11135988 0.066940404 0.082546696 0.13203706 -0.1337543
0.09309179 -0.112806484 -0.041300695 -0.10490301 0.00869203 0.016808799 0.033499356 0.01912666
0.04691395 -0.037771944 0.089340374 -0.0023652252 -0.11497381 0.14033356 0.096247286 -0.014225034
0.07037717 -0.046535823 0.10782563 -0.117889106 -0.12331517 -0.0648445 -0.103958964 0.087665714
0.0005165669 -0.053324077 -0.06822503 -0.11592529 0.010109536 -0.13346165 -0.11452795 0.037826013
0.0009792662 0.087180935 0.012727347 -0.11626398 0.08108224 0.10094411 0.03654976 0.020992652
0.039506536 0.025297888 -0.07743734 -0.0668947 0.027200798 0.1374848 0.005594708 0.0024024167
-0.089946724 -0.06029243 0.045846246 0.0073053953 0.13432598 0.06565497 -0.013227945 -0.05107397
-0.09756686 0.01145882 -0.008343764 0.07439069 0.05461625 0.012942716 0.096672885 0.024783127
0.06258412 -0.10404959 -0.056179427 0.09069391 0.08948297 0.08023913 0.04696645 -0.002096416
-0.14768125 -0.08425486 0.10168783 -0.048627164 0.11032018 -0.11223867 -0.055280138 0.006566256
-0.07635594 0.10573468 0.101141825 -0.047288965 0.14003709 0.08399944 0.10814368 -0.10169712
-0.120532244 0.015602942 0.01732443 0.058580503 -0.120654315 0.11873447 0.00057645125 0.091543995
0.0697798 0.07398392 -0.053525485 -0.008250883 -0.12285435 0.0025527973 -0.058500193 -0.104096316
0.047019374 -0.10340392 0.08624983 -0.09513387 0.0076192827 0.041032884 0.13495114 -0.055486787
-0.114866115 -0.09013912 -0.07090932 -0.067951985 -0.10426983 0.14683563 0.0046736696 -0.11910277
0.030285515 0.011679847 0.014959787 0.03223703 0.031956088 0.08505343 0.06278309 0.025984457
0.103375584 0.006505253 -0.0564927 -0.03695946 0.0027190375 -0.05821864 0.13766335 0.03499434
00000000: c069 03bd 6de3 d43d e8f7 db3d 2511 743c
00000010: e103 813d 744b 6c3d 78a6 a33d 1346 2f3d
00000020: aabc e4bd 1037 49bc 0ca9 dcbd 7d37 ae3d
00000030: 0923 143d 75e4 87bd 8b2a ed3d e9e1 93bd
00000040: 7290 bdbd b0b6 fcbd 0824 31bd d798 c43c
00000050: 56d4 103e 7ffb 9c3c a83d 83bd 0ec0 b13d
00000060: 5b4c f33d b97f a93d d5d2 50bd 8adc c23d
00000070: f709 38bd c8b4 c7bc febd 9d3b 8a02 80bd
00000080: a469 04be 50fb e0bd 8c22 fabd ccf2 bf3d
00000090: c3df 403d 1d06 2d3d c1c6 9dbd ca11 bdbd
000000a0: c9ec e7bd de98 543d 4123 03bd 8c8f 8f3d
000000b0: 3fee 8f3d d698 d5bd 8ef7 dd3c 6028 073e
000000c0: d4e7 423b 4751 7bbd b3a5 9b3d 523b 103e
000000d0: bc1b dbbd c4a6 8b3d b03d 0fbd 9886 ba3c
000000e0: 582a ce3d 9726 da3d 1059 09be be6c f3bb
000000f0: b561 cc3d 9e15 fa3d 8ba1 8b3d 7596 f13c
00000100: bc51 9f3c 3326 02be 98dd 763d 697b b2bd
00000110: e049 ec3c b4b8 083e 6b21 1b3d 30b7 37bd
00000120: 4cc6 2bbc 38d1 13bd 3caa c33d b5d2 04bd
00000130: 44ee 373d 5c41 163c 3ecb ff3d 9aa8 4dbd
00000140: 82e3 a6bd cbd6 3dbd a3b2 513d 579f 11be
00000150: cd41 e6bd c359 a43c 6768 b5bd 6109 81bd
00000160: 0485 1a3d 301d b23d 6c9d 953d ca66 ecbd
00000170: d630 c23d ee55 9bbd c2f9 083e 862c e03d
00000180: d424 78bc 1216 293d ac90 b13c 40ad 15bd
00000190: 047f 90bb 09ec bcbd a5cb 5a3d ed81 743d
000001a0: 62b0 8fbd e13f 39bd 91e4 b9bc b15f b0bd
000001b0: 52f6 c8bd ecca 9e3d 9310 49bd 62b0 8abd
000001c0: 2921 053e 5339 82bd 634e 093e a610 e4bd
000001d0: 0d18 893d 3e0e a93d b934 073e e3f6 08be
000001e0: e9a6 be3d 1607 e7bd eb2a 29bd 64d7 d6bd
000001f0: 0469 0e3c 9bb2 893c 9f36 093d 83af 9c3c
00000200: d828 403d c1b6 1abd 16f8 b63d e501 1bbb
00000210: 6477 ebbd 9ab3 0f3e 4c1d c53d 1e10 69bc
00000220: e821 903d 599c 3ebd afd3 dc3d d86f f1bd
00000230: aa8c fcbd 31cd 84bd 70e8 d4bd 158a b33d
00000240: 386a 073a 596a 5abd 91b9 8bbd 3d6a edbd
00000250: 78a2 253c 2caa 08be a18d eabd 73ef 1a3d
00000260: b95a 803a eb8b b23d 5d86 503c cf1b eebd
00000270: 720e a63d c9bb ce3d 33b5 153d c8f8 ab3c
00000280: 9bd1 213d 843d cf3c 7897 9ebd 1700 89bd
00000290: 35d4 de3c d1c8 0c3e d053 b73b dd71 1d3b
000002a0: fd35 b8bd 32f5 76bd 46c9 3b3d 1962 ef3b
000002b0: c08c 093e 1d76 863d 06ba 58bc f032 51bd
000002c0: 22d1 c7bd c6bd 3b3c 48b4 08bc 255a 983d
000002d0: 4ab5 5f3d af0d 543c 6ffc c53d fc05 cb3c
000002e0: 1a2c 803d f417 d5bd 661c 66bd bbbd b93d
000002f0: d942 b73d 6a54 a43d e45f 403d 0664 09bb
00000300: c139 17be d08d acbd b641 d03d 472d 47bd
00000310: 8cef e13d 63dd e5bd 6d6d 62bd bf29 d73b
00000320: 8160 9cbd 6d8b d83d 7223 cf3d 13b2 41bd
00000330: e265 0f3e e607 ac3d 6f7a dd3d 9446 d0bd
00000340: 9cd9 f6bd 7ba3 7f3c f7eb 8d3c 1cf2 6f3d
00000350: 9c19 f7bd 0f2b f33d fd1c 173a 6b7b bb3d
00000360: b6e8 8e3d e284 973d 8a3d 5bbd b62e 07bc
00000370: 109b fbbd d54c 273b e69d 6fbd 7330 d5bd
00000380: 6397 403d 6fc5 d3bd c0a3 b03d 8cd5 c2bd
00000390: 2dab f93b 1912 283d a230 0a3e 1d46 63bd
000003a0: ed3e ebbd dc9a b8bd e838 91bd 692a 8bbd
000003b0: 6c8b d5bd 145c 163e 9525 993b 27ec f3bd
000003c0: 5419 f83c d45c 3f3c e519 753c fa0a 043d
000003d0: 63e4 023d 7e30 ae3d 6c94 803d 5bdd d43c
000003e0: 94b6 d33d 042a d53b e464 67bd cd62 17bd
000003f0: e131 323b ab76 6ebd 9ff7 0c3e 3a56 0f3d

module.gcn_layers.0.bnEdges.W5.weight f4 [50, 50]
0.1006222 -0.08999807 -0.009868135 0.0053398497 0.1413075 -0.05872737 -0.0700036 0.034012046
0.029140161 0.050323654 0.11911168 -0.10946434 0.014524164 -0.024826383 -0.12761006 -0.02560032
0.03425315 0.078513086 0.003707063 -0.10599252 -0.030293109 0.074077345 0.05597186 -0.10737116
0.03146714 -0.025215179 0.012479828 0.094969176 -0.07207865 -0.00608132 0.1065222 -0.013968626
0.14639163 -0.011956463 0.028346801 -0.019805027 0.040464126 -0.04799371 0.13983321 0.12723327
-0.00057103 -0.075373664 0.038599547 -0.0236612 -0.12561673 0.012758434 -0.10791296 -0.039883863
-0.10783473 0.10720322 0.070297115 -0.06356882 0.07360653 -0.0890641 0.02602776 -0.12766154
0.06377215 -0.08089741 -0.051216703 0.046528403 -0.12335525 0.063805245 -0.008189827 -0.11072665
-0.033367887 -0.10174363 0.049779672 0.033610813 -0.099122584 0.086752646 -0.043287084 0.113811366
-0.0016036183 0.014708755 -0.042042878 -0.0018550856 0.001161187 -0.02592227 -0.08946311 0.014933201
-0.11115579 -0.06929381 -0.039283607 -0.013787221 -0.09975871 -0.05988516 -0.0061798133 0.0176488
0.01664203 -0.092463985 0.09571961 -0.052041046 -0.12607053 0.074291065 0.0041532004 -0.023117859
-0.14141522 -0.07538962 0.06823547 -0.051552583 -0.09499507 0.08020969 -0.11529629 0.07989605
-0.04502691 0.054158043 0.014996393 0.13611901 0.058400415 -0.007450158 0.1397907 -0.11297828
0.017952602 0.04464182 -0.113198735 -0.07756008 -0.06478867 -0.07281186 -0.017960506 -0.08933621
0.13533355 -0.0071737203 0.14239797 0.033577707 -0.022652283 0.0137534775 -0.08199426 -0.09275504
0.056362353 -0.01626679 0.011475612 -0.013209543 0.116779506 -0.14015363 -0.08973902 -0.07245733
-0.05111029 0.1110535 0.098880194 -0.103885256 -0.044247776 0.11722929 -0.11543062 0.013230445
0.050249316 0.06728882 0.09533287 0.09689986 0.035153553 -0.13499811 -0.06792399 -0.0350214
-0.09297395 -0.08341154 0.025776677 -0.048814945 0.029584954 0.049270336 0.075957075 -0.11167757
0.12047031 0.06738521 0.02339348 -0.03188559 -0.03943678 0.012050697 -0.022309784 -0.12209526
0.01315127 -0.09434312 -0.11808497 0.08863931 -0.023186782 -0.0272681 -0.02974082 -0.05405514
0.06379305 -0.013952634 -0.05223292 0.134528 0.09717986 0.107898645 -0.14834468 0.037775654
0.022549825 0.12972675 0.049061503 0.021802723 0.08884322 0.07469685 -0.12100547 -0.12692119
-0.06575867 -0.026615879 0.040361166 0.103145845 -0.12139921 -0.025739882 -0.100926585 0.12197224
0.072263844 0.0905549 -0.015273152 -0.07705488 -0.08616376 0.012954526 0.016235817 0.01471533
0.108972855 -0.086490765 0.092779845 0.050947394 -0.11981978 -0.05431846 -0.06776021 0.013895532
0.08844554 0.083516195 -0.013868994 0.14312826 0.05286591 0.043517724 -0.13007814 -0.10889768
0.092052646 0.06037592 -0.057778932 -0.103438154 -0.0072393166 -0.14469707 0.10860628 0.059316386
0.027098196 -0.10982423 -0.03282757 -0.08215346 0.08123417 0.14883915 -0.007945203 -0.04914749
0.1145948 -0.0457502 -0.05631573 -0.10155406 0.035007976 0.10675858 0.10647916 0.04157235
0.10441432 -0.09734022 0.12708111 -0.042793624 -0.12828043 0.06820061 0.026213616 -0.019912781
00000000: 0313 ce3d e850 b8bd f5ad 21bc e8f9 ae3b
00000010: eab2 103e 1c8c 70bd 0c5e 8fbd 3750 0b3d
00000020: 59b7 ee3c 2d20 4e3d d3f0 f33d d72e e0bd
00000030: c2f6 6d3c b360 cbbc 36ac 02be c3b7 d1bc
00000040: 084d 0c3d 78cb a03d 32f2 723b 9b12 d9bd
00000050: 4129 f8bc ddb5 973d c042 653d 69e5 dbbd
00000060: b0e3 003d 1090 cebc 3178 4c3c 337f c23d
00000070: f99d 93bd cf45 c7bb 5028 da3d aadc 64bc
00000080: b0e7 153e 0ae5 43bc 8d37 e83c 273e a2bc
00000090: b6bd 253d 0d95 44bd 7030 0f3e 7049 023e
000000a0: 2db1 15ba 825d 9abd 8f1a 1e3d 22d5 c1bc
000000b0: aca1 00be c008 513c 7801 ddbd 435d 23bd
000000c0: 74d8 dcbd 5d8d db3d eff7 8f3d 5f30 82bd
000000d0: 05bf 963d 3d67 b6bd 2b38 d53c b5b9 02be
000000e0: f99a 823d 8bad a5bd 9bc8 51bd 9194 3e3d
000000f0: ada1 fcbd 53ac 823d a02e 06bc a7c4 e2bd
00000100: c4ac 08bd f75e d0bd c5e5 4b3d 7eab 093d
00000110: c800 cbbd 5fab b13d cc4d 31bd ef15 e93d
00000120: 8030 d2ba fdfc 703c 2735 2cbd 5826 f3ba
00000130: f832 983a f15a d4bc 6f38 b7bd 62aa 743c
00000140: a6a5 e3bd eae9 8dbd d9e7 20bd cce3 61bc
00000150: 4b4e ccbd 244a 75bd 0880 cabb 3794 903c
00000160: de54 883c c25d bdbd a508 c43d fe28 55bd
00000170: a218 01be ea25 983d 9217 883b aa61 bdbc
00000180: 27cf 10be e065 9abd 0abf 8b3d cd28 53bd
00000190: c68c c2bd fa44 a43d 7620 ecbd 8aa0 a33d
000001a0: 236e 38bd d3d4 5d3d 6eb3 753c c862 0b3e
000001b0: 4635 6f3d 7420 f4bb 4b25 0f3e 2861 e7bd
000001c0: 5611 933c 57da 363d bdd4 e7bd d2d7 9ebd
000001d0: ecaf 84bd 621e 95bd e921 93bc e7f5 b6bd
000001e0: e194 0a3e 8711 ebbb c6d0 113e c788 093d
000001f0: 4891 b9bc 4456 613c 9bec a7bd 5bf6 bdbd
00000200: 36dc 663d ee41 85bc 3504 3c3c d76c 58bc
00000210: 182a ef3d 6f84 0fbe 17c9 b7bd 8264 94bd
00000220: 0659 51bd 0470 e33d b381 ca3d cbc1 d4bd
00000230: 283d 35bd e915 f03d e466 ecbd 82c4 583c
00000240: 3ad2 4d3d b9ce 893d e13d c33d 6f73 c63d
00000250: 2cfd 0f3d f23c 0abe bc1b 8bbd 9972 0fbd
00000260: 2069 bebd abd3 aabd 9c29 d33c 2ef2 47bd
00000270: 255c f23c b1cf 493d 628f 9b3d 36b7 e4bd
00000280: 23b9 f63d 4201 8a3d afa3 bf3c 779a 02bd
00000290: 7688 21bd 4970 453c 02c3 b6bc 140d fabd
000002a0: 6d78 573c f736 c1bd 88d6 f1bd 8788 b53d
000002b0: 35f2 bdbc 5a61 dfbc 05a3 f3bc ec68 5dbd
000002c0: eea5 823d 9799 64bc 30f2 55bd b5c1 093e
000002d0: 3c06 c73d f7f9 dc3d abe7 17be a5ba 1a3d
000002e0: 69ba b83c 17d7 043e b7f4 483d a09b b23c
000002f0: 6ff3 b53d a9fa 983d b7d1 f7bd a1f7 01be
00000300: 7bac 86bd 8b09 dabc c051 253d 213e d33d
00000310: 26a0 f8bd 72dc d2bc 99b2 cebd 95cc f93d
00000320: 11ff 933d d974 b93d 3e3c 7abc f3ce 9dbd
00000330: a076 b0bd 383f 543c fa00 853c 9118 713c
00000340: 292d df3d 1222 b1bd 5c03 be3d 37ae 503d
00000350: 1364 f5bd 097d 5ebd ddc5 8abd 16aa 633c
00000360: ef22 b53d 8a0a ab3d c73a 63bc 3790 123e
00000370: ed89 583d a43f 323d 3433 05be bf05 dfbd
00000380: 1986 bc3d be4c 773d 9aa9 6cbd 62d7 d3bd
00000390: ca37 edbb 782b 14be f86c de3d bdf5 723d
000003a0: 09fd dd3c 87eb e0bd 3476 06bd 1340 a8bd
000003b0: 1a5e a63d 4a69 183e 992c 02bc e14e 49bd
000003c0: aeb0 ea3d 9064 3bbd 53ab 66bd 93fb cfbd
000003d0: 8664 0f3d 3ea4 da3d bf11 da3d c547 2a3d
000003e0: 2dd7 d53d 4f5a c7bd 8d21 023e 5e48 2fbd
000003f0: f25b 03be c3ac 8b3d f0bd d63c 2120 a3bc

module.gcn_layers.0.bnEdges.batch_norm.weight f4 [50]
1.0051488 1.0204843 1.0099281 0.9850986 0.99459463 1.0153104 1.0037961 1.012342
1.0039865 1.0165207 0.99587876 1.0023648 1.0067286 0.99992806 0.99437433 1.0127071
0.98670197 0.99669224 0.98435813 1.0089502 1.0015165 0.99623513 1.008684 1.0174094
1.0124104 0.9922268 1.002617 0.9913065 1.0102633 0.9988385 1.0077463 1.0018394
0.99199814 1.0106038 1.0111483 1.0177195 0.9932682 1.0165384 1.0063251 1.0110503
0.9880452 1.0164771 0.99671185 1.0164291 1.0130872 1.0100309 1.0072535 0.9904514
0.9973228 1.0069207
00000000: b7a8 803f 3b9f 823f 5345 813f 6c2f 7c3f
00000010: c19d 7e3f b1f5 813f 647c 803f 6c94 813f
00000020: a182 803f 5a1d 823f e9f1 7e3f 7d4d 803f
00000030: 7cdc 803f 49fb 7f3f 518f 7e3f 63a0 813f
00000040: 8098 7c3f 3927 7f3f e5fe 7b3f 4825 813f
00000050: b131 803f 4409 7f3f 8f1c 813f 793a 823f
00000060: aa96 813f 9302 7e3f c155 803f 43c6 7d3f
00000070: 4f50 813f e1b3 7f3f d5fd 803f 463c 803f
00000080: 97f3 7d3f 775b 813f 4f6d 813f a244 823f
00000090: d346 7e3f ee1d 823f 43cf 803f 196a 813f
000000a0: 88f0 7c3f ec1b 823f 8228 7f3f 591a 823f
000000b0: d7ac 813f b148 813f afed 803f 398e 7d3f
000000c0: 8c50 7f3f c7e2 803f

module.gcn_layers.0.bnEdges.batch_norm.bias f4 [50]
0.009869062 0.016716048 0.0026063656 -0.015314236 -0.00922128 0.0142344395 -0.0012247482 0.0010980739
-0.0045486954 0.009565519 -0.004312293 0.008634128 -0.002568392 0.008054424 -0.010256128 0.014280606
-0.011219956 0.0019880508 -0.014856859 0.013943926 -0.005644814 -0.006231461 0.0051318915 0.01726223
0.004296789 0.006835853 0.006779319 -0.012805104 0.0134946825 -0.008844381 0.002332706 0.007708204
0.0018233103 0.010453846 0.005720945 0.0029859638 -0.0098089175 0.016916377 0.0017803512 0.018217647
-0.010679065 0.015899444 -0.010365432 0.016073806 7.42494e-06 0.014440828 0.008166017 -0.005377253
-0.0007847311 0.009276004
00000000: d9b1 213c 18f0 883c 8fcf 2a3b 90e8 7abc
00000010: da14 17bc 9137 693c bb87 a0ba 3fed 8f3a
00000020: 390d 95bb b2b8 1c3c 234e 8dbb 2876 0d3c
00000030: 7852 28bb b4f6 033c 5209 28bc 34f9 693c
00000040: e8d3 37bc f549 023b 2f6a 73bc 1175 643c
00000050: 22f8 b8bb 4931 ccbb 6d29 a83b 8569 8d3c
00000060: 14cc 8c3b 4bff df3b 0d25 de3b 80cc 51bc
00000070: cd18 5d3c 06e8 10bc 50e0 183b 1a95 fc3b
00000080: 24fc ee3a 9c46 2b3c c476 bb3b 29b0 433b
00000090: 95b5 20bc 3794 8a3c ac5a e93a 2d3d 953c
000000a0: 3ff7 2ebc 8d3f 823c c6d3 29bc 37ad 833c
000000b0: c023 f936 3999 6c3c c2ca 053c ab33 b0bb
000000c0: 6ab6 4dba 61fa 173c

module.gcn_layers.1.bnNodes.W1.weight f4 [50, 50]
-0.08269085 -0.1067258 -0.14200436 -0.13998112 -0.008443066 -0.09184261 -0.09951057 -0.07570738
-0.0894157 0.12081992 0.018398998 0.08419591 0.074922465 -0.07133303 0.08719395 0.07688967
0.09959733 0.12119461 0.09939106 0.13965173 0.08110318 0.019711094 0.14004721 -0.015665356
-0.08387303 0.0029913227 -0.120294824 -0.1358828 0.09420089 0.05160997 -0.014702017 0.12008363
-0.12835473 0.012337459 -0.12690717 0.118540235 -0.038114354 0.08297349 -0.10491177 -0.007640112
-0.06422696 -0.025834072 -0.064019546 -0.043572593 0.1240651 -0.0031981843 -0.08168957 0.06761168
-0.07107194 -0.093136355 -0.0552674 0.045096926 -0.10800751 0.13184552 -0.11175242 0.1078524
-0.13352539 -0.03583588 -0.11126479 0.02702517 0.013460469 0.012654415 -0.11602495 0.133172
0.12980528 0.12603602 0.12485797 0.13822477 -0.0656974 -0.0082089035 -0.03266069 -0.116772495
0.053311113 -0.12893787 0.1370717 0.05614346 -0.02867636 -0.12243653 -0.0625207 -0.08824893
0.08502809 -0.039231442 -0.11039035 -0.010039732 0.07253777 -0.12400824 0.13285738 -0.036462545
-0.087728366 -0.0312515 -0.059507526 -0.0602966 0.055220064 0.13210887 -0.056861144 -0.09421901
-0.08014622 0.014069365 -0.1175469 0.105270125 0.08128998 -0.020816632 0.018330289 0.029358754
0.073958986 -0.14221089 -0.13216975 -0.08221689 0.063647196 -0.029097227 0.11801959 0.0009661048
0.017847398 -0.063596845 -0.010301501 0.05159173 -0.003584232 0.11121261 0.07907125 -0.02988645
0.001517552 0.026878702 -0.05734409 -0.053151667 -0.13676636 0.079825155 -0.13649866 -0.032255102
-0.02566022 0.112160005 0.02012065 -0.017464044 -0.04922873 -0.06507798 -0.0033936317 0.099741265
-0.06625936 -0.01773823 -0.073590845 0.11452702 -0.047309093 0.08020817 0.10916159 0.048917316
-0.08846389 -0.14664328 -0.016858855 -0.050631624 -0.0015567692 0.061060164 -0.12538852 0.043405097
-0.12388755 -0.09351798 -0.05750194 0.005512377 0.039007846 0.056385096 -0.04794914 0.06523152
-0.078200586 0.102126956 0.032432042 0.10367884 -0.0735362 0.01398179 -0.09776894 0.093060955
-0.061728667 -0.060052607 -0.1329669 0.06898542 -0.03596807 -0.06367053 -0.07506653 -0.07519793
0.10865741 0.06648372 0.10891598 0.09559352 0.095908955 0.11952974 0.10396414 -0.013460139
0.117957436 -0.043690328 0.008057625 0.07145795 -0.05937973 0.049868174 -0.018380025 0.041054837
0.006454881 -0.032410935 0.06811485 0.12873116 0.0360187 -0.006035838 0.092242576 -0.032473408
-0.13382101 0.13771461 0.11665739 0.037849955 -0.026187174 0.05209025 0.029161323 -0.06503423
0.056255065 -0.039132908 0.0013796338 -0.0394307 -0.0077452147 -0.08012377 -0.04914897 -0.012732891
0.05992068 0.1283789 -0.10381782 0.041226037 0.11931719 0.004814119 0.11597121 -0.14400017
0.12549111 0.011028742 -0.066336006 0.04115103 -0.09205945 0.03668833 0.021133462 0.015716648
-0.10182808 0.0042338576 -0.12238094 -0.12379505 0.04389118 -0.058643073 0.12788758 0.089467056
0.05223802 -0.0011220134 0.10764813 0.11714293 0.058543168 0.12139645 -0.1465177 -0.003416855
0.07985009 -0.050340585 0.041539636 -0.071039855 0.04637618 -0.13318554 -0.14712265 -0.04122583
00000000: d259 a9bd 0e93 dabd 9769 11be 3657 0fbe
00000010: c954 0abc fa17 bcbd 33cc cbbd 790c 9bbd
00000020: 941f b7bd 6f70 f73d 7fb9 963c e86e ac3d
00000030: f370 993d 0d17 92bd be92 b23d 5578 9d3d
00000040: aff9 cb3d e134 f83d 8a8d cb3d dd00 0f3e
00000050: 6d19 a63d 2979 a13c 8968 0f3e a254 80bc
00000060: a0c5 abbd 110a 443b 225d f6bd dc24 0bbe
00000070: 65ec c03d fa64 533d bbe0 70bc 68ee f53d
00000080: 6c6f 03be 0e23 4a3c f4f3 01be 39c5 f23d
00000090: cc1d 1cbd 01ee a93d fbdb d6bd e859 fabb
000000a0: 6d89 83bd faa1 d3bc ae1c 83bd 2d79 32bd
000000b0: d815 fe3d a198 51bb dc4c a7bd fe77 8a3d
000000c0: 2a8e 91bd 46be bebd 1260 62bd 8eb7 383d
000000d0: 0b33 ddbd 8302 073e 74de e4bd b8e1 dc3d
000000e0: e1ba 08be a5c8 12bd cbde e3bd e463 dd3c
000000f0: 4d89 5c3c 7754 4f3c 7d9e edbd 3e5e 083e
00000100: adeb 043e 960f 013e 89b5 ff3d cb8a 0d3e
00000110: 5c8c 86bd a37e 06bc 37c7 05bd 6b26 efbd
00000120: c15c 5a3d 4a08 04be 865c 0c3e aff6 653d
00000130: b0ea eabc 01c0 fabd da0a 80bd dbbb b4bd
00000140: 3523 ae3d 26b1 20bd 5614 e2bd b07d 24bc
00000150: af8e 943d 08f8 fdbd c40b 083e c059 15bd
00000160: eeaa b3bd 9301 00bd 2abe 73bd 91f9 76bd
00000170: 6f2e 623d 8c47 073e 3be7 68bd e5f5 c0bd
00000180: b423 a4bd 3283 663c 6ebc f0bd dd97 d73d
00000190: 5c7b a63d a487 aabc 6729 963c c581 f03c
000001a0: cf77 973d bb9f 11be 8257 07be 5461 a8bd
000001b0: 7659 823d 4f5d eebc 41b4 f13d 3242 7d3a
000001c0: b534 923c 103f 82bd a0c7 28bc da51 533d
000001d0: 6fe5 6abb 70c3 e33d 1cf0 a13d 6ed4 f4bc
000001e0: 98e8 c63a b930 dc3c a3e1 6abd 90b5 59bd
000001f0: 7b0c 0cbe 5f7b a33d 4ec6 0bbe ed1d 04bd
00000200: 6235 d2bc 25b4 e53d 10d4 a43c c110 8fbc
00000210: 11a4 49bd 9b47 85bd b167 5ebb 2645 cc3d
00000220: fdb2 87bd c44f 91bc ccb6 96bd 248d ea3d
00000230: 2ec7 41bd 2e44 a43d 1d90 df3d 865d 483d
00000240: 8e2c b5bd a829 16be 951b 8abc 1b63 4fbd
00000250: 820c ccba 391a 7a3d d965 00be 8bc9 313d
00000260: c1b8 fdbd 5b86 bfbd 2787 6bbd 2ba1 b43b
00000270: b1c6 1f3d 0ff4 663d 5166 44bd 1a98 853d
00000280: a127 a0bd f027 d13d 76d7 043d 9255 d43d
00000290: 269a 96bd e113 653c 153b c8bd be96 be3d
000002a0: 33d7 7cbd b9f9 75bd 7a28 08be 3a48 8d3d
000002b0: 4153 13bd b265 82bd 7bbc 99bd 5f01 9abd
000002c0: c787 de3d 9e28 883d 570f df3d 89c6 c33d
000002d0: ea6b c43d 02cc f43d 27eb d43d ea87 5cbc
000002e0: ab93 f13d a1f4 32bd 2104 043c 8c58 923d
000002f0: 2938 73bd 9242 4c3d b591 96bc 1e29 283d
00000300: 7783 d33b 54c1 04bd cc7f 8b3d 1ad2 033e
00000310: 5888 133d 47c8 c5bb ade9 bc3d d602 05bd
00000320: 6008 09be 0f05 0d3e 12ea ee3d 8e08 1b3d
00000330: 7c86 d6bc 965c 553d bae3 ee3c ab30 85bd
00000340: b66b 663d d449 20bd d4d4 b43a 1682 21bd
00000350: 92cb fdbb ee17 a4bd 6e50 49bd 9e9d 50bc
00000360: 636f 753d c275 033e 709e d4bd a2dc 283d
00000370: 925c f43d c2bf 9d3b 5082 ed3d c874 13be
00000380: be80 003e e6b1 343c 2cdb 87bd fc8d 283d
00000390: aa89 bcbd 8146 163d 1520 ad3c 33c0 803c
000003a0: 3e8b d0bd 2cbc 8a3b dca2 fabd 4288 fdbd
000003b0: 3dc7 333d b833 70bd f6f4 023e 813a b73d
000003c0: 89f7 553d 8610 93ba 9f76 dc3d a2e8 ef3d
000003d0: f6ca 6f3d b49e f83d bc08 16be 50ed 5fbb
000003e0: 7288 a33d ee31 4ebd 7725 2a3d 587d 91bd
000003f0: f3f4 3d3d ca61 08be 52a7 16be 6adc 28bd
