logs/deafult/checkpoint_epoch1.tar (torch, 489841 bytes, 103 tensors)

module.NodesEncoding.A1.weight f4 [50, 2]
0	0xbf145d45	-0.5795482
1	0x3ec0b1bd	0.37635604
2	0xbf12b8b6	-0.57313097
3	0xbf154702	-0.58311474
4	0x3ec975ed	0.39347783
5	0x3e87029b	0.26369175
6	0xbec2b7f7	-0.3803098
7	0xbf2cdea0	-0.675272
8	0xbe58ced5	-0.2117265
9	0x3e40efca	0.18841472
10	0x3eb0d025	0.34533802
11	0xbe14b2b6	-0.14521298
12	0x3f02f2f4	0.5115197
13	0xbe6905ed	-0.22756167
14	0x3e0813cb	0.132888
15	0xbed7f669	-0.42180184
16	0xbd945056	-0.07241885
17	0x3ee82b6d	0.4534563
18	0xbec5c356	-0.38625592
19	0x3f111c34	0.5668366
20	0xbf2279bd	-0.6346701
21	0x3e0bc0d7	0.13647781
22	0x3ef4f747	0.47844908
23	0x3f277e03	0.65426654
24	0x3f1ece16	0.6203321
25	0x3f346ec7	0.7048153
26	0x3e52b226	0.2057577
27	0x3d5f38a6	0.054497384
28	0x3ea96fe2	0.33093172
29	0xbeb9c8c9	-0.36286
30	0x3ebc9da1	0.3683901
31	0xbeeb9b6f	-0.46017024
32	0xbe7db2a9	-0.24775185
33	0xbef6cb7e	-0.48202127
34	0x3f245eca	0.64207137
35	0x3eaf6a78	0.34260917
36	0xbe381912	-0.17978314
37	0xbea21a13	-0.31660518
38	0x3e3100d8	0.17285478
39	0xbedd1a52	-0.43184143
40	0xbe13c343	-0.14429955
41	0x3ea0302f	0.3128676
42	0x3f0ca79e	0.54943264
43	0xbecb93d7	-0.3976123
44	0xbe94e338	-0.29079604
45	0x3f00e703	0.50352496
46	0x3f372a2e	0.71548736
47	0x3e4b90ff	0.1987953
48	0xbf33f7c9	-0.70299965
49	0xbef70fc0	-0.48254204
50	0xbdf49a1e	-0.11943458
51	0x3f12d155	0.57350665
52	0xbecb255a	-0.39676934
53	0xbef2028c	-0.47267568
54	0xbedd9c0d	-0.4328312
55	0xbe5dce35	-0.21660693
56	0x3dbc5467	0.09195786
57	0x3f132ad7	0.57487243
58	0xbec1505d	-0.37756625
59	0x3f1205fa	0.5704037
60	0xbe98df7e	-0.2985801
61	0xbf17ab4f	-0.5924577
62	0xbf23aa5e	-0.63931835
63	0x3f2ad572	0.6673194
64	0xbf32bdee	-0.6982106
65	0xbc691aa9	-0.014227548
66	0x3d8b467c	0.06800553
67	0x3d9b3f5c	0.07580444
68	0x3dabd4a5	0.08390168
69	0x3f0bac2b	0.5455958
70	0xbe530def	-0.20610784
71	0x3edbd583	0.42936334
72	0x3e96ec21	0.29477027
73	0x3c456add	0.012049404
74	0xbe00d6ea	-0.12581983
75	0xbeaa1c89	-0.33224896
76	0xbf13908d	-0.5764244
77	0x3ef6f5ad	0.4823431
78	0x3ebb334c	0.36562574
79	0x3f204978	0.62612104
80	0x3eadcf1b	0.3394707
81	0xbe80cf28	-0.25158048
82	0x3eb799fa	0.35859662
83	0x3f2738be	0.65320957
84	0x3f27d065	0.6555236
85	0x3d66370b	0.056204837
86	0x3dfc15a5	0.12308816
87	0xbec9edd9	-0.39439276
88	0x3eafc8a6	0.3433277
89	0xbe974bdd	-0.29550067
90	0x3f329d7a	0.6977154
91	0x3f01de61	0.5072995
92	0x3e39035a	0.18067685
93	0xbe1cf39e	-0.15327308
94	0xbe9661c2	-0.29371458
95	0x3e2568b2	0.1615322
96	0x3f27a6b2	0.6548873
97	0x3e547511	0.20747782
98	0x3e0deb71	0.13859345
99	0xbea0991e	-0.3136682

module.NodesEncoding.A1.bias f4 [50]
0	0x3e828aa7	0.25496408
1	0x3f0f5b46	0.5599865
2	0x3f24ed6a	0.64424765
3	0x3e788d0c	0.24272555
4	0xbdca7080	-0.09884739
5	0x3e9b8732	0.30376583
6	0x3f141afb	0.5785367
7	0xbe9d66ba	-0.30742437
8	0xbe3925bb	-0.180808
9	0xbe8fbe2c	-0.28074777
10	0x3bd70b70	0.0065626428
11	0x3ee84918	0.45368266
12	0x3eb79c9a	0.35861665
13	0x3f350dda	0.7072426
14	0xbf0cafca	-0.5495573
15	0x3e9ee252	0.31032044
16	0xbeabbd05	-0.33542648
17	0x3f1fa71d	0.6236437
18	0x3da0ce90	0.07851899
19	0xbe9082c7	-0.28224775
20	0xbee5ffa2	-0.44921595
21	0xbef041af	-0.46925113
22	0xbe7a2e02	-0.24431613
23	0xbed971fd	-0.4246978
24	0x3eb3dd62	0.3512984
25	0xbe7502bf	-0.23926829
26	0xbf082c23	-0.5319235
27	0x3d09975d	0.033591617
28	0xbe045e9d	-0.12926717
29	0x3ecb7bab	0.3974279
30	0xbeb31d82	-0.3498345
31	0xbdfba313	-0.12286963
32	0xbebc8a67	-0.36824343
33	0xbec219ce	-0.37910312
34	0xbe433284	-0.19062239
35	0x3ee464a1	0.44608024
36	0xbd122235	-0.035677154
37	0xbe8fc9aa	-0.28083545
38	0x3d258d31	0.040417854
39	0x3f035d76	0.51314485
40	0x3f1ec556	0.6201986
41	0x3c802df1	0.015646907
42	0x3f3261f8	0.6968074
43	0x3e252b6d	0.16129847
44	0x3efde0ab	0.4958547
45	0x3f31e530	0.6949034
46	0xbeef0de6	-0.4669029
47	0x3e895525	0.26822773
48	0xbd2323d7	-0.0398291
49	0x3e371694	0.17879707

module.EdgesEncoding.A2.weight f4 [25, 1]
0	0x3db9a5c6	0.09064822
1	0xbf3ca933	-0.7369568
2	0x3f700f0b	0.93772954
3	0xbf280cf9	-0.65644795
4	0xbf80ecc6	-1.0072258
5	0xbf5807b7	-0.8438677
6	0x3e8ccc58	0.27499652
7	0xbd6e17d9	-0.05812821
8	0x3f20f1d8	0.62869024
9	0xbe0fc164	-0.14038616
10	0x3d0af079	0.03392074
11	0x3f1634ab	0.58674115
12	0x3f5bbb4c	0.8583267
13	0x3dae8317	0.08521097
14	0xbe9248fe	-0.28571314
15	0x3f540212	0.8281566
16	0x3f30f373	0.69121474
17	0x3f11aeee	0.56907547
18	0x3dba853f	0.09107446
19	0x3ef4fc99	0.47848967
20	0x3f385251	0.72000605
21	0x3f66ac5c	0.9010675
22	0x3e232c0a	0.15934768
23	0xbec61663	-0.38688955
24	0x3ebbbcd1	0.36667493

module.EdgesEncoding.A2.bias f4 [25]
0	0xbe0f521a	-0.13996163
1	0x3d808248	0.06274849
2	0xbf65ff10	-0.8984232
3	0xbe4424b5	-0.19154628
4	0x3f1b71bf	0.6072044
5	0x3f137cf9	0.5761257
6	0xbe54aa73	-0.20768146
7	0x3db143db	0.086555205
8	0xbf3c03ad	-0.7344311
9	0x3e160339	0.14649667
10	0xbee79182	-0.452282
11	0x3f3e60b9	0.7436634
12	0xbe4f579c	-0.20248264
13	0xbe01fca6	-0.12694034
14	0x3ea13aa2	0.31490046
15	0x3f3704ae	0.71491516
16	0x3f417a9b	0.75577706
17	0xbe9d5db0	-0.3073554
18	0x3f19613a	0.5991398
19	0x3e1fac70	0.15593123
20	0x3e311170	0.17291808
21	0xbea2aa74	-0.3177067
22	0x3ed673e3	0.4188529
23	0x3e27a6ca	0.16372219
24	0x3ecfc502	0.40579993

module.EdgesEncoding.A3.weight f4 [25, 1]
0	0xbee73981	-0.4516106
1	0x3d5559af	0.052087482
2	0xbf6d2e8b	-0.92649144
3	0x3d7a73d4	0.06114562
4	0xbf694388	-0.9111867
5	0x3e4648b9	0.19363679
6	0xbe025b9d	-0.1273026
7	0xbf0baa64	-0.5455687
8	0x3f62fb66	0.88664854
9	0xbd43dcd8	-0.047818035
10	0x3e4aa9d1	0.19791342
11	0xbd9f74ac	-0.07785925
12	0x3f2823b2	0.65679467
13	0x3eca09a4	0.3946048
14	0x3ce7e197	0.028305812
15	0xbeac92e1	-0.3370581
16	0x3f24b5a8	0.64339685
17	0x3e808d00	0.25107574
18	0x3e6c5e2e	0.23082802
19	0xbe6131bd	-0.2199163
20	0xbf2ef432	-0.6834136
21	0xbd326d68	-0.04356137
22	0x3eaeaaa3	0.3411456
23	0xbee65057	-0.4498317
24	0x3ec45dd8	0.38352847

module.EdgesEncoding.A3.bias f4 [25]
0	0x3f246ce2	0.6422864
1	0x3f2ecea0	0.68284035
2	0xbe0bd52f	-0.13655542
3	0x3e92358d	0.2855648
4	0xbe9e6763	-0.30938253
5	0xbe9a9a2d	-0.30195752
6	0x3f25c70d	0.6475685
7	0xbf503b1c	-0.81340194
8	0x3f2046ee	0.6260823
9	0xbe831d76	-0.25608414
10	0xbf6d9081	-0.9279862
11	0x3f33b891	0.702035
12	0x3f625589	0.88411766
13	0xbf3f5e2a	-0.7475306
14	0x3e7ceff5	0.24700911
15	0xbf043d6b	-0.51656216
16	0xbe839f89	-0.25707653
17	0xbf7e69f3	-0.99380416
18	0xbe9ec5f1	-0.31010392
19	0x3e6f4a80	0.23368263
20	0x3f7e452e	0.9932431
21	0x3e3e34c7	0.1857482
22	0xbf501484	-0.81281304
23	0xbf3ff053	-0.7497608
24	0xbe7c1b6d	-0.24619837

module.gcn_layers.0.bnNodes.W1.weight f4 [50, 50]
0	0x3e0f2037	0.13977133
1	0x3c78d7d9	0.015188181
2	0xbd4541c5	-0.048158426
3	0x3af77862	0.0018880481
4	0x3de42506	0.11139874
5	0xbd94c454	-0.07264009
6	0xbdf3637c	-0.118842095
7	0xbe11001f	-0.14160202
8	0x3d8d615b	0.06903335
9	0x3dd970d5	0.10617224
10	0x3e110ca3	0.14164977
11	0xbdd7e644	-0.105419666
12	0xbcd64580	-0.026156187
13	0x3cc8ae80	0.02449727
14	0x3d8e491e	0.0694754
15	0xbb0733ac	-0.0020630164
16	0xbe0300fd	-0.12793346
17	0xbdc607ca	-0.096694544
18	0x3d8fe571	0.07026184
19	0x3d15548a	0.036457576
20	0x3dfaab0f	0.12239658
21	0x3d7d3cd0	0.061825573
22	0xbce03f3c	-0.027373902
23	0xbdc1d636	-0.094646856
24	0xbc13a2e3	-0.009011003
25	0xbd5ef61f	-0.054433938
26	0x3cd00dc4	0.025397189
27	0xbdc3b38d	-0.09555731
28	0xbd99201f	-0.0747683
29	0xbd1529f2	-0.036416955
30	0x3e0fe68b	0.14052789
31	0xbd940351	-0.07227195
32	0xbdbbc6b7	-0.09168761
33	0x3d9111c0	0.07083464
34	0xbd5a1376	-0.053241216
35	0xbde86fd3	-0.11349454
36	0xbced632a	-0.02897795
37	0xbd0b0059	-0.03393588
38	0x3ce919b4	0.028454639
39	0x3d7e2a3d	0.062052
40	0x3d34fc03	0.04418565
41	0x3ceb48ba	0.028721202
42	0x3d9ffe76	0.078122064
43	0x3d939657	0.072064094
44	0x3e047950	0.12936902
45	0xbe0ca528	-0.13734877
46	0x3d2f5d8d	0.042813826
47	0xbdb9333f	-0.090429775
48	0xbd6c2f07	-0.057662036
49	0xbdafba34	-0.08580437
50	0xbc9dd0a8	-0.019264534
51	0xbe00b14e	-0.12567636
52	0x3e194846	0.14968976
53	0xbd477fb3	-0.048705768
54	0xbcbce03c	-0.023056142
55	0x3d47a6e0	0.04874313
56	0x3d2fd05a	0.04292331
57	0x3db153c5	0.08658556
58	0xbdfa8df6	-0.12234108
59	0xbde0c6a1	-0.109753855
60	0x3d849c55	0.064751305
61	0x3d05caec	0.032664225
62	0x3e0646ea	0.13112989
63	0x3e1850bc	0.14874548
64	0x39d4475f	0.00040488967
65	0xbc03aece	-0.008037282
66	0xbdb3ab26	-0.08772878
67	0xbdded78c	-0.10880956
68	0xbe0a18cd	-0.13486023
69	0xbd9003d3	-0.070319794
70	0x3ca7a087	0.020462288
71	0xbddc453e	-0.107553944
72	0x3d32b025	0.043625016
73	0x3cc0ef06	0.023551475
74	0xbcfe1cf7	-0.03101967
75	0x3cccead9	0.025014328
76	0x3dddf6f0	0.10838115
77	0xba42955e	-0.000742277
78	0xbe142126	-0.1446577
79	0xbd336a40	-0.0438025
80	0xbdaf15b7	-0.08549064
81	0x3b8ce16f	0.0042993347
82	0x3da4b197	0.08041685
83	0x3dd0ee40	0.102016926
84	0x3d75a6a7	0.059973385
85	0xbdaa0a01	-0.08302689
86	0xbda16585	-0.078806914
87	0x3e028d92	0.12749317
88	0xbdc0f076	-0.09420864
89	0x3e0cb691	0.13741519
90	0x3e03c200	0.12866974
91	0x3df20888	0.118180335
92	0xbcb225fa	-0.021746624
93	0xbcd3936b	-0.02582713
94	0xbe037575	-0.12837775
95	0xbdf866c3	-0.12128975
96	0xbd650fa3	-0.055923115
97	0xba05fa64	-0.00051108585
98	0x3e180946	0.14847288
99	0xbd231dd1	-0.039823357
100	0xbdf929e7	-0.12166195
101	0xbd58b444	-0.05290629
102	0x3b142fed	0.0022611574
103	0x3cca3dc3	0.024687653
104	0xbccae0ac	-0.024765335
105	0x3d6004fb	0.05469225
106	0x3db36b87	0.087607436
107	0xbe0095cc	-0.12557143
108	0xbd6419f7	-0.055688825
109	0xbdf86354	-0.1212832
110	0x3d0a7b51	0.03380901
111	0xbd109222	-0.035295613
112	0x3d91dc94	0.0712215
113	0xbd301285	-0.04298641
114	0x3d9bd5ab	0.07609113
115	0x3dbab636	0.09116785
116	0x3dd21e76	0.10259716
117	0xbb854662	-0.004067228
118	0xbc9e1bed	-0.019300425
119	0xbd502191	-0.05081326
120	0xbe0a39b0	-0.13498569
121	0xbdcced32	-0.10006179
122	0xbdcb8fc1	-0.09939528
123	0x3d1daf8c	0.038497493
124	0xbdb1837e	-0.08667658
125	0x3e141339	0.14460458
126	0xbdfdfd71	-0.12401856
127	0x3de5b7b8	0.11216682
128	0xbdd1b452	-0.102394715
129	0xbd761802	-0.06008149
130	0x3d1e7857	0.038688984
131	0xbd1137c4	-0.035453573
132	0xbdaf9e4f	-0.08575117
133	0x3c673261	0.014111132
134	0x3da0bee1	0.07848907
135	0x3df55e44	0.1198087
136	0x3e08db64	0.13364941
137	0xbe088591	-0.13332202
138	0x3d07f79f	0.033195134
139	0x3cc65eb4	0.02421508
140	0xbd15b4a8	-0.03654924
141	0xbdb72283	-0.089421295
142	0x3d6eda52	0.058313675
143	0x3d9d0331	0.07666624
144	0xbddb8ba0	-0.10719991
145	0xbd336952	-0.043801613
146	0xbd27e93a	-0.040993907
147	0x3d80b80d	0.06285105
148	0xbd966a2f	-0.07344472
149	0xbde36c63	-0.111046575
150	0xbdd832fe	-0.10556601
151	0xbda8cb12	-0.082418576
152	0x3da6c257	0.08142536
153	0xbc915df5	-0.017744998
154	0x3c1bce6c	0.009509664
155	0xbdc0a3b4	-0.09406224
156	0x3c5b612a	0.013389865
157	0x3d485de1	0.048917655
158	0xbd641eee	-0.05569356
159	0x3e01fe83	0.12694745
160	0x3d956a1a	0.07295628
161	0xbdc61209	-0.09671409
162	0x3bd1716e	0.0063916957
163	0x3dad01c4	0.084476024
164	0x3d812c2e	0.06307255
165	0xbdc1fa17	-0.09471529
166	0x3d97cbd2	0.074119225
167	0x3cc780fa	0.024353493
168	0x3e0f5fc3	0.14001374
169	0xbd8e2183	-0.069399856
170	0x3d2f65fe	0.042821877
171	0x3de97f30	0.11401212
172	0x3dce82ec	0.10083565
173	0x3baf142c	0.005342981
174	0x3db462be	0.08807896
175	0x3dc74e88	0.097317755
176	0xbbd99f4f	-0.0066413055
177	0xbd4b7969	-0.049676333
178	0x3e03585f	0.1282668
179	0x3b1d6de7	0.0024021806
180	0x3d0b5ff8	0.03402707
181	0xbc658707	-0.014009244
182	0xbdc26651	-0.094921716
183	0x3df13688	0.11777979
184	0xbe0614a8	-0.13093817
185	0xbdc0ecea	-0.09420188
186	0x3c702102	0.014656307
187	0x3a188cc5	0.0005819316
188	0xbd800800	-0.06251526
189	0x3dc91f2f	0.09820401
190	0xbde28f55	-0.11062495
191	0x3d36205b	0.04446445
192	0xbdc084a4	-0.09400299
193	0x3dd9986b	0.106247745
194	0xbe1320e3	-0.14368014
195	0x3d239d9c	0.03994523
196	0x3d834248	0.064091265
197	0x3e06c69e	0.13161704
198	0xbe171697	-0.14754711
199	0xbda7bfd2	-0.08190884
200	0x3cd1d6b8	0.025615081
201	0xbd2051c6	-0.039140485
202	0xbe04638a	-0.12928596
203	0xbdce43b1	-0.10071505
204	0xbdedb08a	-0.11605938
205	0x3dd689b6	0.10475485
206	0xb7b2d3ef	-2.1317943e-05
207	0xbe073ca2	-0.13206723
208	0xbe084751	-0.13308455
209	0xbd4e7d9f	-0.05041277
210	0x3c8ce9e1	0.017201366
211	0xbd35498f	-0.044259604
212	0xbba104c2	-0.0049138973
213	0xbdaaf756	-0.08347957
214	0xbd72a534	-0.05923958
215	0xbdb2c0a0	-0.087281466
216	0x3de2a090	0.11065781
217	0xbd3fb27f	-0.046801087
218	0xbbe6a4fd	-0.007038711
219	0x3dd52191	0.10406793
220	0xbd4385dc	-0.04773508
221	0xbcfe1fbf	-0.031020997
222	0x3d859613	0.06522765
223	0x3e0680f4	0.13135129
224	0x3b2794b7	0.0025570819
225	0x3ccef05f	0.025261102
226	0xbdd5ee83	-0.10445883
227	0x3de3b678	0.111187875
228	0xbd8cbd5e	-0.068720564
229	0x3dc56f37	0.09640353
230	0xbdf95278	-0.12173933
231	0xbd8a720c	-0.06760034
232	0xbdeb549d	-0.11490748
233	0x3d9f0c92	0.077660695
234	0xbd050b55	-0.03248151
235	0xbda41ede	-0.080137
236	0xbdac233e	-0.084051594
237	0x3d662a7a	0.056192853
238	0xbd44d84f	-0.04805785
239	0x3d57410d	0.05255227
240	0x3d94471c	0.072401255
241	0x3d29e7bd	0.04148077
242	0xbd82d92a	-0.06389077
243	0x3e0e9713	0.13924818
244	0xbdda33f7	-0.10654443
245	0x3d279d8c	0.040921733
246	0x3e06cc43	0.13163857
247	0xbd9d573c	-0.07682654
248	0xbcb114ef	-0.021616427
249	0x3db9a200	0.09064102
250	0xbd05acf9	-0.032635663
251	0xbe065a69	-0.13120426
252	0x3da77b08	0.08177763
253	0x3cb39257	0.021920366
254	0x3be086d5	0.0068520107
255	0x3dee5b78	0.1163854

module.gcn_layers.0.bnNodes.W2.weight f4 [50, 50]
0	0xbde7b6fa	-0.11314197
1	0x3dd94f72	0.10610856
2	0xbcadd911	-0.02122167
3	0x3e071895	0.13192971
4	0xbdde417b	-0.10852333
5	0x3d686e68	0.056745917
6	0x3b8f3be0	0.0043711513
7	0xbc9f12b1	-0.019418092
8	0x3dd5e74e	0.104445085
9	0xbd009f7c	-0.031402096
10	0xbab505d2	-0.0013810939
11	0xbdcea0e5	-0.10089282
12	0xbdf4f31a	-0.119604304
13	0x3e17597d	0.14780231
14	0xbcd8fcfb	-0.026487818
15	0x3d8b7eb1	0.06811274
16	0xbc3808d9	-0.011232578
17	0xbdcb7c35	-0.099358
18	0x3e031f20	0.12804842
19	0x3c9850ea	0.01859327
20	0x3d67ec86	0.05662205
21	0x3d4ca679	0.04996345
22	0xbdfb9dfb	-0.12285992
23	0xbd12d57e	-0.035848133
24	0x3dae7861	0.08519054
25	0xbd93b2f8	-0.0721187
26	0xbdab72e2	-0.083715215
27	0xbddd5234	-0.108066946
28	0xbc00fd4e	-0.007872893
29	0x3ce85e00	0.028365135
30	0xbdf91076	-0.12161343
31	0x3d7cd8d8	0.061730236
32	0xbd91be62	-0.07116391
33	0x3d2a2b0b	0.041544955
34	0xbda2308b	-0.07919415
35	0x3dedb1c4	0.11606172
36	0xbdb3e09c	-0.08783075
37	0x3d580a10	0.05274397
38	0xbdc36e0c	-0.09542474
39	0xbc7aec25	-0.01531509
40	0x3e02297a	0.12711135
41	0x3d96e2f4	0.073675066
42	0xbd29a245	-0.041414518
43	0x3d91a58e	0.07111655
44	0xbd04e08f	-0.03244072
45	0xbd824a0f	-0.06361782
46	0xbc7bb223	-0.015362295
47	0x3dcbfce2	0.09960343
48	0x3dafb784	0.08579925
49	0xbde086f0	-0.10963237
50	0x3ddb4f0e	0.10708438
51	0x3c68fb25	0.014220034
52	0x3df582be	0.11987828
53	0x3ca32fb8	0.019920215
54	0xbce06cb5	-0.027395586
55	0xbd945177	-0.07242101
56	0xbd035b2f	-0.03206938
57	0xbd165d08	-0.036709815
58	0x3d24b6ab	0.04021327
59	0xbd9ae3c0	-0.07562971
60	0xbe0a59b4	-0.13510782
61	0xbdcb4785	-0.09925751
62	0x3db42836	0.08796732
63	0x3c550616	0.013001939
64	0xbc81172c	-0.01575812
65	0xbc4d63b8	-0.012535982
66	0x3e167d93	0.1469634
67	0x3d93f046	0.07223563
68	0x3bedf5a7	0.00726195
69	0x3de830eb	0.11337455
70	0x3dfd98dd	0.12382672
71	0x3e101114	0.14069015
72	0xbb959fc5	-0.004566165
73	0x3da601d0	0.081058145
74	0xbd13e3fb	-0.03610609
75	0x3cbae545	0.022814402
76	0x3e08dea5	0.13366182
77	0xbdf97e93	-0.12182345
78	0xbcef031f	-0.029176293
79	0x3de07587	0.109599166
80	0xbdd59911	-0.10429586
81	0xbce70383	-0.028199917
82	0xbd3b069e	-0.045660608
83	0x3d79a567	0.060948756
84	0xbc32e7df	-0.01091954
85	0xbe15ea7f	-0.14640234
86	0xbddbc49d	-0.107308604
87	0x3db11838	0.086471975
88	0xba227c19	-0.00061983016
89	0x3df94c83	0.121727966
90	0x3caea9d8	0.021321222
91	0x3dd1e7e7	0.1024931
92	0x3d66dd65	0.056363482
93	0xbdeedf2a	-0.11663659
94	0x3dcdaf9d	0.10043261
95	0x3ca616a6	0.020274471
96	0xbd445480	-0.047932148
97	0x3d1a06f7	0.0376043
98	0xbd80508c	-0.06265363
99	0xbd20ec81	-0.039288048
100	0xbcd2d879	-0.025737988
101	0x3db67aa8	0.089101136
102	0xbe04948f	-0.12947296
103	0xbd8fb85e	-0.07017587
104	0x3e094752	0.13406113
105	0x3dd76d0b	0.10518845
106	0x3e0ccc0b	0.13749711
107	0xbd45bb42	-0.048274286
108	0xbcf91b6e	-0.030408587
109	0xbe0eea6f	-0.13956617
110	0xbde7421f	-0.112919085
111	0x3c2e050e	0.010621322
112	0xbc2c82d0	-0.010529235
113	0xbd0f64d2	-0.03500826
114	0xbd67c681	-0.056585792
115	0xbda7915b	-0.08182021
116	0x3dc90818	0.09815997
117	0x3d3a082c	0.04541795
118	0xbc4d3955	-0.012525876
119	0x3e1168b2	0.14200094
120	0xbb550004	-0.003250123
121	0x3de643d5	0.11243407
122	0xbc7842e6	-0.015152669
123	0xbd4bb18a	-0.04972986
124	0xbdd7b2e8	-0.105321705
125	0xbdadd508	-0.08487898
126	0xbd913a49	-0.07091195
127	0xbd846ca2	-0.064660326
128	0x3e01b213	0.12665586
129	0xbe0d4a52	-0.13797882
130	0x3e016b71	0.12638642
131	0xbdc2db82	-0.09514524
132	0xbe0deba4	-0.13859421
133	0x3d5a6e21	0.053327683
134	0xbde4b778	-0.111678064
135	0xbd6ee94a	-0.05832795
136	0x3d45b848	0.048271447
137	0xbd69503c	-0.056961283
138	0x3cfa17ef	0.03052899
139	0x3db007f0	0.08595264
140	0xbb969f27	-0.004596609
141	0xbd9beced	-0.076135494
142	0xbda1ad65	-0.078944005
143	0x3d0993cc	0.033588216
144	0xbd824ea9	-0.063626595
145	0xbd90de4a	-0.07073648
146	0x3d96a237	0.07355159
147	0x3c0bd7a2	0.008535298
148	0x3d5681d0	0.052369893
149	0x3d976008	0.073913634
150	0xbe0c00d8	-0.13672197
151	0x3c76892e	0.015047355
152	0x3c7fb22f	0.015606447
153	0x3be7cf58	0.007074278
154	0xba8215bc	-0.000992469
155	0xbcf5739b	-0.029962352
156	0xbdfc801a	-0.12329121
157	0x3de1573b	0.11002966
158	0xbc301078	-0.010746114
159	0xbcda6aee	-0.026662316
160	0x3df29740	0.11845255
161	0xbd826cb9	-0.063683935
162	0xbda5fa51	-0.08104385
163	0xbcc407fb	-0.023929587
164	0xbdc6ee41	-0.09713412
165	0xbd9ae5da	-0.07563372
166	0xbd4e4c19	-0.05036554
167	0x3e08694f	0.13321422
168	0xbcdd047c	-0.026979677
169	0xbe057131	-0.1303146
170	0xbcb27091	-0.021782191
171	0xbd810dda	-0.0630147
172	0xbdc271cc	-0.09494361
173	0xbd5c7192	-0.053819247
174	0xbe07d640	-0.13265324
175	0xbd6c9727	-0.057761338
176	0xbdfa1589	-0.12211139
177	0xbd5545af	-0.05206841
178	0xbe103745	-0.14083584
179	0x3caeb983	0.021328693
180	0x3d03544e	0.03206282
181	0xbd9d092d	-0.07667766
182	0xbb778cc6	-0.0037773116
183	0xbdce337f	-0.10068416
184	0xbdef4718	-0.11683482
185	0x39b3050e	0.00034145307
186	0xbd06b482	-0.03288699
187	0xbde5fc1e	-0.11229728
188	0x3da2fd6d	0.079584934
189	0x3cd59e7c	0.026076548
190	0xbe151a1b	-0.1456074
191	0xbde23e07	-0.11046987
192	0x3d783e82	0.060606487
193	0x3cb93b7c	0.022611372
194	0x3db0ac55	0.0862662
195	0xb9df7fae	-0.00042629003
196	0x3b8054fc	0.003916381
197	0xbd8a9a66	-0.067677304
198	0xbd828c46	-0.06374411
199	0xbdd8b762	-0.105818525
200	0x3d49feb7	0.04931518
201	0x3df0db9b	0.117606364
202	0x3d4dcf9f	0.05024683
203	0xbce2eaaf	-0.027699796
204	0x3c742b7b	0.014902945
205	0xbe139191	-0.14410998
206	0xbcc04672	-0.023471091
207	0x3dffd77a	0.12492271
208	0xbce03eb5	-0.027373651
209	0x3b774e0f	0.0037735736
210	0x3e0bf9c1	0.13669492
211	0x3dce81fc	0.10083386
212	0xbcae2711	-0.021258863
213	0xbe0cd01e	-0.13751265
214	0x3dfeef16	0.12447946
215	0x3d7e8052	0.062134095
216	0x3ae3599a	0.0017345429
217	0x3df33b4e	0.11876546
218	0x3d67bdc3	0.056577455
219	0xbc64f5cf	-0.013974621
220	0x3df58887	0.11988931
221	0x3ceb27c7	0.02870549
222	0x3d964af5	0.07338516
223	0xb89a611c	-7.36138e-05
224	0x3d96b52e	0.07358776
225	0xbd11dfed	-0.035613943
226	0x3d1c3a73	0.03814168
227	0xbe0f1118	-0.13971364
228	0x3dc0a7b3	0.09406986
229	0x3cd7be62	0.026335899
230	0x3dadc70e	0.08485232
231	0xbdacae78	-0.08431715
232	0xbbecfd68	-0.007232357
233	0x3cca2361	0.024675073
234	0xbca97a4f	-0.020688204
235	0xbd302c0f	-0.043010768
236	0x3d82ee07	0.06393056
237	0x3d1433da	0.036182262
238	0xbe06c414	-0.13160735
239	0x3c8b4eb1	0.017005296
240	0x3db35713	0.087568425
241	0x3de22c02	0.1104355
242	0x3dc65a6f	0.096852176
243	0x3db3045a	0.08741064
244	0xbb33a63d	-0.0027412318
245	0xbdfbec1a	-0.12300892
246	0xbdbd53b5	-0.092444815
247	0x3d0b80b6	0.034058295
248	0xbd3e1cab	-0.04641406
249	0xbd75639f	-0.05990946
250	0xbcb14132	-0.021637533
251	0x3d7dd230	0.06196803
252	0xbd444cb0	-0.047924697
253	0xbda670ea	-0.081270054
254	0x3b736ce4	0.0037143761
255	0x3e0e76dd	0.1391253

module.gcn_layers.0.bnNodes.batch_norm.weight f4 [50]
0	0x3f7f5aad	0.99747735
1	0x3f7d7ea6	0.99021375
2	0x3f7c9858	0.9866996
3	0x3f7c995b	0.986715
4	0x3f802220	1.0010414
5	0x3f80b346	1.005471
6	0x3f7fb85d	0.9989069
7	0x3f7d048d	0.9883507
8	0x3f7d4de8	0.98947
9	0x3f7fb9f2	0.99893105
10	0x3f7b75c4	0.9822657
11	0x3f8142e8	1.0098543
12	0x3f7ede5d	0.9955805
13	0x3f818e84	1.0121617
14	0x3f813a56	1.0095928
15	0x3f801c7b	1.0008692
16	0x3f80d18c	1.0063949
17	0x3f7ec7d5	0.9952367
18	0x3f7bba0b	0.98330754
19	0x3f7d04f2	0.9883567
20	0x3f7cfabd	0.98820096
21	0x3f809654	1.0045877
22	0x3f7fb605	0.99887115
23	0x3f7ccc84	0.98749566
24	0x3f7dac72	0.99091256
25	0x3f7dc8c5	0.99134475
26	0x3f80f51e	1.0074804
27	0x3f7d85cf	0.990323
28	0x3f80633f	1.0030288
29	0x3f809adc	1.0047259
30	0x3f80e81a	1.0070832
31	0x3f7d52dd	0.98954564
32	0x3f80deec	1.006803
33	0x3f80bc78	1.0057516
34	0x3f7df2eb	0.9919879
35	0x3f806322	1.0030253
36	0x3f802c76	1.0013568
37	0x3f7ece21	0.9953328
38	0x3f7f77de	0.9979228
39	0x3f804e53	1.0023903
40	0x3f80f086	1.0073402
41	0x3f7ec3bb	0.9951741
42	0x3f7e0334	0.9922364
43	0x3f7c98ca	0.9867064
44	0x3f7cf566	0.9881195
45	0x3f7bafe5	0.9831527
46	0x3f7ce45c	0.9878595
47	0x3f7c9bef	0.98675436
48	0x3f7d519a	0.9895264
49	0x3f7e9e86	0.9946064

module.gcn_layers.0.bnNodes.batch_norm.bias f4 [50]
0	0xbacd99d4	-0.0015686103
1	0xbc4a06cf	-0.012330725
2	0xbc587a5f	-0.013212769
3	0xbc41c009	-0.01182557
4	0x3b28b38e	0.0025741789
5	0x3c0d3512	0.00861861
6	0xbb5f7b2e	-0.003410052
7	0xbc32b605	-0.010907655
8	0xbc4ce62e	-0.012506051
9	0xbb4d32ab	-0.0031310718
10	0xbc2b324f	-0.010449006
11	0x3c42e9a1	0.011896522
12	0xba4a68c3	-0.0007721299
13	0x3c7f6e48	0.015590258
14	0x3c2f1944	0.010687176
15	0xba820296	-0.0009918984
16	0x3a0a3cca	0.00052733405
17	0xb96cc590	-0.00022580312
18	0xbc6384f1	-0.013886676
19	0xbc12c0b8	-0.008957081
20	0xbb266a3c	-0.002539291
21	0x3bdb17e8	0.0066861995
22	0x3a9d47bf	0.0011999531
23	0xbbb4264e	-0.0054977303
24	0xbc31d9ca	-0.010855148
25	0xbb97f866	-0.0046377657
26	0x3c12a0f1	0.008949504
27	0xbb645981	-0.0034843388
28	0x3b6cdf02	0.0036143665
29	0xba619570	-0.0008605337
30	0x3bf936bd	0.0076054023
31	0x3aa31d96	0.001244473
32	0x3c575596	0.013142964
33	0x3bb43e52	0.005500593
34	0xbad9969a	-0.0016600669
35	0x3b9b21b3	0.004734242
36	0x3a81e29a	0.0009909451
37	0x3b74d9ac	0.0037361188
38	0x3a1d56e4	0.00060020224
39	0x3ad1cc80	0.001600638
40	0x3bf91004	0.007600786
41	0x3a20895d	0.00061239843
42	0xbc09d60e	-0.008412851
43	0xbc822f40	-0.015891671
44	0xbc30c810	-0.010789886
45	0xbc2ec77d	-0.010667679
46	0xbc575b83	-0.013144377
47	0xbc4abb33	-0.012373733
48	0xbc0d17c7	-0.008611626
49	0x3b19b817	0.0023455673

module.gcn_layers.0.bnEdges.W3.weight f4 [50, 50]
0	0x3cc260c3	0.02372778
1	0x3d47606b	0.048675936
2	0xbcc815cf	-0.024424462
3	0x3cc88d78	0.02448152
4	0x3c3eaadd	0.011637417
5	0xbd8159b2	-0.06315936
6	0x3c9efc0c	0.019407295
7	0x3da6ee43	0.081509136
8	0x3d24e3f0	0.04025644
9	0x3dfbbbb8	0.12291664
10	0x3ddaefc5	0.10690264
11	0xbcd2fc8a	-0.025755186
12	0x3c831a96	0.016003888
13	0x3d9b509a	0.07583733
14	0xbd8822cd	-0.06647263
15	0xbd797a4a	-0.06090764
16	0xbe0fa7b9	-0.14028825
17	0xbdb791c3	-0.08963349
18	0xbc427272	-0.011868106
19	0xbe044fbb	-0.1292104
20	0x3e06cd53	0.13164262
21	0xbb8f7d53	-0.0043789535
22	0x3d78cd08	0.060742408
23	0x3db5c6e9	0.0887583
24	0xbe0f1c06	-0.13975534
25	0xbdc96076	-0.098328516
26	0xbd090538	-0.033452243
27	0x3ba44ace	0.0050138
28	0xbdbc6436	-0.09198801
29	0xbdf18f65	-0.117949285
30	0x3b96c1fc	0.0046007615
31	0x3cf4623e	0.029832002
32	0xbe04d770	-0.12972808
33	0x3d4a2383	0.049350273
34	0xbd93946e	-0.07206045
35	0x39e30868	0.00043303077
36	0xbbe36889	-0.006939952
37	0xbd64f73f	-0.055899855
38	0xbcc3ecaa	-0.023916561
39	0xbd962ea3	-0.07333114
40	0x3da0eb32	0.0785736
41	0xbdb12367	-0.086493306
42	0xbd4b1ad9	-0.04958615
43	0xbde124ad	-0.109933235
44	0x3db94e21	0.09048105
45	0xbdb220bc	-0.0869765
46	0xbdc27913	-0.09495749
47	0xbdb9dac9	-0.09074933
48	0x3d32dcfb	0.043667775
49	0xbda0a14d	-0.07843266
50	0x3dfe6638	0.124218404
51	0xbd52e08c	-0.051483676
52	0xbde0def7	-0.10980027
53	0xbdb03605	-0.086040534
54	0xbd4cbbc2	-0.049983747
55	0xbdab5de1	-0.08367515
56	0x3cdd9618	0.02704911
57	0xbda06fcd	-0.07833824
58	0x3d014700	0.03156185
59	0xbd73349f	-0.059376355
60	0xbcde735f	-0.027154623
61	0x3daef651	0.08543075
62	0x3ca22132	0.01979122
63	0x3e1f4ef1	0.15557458
64	0xbe06496b	-0.13113944
65	0xbcf15ba2	-0.02946264
66	0x3e122084	0.14270216
67	0xbde3bd7f	-0.11120128
68	0xbd758383	-0.059939872
69	0xbccae542	-0.024767522
70	0xbdec6954	-0.11543527
71	0x3dee5bd6	0.1163861
72	0xbdc2bd6f	-0.09508788
73	0x3d0b4234	0.033998683
74	0x3d71dee6	0.059050463
75	0x3d28011e	0.04101669
76	0x3e068ea9	0.13140358
77	0x3d1b90d8	0.03797993
78	0x3dbb0258	0.091313064
79	0xbc1edd31	-0.009696291
80	0x3ca0206e	0.019546714
81	0xbda8c6ff	-0.082410805
82	0xbe1aa8e1	-0.15103485
83	0x3e199d56	0.15001425
84	0x3b9f5fb5	0.004863704
85	0xbdbef619	-0.09324283
86	0x3d43ad25	0.047772545
87	0x3e01feb6	0.12694821
88	0x3d676ec5	0.056502122
89	0x3d104c77	0.035229173
90	0x3dd13f38	0.10217136
91	0x3e03e7f0	0.12881446
92	0x3e03134b	0.12800328
93	0x3cc16323	0.023606842
94	0xbe04a14d	-0.12952156
95	0xbd57fcfc	-0.0527315
96	0x3de30d82	0.11086561
97	0x3d877ba7	0.06615382
98	0xbd6898d5	-0.056786377
99	0x3c867e18	0.016417548
100	0xbdc7d01e	-0.09756492
101	0xbc91a886	-0.017780554
102	0x3df3b078	0.11898893
103	0x3cd555a5	0.026041815
104	0xbced2a78	-0.028950915
105	0xbc04748e	-0.008084429
106	0xbdf1cf5f	-0.11807131
107	0x3daf1daa	0.0855058
108	0xbe05cffe	-0.13067624
109	0xbd9d4db4	-0.07680836
110	0xba9698b3	-0.00114896
111	0x3d5292bd	0.05140947
112	0x3d6d2679	0.05789802
113	0xbc91452f	-0.017733185
114	0x3deea4c9	0.11652524
115	0xbe17183c	-0.14755338
116	0xbde51631	-0.11185873
117	0xbd56c41b	-0.052433114
118	0x3dc9fae8	0.0986231
119	0x3d70b7ac	0.058768913
120	0xbe0772a3	-0.13227324
121	0xbe091024	-0.13385063
122	0xbe128785	-0.14309509
123	0xbdfb2130	-0.122621894
124	0x3dc03e8f	0.09386932
125	0x3c03067d	0.007997152
126	0xbcb40af0	-0.021977872
127	0x3b8911da	0.0041830363
128	0xbda4b0bc	-0.08041522
129	0x3dc2b22f	0.09506642
130	0xbd35b484	-0.044361606
131	0x3de77e8e	0.11303435
132	0xbde298bd	-0.11064289
133	0xbdcd0b8e	-0.100119695
134	0x3dcfb5da	0.10142107
135	0x3b37e14b	0.002805787
136	0xbdf38de0	-0.11892295
137	0x3cf052e2	0.029336397
138	0xbcd0fee8	-0.025512174
139	0xbd8b1211	-0.06790555
140	0x3e12d3af	0.14338563
141	0xbdee97d5	-0.116500534
142	0x3d4276f6	0.04747673
143	0xbd819d0d	-0.06328783
144	0x3d83d1e7	0.0643652
145	0xbde96894	-0.113969
146	0xbd48ace6	-0.048993014
147	0x3cddf0fc	0.02709245
148	0xbd90849d	-0.07056544
149	0x3cbc8b63	0.023015684
150	0x3dd336e9	0.10313208
151	0xbd9b9b65	-0.075979985
152	0x3d610f87	0.05494645
153	0x3d56addf	0.05241191
154	0x3c8c0615	0.017092744
155	0xbdbec14c	-0.09314212
156	0xbd256b19	-0.04038534
157	0xbcb9572b	-0.022624573
158	0x3b13cfc3	0.0022554256
159	0xbde7f26e	-0.11325537
160	0x3de0200c	0.109436125
161	0x3d133486	0.035938762
162	0xbd14db4e	-0.036341958
163	0x3d80b039	0.06283612
164	0xbc73360a	-0.014844427
165	0x3d9b1233	0.075718306
166	0x3e0a95ff	0.13533781
167	0xbd05f7be	-0.03270697
168	0xbd3d7ca0	-0.04626143
169	0x3dbf1914	0.09330955
170	0xbd16dbd1	-0.036830727
171	0x3ddb3c94	0.10704914
172	0x3b9a9e28	0.0047185607
173	0xbd93c6f8	-0.07215685
174	0x3e073c86	0.13206682
175	0xbc571ea1	-0.013129861
176	0x3dce9c60	0.1008842
177	0x3d87a2d6	0.06622855
178	0xbe0aca8e	-0.13553831
179	0x3ce90daa	0.028448898
180	0x3dd370ee	0.10324274
181	0x3dd1a1f3	0.102359675
182	0x3e13eb40	0.1444521
183	0xbdfaae14	-0.12240234
184	0x3d9a94a0	0.07547879
185	0xbe0941f8	-0.13404071
186	0xbe0108ce	-0.12601015
187	0xbda269fa	-0.0793037
188	0xbd1b9862	-0.03798712
189	0x3d340026	0.043945454
190	0xbd9a392d	-0.07530437
191	0xbd4334b8	-0.0476577
192	0xbdfd4e7f	-0.123684876
193	0x3d3e97c7	0.046531465
194	0x3c15d5ec	0.009145241
195	0x3c7ecdec	0.015552025
196	0x3d4f119f	0.050553914
197	0xbc08be87	-0.0083462065
198	0x3db4d9d1	0.08830608
199	0xbdb342d9	-0.087529846
200	0x3d224cda	0.039624073
201	0x3e02a327	0.1275755
202	0x3d7719e0	0.06032741
203	0x3bd8c932	0.006615781
204	0xbdd30054	-0.10302797
205	0x3e0c6b65	0.13712843
206	0xbdee9e7e	-0.11651324
207	0x3e1b9964	0.15195233
208	0x3d26ecbb	0.040753108
209	0x3e03f2f5	0.1288565
210	0x3da1f8b0	0.079087615
211	0x3dbca337	0.09210818
212	0xbe0711b1	-0.13190342
213	0xbda709d0	-0.081561685
214	0xbd787ad1	-0.060664
215	0x3d534946	0.05158355
216	0xbd51e908	-0.051247627
217	0xbcbc1a5b	-0.022961786
218	0xbe19c1e2	-0.15015367
219	0x3d72b842	0.059257753
220	0xbd93182b	-0.07182344
221	0x3d956a5f	0.07295679
222	0xbd957856	-0.07298343
223	0x3e1663af	0.14686464
224	0xbb7c6278	-0.003851084
225	0x3c728596	0.014802357
226	0x3cd60193	0.026123798
227	0xbe0601ac	-0.13086575
228	0xbbeba9b4	-0.007191861
229	0x3da8490d	0.08217058
230	0xbc974c78	-0.01846908
231	0x3c2c916e	0.01053272
232	0x3dcd325b	0.1001937
233	0x3e013d16	0.12620959
234	0xbe0a1baa	-0.13487116
235	0x3da5484d	0.08070431
236	0x3cfa8df8	0.030585274
237	0x3d21826b	0.039431017
238	0xbd3c6903	-0.045998584
239	0xbd9ebb59	-0.077505775
240	0xbdbe34a1	-0.09287382
241	0xbcb01cc9	-0.0214981
242	0x3ca4ea15	0.02013115
243	0xbd84338e	-0.06455146
244	0x3d9087b0	0.0705713
245	0x3e08b926	0.13351879
246	0x3d323b4b	0.043513577
247	0x3dbf2e97	0.09335058
248	0x3dc58de2	0.096462026
249	0xbd44cfbc	-0.048049673
250	0x3df8a666	0.12141113
251	0xbdbb4dc9	-0.09145696
252	0xbdea183e	-0.11430405
253	0xbb917e86	-0.0044401316
254	0xbd6cbe0c	-0.05779843
255	0x3d136530	0.03598517

module.gcn_layers.0.bnEdges.W4.weight f4 [50, 50]
0	0xbcec11c9	-0.028817074
1	0x3dce2478	0.100655496
2	0x3ddf215b	0.10895034
3	0x3c122e9e	0.008922247
4	0x3d88793d	0.06663749
5	0x3d610811	0.054939333
6	0x3d9deb37	0.07710879
7	0x3d17c0d8	0.037049145
8	0xbdd704b7	-0.10498946
9	0xbc01f939	-0.0079329545
10	0xbdd8254d	-0.105539896
11	0x3db8360f	0.08994686
12	0x3d2376f0	0.03990835
13	0xbd888cb9	-0.06667466
14	0x3de547b2	0.111953154
15	0xbd9c2fda	-0.076263145
16	0xbdcaebad	-0.09908233
17	0xbdfae4cb	-0.1225067
18	0xbd493596	-0.04912337
19	0x3c99c7de	0.018772062
20	0x3e15d2c7	0.14631186
21	0x3c81bcb7	0.015837057
22	0xbd73ba19	-0.05950365
23	0x3db101dc	0.08642933
24	0x3defd95f	0.11711382
25	0x3db6c984	0.08925155
26	0xbd611ac8	-0.05495718
27	0x3dc14e3d	0.09438751
28	0xbd0a871d	-0.03382026
29	0xbca48590	-0.020083219
30	0xbaec6c02	-0.001803756
31	0xbd7059a3	-0.058679234
32	0xbe02f03c	-0.12786955
33	0xbdd8d108	-0.105867445
34	0xbde31384	-0.11087707
35	0x3dc9f9b5	0.09862081
36	0x3d3b90f7	0.045792546
37	0x3d158343	0.036502134
38	0xbd968211	-0.07349027
39	0xbdb10af7	-0.086446695
40	0xbdeeeb97	-0.11666029
41	0x3d6d7e67	0.057981875
42	0xbd07fac5	-0.033198137
43	0x3d83b0c1	0.064301975
44	0x3d88ab1c	0.066732615
45	0xbdd19f5d	-0.10235474
46	0x3cc12c70	0.02358076
47	0x3e0a528e	0.13508055
48	0x3b37dca4	0.0028055096
49	0xbd87e274	-0.066349894
50	0x3d966d0e	0.07345019
51	0x3e06c5d4	0.13161403
52	0xbdccc3b3	-0.09998264
53	0x3d72b8a8	0.059258133
54	0xbd0aee86	-0.03391888
55	0x3ce1168c	0.027476572
56	0x3dd69113	0.104768895
57	0x3dcc48b4	0.099748045
58	0xbe01db46	-0.12681302
59	0xbb43f09c	-0.0029898053
60	0x3dc094e3	0.09403398
61	0x3e0664b6	0.13124356
62	0x3d9e696a	0.0773495
63	0x3d158c09	0.0365105
64	0x3c8b1486	0.01697756
65	0xbe05b3b8	-0.13056839
66	0x3d527689	0.051382575
67	0xbda43224	-0.08017376
68	0x3ca34869	0.019931989
69	0x3e0259b1	0.12729527
70	0x3d332497	0.043736067
71	0xbd2f49ca	-0.04279498
72	0xbbafca56	-0.0053646965
73	0xbced780a	-0.028987903
74	0x3db510e5	0.08841113
75	0xbccecab0	-0.025243133
76	0x3d1280fc	0.03576754
77	0x3b0c110c	0.0021372465
78	0x3e086dc9	0.1332313
79	0xbd3beb63	-0.04587878
80	0xbdb91687	-0.090375
81	0xbd33f261	-0.043932322
82	0x3d35eb51	0.04441387
83	0xbe07f349	-0.132764
84	0xbdd540b5	-0.104127325
85	0x3cd2f3a4	0.025750943
86	0xbda74530	-0.08167493
87	0xbd92db64	-0.07170752
88	0x3d1e6a66	0.03867569
89	0x3dc47e86	0.09594445
90	0x3d99a571	0.075022586
91	0xbdda28d8	-0.106523216
92	0x3dd0573e	0.1017289
93	0xbda924df	-0.08258986
94	0x3e07c670	0.13259292
95	0x3deecc83	0.11660101
96	0xbc834cf7	-0.01602791
97	0x3d1a55c7	0.03767946
98	0x3cebb9cf	0.028775124
99	0xbd2e41da	-0.04254327
100	0xbbb3efca	-0.0054912316
101	0xbdb31315	-0.08743874
102	0x3d497cce	0.04919129
103	0x3d84dae5	0.06487063
104	0xbd93315e	-0.071871504
105	0xbd37eb87	-0.04490235
106	0xbcb5e544	-0.022204049
107	0xbda7c7e3	-0.08192422
108	0xbdd20889	-0.10255534
109	0x3d983f8e	0.07433997
110	0xbd4adaa6	-0.049524926
111	0xbd94fc3e	-0.07274674
112	0x3e001451	0.1250775
113	0xbd865ddd	-0.06560872
114	0x3e0ba01c	0.13635296
115	0xbdde7c78	-0.10863584
116	0x3d939ef7	0.072080545
117	0x3da14ae3	0.07875612
118	0x3e0c8430	0.137223
119	0xbe04e5f3	-0.12978344
120	0x3db6e7c7	0.08930927
121	0xbde476c3	-0.111554645
122	0xbd3757b0	-0.04476136
123	0xbddb08ed	-0.10695062
124	0x3c5485e8	0.012971379
125	0x3c4b3055	0.01240166
126	0x3d1db09a	0.0384985
127	0x3cbafc2e	0.022825327
128	0x3d2b7215	0.041856844
129	0xbd275718	-0.040854543
130	0x3dc174aa	0.0944608
131	0xbb99c87f	-0.0046930905
132	0xbdf5ade5	-0.119960584
133	0x3e0af7db	0.13571112
134	0x3dbaad9e	0.09115146
135	0xbc92cffe	-0.017921444
136	0x3d961937	0.07329028
137	0xbd298b50	-0.041392624
138	0x3dd971f3	0.10617437
139	0xbdfbd9a3	-0.1229737
140	0xbdf9ba3b	-0.12193724
141	0xbd8f5f8e	-0.070006475
142	0xbdcf73d7	-0.101295166
143	0x3dbc37f5	0.091903605
144	0x3b16071e	0.0022892426
145	0xbd6c83a9	-0.05774275
146	0xbd88821e	-0.06665443
147	0xbdeed261	-0.1166122
148	0x3bfb274e	0.0076645976
149	0xbe04b1a1	-0.12958385
150	0xbdeb6b56	-0.11495082
151	0x3d1777cb	0.036979478
152	0x3a742fda	0.0009314992
153	0x3dae6fec	0.08517441
154	0x3c27b75b	0.010236586
155	0xbdf2e0bf	-0.11859273
156	0x3da23073	0.07919397
157	0x3dd6aa4e	0.10481702
158	0x3d074042	0.033020265
159	0x3c88e772	0.016711924
160	0x3d30c04c	0.04315214
161	0x3cdc297d	0.026875252
162	0xbd9c7e7b	-0.07641312
163	0xbd8f6c9c	-0.070031375
164	0x3cfc4678	0.03079532
165	0x3e10e22d	0.14148779
166	0x3b5e4796	0.003391718
167	0x3b033b76	0.0020024455
168	0xbdbc2d41	-0.09188319
169	0xbd660a4d	-0.056162167
170	0x3d2aa34d	0.041659642
171	0x3c0a3cf8	0.008437388
172	0x3e051a88	0.12998402
173	0x3d80225d	0.06256554
174	0xbc5a5eb9	-0.013328248
175	0xbd5ff6ac	-0.054678604
176	0xbdca1d60	-0.09868884
177	0x3c42463c	0.0118575655
178	0xbc059ae3	-0.008154604
179	0x3d8f8020	0.0700686
180	0x3d565895	0.052330572
181	0x3c1d2bc3	0.009592953
182	0x3dcd9ed1	0.100400575
183	0x3cd66be8	0.0261745
184	0x3d807114	0.06271568
185	0xbddde795	-0.108351864
186	0xbd7504af	-0.05981892
187	0x3db48836	0.08815043
188	0x3db296bf	0.08720159
189	0x3da86513	0.082224034
190	0x3d450bb9	0.048106883
191	0xb8569b90	-5.1166455e-05
192	0xbe1af2c1	-0.15131666
193	0xbda4a01b	-0.0803835
194	0x3dd539e5	0.10411433
195	0xbd46550a	-0.048420943
196	0x3de6ab14	0.11263099
197	0xbde3cb72	-0.111227885
198	0xbd665a6a	-0.05623857
199	0x3c30ec23	0.010798487
200	0xbd9f57da	-0.07780428
201	0x3dd4cf0d	0.10391054
202	0x3dd31009	0.10305793
203	0xbd48a5c9	-0.04898623
204	0x3e0e93d4	0.1392358
205	0x3dafaf04	0.085783035
206	0x3de12ae8	0.10994512
207	0xbdd610b8	-0.104524076
208	0xbdf378ec	-0.118882984
209	0x3cab0b31	0.02087936
210	0x3c7b994a	0.015356371
211	0x3d76e78d	0.060279418
212	0xbdf36af6	-0.118856356
213	0x3df73abd	0.1207175
214	0x39aa8384	0.00032522914
215	0x3db6fa1f	0.089344256
216	0x3d8b8974	0.068133265
217	0x3d9b857d	0.0759382
218	0xbd622287	-0.05520871
219	0xbc4ba63c	-0.01242977
220	0xbdefccba	-0.1170897
221	0x3b7d25e5	0.0038627323
222	0xbd54fb46	-0.051997446
223	0xbdd121d0	-0.10211527
224	0x3d38de73	0.04513402
225	0xbdcfad5c	-0.101404876
226	0x3dacf26f	0.08444678
227	0xbdc6d1a2	-0.09707953
228	0x3c15d215	0.009144326
229	0x3d43d326	0.04780879
230	0x3e08880a	0.13333145
231	0xbd62ac1e	-0.055339925
232	0xbdef55a0	-0.116862535
233	0xbdb53718	-0.08848399
234	0xbd8dff1a	-0.069334224
235	0xbd7eb8d0	-0.06218797
236	0xbdd17699	-0.10227699
237	0x3e14ba49	0.14524187
238	0x3b76ac40	0.003763929
239	0xbdf0898f	-0.11744987
240	0x3d014147	0.031556394
241	0x3c5a765d	0.013333884
242	0x3c8b00c4	0.016968139
243	0x3cf1dd91	0.029524596
244	0x3d063c44	0.032772318
245	0x3db20d6b	0.086939655
246	0x3d8278a9	0.0637067
247	0x3cc74fcb	0.02433004
248	0x3dd7b74d	0.10533009
249	0x3ac07b62	0.0014685208
250	0xbd6c6ab4	-0.057718948
251	0xbd111242	-0.035417803
252	0x3a72efb1	0.0009267284
253	0xbd6b5598	-0.057454675
254	0x3e0abb1e	0.13547942
255	0x3d0edff5	0.03488155

module.gcn_layers.0.bnEdges.W5.weight f4 [50, 50]
0	0x3dd81588	0.10550982
1	0xbdb22b9c	-0.08699724
2	0xbc6f5d47	-0.014609641
3	0x3bd6338c	0.0065369066
4	0x3e1555a9	0.14583458
5	0xbd852f2b	-0.06503137
6	0xbd9b5b45	-0.07585768
7	0x3cf6977c	0.03010153
8	0x3d063e76	0.03277441
9	0x3d5fd1ce	0.054643445
10	0x3e0143c0	0.12623501
11	0xbde4137f	-0.11136531
12	0x3c42abdc	0.011881795
13	0xbd049743	-0.032370817
14	0xbe072f5c	-0.1320166
15	0xbcf556d2	-0.029948626
16	0x3d0ffc8c	0.035152957
17	0x3d95680e	0.072952375
18	0x3ba1608f	0.0049248408
19	0xbde16fa6	-0.110076234
20	0xbcd656e9	-0.026164489
21	0x3d8e1edd	0.069394805
22	0x3d76b116	0.060227476
23	0xbdeb57f8	-0.11491388
24	0x3d13a5ae	0.036046676
25	0xbcb017ae	-0.021495666
26	0x3c749c49	0.014929839
27	0x3dce3e45	0.10070471
28	0xbd927388	-0.07150942
29	0xbaeb9706	-0.0017974086
30	0x3ddbf239	0.1073956
31	0xbc1c1076	-0.009525409
32	0x3e1f32e7	0.15546761
33	0xbc6f5ae7	-0.014609075
34	0x3ced8037	0.028991802
35	0xbc7fcea4	-0.015613232
36	0x3d0139d7	0.0315493
37	0xbd4377e6	-0.047721766
38	0x3e13d135	0.14435275
39	0x3e00f796	0.12594447
40	0xbbacebd1	-0.005277135
41	0xbd9cb0a4	-0.07650879
42	0x3cf41516	0.02979521
43	0xbce21ed5	-0.027602592
44	0xbe053957	-0.13010155
45	0x3c0b0954	0.008486111
46	0xbde63bc6	-0.1124187
47	0xbd0cda5f	-0.034387942
48	0xbdeba787	-0.11506563
49	0x3dd313b8	0.103064954
50	0x3d8e01c2	0.06933929
51	0xbd84f066	-0.06491165
52	0x3d984e34	0.07436791
53	0xbdbe86e8	-0.09303075
54	0x3cc51019	0.024055528
55	0xbe029bc0	-0.12754726
56	0x3d831dd1	0.064021714
57	0xbd9b58f3	-0.07585325
58	0xbd616e81	-0.055037025
59	0x3d2d3675	0.042288262
60	0xbdffc5b2	-0.12488879
61	0x3d862b08	0.06551176
62	0xbbdc5e31	-0.0067250957
63	0xbde1edd3	-0.110316895
64	0xbcf978c9	-0.030453103
65	0xbdc93f15	-0.09826485
66	0x3d3baf82	0.045821674
67	0x3d0bf668	0.03417054
68	0xbdd30c2c	-0.10305056
69	0x3dbce677	0.09223645
70	0xbd473b04	-0.048640266
71	0x3debaaa5	0.11507157
72	0xbbd4ca88	-0.00649387
73	0x3c76c652	0.015061932
74	0xbd2f82bb	-0.042849284
75	0xbbc23149	-0.0059262854
76	0xb9ccb010	-0.0003904109
77	0xbcd8a61f	-0.0264464
78	0xbdb1087e	-0.08644198
79	0x3c2c8022	0.010528596
80	0xbdebc549	-0.115122385
81	0xbd934931	-0.071916945
82	0xbd245643	-0.040121328
83	0xbc491642	-0.012273373
84	0xbdc62065	-0.096741475
85	0xbd85b98b	-0.0652953
86	0xbbb4d840	-0.005518943
87	0x3c60dba7	0.013724244
88	0x3c73c3a9	0.014878192
89	0xbdb55f56	-0.088560745
90	0x3dc69811	0.09696973
91	0xbd4508c6	-0.04810407
92	0xbe006716	-0.12539324
93	0x3da29187	0.079379134
94	0x3bc573bd	0.00602576
95	0xbcb604a4	-0.02221901
96	0xbe0ee2c1	-0.13953687
97	0xbd9b696c	-0.07588467
98	0x3d8c74e7	0.06858235
99	0xbd3cece7	-0.046124365
100	0xbdcc0834	-0.09962502
101	0x3dad1b68	0.08452493
102	0xbdf23297	-0.118260555
103	0x3dae5d2f	0.08513867
104	0xbd48877f	-0.048957344
105	0x3d76cb2b	0.06025235
106	0x3ca8b300	0.020593166
107	0x3e0d0ead	0.1377513
108	0x3d69b186	0.057054065
109	0xbc2913f5	-0.0103196995
110	0x3e080bac	0.13285702
111	0xbdf161b9	-0.11786217
112	0x3c5c1389	0.013432392
113	0x3d38e397	0.04513892
114	0xbde0bae0	-0.109731436
115	0xbd98689b	-0.07441827
116	0xbd73d1fa	-0.05952642
117	0xbd998cf4	-0.07497588
118	0xbc512200	-0.012764454
119	0xbdb2d218	-0.087314785
120	0x3e0844ab	0.13307445
121	0xbb351a14	-0.0027633952
122	0x3e0f2861	0.13980247
123	0x3d0b10d0	0.03395158
124	0xbc9ff64d	-0.019526625
125	0x3c4ad650	0.012380198
126	0xbd9e6a98	-0.07735175
127	0xbdb9be17	-0.0906946
128	0x3d50ca86	0.05097439
129	0xbc9cba75	-0.019131878
130	0x3c897ced	0.016783202
131	0xbc88a322	-0.01667935
132	0x3de1e8fa	0.11030765
133	0xbe144993	-0.14481191
134	0xbdc2bfa3	-0.09509208
135	0xbd9913b2	-0.0747446
136	0xbd38ea86	-0.045145534
137	0x3dee7c82	0.11644842
138	0x3dc24f70	0.09487808
139	0xbddf67f5	-0.109085
140	0xbd236b9d	-0.03989755
141	0x3de557d5	0.11198393
142	0xbde09862	-0.10966565
143	0x3c72f76d	0.014829499
144	0x3d5deb09	0.054179225
145	0x3d82e6a7	0.0639165
146	0x3dcb87fd	0.09938047
147	0x3dbbb86f	0.09166037
148	0x3d0f8141	0.035035376
149	0xbe07f6f1	-0.13277794
150	0xbd8d7fa7	-0.069091134
151	0xbd00f3f0	-0.031482637
152	0xbdc44a62	-0.095845
153	0xbda1ac11	-0.07894147
154	0x3cc95295	0.024575511
155	0xbd4420bf	-0.04788279
156	0x3cfabbe5	0.030607173
157	0x3d5130fb	0.051072102
158	0x3d973d08	0.07384688
159	0xbde75092	-0.112946644
160	0x3df53653	0.11973252
161	0x3d81a7e4	0.06330851
162	0x3ca14a5d	0.01968878
163	0xbd0304f3	-0.03198714
164	0xbd1ca6e1	-0.038245086
165	0x3c592541	0.013253511
166	0xbca17ae1	-0.019711914
167	0xbdff67d9	-0.12470979
168	0x3c902c9d	0.017599398
169	0xbdbe183a	-0.092819646
170	0xbdf4bcb3	-0.11950054
171	0x3db7ea9d	0.08980296
172	0xbcc8a6c8	-0.02449359
173	0xbcf083c3	-0.029359704
174	0xbcdba90e	-0.02681401
175	0xbd6605de	-0.05615794
176	0x3d8a6a6d	0.0675858
177	0xbc3a691a	-0.011377597
178	0xbd6225f6	-0.055211984
179	0x3e088a11	0.13333918
180	0x3dcc6518	0.099802196
181	0x3dda691c	0.10664579
182	0xbe1848e5	-0.14871557
183	0x3d0b8ee5	0.03407182
184	0x3ca014be	0.01954114
185	0x3e03732b	0.12836902
186	0x3d4a1d28	0.04934421
187	0x3cc9fa57	0.024655504
188	0x3db3796f	0.08763396
189	0x3d8ff6e5	0.07029513
190	0xbdf558ff	-0.11979865
191	0xbe0691c9	-0.1314155
192	0xbd861e75	-0.06548778
193	0xbccb4a7a	-0.024815787
194	0x3d2a3b52	0.04156048
195	0x3dcd065c	0.100109786
196	0xbdf63e02	-0.12023546
197	0xbcdbe69e	-0.026843365
198	0xbdd32a6c	-0.10310826
199	0x3dfcb115	0.12338463
200	0x3d994b73	0.07485094
201	0x3dc1b17e	0.09457682
202	0xbcb21e43	-0.021742946
203	0xbd9a9a80	-0.07549
204	0xbdabaca5	-0.08382539
205	0x3c27a658	0.0102325305
206	0x3c5b954e	0.013402296
207	0x3c59ff47	0.013305492
208	0x3de18552	0.11011757
209	0xbdad2d65	-0.08455924
210	0x3dc45e44	0.09588292
211	0x3d47a5ec	0.04874222
212	0xbdfc8adf	-0.12331175
213	0xbd6e4fb7	-0.05818149
214	0xbd8f389a	-0.06993218
215	0x3c40b958	0.011762939
216	0x3db7a9b3	0.089679144
217	0x3d9e82e7	0.077398114
218	0xbc47f145	-0.012203519
219	0x3e10f5a4	0.14156204
220	0x3d5f8c7c	0.054577336
221	0x3d280f8a	0.041030444
222	0xbe035833	-0.12826614
223	0xbde6fb8e	-0.11278449
224	0x3dc912f9	0.09818072
225	0x3d7c330a	0.061572112
226	0xbd5f3554	-0.054494217
227	0xbdc7a256	-0.0974776
228	0xbbe7ff68	-0.0070800073
229	0xbe122e34	-0.14275438
230	0x3de0b971	0.1097287
231	0x3d7c2872	0.06156201
232	0x3cf98fa2	0.030463997
233	0xbde60b5b	-0.11232635
234	0xbd05e22d	-0.0326864
235	0xbda4c2f0	-0.08044994
236	0x3d9f3c51	0.07775176
237	0x3e190605	0.14943703
238	0xbbb5ea52	-0.005551615
239	0xbd4faaa5	-0.05069985
240	0x3de59394	0.11209789
241	0xbd415cfe	-0.047207825
242	0xbd74faa2	-0.059809335
243	0xbdd2e075	-0.10296718
244	0x3d05b319	0.032641504
245	0x3dce7174	0.10080233
246	0x3dd55161	0.104159124
247	0x3d35561e	0.04427158
248	0x3dd1e327	0.10248404
249	0xbdcaa10f	-0.09894001
250	0x3e0211e8	0.12702143
251	0xbd225e92	-0.03964097
252	0xbe056252	-0.13025787
253	0x3d926c3c	0.0714955
254	0x3cd7f82b	0.026363453
255	0xbca13c37	-0.019682033

module.gcn_layers.0.bnEdges.batch_norm.weight f4 [50]
0	0x3f80d369	1.0064517
1	0x3f82a307	1.0206002
2	0x3f8247e8	1.0178194
3	0x3f7bf74e	0.9842423
4	0x3f7ed44d	0.99542695
5	0x3f822135	1.0166384
6	0x3f808d1f	1.0043067
7	0x3f815f9c	1.0107303
8	0x3f809298	1.0044737
9	0x3f81fa5d	1.015453
10	0x3f81af6a	1.0131657
11	0x3f806590	1.0030994
12	0x3f814161	1.0098077
13	0x3f8055d2	1.002619
14	0x3f7f4108	0.99708605
15	0x3f81911b	1.0122408
16	0x3f7bffe4	0.98437333
17	0x3f7ebc2f	0.99505895
18	0x3f7c2868	0.98499155
19	0x3f815c07	1.010621
20	0x3f808dce	1.0043275
21	0x3f7fd878	0.9993968
22	0x3f813501	1.00943
23	0x3f821bed	1.0164772
24	0x3f815028	1.0102587
25	0x3f7d462f	0.98935217
26	0x3f80637b	1.0030359
27	0x3f7dddcb	0.99166554
28	0x3f82486b	1.017835
29	0x3f7ea36a	0.994681
30	0x3f805e12	1.0028708
31	0x3f801b22	1.000828
32	0x3f7fe648	0.99960756
33	0x3f8156ba	1.0104592
34	0x3f8169d4	1.0110421
35	0x3f820d2c	1.016027
36	0x3f7fce38	0.9992404
37	0x3f820b9f	1.0159796
38	0x3f801d65	1.000897
39	0x3f82039c	1.0157351
40	0x3f7de0ed	0.99171335
41	0x3f81f70a	1.0153515
42	0x3f7ec9ec	0.9952686
43	0x3f8209e8	1.0159273
44	0x3f8168ab	1.0110067
45	0x3f8092a6	1.0044754
46	0x3f80f614	1.0075097
47	0x3f7e1261	0.99246794
48	0x3f80ffc6	1.0078056
49	0x3f81b951	1.0134679

module.gcn_layers.0.bnEdges.batch_norm.bias f4 [50]
0	0x3c11711d	0.008877066
1	0x3c88c898	0.016697213
2	0x3bc65749	0.0060528857
3	0xbc736901	-0.014856578
4	0xbc137a8b	-0.0090013845
5	0x3c6d5bc1	0.014487208
6	0x39b8f1e6	0.00035275443
7	0x39481b89	0.00019083744
8	0xbb30ba20	-0.0026966408
9	0x3c04a74b	0.008096526
10	0x3b4636e1	0.0030245113
11	0x3bc03176	0.005865271
12	0xbbdcc076	-0.0067368103
13	0x3c1ed7cd	0.009695006
14	0x3aeada08	0.0017917762
15	0x3c5f2098	0.013618611
16	0xbc79c562	-0.015244814
17	0xbb1c58c7	-0.0023856626
18	0xbc731902	-0.014837505
19	0x3c414296	0.0117956605
20	0xbbd9bbbb	-0.0066446937
21	0xbb192ee2	-0.0023373892
22	0x3bca7432	0.0061784023
23	0x3c883116	0.016624968
24	0x3ba48652	0.005020895
25	0x3bf1b298	0.0073760264
26	0x3b959e2e	0.0045659756
27	0xbc40252d	-0.011727613
28	0x3c634588	0.013871558
29	0xbc212333	-0.009835052
30	0x3b9b2c31	0.0047354926
31	0x3be08928	0.006852288
32	0x3bee4e2c	0.0072725024
33	0x3c3e111d	0.01160076
34	0x3c2bfca5	0.010497247
35	0x3b5117f3	0.0031905144
36	0xbb1737ac	-0.0023073955
37	0x3c7392e0	0.014866561
38	0xbaa53086	-0.0012602962
39	0x3c910ab2	0.017705295
40	0xbc322dd5	-0.010875185
41	0x3c81a4ea	0.015825707
42	0xbc62281f	-0.013803511
43	0x3c871585	0.016489753
44	0xbb124bf0	-0.0022323094
45	0x3c0857a1	0.008321674
46	0x3be3b8a2	0.0069495
47	0x39f46b8e	0.0004661944
48	0x3bbea05c	0.005817456
49	0x3c709cf9	0.014685863
