logs/deafult/checkpoint_epoch14.tar (torch, 489841 bytes, 103 tensors)

module.NodesEncoding.A1.weight f4 [50, 2]
00000000: f716 13bf 10b5 bf3e f73c 10bf b1fe 13bf
00000010: 59c2 c63e 180f 823e c3c0 bcbe c35f 2fbf
00000020: 195e 54be fca5 3b3e 3914 ae3e 5e0e 0cbe
00000030: 8e2d 043f 2d96 69be db90 213e 881d d7be
00000040: aad6 85bd e84c e63e 2aa5 c3be 9a3d 0e3f
00000050: c92a 21bf 30db 1a3e 6a6e f93e 8d63 263f
00000060: 3506 1b3f 1aa8 333f d9f5 4a3e e411 613d
00000070: dc14 a73e 12c0 bbbe 8574 b93e ed2a e9be
00000080: 2520 77be b41b ebbe 436b 273f 68dd b53e
00000090: 1591 38be 91b4 a0be 573a 3c3e 5a9f dabe
000000a0: 3b77 14be 3b05 973e f899 0b3f aba8 cfbe
000000b0: dd24 95be 1f9c ff3e f1bb 373f a41c 393e
000000c0: 3d97 33bf 008e fcbe 3780 05be f7e2 0f3f
000000d0: 076b c5be d4d1 f5be a882 e1be 6bcc 5abe
000000e0: 4861 cc3d 8a07 103f 15fd bcbe fd6d 103f
000000f0: b465 9ebe 132e 1abf 24de 1fbf 1f88 2a3f
00000100: f283 2ebf 0015 ebbc 369e 8b3d b1d3 ab3d
00000110: 00bd b63d 36fa 0c3f 417d 54be ac1e dc3e
00000120: c944 923e 41ce b63b b630 e9bd c624 aabe
00000130: 40c2 12bf 0eb6 f33e e33b b63e 49cf 1c3f
00000140: e806 a03e 8a4a 6cbe e1f8 bd3e 634f 253f
00000150: 37cb 2e3f 3365 8f3d c051 013e e5fb cabe
00000160: a172 ac3e 19d1 99be 4dc3 343f b139 003f
00000170: 6eaa 433e ca90 07be 828d 98be 1824 273e
00000180: 71f4 263f 1877 5c3e 0638 0d3e 1ecf 96be
-0.57456917 0.37442827 -0.56343025 -0.57810503 0.3882015 0.2540214 -0.36865816 -0.68505496
-0.2073902 0.18325037 0.33999804 -0.13677356 0.5163201 -0.22811194 0.15777914 -0.42014718
-0.065350845 0.4498055 -0.38211948 0.55562747 -0.6295591 0.15122676 0.48717052 0.6499565
0.60556346 0.7017838 0.19820346 0.054948702 0.32633102 -0.36669976 0.3622171 -0.45540562
-0.24133356 -0.45919573 0.65398043 0.35520482 -0.18024094 -0.3138776 0.1838163 -0.426997
-0.14498608 0.29496178 0.5453181 -0.4055837 -0.29129687 0.49923798 0.7177115 0.18077332
-0.70152646 -0.49327087 -0.13037191 0.56205696 -0.38558218 -0.4801165 -0.44044995 -0.21367042
0.099794924 0.56261504 -0.36911836 0.5641783 -0.30936968 -0.60226554 -0.62448335 0.66613954
-0.6817008 -0.028696537 0.06817286 0.08389986 0.08922768 0.5506929 -0.20750906 0.4299215
0.28568104 0.0055787866 -0.11386244 -0.3323118 -0.5732765 0.47599834 0.35592565 0.6125379
0.3125527 -0.2307531 0.37103942 0.6457426 0.6827883 0.07001724 0.12628841 -0.39645305
0.33681205 -0.3004234 0.70610505 0.5008803 0.19107983 -0.13238826 -0.29795462 0.16322362
0.6521674 0.21529806 0.13790902 -0.29454893

module.NodesEncoding.A1.bias f4 [50]
00000000: 523b 823e df10 0f3f c78a 233f 79fb 7c3e
00000010: 44b2 bdbd b3c5 9b3e 7213 153f 547d 9abe
00000020: 7864 3dbe 61c1 90be f092 a83b abf1 e13e
00000030: 69e1 b63e bdcd 343f 4172 0dbf a903 9e3e
00000040: a6cf a6be 20f5 213f ec27 973d 745a 8ebe
00000050: 805b e5be 7f64 f3be 936a 7cbe b911 ddbe
00000060: 614d af3e b597 6dbe 364c 08bf a710 173d
00000070: a7d8 0cbe 8a36 d03e 286a b0be 2a47 e8bd
00000080: fd38 babe 3b7e c2be f118 44be 2e38 e53e
00000090: 79e5 40bd 3262 8abe 42c6 1e3d 0014 063f
000000a0: 7b9c 1f3f a644 9c3c ef65 343f 8c00 293e
000000b0: 1ce5 fa3e c4d2 313f 67cb ecbe a652 853e
000000c0: 42eb 08bd 8f08 353e
0.25435883 0.5588512 0.6388363 0.24705304 -0.09262517 0.3042427 0.58232796 -0.30173743
-0.18495357 -0.28272536 0.0051444694 0.4412969 0.3571885 0.7062643 -0.5525246 0.30862167
-0.32580298 0.63264656 0.07380661 -0.27803385 -0.4479637 -0.4753761 -0.2465003 -0.43177584
0.34238723 -0.23202403 -0.5324129 0.036881115 -0.13754521 0.4066661 -0.3445599 -0.113416985
-0.36371604 -0.3798693 -0.1915014 0.44769424 -0.047093842 -0.27028042 0.038763292 0.5237427
0.62348145 0.019075703 0.7046804 0.16504115 0.49002922 0.6946223 -0.46248934 0.26039618
-0.033427484 0.17679046

module.EdgesEncoding.A2.weight f4 [25, 1]
00000000: cda5 db3d 83a5 40bf a578 6d3f 7149 2fbf
00000010: e1f4 82bf 6e32 5bbf 8fbc 863e dcb8 97bd
00000020: ab98 1f3f 0018 1cbe d139 2f3d a394 133f
00000030: f944 5f3f 5219 d03d a4f5 9dbe 4546 563f
00000040: 3641 2e3f 2c19 0a3f c29a 9b3d 9583 013f
00000050: 4247 3c3f 44ea 6e3f ae53 3b3e 5b8b c4be
00000060: 0b13 b83e
0.10724983 -0.7525255 0.92762214 -0.6847144 -1.0230981 -0.85623825 0.26315734 -0.07408306
0.6234233 -0.1524353 0.042779747 0.57648677 0.8721462 0.101610795 -0.3085147 0.8370097
0.68068254 0.5394466 0.07597877 0.50591403 0.7354623 0.9332621 0.1829364 -0.3838757
0.3595203

module.EdgesEncoding.A2.bias f4 [25]
00000000: c966 07be fcc8 443d 8ff6 67bf 2a05 54be
00000010: c57a 183f b659 0f3f 9c53 6abe a455 b63d
00000020: df8a 40bf 61a4 043e d444 e0be a972 3e3f
00000030: 984b 2ebe d514 d9bd 41dc 993e 96dc 3c3f
00000040: 1bff 3e3f 087e a2be 107b 153f 1fa6 313e
00000050: 7062 383e 729d a7be 2ef1 dc3e de6f 303e
00000060: abfd c93e
-0.13222803 0.048043236 -0.90610594 -0.20705095 0.5956233 0.55996263 -0.22883457 0.089030534
-0.752119 0.1295333 -0.43802512 0.7439371 -0.17021024 -0.105996765 0.30050853 0.7377409
0.7460801 -0.3173678 0.58390903 0.17348526 0.18006301 -0.3273731 0.43152755 0.17230174
0.39451346

module.EdgesEncoding.A3.weight f4 [25, 1]
00000000: 800a f2be 5ccb 4c3d 50b9 73bf e86b 8f3d
00000010: 5908 6bbf 5ccd 713e 59d8 22be 2647 0cbf
00000020: 681d 5e3f dc7f 08bd b64a 5c3e 7564 20bd
00000030: 850e 2d3f 96b7 de3e ec87 1e3c aa81 9fbe
00000040: 5633 2c3f be0a 8f3e 4ac5 643e 8c56 72be
00000050: 1bcd 2ebf 3bd9 35bc 91aa ba3e 34ff dfbe
00000060: bdcf c93e
-0.47273636 0.049998626 -0.9520464 0.07003003 -0.9180961 0.23613495 -0.15902843 -0.54796064
0.8676362 -0.03332506 0.21512875 -0.039158303 0.6760028 0.4349944 0.009675961 -0.31153613
0.6726583 0.27937883 0.22340885 -0.23665828 -0.68281716 -0.011099155 0.36458257 -0.43749392
0.39416304

module.EdgesEncoding.A3.bias f4 [25]
00000000: 7140 293f 4bf5 303f 1e0d f7bd 3367 8f3e
00000010: d94b 8abe 3a28 93be c796 2a3f 27e0 4bbf
00000020: 06ac 183f ca9a 89be 1804 6ebf 7262 393f
00000030: a640 643f 0257 3abf df63 7d3e 01f2 08bf
00000040: 5896 7cbe 589a 81bf 4f9b 96be c0b9 823e
00000050: d291 7f3f 1995 3f3e 5377 53bf 518f 42bf
00000060: 8446 6dbe
0.66113955 0.6912429 -0.12063049 0.28008422 -0.27010992 -0.28741628 0.6663632 -0.79638904
0.59637487 -0.26875907 -0.92974997 0.7241584 0.89161146 -0.72789013 0.24745129 -0.5349427
-0.24666727 -1.0125227 -0.29415366 0.2553234 0.9983188 0.1870922 -0.8260395 -0.75999933
-0.23171431

module.gcn_layers.0.bnNodes.W1.weight f4 [50, 50]
00000000: e863 183e d5e7 c83c f08e a7bd 51f8 123b
00000010: 31a5 f33d d775 abbd 1b91 04be 1fde 14be
00000020: 2d19 933d 2f50 e43d 435a 1e3e 7362 dabd
00000030: e24d 01bd 6f24 9cbb 49c9 803d 1345 02bc
00000040: ec09 03be 14c3 0ebe 01b8 903d b0af 043d
00000050: ade7 013e d899 5a3d 2e23 b8bc dabe fbbd
00000060: 6722 a73c 6576 51bd c01b ee3c 9be4 52bd
00000070: 2cd9 96bd 9073 ffbc aecc 0f3e 1248 86bd
00000080: 35eb 96bd f76e 8d3d b8ee 55bd cb52 dfbd
00000090: 7ba0 43bd 3fbc 08bd 35bc 143d 3361 7b3d
000000a0: ec4b 123d 1566 e73c 5e98 6d3d e916 8c3d
000000b0: bf47 f93d 28b7 29be c569 0c3d 0e1b a5bd
000000c0: ff27 babd 249f b8bd 03da b3bc e64c 12be
000000d0: 481d 1f3e f290 80bd 9d55 cebc fa88 543d
000000e0: 2a7d 3c3d 7922 b23d 48ce f8bd 30bf e3bd
000000f0: 2b6b 7b3d a564 5d3d a9b2 193e 894e 1a3e
00000100: 5487 153b a6fd d1bb 0d7c cebd 9e14 d6bd
00000110: a697 19be bacc 8ebd fa18 a03c be1b d7bd
00000120: 6788 2d3d 10eb d13c 562f 1dbd 116c cf3c
00000130: 9348 b73d 6adb 8fbb ccb6 0fbe aec2 38bd
00000140: 5da5 c9bd b5d1 163b 1d6c a13d 95e3 fd3d
00000150: cc42 833d e6bf abbd e556 9ebd 2f28 f43d
00000160: 62f2 c5bd 48af 1c3e 5c2d 063e 085e 083e
00000170: eeb0 a2bc 18a6 d2bc 7315 01be 4713 e7bd
00000180: 9326 5abd 0e34 67bb 1691 1a3e 7771 1fbd
00000190: 55a8 0fbe 0e4c 15bd c3c3 4ebc a6c5 2f3d
000001a0: 2718 4dbd adbc 753d 49d5 c13d 2a93 cabd
000001b0: 4431 a5bd 80d2 19be 28ad 123d 5d14 58bd
000001c0: 8d99 5e3d f4e4 5fbd 8de1 d53d b22e f63d
000001d0: 69fc f73d 35cc 94bc 9988 84ba 0f29 c2bc
000001e0: c76a 26be 26f9 9ebd a7c2 02be d06b d93c
000001f0: 246c 92bd fb19 f43d aa35 dbbd 330e 013e
00000200: 56e0 fbbd 03b5 b5bd d9f1 6a3d a93e 82bd
00000210: 304d 9ebd e535 67bb b027 6d3d cf91 bc3d
00000220: 5687 ff3d 4a44 e9bd 506f 123c 7515 c43b
00000230: 6d6c 5dbc c681 dcbd db81 473d 5189 d23d
00000240: 246b a7bd 93ad 71bd c70a a9bc 5d3d 493d
00000250: 27d8 afbd db7f aabd 3d19 c7bd 24a3 91bd
00000260: 47ca 913d d760 9cbb 4381 863c 4a6e d8bd
00000270: fe8f bf3a 15e4 6f3d 40af 89bd 2df1 013e
00000280: 8395 ae3d 8b9a dfbd 31bf a9bb f39c 993d
00000290: 9692 723d fefd c5bd c6d3 b23d 5fb6 6e3c
000002a0: 0e73 1c3e 13de 83bd 9a84 1f3d 7f7e d73d
000002b0: f22c ca3d 9392 94bb a713 c93d 9667 b03d
000002c0: 0b58 a83b 4c1b 23bd 5f3e eb3d 0d92 1a3b
000002d0: 23e6 413d af13 1ebc 40f8 abbd 9ff9 d73d
000002e0: 45b7 13be 7348 c8bd 48fe 8e3b 6697 623c
000002f0: bf3b 62bd 8da7 ae3d bd32 f3bd 1ab5 003d
00000300: 961d d6bd f19a ed3d 4890 19be 49fa f13c
00000310: f4f6 5d3d 1c57 103e 55cc 20be ee81 9ebd
00000320: 44d1 183d ffd9 8cbd dd91 cebd cfa9 00be
00000330: 202e d3bd 43b8 c33d 9d6b 23bc bc41 18be
00000340: 4bd3 ecbd 20aa 11bd 74fa c03c a8ce 8cbc
00000350: 165f c43c dd5d 90bd b681 95bd f22a d0bd
00000360: becb b43d 8bdf b9bc 1c3a 04bd 29f7 b33d
00000370: f80e 04bd efd1 30bd 77d3 a43d 349f 133e
00000380: f663 ddbc 201a 2d3d 14d6 07be 2da0 b53d
00000390: eea4 49bd 0bb4 e33d 9bb4 13be eb18 5dbd
000003a0: ae67 edbd e152 d83d 1f68 56bc f0c3 83bd
000003b0: 576a a7bd 40f7 0f3d 4180 10bd a306 9f3d
000003c0: 8383 763d 38f0 833d a3ba 77bd 4811 fb3d
000003d0: e97d f4bd 1d8f 8f3d 0083 f43d 2214 87bd
000003e0: ea0a cdbb a84a 993d e1ac c5bc d657 0dbe
000003f0: c8d5 b33d b61c 693c 4483 ca3c abca ed3d
0.14881861 0.024524609 -0.0818156 0.002242584 0.11896742 -0.083720855 -0.12945978 -0.14537857
0.07182536 0.11148106 0.1546412 -0.10663309 -0.031568415 -0.0047650854 0.06288392 -0.007951039
-0.12796754 -0.13941604 0.07066346 0.03239411 0.12686034 0.053369373 -0.022477712 -0.122922614
0.020402147 -0.0511383 0.029065967 -0.051487546 -0.07365641 -0.031183034 0.14042923 -0.06556715
-0.07369081 0.069059305 -0.052229613 -0.109044634 -0.047760468 -0.03338265 0.0363123 0.061371993
0.035716936 0.028246919 0.058006637 0.06840307 0.121718876 -0.16573775 0.034280557 -0.08061801
-0.0908966 -0.09014729 -0.021954542 -0.14287147 0.15538514 -0.06277646 -0.025187308 0.051888444
0.046017803 0.086979814 -0.1214872 -0.111204505 0.0613815 0.05405106 0.1500956 0.15069021
0.0022816258 -0.006408411 -0.100822546 -0.10453151 -0.14999256 -0.06972642 0.01954316 -0.10503338
0.04236641 0.025624782 -0.03837522 0.025320085 0.08949389 -0.00439017 -0.14034575 -0.045107536
-0.09845994 0.0023013179 0.07881949 0.123969235 0.06409225 -0.08386211 -0.077314176 0.11921727
-0.096653715 0.1530124 0.1310324 0.1331712 -0.019859757 -0.025713965 -0.12605838 -0.11282974
-0.053259443 -0.003527883 0.15094408 -0.038926568 -0.14029057 -0.036449485 -0.012619915 0.0429131
-0.05007186 0.05999439 0.09464509 -0.098913506 -0.08066037 -0.15021706 0.035809666 -0.052753795
0.054345656 -0.054661706 0.10443411 0.12020625 0.1210869 -0.01816378 -0.001011151 -0.023701219
-0.1625167 -0.07762365 -0.12769566 0.026540667 -0.071495324 0.11919018 -0.10703595 0.12603073
-0.12298648 -0.08872416 0.05735955 -0.06359608 -0.07729566 -0.0035279926 0.057899177 0.09207498
0.12476985 -0.11389978 0.008937672 0.005984003 -0.01351462 -0.1076694 0.048707824 0.10280097
-0.08174732 -0.059003424 -0.020635022 0.049130786 -0.0858615 -0.08325168 -0.09721611 -0.07111195
0.071186595 -0.0047722864 0.016419059 -0.10567911 0.0014615057 0.058567125 -0.067228794 0.12689658
0.08524611 -0.109181486 -0.0051802625 0.07500639 0.059221826 -0.09667586 0.08731799 0.014569848
0.15278265 -0.06438842 0.038944818 0.10522174 0.09871854 -0.0045340746 0.098182015 0.086135074
0.0051374487 -0.039820954 0.11486506 0.0023585588 0.047338616 -0.009648248 -0.08396959 0.10545658
-0.1442538 -0.097794436 0.004363809 0.0138300415 -0.05523276 0.085280515 -0.11874912 0.031422712
-0.10454862 0.11601818 -0.14996445 0.02953829 0.05419059 0.1409573 -0.15702946 -0.07739626
0.037308946 -0.06877517 -0.10086415 -0.12564777 -0.10311532 0.095566295 -0.0099743875 -0.14868826
-0.115637384 -0.035562634 0.023556925 -0.017188385 0.023971122 -0.07049153 -0.07300131 -0.10164441
0.08827923 -0.022689601 -0.03228198 0.087873764 -0.032240838 -0.04316896 0.08048146 0.144162
-0.027025204 0.042261243 -0.13265258 0.08868442 -0.049229555 0.11118325 -0.14424364 -0.05397884
-0.11592041 0.10562683 -0.013086348 -0.064338565 -0.081745796 0.035147905 -0.035278562 0.07764938
0.060184013 0.064423025 -0.060480725 0.122591555 -0.11938078 0.070097186 0.11939049 -0.06595637
-0.0062574046 0.07484943 -0.024130287 -0.13803038 0.0878101 0.014228037 0.024720795 0.116109215

module.gcn_layers.0.bnNodes.W2.weight f4 [50, 50]
00000000: ecd4 dfbd cd82 a83d 7701 293a 78ea db3d
00000010: 9d32 cfbd 604a 6a3d a199 893b 6d02 10bd
00000020: e4b4 fc3d 2893 9abc d41b c2bb d453 9cbd
00000030: b967 c3bd b67e 283e a336 13bd ad0c 6a3d
00000040: 52d2 12bd 0c00 a1bd 038e d33d 28a7 823b
00000050: 3d3d 933d 0cd0 363d 1e64 debd c9fe 9cbc
00000060: 45d9 803d a5b1 5fbd 6363 ddbd 974f 03be
00000070: 4728 713c 2672 283d dea2 15be a849 913d
00000080: ec3e acbd cd1a 853d d13f 67bd 36f1 063e
00000090: b065 98bd d247 eb3c 4c09 b6bd 0ded 143c
000000a0: 200b f93d a96c c93d 268e d9bc 39bf 603d
000000b0: e476 22bd 90ef 28bd aa71 a1bc 31f9 d03d
000000c0: bbff d33d 8529 00be 0078 f63d 6810 053b
000000d0: b326 023e 7c10 9f3b ded7 52bc a269 abbd
000000e0: f9b8 32bd 1e43 62bd 16a0 713d fcf7 6fbd
000000f0: 7bf6 00be 58f9 aebd decf cd3d 728a 6c3c
00000100: 520e 02bd 228f ecbc 80ba 063e cfe8 9f3d
00000110: 21a7 f8bb 589d c23d 363e 113e 14d4 013e
00000120: e9dc 533c 616f a93d ee37 33bd 5a2c 2a3d
00000130: 2151 f73d f093 02be f68e 35bc c9b5 013e
00000140: 03d3 f5bd df38 4dbc 81e6 25bd 30ea 973d
00000150: 24cf ea3b 869c 03be d98f e5bd 0170 8f3d
00000160: fc81 623c 22ed 0b3e df52 f43b 02bb f03d
00000170: 4444 563d 287c 0abe 57f7 ae3d 1410 e73c
00000180: ad19 7ebd 5bf1 4b3d 1190 75bd 45bc 6bbd
00000190: b3f3 733b d212 733d d7a6 dbbd 194b d9bd
000001a0: 0147 2a3e b970 a53d ef38 e53d 1d7e b3bd
000001b0: 601b 183c 143a d6bd 2e67 bfbd 77ce 333d
000001c0: a89f a93c 4ccb e4bc d745 bbbd ad45 f0bd
000001d0: 8bd1 7d3d 7ea9 823d 4a67 45bd 1f35 d33d
000001e0: 674a 0f3d d988 a73d 2c6e a93c b804 30bd
000001f0: b709 04be 24cf 38bd d5be d2bd 0861 a7bd
00000200: d7cf 293e 408b d2bd fc1b b83d 768f 78bd
00000210: e9f6 05be fafe b03d f5e4 93bd b756 a2bc
00000220: aae9 273d dc3a c2bd 5a83 7f3d f28e f83d
00000230: 3fd0 0fbd c16d 25bd 721a abbd 9adc bfbb
00000240: 6c11 c5bd 8c47 40bd 067c 2e3d 33ae 143d
00000250: 9b33 7f3d 4128 113d 61d7 d9bd 6ed6 103d
00000260: 0da5 39bc a40c 873c c55e db3c aa87 80bd
00000270: 74d5 1fbe 695e c23d a8b2 0eba 49d8 82bb
00000280: a0c1 1c3e 684f 9ebd bb4e ccbd 8180 69bd
00000290: c993 fbbd 83bc ccbd e9df 2bbd bc59 d53d
000002a0: b325 8cbc c44d 17be 0eef 33bb d5fa bcbd
000002b0: 7bd7 97bd 9b3b b3bd 73ee dabd 045f 3cbd
000002c0: ea3e d5bd 47d2 b7bc 4d82 12be 1759 333d
000002d0: 7370 253d 884e 4fbd 7015 033d 2736 ecbd
000002e0: 56e6 f3bd 2c35 9d3c f0ba 8bbd dd12 dabd
000002f0: 1a9b dc3d 4f69 863c 28df 32be 6728 f5bd
00000300: 979b cb3c 6147 023c f7f8 6f3d 6138 d3bc
00000310: 36f1 d4bc 8def 14bd f300 c5bd 3cb5 febd
00000320: bd48 5e3d 6070 bd3d 7937 933d 0be4 5cbd
00000330: 6540 bd3c c614 18be ad47 e1bc ee15 d73d
00000340: ab8c a8bb e1e7 8c3c d72f 0e3e 9eeb 013e
00000350: 10d8 853b fd3a febd e0a5 e83d 5945 4d3d
00000360: 9179 c8bc 56f2 0d3e 5d2a f93c b279 fdbc
00000370: 64e7 0a3e 8900 b83c 44dc b43d 61ec 573c
00000380: 4a9b 513d 85da 69bc 52b9 4e3c c5ca 22be
00000390: 896e f33d 6562 243d 9332 6f3d 6a9b 97bd
000003a0: 63c7 55bc c898 4f3d ace5 923b 4e30 dcbc
000003b0: 410a 903d f53f 223c 7a06 febd a2f8 303d
000003c0: df35 a63d c3e6 0b3e 7748 d63d fd81 893d
000003d0: d894 33bc 8877 cdbd d2ac cabd e14f 1e3d
000003e0: 992d 01bd 7db9 9bbd f57c 74bd 3210 573d
000003f0: a7a3 04bd e928 aabd d7ee 0abd 6da2 333e
-0.109292835 0.08228073 0.00064470567 0.10738081 -0.101170756 0.057199836 0.004199222 -0.035158563
0.1233919 -0.018868998 -0.0059237275 -0.076331764 -0.09541268 0.16454586 -0.035940778 0.057140995
-0.03584511 -0.07861337 0.10329821 0.0039872117 0.07189415 0.044632003 -0.108589396 -0.01916446
0.06291441 -0.054612774 -0.10809972 -0.1282333 0.0147190755 0.041124485 -0.1461291 0.07094127
-0.08410439 0.064992525 -0.056457344 0.13177952 -0.0744127 0.02872077 -0.08888492 0.00908972
0.12160325 0.098351784 -0.02655704 0.054869864 -0.039664164 -0.04124409 -0.01970752 0.102037795
0.10351511 -0.12515838 0.12034607 0.0020303968 0.12710075 0.00485426 -0.01286885 -0.08369757
-0.043633435 -0.05523979 0.05899056 -0.058586106 -0.12594025 -0.08543652 0.10049413 0.014437305
-0.03175194 -0.028876845 0.13157082 0.078080766 -0.0075882827 0.09502667 0.14183888 0.12678558
0.012931087 0.08273197 -0.04375451 0.041546203 0.12076021 -0.12751746 -0.011081448 0.12667002
-0.12003138 -0.012525766 -0.04050303 0.074177146 0.0071658064 -0.12852678 -0.112090774 0.07003785
0.013824936 0.13664678 0.007456168 0.11754419 0.052311197 -0.13523924 0.0854327 0.028205909
-0.062036205 0.04979072 -0.059951846 -0.057552595 0.0037224113 0.05934412 -0.107251815 -0.10610027
0.16628648 0.08078141 0.111925 -0.087642886 0.00928387 -0.10460296 -0.09345852 0.043898072
0.020706013 -0.02792897 -0.0914418 -0.117320396 0.061967414 0.06379984 -0.048194207 0.103128664
0.034983065 0.081803985 0.020682417 -0.04297325 -0.12894331 -0.04511942 -0.102903046 -0.08172804
0.16583191 -0.10280466 0.089897126 -0.06068369 -0.1308247 0.08642383 -0.072214045 -0.01981674
0.040994324 -0.09483883 0.062381126 0.1213664 -0.03511071 -0.040387873 -0.083546534 -0.005855155
-0.096224636 -0.046943232 0.042598747 0.03629894 0.062305074 0.03543878 -0.106367834 0.035360746
-0.011330855 0.01648552 0.026778588 -0.06275876 -0.1560877 0.094906636 -0.0005443492 -0.0039930684
0.15308237 -0.07729989 -0.09975954 -0.057007316 -0.12284047 -0.09996893 -0.041961584 0.10417506
-0.01710782 -0.14775759 -0.002745572 -0.0922753 -0.074141465 -0.08751603 -0.10690012 -0.04598905
-0.104123905 -0.022439135 -0.14307518 0.043786135 0.040390443 -0.050612003 0.032002866 -0.11533766
-0.119091675 0.019190393 -0.06822765 -0.10648129 0.10771771 0.016407637 -0.1746794 -0.11970597
0.024854464 0.007951588 0.05858704 -0.02578372 -0.025993925 -0.036361266 -0.09619322 -0.124369115
0.054268587 0.092499495 0.07188315 -0.053928416 0.023101995 -0.14851674 -0.027499998 0.1050223
-0.005143722 0.017200412 0.13885437 0.12687537 0.0040845945 -0.12413595 0.11359763 0.050114963
-0.02447203 0.13861975 0.030415708 -0.030941818 0.13564831 0.022461193 0.08831075 0.013178916
0.051173486 -0.0142732905 0.012617426 -0.15897663 0.11886317 0.0401329 0.05839784 -0.0740269
-0.013048026 0.050682813 0.0044829454 -0.026878502 0.07033206 0.009902944 -0.12403579 0.043205865
0.08115744 0.13662247 0.1046304 0.067142464 -0.01096078 -0.100325644 -0.09896244 0.038650397
-0.031537626 -0.076037385 -0.05968948 0.05250568 -0.032382634 -0.08308584 -0.03391918 0.1754243

module.gcn_layers.0.bnNodes.batch_norm.weight f4 [50]
00000000: d965 7c3f 0c3b 7b3f da9e 763f 5ea2 773f
00000010: e479 7b3f 8cf4 803f 00c7 7c3f c481 793f
00000020: 42fb 7a3f 32a2 813f bdb3 773f 9545 803f
00000030: 89e2 803f 8b6a 7d3f 755d 7e3f 6833 7e3f
00000040: d252 793f 41ef 7c3f 7c95 773f bcf6 7c3f
00000050: 7650 7a3f 170a 813f 966a 803f 7842 783f
00000060: 6760 743f 6e59 783f 8d4a 7f3f b6de 753f
00000070: b7d0 7d3f 2b77 7a3f f85c 803f c52b 803f
00000080: d49f 803f a06c 7c3f 8689 7e3f 6e92 7b3f
00000090: f3c6 7c3f 4b1e 7a3f 688e 803f 1b6c 7e3f
000000a0: 2a71 7d3f cea8 803f 3000 7c3f 08fa 773f
000000b0: bb6c 803f 430a 773f 1d00 7a3f 1253 793f
000000c0: 1352 783f 67a9 7b3f
0.9859291 0.98136973 0.9633614 0.9673213 0.98232865 1.007463 0.9874115 0.9746363
0.9803964 1.0127623 0.96758634 1.0021235 1.0069133 0.98990697 0.99361354 0.9929719
0.97392 0.9880257 0.9671247 0.98813987 0.97779024 1.0081204 1.0032527 0.96976423
0.954596 0.9701146 0.9972313 0.96042955 0.991466 0.97838086 1.0028372 1.0013357
1.0048776 0.9860325 0.99428594 0.9827031 0.9874107 0.97702473 1.0043459 0.99383706
0.990008 1.0051515 0.98437786 0.9686589 1.0033182 0.96500033 0.9765642 0.9739238
0.97000235 0.9830536

module.gcn_layers.0.bnNodes.batch_norm.bias f4 [50]
00000000: c4a5 2e3c d816 1dbd 2ccc cfbc 66ed 26bd
00000010: 56e1 013d d782 3b3d c09a 363c 28b6 71bb
00000020: 10fa 82bc b75d 393c 6024 0dbd fa72 053c
00000030: 5482 30bb 682f 563b 03c3 933c 9daa 2a3c
00000040: 7496 743b 250b 75bc 0d1f b8bc 6403 db3b
00000050: b869 bebc d1a3 dd3c 8351 83bb 423d 8dbc
00000060: e118 fabc 12a4 e1bc 4313 d4bb 1a12 6dbd
00000070: 6b91 ed3b 0631 acbc aa37 5aba 23b7 2b3c
00000080: e6c6 d53c b91e cfbb 10a7 b0bb 88f1 b6bc
00000090: 048e 42bc d108 f93b a43c a33c 8814 04ba
000000a0: 9876 00bd 717e 1d3c 3c4f c0bb d1a0 07bd
000000b0: caf4 c7bc a760 9fbc ab40 46bc 1962 ccbc
000000c0: 3792 2ebd 51b0 50bb
0.010659639 -0.038351864 -0.025365911 -0.040753745 0.031709038 0.045779075 0.011145294 -0.0036882255
-0.01598838 0.011313847 -0.034458518 0.008145088 -0.002693315 0.0032682065 0.018037325 0.010416654
0.0037321122 -0.01495627 -0.022475744 0.006683754 -0.02324377 0.027055653 -0.0040075197 -0.017241124
-0.030529441 -0.027544055 -0.0064720227 -0.05787859 0.007250001 -0.02101947 -0.00083243346 0.010480675
0.026095819 -0.006320801 -0.005391009 -0.022331968 -0.0118746795 0.007599928 0.019926377 -0.000503846
-0.0313631 0.0096126655 -0.0058688205 -0.03311235 -0.024408717 -0.019455267 -0.012100379 -0.02494912
-0.04261991 -0.0031843374

module.gcn_layers.0.bnEdges.W3.weight f4 [50, 50]
00000000: 33cd d03c dde8 463d 1759 c8bc 5b71 c63c
00000010: 8940 3c3c a6c5 81bd a8be 9a3c 79eb a53d
00000020: c64e 253d e52f f93d b668 e83d 1a66 d3bc
00000030: 02e7 843c 1c4a a13d c101 89bd 9eab 78bd
00000040: 08c7 0fbe 94af b7bd 10d6 57bc 57d9 03be
00000050: b6ec 063e 1b37 88bb 8365 7c3d 3eec b53d
00000060: cf4b 0fbe 7c6b a8bd 734f 50bd 77fc ab3c
00000070: b818 e1bd 22f4 d0bd be2d 47bc 838b 3e3d
00000080: 75cd e8bd 8726 0a3d 0408 68bd d0ec 86bc
00000090: 3a9c 1c3c ce96 92bd 0350 23bd 2429 a1bd
000000a0: 588a c03d a589 d1bd 2c16 87bd ab53 00be
000000b0: 6a59 da3d ef19 92bd 4c30 b1bd 7d45 dabd
000000c0: 8476 733d 85a9 c0bd e486 0c3e 5223 85bd
000000d0: 9b1a c5bd 6ad4 cbbd 9a14 82bd 3e16 c7bd
000000e0: 2ca7 253d dbe1 b9bd be8f 383d cf63 95bd
000000f0: c260 76bc 2ca4 ca3d 9c6e 083d 086e 2c3e
00000100: 9504 14be 837d 82bc f6fb 1f3e 59e9 c7bd
00000110: 4a3b 3ebd 94cc 39bc b9d8 d0bd 0402 053e
00000120: 3a69 a7bd e719 a73c fed4 943d 9e45 cb3c
00000130: 5c20 173e 3070 b23c 22c4 dc3d c6fa d3bc
00000140: ca86 133d 4fa3 cabd 3040 2bbe dc35 2a3e
00000150: 0376 26bc aabd 9dbd 6e99 053d ef94 123e
00000160: 553a 953d 8d3e 463d 5849 b03d 6696 143e
00000170: dfd2 133e 90b8 223d eb46 15be ca48 8dbd
00000180: e23a c13d 14f4 a83d 8166 95bd 1ab5 053d
00000190: c58a 07be cc4a 603c 1339 b43d 85bb 6c3d
000001a0: b6a9 233b cb1c c03c c282 17be d363 f13d
000001b0: 53da 25be 1e3d 31bd d688 25bd 7b74 a83c
000001c0: b206 d83c 6792 59bd 3060 183e 2659 37be
000001d0: b60a 12be 4df0 a9bd ecb1 913d fb83 db3c
000001e0: ab81 27be b562 29be be93 34be fe09 bcbd
000001f0: 2e90 813d 7765 1c3a d317 83bc cfe2 4ebb
00000200: d367 98bd 717a b33d e209 19bd d71e d93d
00000210: 4f49 f1bd 06e7 bdbd 93f5 bb3d 166d 233c
00000220: d8ad 00be 2014 173d 1d8b 96bc e297 45bd
00000230: 51de 0a3e 7998 dfbd 24f2 5e3d 5cdc 62bd
00000240: f92d 6b3d 9fa6 f8bd f676 6ebd eaf3 0b3d
00000250: fdf8 9fbd cd91 f83c 90f4 b23d 6e33 7abd
00000260: 4c47 243d 35ec 893d e307 033d 443d a0bd
00000270: 569d 61bd 0dea f5bb 2205 4fbc c0f7 c8bd
00000280: c568 c03d df20 ad3c e9d1 51bd 0457 423d
00000290: 94a5 3d39 2af9 783d 91d3 f63d 5fa2 42bd
000002a0: 2470 77bd 145d a03d 36e9 53bd 4ca2 bc3d
000002b0: e2be 2bbc 06d9 6abd 1a24 f03d ae85 4abb
000002c0: ab22 ba3d 9f19 9c3d a1f4 14be 9976 1d3d
000002d0: 74f6 be3d 8294 e53d fd2f 1e3e 788a 07be
000002e0: e0c1 b03d ff9d 13be 4ad2 ebbd ecd8 b6bd
000002f0: c418 44bd c970 0d3d cab1 85bd 0de3 6bbd
00000300: 69db 08be c7b2 153d 49ad 9c3c c9da d03c
00000310: e910 733d 81ee 95bc 7a47 c93d be97 c7bd
00000320: b8ab d3ba 34be 273e 5aae ca3c 6433 313d
00000330: a4c9 88bd 3199 313e b761 1abe bc10 433e
00000340: accc 9a3b 9ece 2b3e 5a14 f83c f15f 683d
00000350: 5a3c 2cbe ff19 fdbd af6e bebc 0370 7a3c
00000360: 4546 b1bd 6753 6dbd 4594 39be 0da7 b63c
00000370: 96f5 dcbd 01cb 153d 9e20 e5bd f287 3a3e
00000380: 6744 1fbd 0bea f63b f963 083d d459 0dbe
00000390: 2386 3cb9 6c85 993d 4c77 36bc 05fd 423b
000003a0: e3af be3d 037c 083e 0c87 12be 8a6e b43d
000003b0: 538c bd3c ae28 3f3d 478a 1fbd 4d6e 82bd
000003c0: f807 cdbd acae 6bbc 2f50 de3c c5c5 69bd
000003d0: 0a6f 823d 2e5b 013e a7cf 133d fa46 cd3d
000003e0: fb9c b63d e831 28bd c407 e83d 9c01 aabd
000003f0: 5064 fbbd e281 803b e81c 4abd ceda 353d
0.025488472 0.04856192 -0.024456544 0.024223974 0.011489996 -0.063365266 0.01888974 0.081015535
0.040358327 0.12167338 0.11348097 -0.025805522 0.016223434 0.07875463 -0.06689788 -0.060710542
-0.14040768 -0.08969036 -0.013173595 -0.12875877 0.13176236 -0.0041569597 0.061620247 0.0888295
-0.13993762 -0.08223626 -0.05085702 0.020994408 -0.10991043 -0.10202815 -0.012156902 0.046519767
-0.11367313 0.03372815 -0.05664827 -0.016470343 0.009558732 -0.0715767 -0.039871227 -0.07869175
0.09401387 -0.10231332 -0.06596026 -0.12531917 0.10661586 -0.07133853 -0.0865179 -0.10657785
0.059439197 -0.09407333 0.13723332 -0.065008774 -0.09624215 -0.09952624 -0.06351586 -0.09721039
0.04044263 -0.09076282 0.04505896 -0.072944276 -0.015037717 0.098945946 0.03330861 0.16838849
-0.14454873 -0.01592899 0.15623459 -0.097613044 -0.04644326 -0.011340279 -0.101975866 0.1298905
-0.08174367 0.020398093 0.072671875 0.02481347 0.14758438 0.02178201 0.10779597 -0.025876414
0.036017217 -0.0989443 -0.16723704 0.16622108 -0.010159972 -0.07702191 0.032617025 0.14314626
0.072865166 0.048399497 0.08607739 0.14510497 0.1443591 0.039726794 -0.14577834 -0.06898649
0.09435059 0.08249679 -0.07294942 0.032643415 -0.1323653 0.013689708 0.087999485 0.05779602
0.0024972982 0.02345123 -0.14795974 0.11786618 -0.16196565 -0.043271177 -0.0404137 0.020563355
0.02637038 -0.053118136 0.14880443 -0.17905101 -0.14261898 -0.08297787 0.07114014 0.026796332
-0.16358058 -0.1654156 -0.17634484 -0.09181593 0.06326328 0.0005966047 -0.016002571 -0.0031568294
-0.07441678 0.08763588 -0.03736294 0.10601585 -0.11781561 -0.0927258 0.09177699 0.009974739
-0.12566316 0.036884427 -0.018376881 -0.04824055 0.1356137 -0.10917754 0.054430142 -0.055385932
0.05741689 -0.121411555 -0.05821892 0.03416816 -0.078111626 0.03034296 0.08738053 -0.061084203
0.040107056 0.06734506 0.031989943 -0.078241855 -0.055081688 -0.0075047077 -0.012635501 -0.098128796
0.09394983 0.021133838 -0.051225577 0.047446266 0.00018086127 0.060784496 0.12052072 -0.04751813
-0.06040968 0.07830253 -0.05173608 0.09210643 -0.010482522 -0.057335876 0.11725636 -0.0030902433
0.09088644 0.07622074 -0.14546444 0.03844318 0.09324351 0.11209966 0.15447994 -0.13236415
0.08630729 -0.1441574 -0.11514719 -0.08928093 -0.04787518 0.03453139 -0.06528051 -0.05758958
-0.13364948 0.03654745 0.019125598 0.02549495 0.0593423 -0.018302204 0.09828086 -0.097457394
-0.0016149199 0.1638115 0.02474134 0.0432619 -0.06679085 0.17343594 -0.15076338 0.19049352
0.004724106 0.16778037 0.030283142 0.05673212 -0.16819897 -0.12358474 -0.023246137 0.015285495
-0.08655981 -0.057940867 -0.18122967 0.022296453 -0.10789029 0.036570553 -0.11187862 0.18215922
-0.038883593 0.0075352243 0.033298466 -0.13803798 -0.00017979047 0.07496151 -0.011136841 0.0029752862
0.093108915 0.13328557 -0.14309329 0.08810146 0.0231382 0.046669655 -0.03895023 -0.063686945
-0.100112855 -0.014384907 0.027137844 -0.057073373 0.06368835 0.12632439 0.036086705 0.10023303
0.089166604 -0.04106322 0.11329606 -0.08301088 -0.122749925 0.0039217332 -0.049343973 0.04439812

module.gcn_layers.0.bnEdges.W4.weight f4 [50, 50]
00000000: 87f1 0dbd d8e0 cb3d 6f79 e33d cf8a 153c
00000010: 4924 793d 5c0b 773d 888e a93d 9059 283d
00000020: 7537 dbbd 19e7 5bbc 72f6 e2bd 9822 b93d
00000030: cd77 253d d3f1 80bd f1a3 f03d 27e2 90bd
00000040: 17e9 cbbd e340 f5bd 3d9b 47bd 5473 c13c
00000050: 47df 103e 3d1a b03c 6aa4 84bd 6e05 b93d
00000060: 4b7c eb3d fb13 b13d aa5f 62bd b50a bb3d
00000070: aa18 0abd 93b1 d0bc 61e1 28bb 72d3 83bd
00000080: 6aa4 07be 0632 d5bd 800c e3bd df7b bf3d
00000090: 9333 4e3d 1c79 0c3d a850 a2bd 0c91 b0bd
000000a0: c98c e3bd b616 6e3d b19c eabc 7ee1 8b3d
000000b0: 8535 943d 9135 cdbd 6325 ef3c 2830 043e
000000c0: 4d0f d53b 852d 7cbd d37e 933d 12e8 023e
000000d0: f630 c0bd be85 683d 6165 0dbd 41b2 f23c
000000e0: 2629 db3d 5a99 c73d 7d49 febd c554 06bb
000000f0: 01ae ba3d fe66 093e bccc a53d 6953 2b3d
00000100: e925 883c 2248 06be bacf 4a3d 5ccd 97bd
00000110: b708 8f3c da3f 003e 8d1b 3a3d 22cc 2bbd
00000120: 7e84 74bb 9b7b c2bc bc8a a83d 3060 bcbc
00000130: b4ab 043d 00b5 75bb e30d 0a3e 8913 37bd
00000140: 5706 bdbd 7855 33bd 48f3 243d 1fcb 04be
00000150: e6f2 d0bd 10ee e03c 7a14 9fbd 8c3a 94bd
00000160: 5ac2 1b3d 89f3 c83d 2cea 9a3d 20d6 d5bd
00000170: fa80 d93d ef23 adbd 7e35 083e 54bb fa3d
00000180: 9225 6dbc b1ed 133d 5e0f 0c3d 19f9 35bd
00000190: cb6d 37bc 0c35 afbd 2de0 4c3d 77f8 8b3d
000001a0: c98a 9ebd 93b8 21bd 9464 88bc ee48 9cbd
000001b0: 7142 dcbd 5298 8c3d 0a5a 5dbd 099a 9abd
000001c0: b264 fb3d 5f48 6dbd ad93 113e 86ac d2bd
000001d0: 19f1 9a3d 6cc3 a53d 2aea 0f3e 1823 febd
000001e0: e092 ab3d d598 d8bd ff6d 4ebd 8a2a cbbd
000001f0: 0e64 513c 6379 eb3b 775d 273d 9327 a83c
00000200: 7464 193d e301 3ebd 2fd3 c83d 8fb9 2abc
00000210: c241 fabd 327d 073e 568a b13d 1819 bebc
00000220: d064 9f3d fb01 19bd 4743 cd3d 3e68 01be
00000230: d5c9 edbd 2967 96bd 1e4f c5bd 3cb3 c63d
00000240: 73e8 043c cd8d 6bbd fbb9 76bd 6bec f9bd
00000250: af2d 703c 1d74 fdbd 4de9 11be 10fc 5e3d
00000260: 0a9a 04bc 7947 ee3d 1c8c 99bc 9e25 c0bd
00000270: a0d3 d53d 62b3 113e 6c5c b4bb 4725 81bc
00000280: 1761 b33c 94e5 103b 167b c4bd 3426 86bd
00000290: 60ba 7b3d dc08 313e da16 113d 6e02 7fbb
000002a0: 4717 7abd d4a4 a2bc 2b23 e43b 4916 173d
000002b0: c44b c43d a54b 893d a7e4 33bb cf60 bebd
000002c0: 7bc6 9fbd 08a8 883c bae3 3dbd 2dcf 183d
000002d0: 1695 ad3d f6d9 aabc fb83 b33d 48e3 543b
000002e0: dfd5 c53c 5f1d 13be 5c3f 42bd aa87 fc3d
000002f0: b0bb 6f3d e7b6 533d a58c 9c3d 9779 febc
00000300: 2f13 10be 8a2e 30bd 27bd 083e 7080 72bd
00000310: 1163 0e3e 94cd 0dbe 5a87 64bd 0401 3c3d
00000320: c1fc 6fbd e7e3 d43d 8ece cb3d 0428 5fbd
00000330: 090a 223e b3de 8d3d 9847 be3d a836 f1bd
00000340: 26e1 d6bd 8e0a 183d 739c f53c 3aab 803d
00000350: 872a f1bd bd98 e63d dc9a 98bc 7336 953d
00000360: 6fa5 7e3d 2c97 913d fc99 77bd c7ec d4bc
00000370: 06ce d3bd 2cfc 83bc bdb1 19bd 2ff6 e1bd
00000380: 0402 453d 773c b3bd dd65 a93d 40d6 bbbd
00000390: d8d2 af3c 4710 803d 4bf2 013e c24e 15bd
000003a0: 6d77 d8bd 35fd aebd 1f06 6abd 0bc1 45bd
000003b0: b043 e8bd 1ec0 0b3e 36c5 b63c e2f3 e5bd
000003c0: f9f5 3c3c 0a1f 993c 3d03 d73b 6dd6 7e3c
000003d0: 1a9b 5f3c f5ec ab3d 52ca 353d b8cc 2e3d
000003e0: d4b3 c83d c48b 55bc 7dfe 8fbd 69ef 15bd
000003f0: 6fbb 0f3b 91fc 77bd 2c80 fb3d e09a 3b3d
-0.034654167 0.09954995 0.11107146 0.009127333 0.06082562 0.060313568 0.08279139 0.04110104
-0.10703937 -0.013421797 -0.11082162 0.09039801 0.040397454 -0.06296124 0.11750019 -0.07074385
-0.09956568 -0.11975267 -0.04873203 0.023614563 0.14147674 0.021496886 -0.06476672 0.09034239
0.114983164 0.08646389 -0.055267014 0.091329016 -0.033714928 -0.025475299 -0.0025769102 -0.06436814
-0.13246313 -0.10409932 -0.110863686 0.093497984 0.050342154 0.034295186 -0.0792554 -0.086214155
-0.11110837 0.058127128 -0.02863917 0.068301186 0.072367705 -0.100199826 0.029192632 0.12908995
0.006502068 -0.06156685 0.07201924 0.1278384 -0.093843386 0.05676817 -0.03452051 0.029626014
0.10701208 0.09746046 -0.124163605 -0.0020497304 0.0911522 0.13418195 0.080956906 0.041827593
0.01661964 -0.13113454 0.04951451 -0.07412216 0.01746021 0.12524357 0.04543643 -0.041942723
-0.0037310417 -0.02374058 0.082295865 -0.022995085 0.03239031 -0.0037491918 0.1348186 -0.044696365
-0.09229725 -0.04378268 0.040271074 -0.1296811 -0.10202579 0.027457267 -0.077675775 -0.072377294
0.038027145 0.09812076 0.07564196 -0.10441232 0.106203035 -0.084541194 0.13301656 0.12242761
-0.0144742895 0.036115352 0.034194343 -0.04442701 -0.01119561 -0.0855504 0.05001848 0.068345
-0.07741315 -0.039482664 -0.016649522 -0.07631098 -0.1075486 0.0686499 -0.054040946 -0.07548911
0.122750655 -0.057930347 0.1421649 -0.102868125 0.07565517 0.080939144 0.1405417 -0.12409037
0.083776236 -0.105760254 -0.05039787 -0.09920223 0.012780203 0.0071861013 0.04086062 0.020526683
0.037449315 -0.046388518 0.09805905 -0.010420217 -0.122195736 0.13231352 0.086689636 -0.023205325
0.077829 -0.037355404 0.10022598 -0.12637421 -0.11610762 -0.07343895 -0.09634231 0.09702155
0.008112061 -0.05750828 -0.06023596 -0.12203296 0.014659329 -0.123756625 -0.14249153 0.054439604
-0.008093366 0.11634726 -0.018743567 -0.09382175 0.10440755 0.14228585 -0.0055041816 -0.015764846
0.021896882 0.0022109495 -0.09593789 -0.065502554 0.061457038 0.17288536 0.035422184 -0.003891136
-0.061057355 -0.019853987 0.0069622 0.036886487 0.09584764 0.06703881 -0.002744952 -0.092958085
-0.07801529 0.016681686 -0.046359755 0.037306953 0.084757015 -0.020855885 0.08765408 0.0032484103
0.024149833 -0.14366673 -0.047423705 0.12330563 0.058528602 0.0516881 0.07644013 -0.031063838
-0.14069818 -0.043013133 0.13353406 -0.05920452 0.13904978 -0.13847953 -0.055793144 0.045899406
-0.058590654 0.103950314 0.099515066 -0.05448152 0.1582414 0.06927242 0.09290999 -0.11778003
-0.104921624 0.03711944 0.029981827 0.06282659 -0.117756896 0.11259601 -0.01862853 0.07285776
0.06216949 0.07108912 -0.060449585 -0.02599181 -0.1034203 -0.016111456 -0.03752302 -0.11033284
0.048097625 -0.08751767 0.08271382 -0.09171724 0.021462843 0.06253105 0.12690084 -0.036452062
-0.10569654 -0.08544389 -0.057134744 -0.048279803 -0.11341035 0.13647506 0.022310834 -0.112281576
0.011533254 0.018691558 0.0065616653 0.015554053 0.013647819 0.08394805 0.0443824 0.042675704
0.097999245 -0.013033811 -0.07030962 -0.036605272 0.0021931787 -0.0605436 0.12280306 0.045801997

module.gcn_layers.0.bnEdges.W5.weight f4 [50, 50]
00000000: aa9a f93d d13c 90bd 12c1 09bd 482d a73c
00000010: 17f0 213e 21ba adbd d825 c3bd 25ac 0e3d
00000020: cabd d03c b0c0 713d 665b 183e d0be 01be
00000030: 6ffe 87bb 7914 5fbd a2c0 10be 07e5 16bd
00000040: 3454 473d 0fda 583d aec2 9b3c 3aee dabd
00000050: 693f e1bc e6b5 5e3d 58c2 7f3d 7a48 0dbe
00000060: eba0 5f3d 1f1f e4bc 96ac fa3c ea8d f73d
00000070: bfd0 a6bd cbec 163b 2aab f73d 4587 a539
00000080: 0daf 383e 2c49 f7bc 3caa 9a3c 5f3d 8dbc
00000090: b8ff df3b 5aa4 11bd f1a1 213e 2947 e53d
000000a0: 2dbb a4bc fd23 b9bd a4ed 973b bec3 b9bc
000000b0: 9752 12be 6004 25bc 3c9f 02be 74c5 85bc
000000c0: b730 0cbe 853d d73d 35a2 9d3d c8bd 64bd
000000d0: 128e 813d 8b13 b0bd 748b fd3c 0ac6 0bbe
000000e0: 1079 623d b551 a8bd 2dd4 4cbd 3056 493d
000000f0: f50d eabd 20e4 6e3d e782 75bc f042 fabd
00000100: 2842 18bd a4fb d6bd 35ea 4d3d 43a6 b83c
00000110: 531e c4bd 4959 af3d 5dc8 29bd 2679 dc3d
00000120: add8 8839 4c7c 393b 5b85 03bd 9e64 abb9
00000130: 78e3 f53b 2357 6ebc 2952 afbd 213d 8c3c
00000140: 2d91 e2bd 821e 85bd 66db e8bc ff52 a3bc
00000150: 318a c4bd 3492 70bd 625a 8ebc ecd5 843c
00000160: 1e13 b53c 1078 c4bd df79 b73d fff5 61bd
00000170: e9cd 0cbe 9a4d 963d b2e7 88ba 70ec 07bd
00000180: dd41 16be f3be 89bd e830 673d bd33 5abd
00000190: 2d19 f7bd f052 983d dec4 d3bd 96cf a33d
000001a0: 10bc 8bbd e53c aa3d 729d 2f3d 86b3 193e
000001b0: 14f8 3f3d 737e d6bc b944 df3d d2d3 e1bd
000001c0: df82 b73c efc3 853d 8bcf bbbd 1450 6bbd
000001d0: 9c54 83bd f911 70bd 5dd0 94bc 4e67 97bd
000001e0: 1b08 f43d a028 923c f5cf ff3d 3825 613d
000001f0: 565e 08bd 8500 b23a 75d5 afbd 54a2 dcbd
00000200: 107b 4d3d 82c8 0ebd 90f3 493c 1dc4 0ebd
00000210: b82c b43d 201f 0cbe 85eb c4bd a877 b5bd
00000220: 5735 babc edbc e93d 7a11 9a3d 0f37 d4bd
00000230: 06b9 9ebc b9d9 ef3d 005d b4bd ece0 db3c
00000240: 2190 963d 1173 9f3d ece1 f33d c81d 8e3d
00000250: f99a 5f3d ad91 f3bd f33e 97bd 73a4 13bd
00000260: adf1 b9bd aa2b a9bd 9689 a53c 3432 25bd
00000270: 4fd6 1b3d 5813 613d bceb 8f3d ec4b f1bd
00000280: 90b9 e63d d8c1 893d 7911 c53c 22a8 d5bc
00000290: b86a 09bd 4896 943c 6efc aabc 469f f4bd
000002a0: b2d9 663c 99d1 b4bd c26f febd b4ad c03d
000002b0: 726a f1bc e267 c2bc 15f9 01bd 4693 74bd
000002c0: 7d8d 813d 4281 88bc 113e 65bd b079 033e
000002d0: d6f8 c93d 2fde d03d 0dcd 1ebe 397b 1b3d
000002e0: 2b58 9b3c 612e fd3d d256 633d 8f13 c63c
000002f0: cc8b aa3d af34 973d 9334 ecbd ea00 03be
00000300: ce3e 73bd 14e8 aabc 1a99 3c3d a134 d73d
00000310: dad9 edbd be3e 0ebd 9578 c7bd ac4b 033e
00000320: 59a9 863d e81a c23d 0da1 95bc d93f 97bd
00000330: 8b40 bfbd d149 963c 0b01 b33c 331a c13c
00000340: 605e cf3d 4522 c2bd 5378 b53d 856b 453d
00000350: 1183 fdbd d803 5cbd 31e3 75bd c1be b23c
00000360: a299 ba3d 860c ae3d 0c2b 31bc 788c 1b3e
00000370: ae2f 363d e995 4e3d 2ad6 0dbe 6818 ddbd
00000380: 34a3 c43d dd38 553d 38b6 5cbd 02bc d7bd
00000390: 87ea 4cbc 689e 1cbe afbc e33d 83c4 533d
000003a0: 7b91 cb3c 1f75 e5bd 2b1b 1dbd 49e4 b9bd
000003b0: d6b6 aa3d 2021 1c3e 5e14 78bc 2660 54bd
000003c0: c15a f83d f0da 46bd 090b 5fbd d018 bebd
000003d0: fdb0 2c3d 76f7 d13d e5f9 e73d 248f 113d
000003e0: 2dfb da3d 0029 b6bd cdea e13d 12b4 27bd
000003f0: 512e 05be 751f 963d eddb 103c 9938 babb
0.12187703 -0.0704285 -0.03363139 0.020407334 0.15814243 -0.08482767 -0.095287025 0.03483214
0.025481123 0.05902165 0.14878616 -0.12670445 -0.004150204 -0.054462884 -0.14135984 -0.03683951
0.048664287 0.052942332 0.019013729 -0.10689969 -0.027496057 0.05437269 0.0624412 -0.13797179
0.054596823 -0.027846871 0.030599874 0.12087615 -0.08145284 0.0023029323 0.12093194 0.00031572036
0.18035527 -0.030186258 0.018880002 -0.017241178 0.006835904 -0.03555713 0.15784432 0.11195213
-0.020108784 -0.09040067 0.0046364833 -0.022676345 -0.14289318 -0.010071844 -0.12756056 -0.016329505
-0.13690458 0.10509781 0.07696954 -0.055845052 0.06325926 -0.085974775 0.030950285 -0.13649765
0.055291235 -0.082187094 -0.050007034 0.04915446 -0.11428443 0.058323026 -0.014984823 -0.122197986
-0.037172467 -0.104972154 0.050272185 0.022540217 -0.095760964 0.08561952 -0.041450847 0.10765295
0.00026101377 0.0028302846 -0.0321096 -0.00032690627 0.007503923 -0.014547142 -0.08560593 0.017118992
-0.11062846 -0.064999595 -0.02842493 -0.019937037 -0.095966704 -0.05873318 -0.017377082 0.016215287
0.022103842 -0.095932126 0.08958792 -0.05516624 -0.13750423 0.0733902 -0.0010445027 -0.03318447
-0.14673562 -0.06725874 0.056443125 -0.053271998 -0.12065349 0.07437694 -0.10340284 0.07998578
-0.068229795 0.08312396 0.04287476 0.15009889 0.046867445 -0.026183343 0.1090178 -0.1102673
0.022401271 0.06531512 -0.09170445 -0.057449415 -0.06412622 -0.05861089 -0.018165762 -0.07392751
0.119156085 0.017841637 0.124908365 0.054967135 -0.03329309 0.0013580477 -0.085856356 -0.10773149
0.05016619 -0.034859188 0.012326136 -0.034854997 0.08797592 -0.13683748 -0.09615234 -0.08860713
-0.022730513 0.11412988 0.07522865 -0.10362064 -0.019375335 0.11711449 -0.08806801 0.02684065
0.07351709 0.07785619 0.119083256 0.06939274 0.054591153 -0.1189302 -0.073850535 -0.036045503
-0.09079299 -0.082602814 0.020207208 -0.04033108 0.038046177 0.05495009 0.07027385 -0.11782059
0.11265862 0.06726426 0.024056183 -0.026081149 -0.03354904 0.018138066 -0.020872321 -0.119444415
0.014089989 -0.0882904 -0.1242366 0.09408131 -0.029469702 -0.023731176 -0.031731684 -0.059710763
0.06325815 -0.016663197 -0.055967394 0.12839389 0.09861915 0.10198628 -0.15507908 0.03795931
0.01896294 0.12362362 0.05550272 0.024179248 0.083274454 0.073830955 -0.11533465 -0.12793317
-0.059386067 -0.020862617 0.046044447 0.10508085 -0.116138175 -0.034727804 -0.09739796 0.12821835
0.06575269 0.09477788 -0.018265272 -0.07385225 -0.093384825 0.018345745 0.021851083 0.023572063
0.101254225 -0.09479193 0.08860841 0.04819824 -0.123785146 -0.053714603 -0.06003112 0.021819474
0.091113344 0.084984824 -0.010813486 0.15190303 0.044479065 0.050435934 -0.13851228 -0.10795671
0.09601441 0.052056182 -0.053884715 -0.105339065 -0.012507088 -0.15294802 0.11119973 0.05170108
0.024849644 -0.1120398 -0.038355988 -0.09076745 0.083356544 0.15247011 -0.015141575 -0.051849507
0.12126685 -0.04854864 -0.054453883 -0.09282076 0.042160977 0.102522776 0.113269605 0.0355369
0.10692439 -0.08894539 0.11031113 -0.040943213 -0.1300595 0.07330219 0.008841497 -0.0056830165

module.gcn_layers.0.bnEdges.batch_norm.weight f4 [50]
00000000: eb92 813f acef 863f c695 823f cb0b 783f
00000010: 63af 7d3f 7aff 803f 5a24 863f 82d4 833f
00000020: cf65 823f 3f36 853f e5c7 823f e131 803f
00000030: 1742 843f 68c6 823f 4924 7e3f a4cf 823f
00000040: 48cb 7d3f 69ca 7a3f 4431 803f d11d 823f
00000050: 9243 813f f086 793f 87f0 813f c750 823f
00000060: 43da 813f a9f4 813f 3e53 7c3f b66f 7b3f
00000070: 5dc9 7d3f ba47 793f 0ddd 873f d9c5 823f
00000080: 8fb1 7e3f 4014 7e3f dc4f 813f 3e06 883f
00000090: 24b7 7a3f a0a6 7e3f a2e5 833f 4004 873f
000000a0: b717 803f 39b8 843f 42d8 823f f939 823f
000000b0: a4eb 823f 3feb 823f 6a1d 803f 6de9 763f
000000c0: 41fd 7c3f 7fb4 843f
1.0122961 1.0541892 1.0201957 0.96892995 0.99095744 1.0077965 1.0479844 1.0299227
1.018732 1.040718 1.0217253 1.0015222 1.0332669 1.0216799 0.99274117 1.0219617
0.9913831 0.97965103 1.0015035 1.0165349 1.0098746 0.97471523 1.0151528 1.0180901
1.0144733 1.0152789 0.9856452 0.9821733 0.9913538 0.9737507 1.0614334 1.0216628
0.9948968 0.9924965 1.0102496 1.0626905 0.979357 0.99473 1.0304453 1.0548172
1.0007237 1.036872 1.0222247 1.0173942 1.0228162 1.0228041 1.0008976 0.9644993
0.98823935 1.0367583

module.gcn_layers.0.bnEdges.batch_norm.bias f4 [50]
00000000: bf19 923c 3d60 dbba 04db 903c 5b13 0ebd
00000010: 43ed 9a3c 1908 5e3b c6a1 88bc ca9e 2e3d
00000020: d5de 1fbd 8a0f 1a3c 3617 143d 0a45 243d
00000030: 7fb9 b53b d5fb d93c fb17 babb 9709 ed3c
00000040: 0b24 47bc e08f 1dbc 6a1f df3b 59f2 2e3d
00000050: 7cad 0ebc b94b 63bc cf3e b73c fa35 9c3c
00000060: c3aa 7a3c 10e2 c8ba c7d0 723c 1f0e 38bc
00000070: c3f7 153c cc98 acbc 76d5 a1ba c0bc ca3c
00000080: ab2a a03c 0b44 6eba a50f 2abc 1bc4 da3b
00000090: 86bd e0bb 1928 0fbc 02d0 f13c ee5e 8a3b
000000a0: f92e 8d3c 2d3b 363d fa8c c43c 4b5c d53c
000000b0: 0e0e 0f3d 27b5 1e3d d9a5 873a f9cd 06bd
000000c0: 960e cf3b e67c de3c
0.017834542 -0.0016737055 0.01768256 -0.034686428 0.018911963 0.0033879338 -0.016678702 0.0426319
-0.03903087 0.009403119 0.03615495 0.040104903 0.0055457945 0.02660934 -0.005679128 0.028935237
-0.012154589 -0.009616822 0.006809165 0.04271159 -0.008708354 -0.013873034 0.022368817 0.019068707
0.015299502 -0.0015326161 0.014820284 -0.0112338355 0.009153309 -0.021068953 -0.0012346942 0.024748206
0.019551596 -0.00090891187 -0.0103797065 0.0066762096 -0.0068585305 -0.008737587 0.029518131 0.0042227423
0.017234312 0.04449003 0.023993004 0.026044985 0.034925513 0.03874698 0.0010349109 -0.032911275
0.0063188775 0.027159166

module.gcn_layers.1.bnNodes.W1.weight f4 [50, 50]
00000000: b304 c3bd 8cd6 bbbd 1fcc 12be 64fa 25be
00000010: 08c8 0b3b 9a65 eebd 7df6 d1bd 4f55 c3bd
00000020: 968c 94bd f338 e93d fd45 f43c 488c 9e3d
00000030: cd88 b23d af2f 8fbd 243d 9d3d 4d9d 9a3d
00000040: e498 ce3d 4634 053e 232a a73d 5bdc ff3d
00000050: d32a b83d a987 093d f247 ea3d 5f53 96bc
00000060: 8c94 c1bd ecac 873b 32ee f3bd 5a18 0dbe
00000070: d571 c23d 23e0 3d3d 2e01 14bd bc5f 0a3e
00000080: c1c1 e6bd c376 62bb b1d4 f4bd 1745 d33d
00000090: 979a 1dbd fe57 3b3d aa84 d8bd 455b c2bc
000000a0: c675 aabd 5e16 26ba 69ab 80bd 9f14 39bd
000000b0: f099 ec3d 3697 b6bb f941 bbbd b071 7b3d
000000c0: f2e9 86bd 38e3 bbbd 50e4 38bd 6022 993d
000000d0: a112 c7bd 39ba 0b3e afd7 d0bd cb96 f83d
000000e0: 4445 d2bd 2c9b 04bd fef7 c9bd 8d4f 793d
000000f0: e86d cf3c 09d3 883c 95c7 d5bd c63e 2c3e
00000100: 0ecf 183e a601 f23d fd37 f73d 7659 1d3e
00000110: 4768 3bbd 8d99 be3b fc5b aa3a 1850 cfbd
00000120: 0f62 8a3d 4844 00be b10c 163e d5bb 3a3d
00000130: abd8 4e3b 7bc5 09be 1bf3 85bd 5f0e b8bd
00000140: 6858 f83d 5861 66bd 138c 02be c090 15bc
00000150: 9fa9 bb3d 53e4 f9bd 291d 173e ca81 a8bc
00000160: 5668 91bd dedc b2bc 602a 84bd e733 9dbd
00000170: 9c15 833d b4c5 073e 3a81 13bd 620c c5bd
00000180: 8178 87bd 9cd9 f83c 21b5 eabd ec7a cb3d
00000190: ba2b 923d 25e6 0bbc df48 ec3b 582c 033d
000001a0: 4ca4 803d ce54 08be 01ea e0bd 7559 a3bd
000001b0: 130a a93d 31e9 3cbd 84d2 e63d 0c64 283d
000001c0: efa2 2a3d 426d b0bd 10f6 9abc 5fd4 3b3d
000001d0: c26e cdbb d61d fc3d fcd1 4b3d f403 4bbd
000001e0: e004 413c d953 ef3c 0d28 a0bd c226 80bd
000001f0: 9238 fbbd 9cff aa3d 90d3 1ebe 224d 02bd
00000200: dabe 2fbd 9800 f63d 6070 1b3d 0bc4 51bc
00000210: c736 45bd 6e47 72bd 53f8 6f3c 496c d33d
00000220: 3b9c 9bbd 9624 1abb d789 82bd fe8e fe3d
00000230: e49a 4bbd 30a9 b93d ffe2 c13d 65e5 2d3d
00000240: 1be1 debd 3ac5 19be 6472 35bd a688 94bd
00000250: 1da2 0abc ae4a 713d 6001 f3bd 17cd 053d
00000260: f2ec c8bd f65e c7bd 4f8d 3cbd bea5 443b
00000270: 55b3 273d 2e2c 7f3d 8b6e 2ebd e555 a43d
00000280: b0b9 60bd 8fc3 c93d f4ce bc3c 5082 fb3d
00000290: 4a50 41bd 2b85 023d 7025 9abd 76c3 c63d
000002a0: 974e 2abd 363e f0bc 1788 0bbe fd48 9d3d
000002b0: 5d86 b7bc 0c79 5bbd 6ff3 8abd ff2a 80bd
000002c0: 7fda f83d 59ed 833d a339 f13d 5ef8 b53d
000002d0: cf72 b13d 9bfb 0b3e 9dbf 043e 6033 de3a
000002e0: 6fbb e33d 7d36 0dbd 9d71 143d 1f35 5b3d
000002f0: 7296 88bd f28b 473d 41ae 32bc 3303 763d
00000300: c994 da3c 68e5 a3bc 91de ba3d 6bee 103e
00000310: 7c15 6e3d c3f4 503c 96fb f03d cd49 14bc
00000320: 600d ebbd 0582 103e 9c06 c83d d2f8 743d
00000330: c6ee 34bd 363f 453d 7923 023d 9416 7cbd
00000340: 7aeb 873d 986c 72bd 9d46 48bc ca05 e6bc
00000350: 9d18 0dbc 3fd6 e3bd 3b83 5fbd 00af 8dbc
00000360: 931d 383d 7830 163e f5af d9bd 8902 1e3d
00000370: 8c3b d63d dcdd 97bb c40a bf3d 484e 12be
00000380: 3f16 093e a437 cd3b b196 9abd 47b7 cc3c
00000390: 0a15 a4bd 5dd5 4e3d 27b4 3b3c 5eed 873c
000003a0: fa2c d2bd e1a6 073c 5421 f7bd 960c ecbd
000003b0: cd02 153d 8cd6 51bd 1127 f43d 4251 b13d
000003c0: a93f 5c3d ad55 c93b 38a5 c13d 87c2 f73d
000003d0: f4a9 183d ee23 0a3e 3e7c 2dbe cfce 623b
000003e0: 38c7 823d 5d84 6cbd 1b01 2b3d e6af cabd
000003f0: a7c9 f93b 7425 e9bd 553c 22be 2787 50bd
-0.09522381 -0.09171781 -0.14335679 -0.16208798 0.0021328945 -0.11640473 -0.10252092 -0.09537756
-0.07253377 0.11387815 0.02981853 0.077416 0.08717499 -0.06991517 0.07677677 0.07549534
0.10087755 0.13008222 0.08162334 0.12493201 0.08992543 0.03357664 0.11439504 -0.018350301
-0.09452161 0.004140487 -0.119106665 -0.1377882 0.09494368 0.04635633 -0.036133938 0.13513082
-0.112674244 -0.003455565 -0.1195463 0.10315912 -0.038477506 0.045738213 -0.10572179 -0.023725161
-0.08323245 -0.00063357304 -0.06282694 -0.04518568 0.11552799 -0.005572225 -0.09143443 0.061387718
-0.0658759 -0.09174198 -0.04513961 0.0747726 -0.0972035 0.13645257 -0.101973884 0.121381365
-0.102671176 -0.032374546 -0.09861754 0.06086688 0.025320962 0.016702192 -0.10438458 0.16820821
0.14922735 0.11816721 0.12071226 0.15366158 -0.045753743 0.0058166445 0.0012997384 -0.101226985
0.067569844 -0.12526047 0.14653279 0.045589287 0.003156225 -0.13454239 -0.06540509 -0.08987116
0.12126237 -0.056245178 -0.12748747 -0.009128749 0.09163212 -0.122017525 0.14757217 -0.0205697
-0.070999786 -0.021833833 -0.06453395 -0.07675915 0.06400606 0.13259012 -0.036011912 -0.096215025
-0.06614781 0.030377202 -0.11460329 0.09935555 0.071372464 -0.008538757 0.0072108353 0.03202471
0.06281337 -0.133136 -0.10982133 -0.07976047 0.08253875 -0.046120826 0.112706214 0.041111037
0.04165929 -0.08614589 -0.01891616 0.04585683 -0.006269307 0.12310378 0.049760804 -0.049564317
0.011780947 0.029214786 -0.07820139 -0.062573925 -0.12266649 0.08349535 -0.15510392 -0.03181184
-0.04290662 0.12011832 0.037948966 -0.012803088 -0.048147943 -0.059150152 0.014646607 0.10323388
-0.07598158 -0.0023520342 -0.06373947 0.12429617 -0.049708262 0.09065473 0.09467124 0.042455096
-0.10882779 -0.15016642 -0.044298545 -0.07252626 -0.008461502 0.05890911 -0.11865497 0.032666292
-0.09810819 -0.09734909 -0.0460332 0.0030006017 0.04094251 0.062297992 -0.04258589 0.080241956
-0.054864585 0.09851753 0.023047902 0.122807145 -0.04719571 0.03186528 -0.07526672 0.0970525
-0.041578855 -0.02932654 -0.13626133 0.07679937 -0.022402937 -0.053582236 -0.067847125 -0.06258201
0.1215105 0.06441755 0.117785715 0.08885263 0.08664476 0.13670199 0.1296372 0.0016952567
0.111197345 -0.034475792 0.036241163 0.053517457 -0.0666932 0.048717447 -0.010905803 0.060061645
0.026682274 -0.02000685 0.091244824 0.14153449 0.058125958 0.012753668 0.11766736 -0.009050799
-0.114771605 0.14112099 0.09766886 0.059807606 -0.044173025 0.048155986 0.03177211 -0.06154497
0.066367105 -0.059185594 -0.012223867 -0.028078932 -0.008611825 -0.111248486 -0.05456851 -0.01729536
0.04495008 0.14666927 -0.10629264 0.038576636 0.104605764 -0.004634602 0.09328225 -0.14287674
0.13387392 0.0062627364 -0.07548273 0.024989737 -0.080118254 0.050496448 0.011456526 0.016592678
-0.10262485 0.008279533 -0.12066904 -0.11525838 0.036379624 -0.05123 0.11921514 0.08658077
0.05377165 0.0061442466 0.09455341 0.1209765 0.037271455 0.13490269 -0.16941926 0.003460813
0.06385654 -0.05774342 0.0417491 -0.09896831 0.007622916 -0.11384097 -0.15843327 -0.05091014
