logs/deafult/checkpoint_epoch1.tar (torch, 489841 bytes, 103 tensors)

module.NodesEncoding.A1.weight f4 [50, 2]
0	0xbf10db3a	-0.56584513
1	0x3ebfef25	0.3748714
2	0xbf120c17	-0.570497
3	0xbf145c62	-0.57953465
4	0x3eca1bf7	0.3947446
5	0x3e828e3a	0.25499135
6	0xbec70143	-0.3886815
7	0xbf2caef7	-0.67454475
8	0xbe582bcd	-0.21110459
9	0x3e3e19a6	0.18564472
10	0x3eaf6fa4	0.34264863
11	0xbe171469	-0.1475388
12	0x3f047531	0.5174132
13	0xbe6a4746	-0.22878751
14	0x3e06c7ad	0.13162108
15	0xbed63b47	-0.418421
16	0xbd8a0d4a	-0.06740816
17	0x3eea565c	0.45769012
18	0xbec0e279	-0.37672785
19	0x3f0fd774	0.5618813
20	0xbf2490c2	-0.6428338
21	0x3e0d90a5	0.13824709
22	0x3ef46ea1	0.47740653
23	0x3f2af4fd	0.6678007
24	0x3f1eb6e6	0.6199783
25	0x3f346fa6	0.7048286
26	0x3e51a81a	0.20474282
27	0x3d6cbbf8	0.05779645
28	0x3eac8bea	0.33700496
29	0xbeb9e77f	-0.3630943
30	0x3ec0df6d	0.3767046
31	0xbee8542c	-0.45376718
32	0xbe7538c3	-0.23947434
33	0xbefa1112	-0.4884115
34	0x3f25d44a	0.6477705
35	0x3ead2a0f	0.3382115
36	0xbe38729f	-0.18012474
37	0xbea26229	-0.31715515
38	0x3e312e86	0.17302904
39	0xbedf26d3	-0.43584308
40	0xbe162bd5	-0.14665158
41	0x3ea055ca	0.31315452
42	0x3f0c4780	0.547966
43	0xbecb6431	-0.39724877
44	0xbe91f070	-0.28503752
45	0x3f0387e1	0.5137921
46	0x3f36222e	0.71145904
47	0x3e4aa409	0.19789137
48	0xbf32dbba	-0.69866526
49	0xbef35da6	-0.47532386
50	0xbdf18bda	-0.11794253
51	0x3f109c5e	0.564886
52	0xbeccdf23	-0.4001399
53	0xbeef78ec	-0.46771944
54	0xbeddef45	-0.4334661
55	0xbe5e036d	-0.21680994
56	0x3dbb1052	0.09133972
57	0x3f132a65	0.57486564
58	0xbec3619e	-0.38160414
59	0x3f1389bd	0.57632047
60	0xbe999fae	-0.30004638
61	0xbf1917a5	-0.59801704
62	0xbf24e042	-0.6440469
63	0x3f29fa58	0.6639762
64	0xbf3182d9	-0.6934028
65	0xbc9c75a2	-0.01909906
66	0x3d85b7a2	0.06529166
67	0x3d950fb4	0.07278386
68	0x3dbc7fc5	0.092040576
69	0x3f0b9d01	0.54536444
70	0xbe5a0a9f	-0.21293114
71	0x3eddf8c8	0.43353868
72	0x3e91b402	0.28457648
73	0x3c45e852	0.012079315
74	0xbdf3e41e	-0.11908744
75	0xbeab4ed5	-0.33458582
76	0xbf13a53d	-0.5767401
77	0x3ef3e912	0.47638756
78	0x3eb8febf	0.36131856
79	0x3f206d03	0.6266634
80	0x3ea6d9d1	0.32588056
81	0xbe7a9186	-0.24469575
82	0x3eb7295b	0.3577374
83	0x3f28fa52	0.6600696
84	0x3f28ff7f	0.66014856
85	0x3d75c657	0.060003605
86	0x3e005623	0.12532859
87	0xbeca9565	-0.39567104
88	0x3ead0587	0.3379328
89	0xbe951f9e	-0.29125684
90	0x3f33e0bf	0.7026481
91	0x3f0128a3	0.5045263
92	0x3e38e237	0.18055044
93	0xbe14bddc	-0.1452555
94	0xbe966f5d	-0.29381838
95	0x3e2268ec	0.15860337
96	0x3f2a3cc9	0.66499
97	0x3e574d98	0.21025693
98	0x3e0b4d7b	0.13603775
99	0xbe9b21a3	-0.302991

module.NodesEncoding.A1.bias f4 [50]
0	0x3e82c8d7	0.25543854
1	0x3f0f5e47	0.5600323
2	0x3f245305	0.6418918
3	0x3e799ed6	0.24376997
4	0xbdc403ec	-0.095710605
5	0x3e9b8cce	0.30380863
6	0x3f138cea	0.5763689
7	0xbe9c710b	-0.30554995
8	0xbe3d1f7b	-0.1846904
9	0xbe90504a	-0.28186256
10	0x3bb8f263	0.005644129
11	0x3ee85f65	0.4538528
12	0x3eb79ccd	0.35861817
13	0x3f3402ab	0.7031657
14	0xbf0be498	-0.5464568
15	0x3e9c930f	0.30580947
16	0xbead146f	-0.33804652
17	0x3f1fb8fc	0.6239164
18	0x3d9c4e8c	0.07632169
19	0xbe8f7594	-0.28019392
20	0xbee58edf	-0.44835564
21	0xbef0e43e	-0.47049135
22	0xbe7a68b9	-0.24454011
23	0xbed93cb4	-0.42429125
24	0x3eb367b6	0.35040063
25	0xbe776d7e	-0.24162862
26	0xbf081487	-0.5315632
27	0x3d0e633a	0.0347626
28	0xbe05be8d	-0.1306097
29	0x3ecd0e5b	0.40050015
30	0xbeb3fcfc	-0.3515395
31	0xbdf9efa6	-0.122039124
32	0xbebc29c7	-0.36750624
33	0xbec1d747	-0.37859556
34	0xbe44e3c6	-0.19227514
35	0x3ee536c1	0.44768336
36	0xbd1768a7	-0.03696504
37	0xbe901c72	-0.28146702
38	0x3d20c86f	0.03925365
39	0x3f03a1f1	0.5141898
40	0x3f1e1898	0.6175628
41	0x3c64d779	0.013967388
42	0x3f331c15	0.69964725
43	0x3e271775	0.16317542
44	0x3efd6c9a	0.4949692
45	0x3f322d27	0.69600147
46	0xbeeca5d9	-0.46220282
47	0x3e89af49	0.26891544
48	0xbd1ef733	-0.038809966
49	0x3e3b1922	0.18271306

module.EdgesEncoding.A2.weight f4 [25, 1]
0	0x3daef231	0.08542288
1	0xbf3c7ac3	-0.7362482
2	0x3f701d3a	0.93794596
3	0xbf278d77	-0.65450233
4	0xbf80630a	-1.0030224
5	0xbf574b7b	-0.8409955
6	0x3e8a8c2c	0.27060068
7	0xbd88b463	-0.06675031
8	0x3f20ba05	0.62783843
9	0xbe107fee	-0.14111301
10	0x3d0beb66	0.03416004
11	0x3f161215	0.5862134
12	0x3f5b7f5c	0.8574121
13	0x3daeaf5a	0.085295394
14	0xbe9196cb	-0.28435358
15	0x3f534a6e	0.82535446
16	0x3f3083a1	0.6895085
17	0x3f117765	0.56822807
18	0x3db8ddb3	0.09026661
19	0x3ef5a2d6	0.47975796
20	0x3f375ce3	0.7162611
21	0x3f6470ed	0.8923481
22	0x3e2713d0	0.16316152
23	0xbec978ca	-0.39349967
24	0x3ebc3f82	0.36767203

module.EdgesEncoding.A2.bias f4 [25]
0	0xbe0f07fb	-0.13967888
1	0x3d839ceb	0.06426414
2	0xbf6679ae	-0.9002942
3	0xbe444be2	-0.19169572
4	0x3f1ba0c6	0.60792196
5	0x3f14179d	0.5784853
6	0xbe551ea3	-0.20812468
7	0x3db080e5	0.08618335
8	0xbf3be48d	-0.73395616
9	0x3e14be82	0.14525798
10	0xbee7e536	-0.45292062
11	0x3f3d2f22	0.73900044
12	0xbe4be718	-0.19912374
13	0xbe073c99	-0.1320671
14	0x3ea0ffe1	0.3144522
15	0x3f366445	0.7124675
16	0x3f424de7	0.7590012
17	0xbe9e1f57	-0.30883285
18	0x3f1967e1	0.5992413
19	0x3e1ed05e	0.15509173
20	0x3e2da669	0.16958012
21	0xbea2e010	-0.3181157
22	0x3ed76e7d	0.42076483
23	0x3e2503df	0.16114758
24	0x3ecfdcba	0.40598089

module.EdgesEncoding.A3.weight f4 [25, 1]
0	0xbee87667	-0.45402834
1	0x3d5d1219	0.053972337
2	0xbf6b34fd	-0.9187773
3	0x3d6ca27d	0.05777215
4	0xbf690816	-0.91027963
5	0x3e48d4ca	0.19612423
6	0xbe040fdb	-0.12896673
7	0xbf0cace5	-0.54951316
8	0x3f648c80	0.89276886
9	0xbd4c65ee	-0.049901895
10	0x3e4b639e	0.1986222
11	0xbda12569	-0.078684635
12	0x3f27e8ec	0.65589786
13	0x3ec897f2	0.39178425
14	0x3cc9b2a9	0.024621325
15	0xbeaef956	-0.34174603
16	0x3f259d07	0.6469273
17	0x3e8023e2	0.25027376
18	0x3e6f8ae6	0.2339283
19	0xbe6205e4	-0.2207256
20	0xbf2f5f7a	-0.6850506
21	0xbd2a994c	-0.0416501
22	0x3eafdca5	0.34348026
23	0xbee46bc9	-0.44613484
24	0x3ec467d1	0.38360456

module.EdgesEncoding.A3.bias f4 [25]
0	0x3f2414fb	0.64094514
1	0x3f2ee54a	0.6831862
2	0xbe0ac584	-0.13551909
3	0x3e8ffc6f	0.2812228
4	0xbe9f44e8	-0.3110726
5	0xbe9aae23	-0.3021098
6	0x3f258ff8	0.64672804
7	0xbf519fdd	-0.81884557
8	0x3f20c18e	0.6279534
9	0xbe82ba56	-0.25532788
10	0xbf6d45be	-0.92684543
11	0x3f348dfe	0.7052916
12	0x3f61e460	0.882391
13	0xbf3f8975	-0.7481912
14	0x3e7a6f3e	0.24456498
15	0xbf047c93	-0.51752585
16	0xbe84797a	-0.2587393
17	0xbf7e02f5	-0.9922326
18	0xbe9eca78	-0.31013846
19	0x3e6fe449	0.23426928
20	0x3f7ede1d	0.9955767
21	0x3e3db566	0.1852623
22	0xbf4fdcfb	-0.81196564
23	0xbf3fc4ce	-0.74909675
24	0xbe80fe53	-0.25194034

module.gcn_layers.0.bnNodes.W1.weight f4 [50, 50]
0	0x3e0c3e1a	0.13695565
1	0x3ca5b736	0.020228963
2	0xbd5adfd3	-0.05343611
3	0x3baa6718	0.005200278
4	0x3ddd3cc5	0.108026065
5	0xbd90bdd8	-0.0706746
6	0xbdeed8d1	-0.11662448
7	0xbe0bf0bd	-0.13666053
8	0x3d832a6a	0.06404574
9	0x3dd03621	0.10166574
10	0x3e0fa06e	0.14026043
11	0xbddf6e19	-0.10909671
12	0xbcfb3242	-0.030663613
13	0x3cbf3271	0.023339482
14	0x3d964922	0.07338168
15	0x3b0f7c59	0.0021894185
16	0xbdff703c	-0.12472579
17	0xbdce2d23	-0.10067203
18	0x3d96a87d	0.07356355
19	0x3d293578	0.041310757
20	0x3df0e338	0.117620885
21	0x3d84ced0	0.06484759
22	0xbd034250	-0.032045662
23	0xbdc414f9	-0.09574313
24	0xbb71a71f	-0.0036873294
25	0xbd734de4	-0.059400454
26	0x3cf3907f	0.029731987
27	0xbdbb927b	-0.09158798
28	0xbda373dd	-0.079810835
29	0xbd2785a0	-0.04089892
30	0x3e1329cc	0.14371413
31	0xbd9bee41	-0.07613803
32	0xbdbc8b2f	-0.09206235
33	0x3d889b9e	0.066703066
34	0xbd6ed7db	-0.058311325
35	0xbdf23390	-0.11826241
36	0xbcec69b9	-0.028859006
37	0xbcec68ea	-0.02885862
38	0x3ccd7b5c	0.025083236
39	0x3d70999a	0.058740236
40	0x3d415481	0.04719973
41	0x3cd085e6	0.025454473
42	0x3da0375a	0.078230575
43	0x3d9daa22	0.07698466
44	0x3e07f960	0.13278723
45	0xbe11e384	-0.14246947
46	0x3d3ce40b	0.046115916
47	0xbdbe194e	-0.0928217
48	0xbd72575d	-0.059165347
49	0xbda6028f	-0.08105957
50	0xbc3e937e	-0.011631845
51	0xbdf2461f	-0.11829781
52	0x3e0c1dce	0.13683245
53	0xbd4a1d8c	-0.049344584
54	0xbc82144a	-0.015878815
55	0x3d25b9ce	0.0404604
56	0x3d0e9214	0.03480728
57	0x3da6c321	0.08142687
58	0xbdf0e9ad	-0.1176332
59	0xbdd3e238	-0.10345882
60	0x3d96c856	0.0736243
61	0x3d07588b	0.033043426
62	0x3e0059af	0.12534212
63	0x3e0caff4	0.13738996
64	0xbbd42759	-0.006474417
65	0xbc6fbe4d	-0.014632774
66	0xbdb65a40	-0.089039326
67	0xbdf90423	-0.12158992
68	0xbe0a8267	-0.13526307
69	0xbd9b4dce	-0.075831994
70	0x3cd6d765	0.026225755
71	0xbdeba867	-0.115067296
72	0x3d4b8cab	0.0496947
73	0x3c477afc	0.012175318
74	0xbc982b3a	-0.0185753
75	0x3cf42f03	0.029807573
76	0x3de83a6b	0.11339267
77	0x3c446ba7	0.011988557
78	0xbe1103b6	-0.14161572
79	0xbd1974db	-0.037464958
80	0xbdb224b6	-0.08698408
81	0x3c37881d	0.0112018855
82	0x3db8e5a6	0.09028177
83	0x3dcd3684	0.10020164
84	0x3d814588	0.0631209
85	0xbd9e316b	-0.077242695
86	0xbdb6275b	-0.08894225
87	0x3e003f2a	0.12524095
88	0xbdb21a02	-0.08696367
89	0x3e0d3e4a	0.13793293
90	0x3df82ffb	0.121185265
91	0x3df3af48	0.118986666
92	0xbd02c95e	-0.03193032
93	0xbcfd98d4	-0.030956663
94	0xbe0ad573	-0.13557987
95	0xbe08662b	-0.13320224
96	0xbd815628	-0.06315261
97	0x3bf25112	0.0073949182
98	0x3e0c1ab2	0.13682058
99	0xbd3a2e6d	-0.04545443
100	0xbdeef8a0	-0.11668515
101	0xbd07c571	-0.03314728
102	0xbc8b3f9c	-0.016998105
103	0x3d3727ce	0.044715695
104	0xbcbca5e8	-0.023028329
105	0x3d3502a9	0.04419199
106	0x3d9fee79	0.07809157
107	0xbddeaeba	-0.1087317
108	0xbd96f3d9	-0.07370729
109	0xbe07dcaa	-0.1326777
110	0x3d42e967	0.04758587
111	0xbd6265a4	-0.055272713
112	0x3d527f3f	0.051390883
113	0xbd7a6290	-0.061129153
114	0x3da0d63b	0.07853361
115	0x3dc77a5e	0.097401366
116	0x3dfb2cf6	0.12264435
117	0xbcbcd661	-0.023051443
118	0x3a3df3b6	0.00072460936
119	0xbd0fe102	-0.035126694
120	0xbe194fa1	-0.14971782
121	0xbdd3eaef	-0.103475444
122	0xbde6781e	-0.11253379
123	0x3ca6c0cb	0.020355603
124	0xbd89e6d9	-0.06733484
125	0x3e01f0c2	0.12689498
126	0xbdd55058	-0.10415715
127	0x3e064627	0.13112698
128	0xbdfa0c97	-0.122094326
129	0xbd8dcd06	-0.06923871
130	0x3d709892	0.058739252
131	0xbd195622	-0.03743566
132	0xbd8dcc71	-0.0692376
133	0xbbbce9a4	-0.005765157
134	0x3d70b85e	0.058769576
135	0x3dd79eb4	0.10528317
136	0x3def372f	0.11680447
137	0xbde8110f	-0.11331379
138	0x3d11a423	0.035556924
139	0x3b896edc	0.0041941237
140	0xbd227c38	-0.039669245
141	0xbde029cc	-0.10945472
142	0x3d2922d8	0.041292995
143	0x3dbf6b43	0.093466304
144	0xbddf3232	-0.10898246
145	0xbd817a72	-0.06322183
146	0xbd315128	-0.043290287
147	0x3d90beca	0.0706764
148	0xbdbbf2c6	-0.09177165
149	0xbdc4663d	-0.09589813
150	0xbddb0540	-0.10694361
151	0xbda2c4dd	-0.07947705
152	0x3da503a4	0.08057335
153	0xbc28f27a	-0.010311717
154	0x3c2111b5	0.009830882
155	0xbdbe2ef0	-0.09286296
156	0x3c6fa045	0.014625614
157	0x3d57d345	0.052691717
158	0xbd78789c	-0.060661897
159	0x3e00f888	0.12594807
160	0x3d92aa80	0.071614265
161	0xbdd36c5a	-0.10323401
162	0x3b415579	0.0029500409
163	0x3daf6955	0.08565012
164	0x3d813279	0.06308455
165	0xbdc115bc	-0.09427974
166	0x3da77c76	0.08178036
167	0x3cc705b2	0.024294708
168	0x3e16edd6	0.14739165
169	0xbd887f3d	-0.06664894
170	0x3d268419	0.040653322
171	0x3de8613b	0.1134667
172	0x3dcb7b86	0.099356696
173	0x3bd5f4f0	0.006529443
174	0x3db687c2	0.089126125
175	0x3dbdb49d	0.09262965
176	0xbb3dce1d	-0.0028961964
177	0xbd4b8c7c	-0.049694523
178	0x3df66386	0.12030701
179	0x3ac65563	0.0015131648
180	0x3d2af3ce	0.041736417
181	0xbc65aac2	-0.014017763
182	0xbdc5e705	-0.09663204
183	0x3de9a5f8	0.11408609
184	0xbe0e38df	-0.13888882
185	0xbdc527f7	-0.09626763
186	0x3c85aa0d	0.016316438
187	0x3c0d64ff	0.008630036
188	0xbd7e9bd7	-0.06216034
189	0x3dba35a0	0.090922594
190	0xbde399b3	-0.111133
191	0x3d17941d	0.037006486
192	0xbdbd1a2a	-0.09233506
193	0x3de13f27	0.109983735
194	0xbe136a79	-0.14396085
195	0x3d1de4de	0.038548343
196	0x3d82aee3	0.06381013
197	0x3e058516	0.1303905
198	0xbe160974	-0.14652044
199	0xbda2d995	-0.07951657
200	0x3cc88304	0.024476536
201	0xbd22d159	-0.03975043
202	0xbdff2775	-0.12458698
203	0xbdcf0c43	-0.101097606
204	0xbdef626f	-0.116886966
205	0x3dda67a6	0.106643006
206	0x3ae579ca	0.001750761
207	0xbe0737f3	-0.13204937
208	0xbe082c4a	-0.13298145
209	0xbd4fe1ae	-0.050752334
210	0x3c6baa8b	0.014383922
211	0xbd338362	-0.04382647
212	0xbb8fa2df	-0.0043834294
213	0xbd9c189d	-0.07621882
214	0xbd704fe8	-0.058669955
215	0xbdb1c34f	-0.0867983
216	0x3de1db89	0.11028201
217	0xbd266759	-0.040625904
218	0xbbf2f28c	-0.0074141677
219	0x3dd54178	0.10412878
220	0xbd442343	-0.04788519
221	0xbcf5cc3b	-0.030004611
222	0x3d853414	0.06504074
223	0x3e0e0dc0	0.13872433
224	0xbac0f319	-0.0014720886
225	0x3ccf2c6f	0.025289742
226	0xbdd6fc23	-0.1049731
227	0x3dd70c16	0.10500352
228	0xbd8c38a6	-0.06846742
229	0x3dc4cda2	0.09609534
230	0xbdfa1115	-0.122102894
231	0xbd8bbb69	-0.06822855
232	0xbdf3e897	-0.11909597
233	0x3d9fe7b4	0.07807866
234	0xbd03db21	-0.0321914
235	0xbda46445	-0.080269374
236	0xbda2e824	-0.079544336
237	0x3d64c560	0.055852294
238	0xbd4871e8	-0.048936754
239	0x3d58c71e	0.052924268
240	0x3d9644e0	0.073373556
241	0x3d2b7778	0.04186198
242	0xbd7305ad	-0.059331585
243	0x3e0e9a4b	0.13926046
244	0xbdd87529	-0.105692215
245	0x3d367044	0.04454066
246	0x3e07b9f4	0.13254529
247	0xbda06ae7	-0.0783289
248	0xbc69d4ab	-0.014271895
249	0x3db9f8a2	0.09080626
250	0xbd060ec2	-0.032728918
251	0xbe03d534	-0.128743
252	0x3da2e828	0.079544365
253	0x3cc9dc7c	0.024641268
254	0x3ba3cb93	0.004998633
255	0x3def6804	0.11689761

module.gcn_layers.0.bnNodes.W2.weight f4 [50, 50]
0	0xbddb04b9	-0.1069426
1	0x3dd3a180	0.10333538
2	0xbc99a202	-0.01875401
3	0x3e02729a	0.1273903
4	0xbdd2382a	-0.10264619
5	0x3d4d965b	0.05019222
6	0xbb081b57	-0.002076825
7	0xbcbd947f	-0.023142098
8	0x3ddda908	0.10823256
9	0xbcd2f188	-0.025749937
10	0x3ba286a9	0.0049599004
11	0xbdc68a83	-0.09694388
12	0xbdee4c1a	-0.11635609
13	0x3e165e20	0.14684343
14	0xbd040560	-0.03223169
15	0x3d7fc1a8	0.062440544
16	0xbc8084e8	-0.015688375
17	0xbdc8bdc7	-0.09801822
18	0x3dfd0038	0.12353557
19	0x3c755a34	0.014975119
20	0x3d7ea1ad	0.062165905
21	0x3d339333	0.043841552
22	0xbdf00386	-0.11719422
23	0xbd16d8ce	-0.036827855
24	0x3da8ef03	0.08248713
25	0xbd8c1b6d	-0.068411686
26	0xbdb296aa	-0.08720143
27	0xbddfc394	-0.109259754
28	0xbb6bbe5d	-0.003597162
29	0x3d0b3129	0.03398243
30	0xbe012c38	-0.12614524
31	0x3d8a4d7c	0.0675306
32	0xbd8ab128	-0.06772071
33	0x3d3728dd	0.044716705
34	0xbd991ba4	-0.07475975
35	0x3df92df2	0.121669665
36	0xbdba0379	-0.090826936
37	0x3d45f354	0.04832776
38	0xbdb73cc2	-0.089471355
39	0xbc3356e2	-0.010946007
40	0x3df7c219	0.12097568
41	0x3da00b78	0.078146875
42	0xbd35219d	-0.04422151
43	0x3d8a210a	0.06744583
44	0xbd1d326d	-0.038378168
45	0xbd77ef78	-0.06053111
46	0xbcae6e51	-0.021292837
47	0x3dd8f078	0.10592741
48	0x3dae8720	0.08521867
49	0xbdebda8d	-0.11516295
50	0x3de9208c	0.11383161
51	0x3bbf4ce5	0.005838024
52	0x3dfb9cac	0.12285742
53	0x3c07948d	0.008275163
54	0xbca17542	-0.019709233
55	0xbd9fabc1	-0.07796431
56	0xbd1b56c6	-0.03792455
57	0xbd47cec3	-0.048781168
58	0x3d5951b1	0.053056423
59	0xbd86fd04	-0.06591228
60	0xbe05c92c	-0.13065022
61	0xbdb530a8	-0.08847171
62	0x3dc6d26b	0.09708103
63	0x3c66831e	0.014069347
64	0xbcc6b1c2	-0.024254683
65	0xbcb0f1b8	-0.021599635
66	0x3e0a129e	0.13483664
67	0x3d9bef0b	0.07613953
68	0xbb8aadb0	-0.004232131
69	0x3dd0de79	0.10198683
70	0x3e0a0bf4	0.13481122
71	0x3e08ce2d	0.133599
72	0x3bba55bd	0.0056864903
73	0x3da88242	0.0822797
74	0xbd22129e	-0.039568536
75	0x3d11527c	0.035479054
76	0x3dfe8bdf	0.12429022
77	0xbe00c631	-0.12575604
78	0xbc7dd084	-0.0154916085
79	0x3df44d34	0.11928788
80	0xbdeea006	-0.11651616
81	0xbca271f1	-0.019829722
82	0xbd3138ee	-0.043267183
83	0x3d91c561	0.07117725
84	0x3b337dc9	0.0027388206
85	0xbe0ad995	-0.13559563
86	0xbddf6fb8	-0.109099805
87	0x3d96817e	0.073489174
88	0x3be47037	0.006971385
89	0x3e089535	0.13338168
90	0x3c6990b7	0.014255694
91	0x3dea03aa	0.1142648
92	0x3d602b20	0.054728627
93	0xbe03c84c	-0.12869376
94	0x3dbde118	0.09271449
95	0x3cc5ab17	0.024129434
96	0xbd63b5c5	-0.05559327
97	0x3d331b1c	0.043727025
98	0xbd7959b1	-0.060876552
99	0xbd4e8133	-0.050416183
100	0xbca553a9	-0.020181494
101	0x3dba47e3	0.090957426
102	0xbe0700ed	-0.13183947
103	0xbd8d06d0	-0.06886065
104	0x3e0af19f	0.13568734
105	0x3dcc3f92	0.099730626
106	0x3e0722ba	0.13196841
107	0xbd474a01	-0.04865456
108	0xbcf7f074	-0.030266024
109	0xbe0f69a7	-0.14005147
110	0xbddd5311	-0.10806859
111	0x3c158048	0.009124823
112	0xbc493cc0	-0.01228255
113	0xbd1c6e42	-0.038191088
114	0xbd6f2edf	-0.05839431
115	0xbdaa46b4	-0.08314267
116	0x3dcb79a9	0.09935314
117	0x3d2f74b3	0.042835902
118	0xbc378ec3	-0.011203471
119	0x3e10bb52	0.14133957
120	0xbb1c7d4d	-0.0023878396
121	0x3ddbf04b	0.107391916
122	0xbc82ad30	-0.015951723
123	0xbd58a250	-0.05288917
124	0xbdd30504	-0.10303691
125	0xbdad813e	-0.084719166
126	0xbd8dbd17	-0.06920832
127	0xbd7e3b92	-0.06206853
128	0x3e01123c	0.12604612
129	0xbe0daad8	-0.13834703
130	0x3e02a038	0.12756431
131	0xbdbf58fc	-0.09343144
132	0xbe09d17c	-0.13458818
133	0x3d539215	0.051652987
134	0xbde5e6c8	-0.11225659
135	0xbd6b4919	-0.05744276
136	0x3d35d980	0.044396877
137	0xbd6572cf	-0.056017693
138	0x3d02ea4f	0.031961735
139	0x3dad4ff8	0.084625185
140	0xbc1b23a9	-0.009468951
141	0xbd9e8b07	-0.07741361
142	0xbda95eb1	-0.08270014
143	0x3d07e06e	0.033173017
144	0xbd85764e	-0.065167055
145	0xbd9561aa	-0.072940186
146	0x3d9371f0	0.07199466
147	0x3c685894	0.014181275
148	0x3d4a079e	0.04932367
149	0x3d95a8af	0.073075645
150	0xbe0296c3	-0.12752824
151	0x3c863382	0.016381983
152	0x3c4b44dd	0.012406555
153	0x3b68a776	0.0035500205
154	0x3bfe6183	0.007763089
155	0xbd2090b3	-0.039200496
156	0xbe07c57b	-0.13258927
157	0x3dddb93b	0.108263455
158	0xbc141e2c	-0.009040397
159	0xbcbed741	-0.023296
160	0x3e0246e7	0.1272236
161	0xbd7b48cc	-0.06134872
162	0xbda824a5	-0.082101144
163	0xbcf1d141	-0.029518725
164	0xbdd7dfca	-0.10540731
165	0xbda2ebf0	-0.07955158
166	0xbd5df884	-0.05419208
167	0x3e046d0e	0.12932226
168	0xbcf7d619	-0.030253457
169	0xbe07b5a3	-0.13252883
170	0xbc9d8c42	-0.01923192
171	0xbd93b809	-0.07212836
172	0xbdbc4af9	-0.091939874
173	0xbd733bd5	-0.059383232
174	0xbe04ea93	-0.12980108
175	0xbd660926	-0.05616107
176	0xbdf823d5	-0.121162094
177	0xbd455e2d	-0.048185516
178	0xbe0d8417	-0.1381992
179	0x3ccb589e	0.02482253
180	0x3ce7438b	0.02823045
181	0xbd8c11ec	-0.06839356
182	0x3b6f8229	0.0036546087
183	0xbdc9df99	-0.09857101
184	0xbde9feed	-0.11425576
185	0x3b3f6a10	0.0029207505
186	0xbd23d728	-0.04000011
187	0xbded40bf	-0.11584615
188	0x3db505d4	0.08839002
189	0x3cf34af6	0.02969883
190	0xbe1e63fa	-0.15467826
191	0xbddac7c8	-0.106826365
192	0x3d5b80d7	0.053589668
193	0x3caa76f1	0.020808669
194	0x3d9ebd92	0.077510014
195	0xbb499589	-0.0030759296
196	0xbb9fff21	-0.0048827087
197	0xbd6f30b4	-0.058396056
198	0xbd8d4f60	-0.06899905
199	0xbddd9ede	-0.10821317
200	0x3d4d0e52	0.050062485
201	0x3de0d5ba	0.10978265
202	0x3d6b6985	0.05747368
203	0xbd11fb0e	-0.035639815
204	0x3c88430b	0.016633531
205	0xbe1689ee	-0.14701054
206	0xbcd20c3a	-0.025640596
207	0x3df1e584	0.11811355
208	0xbca563d9	-0.020189213
209	0x3bf3bc20	0.0074381977
210	0x3e0cfb50	0.13767743
211	0x3ddecc65	0.10878829
212	0xbc5b7969	-0.013395646
213	0xbe07ecce	-0.13273928
214	0x3df98b95	0.12184826
215	0x3d71c155	0.059022266
216	0xbbcba923	-0.006215231
217	0x3e0092ea	0.12556043
218	0x3d4735fc	0.048635468
219	0xbc97fb34	-0.0185524
220	0x3dfe7f2c	0.124266
221	0x3ce3538b	0.027749797
222	0x3d9e8ec3	0.077420734
223	0x3ba07b15	0.004897485
224	0x3d879281	0.0661974
225	0xbce9fbd2	-0.02856246
226	0x3cf7de5a	0.030257393
227	0xbe1601e0	-0.14649153
228	0x3dd06618	0.10175723
229	0x3cf5c4c6	0.030001055
230	0x3d9d801e	0.07690452
231	0xbda7950a	-0.08182724
232	0xbc0a81b8	-0.008453779
233	0x3d058b81	0.032603744
234	0xbc541e9f	-0.012946754
235	0xbd1e84e4	-0.038700953
236	0x3d86d016	0.06582658
237	0x3ce77492	0.028253827
238	0xbe052a93	-0.13004522
239	0x3ccc718c	0.024956487
240	0x3db12f2b	0.08651575
241	0x3df26ffa	0.11837764
242	0x3dcacc3f	0.09902238
243	0x3da5178c	0.08061132
244	0xbb924f64	-0.0044650305
245	0xbdec9a9c	-0.11552927
246	0xbdc0aa27	-0.09407454
247	0x3d113e86	0.035460018
248	0xbd27fe21	-0.04101384
249	0xbd83de32	-0.06438865
250	0xbcfd803b	-0.030944934
251	0x3d8fb69e	0.07017253
252	0xbd5db0a6	-0.054123543
253	0xbd923187	-0.07138353
254	0xbbeef934	-0.007292891
255	0x3e14a229	0.14514984

module.gcn_layers.0.bnNodes.batch_norm.weight f4 [50]
0	0x3f7e49ff	0.9933166
1	0x3f7dd42f	0.9915189
2	0x3f7cabb5	0.98699504
3	0x3f7cf67d	0.9881361
4	0x3f8083b2	1.004019
5	0x3f8109f5	1.0081164
6	0x3f800b5f	1.000347
7	0x3f7dc45f	0.99127764
8	0x3f7d6b10	0.9899149
9	0x3f7fc174	0.9990456
10	0x3f7d779f	0.9901065
11	0x3f8146f4	1.0099778
12	0x3f7de924	0.9918387
13	0x3f800baf	1.0003566
14	0x3f80f449	1.007455
15	0x3f7fde6b	0.9994876
16	0x3f8092ef	1.004484
17	0x3f809636	1.0045841
18	0x3f7c527d	0.9856337
19	0x3f7db5a5	0.9910529
20	0x3f7b88b5	0.98255473
21	0x3f814bab	1.0101217
22	0x3f7fe18a	0.9995352
23	0x3f7df18e	0.9919671
24	0x3f7d584a	0.98962843
25	0x3f7e6957	0.99379486
26	0x3f8100f5	1.0078417
27	0x3f7c6f26	0.986071
28	0x3f7f7a8b	0.9979636
29	0x3f7fa062	0.998541
30	0x3f81c764	1.0138974
31	0x3f7fca06	0.9991764
32	0x3f81b6cd	1.0133911
33	0x3f803b9b	1.001819
34	0x3f80c6f3	1.0060714
35	0x3f808a04	1.0042119
36	0x3f7f93ff	0.998352
37	0x3f7fa346	0.9985851
38	0x3f7f6ea2	0.9977819
39	0x3f7fee6a	0.99973166
40	0x3f808eac	1.004354
41	0x3f7f26de	0.9966868
42	0x3f7e4072	0.99317086
43	0x3f7ce33f	0.9878425
44	0x3f7ce02e	0.9877957
45	0x3f7bc486	0.98346746
46	0x3f7bc343	0.9834482
47	0x3f7cf0d0	0.9880495
48	0x3f7b6c6b	0.9821231
49	0x3f7da82a	0.99084723

module.gcn_layers.0.bnNodes.batch_norm.bias f4 [50]
0	0xbb87cf31	-0.004144572
1	0xbc1439c9	-0.00904698
2	0xbc41d733	-0.011831093
3	0xbc5b1f24	-0.013374124
4	0x3be1792e	0.006880901
5	0x3c5c9c55	0.013465007
6	0x3b820a68	0.0039685257
7	0xbc103be3	-0.008803341
8	0xbc411a44	-0.011786047
9	0xbb62646f	-0.0034544726
10	0xbbdfa063	-0.0068245395
11	0x3c34372e	0.010999484
12	0xbb45c8b4	-0.0030179443
13	0x3ba8f6f9	0.0051563946
14	0x3c56fc79	0.013121718
15	0x3b1f51f2	0.0024310318
16	0x3a9b7b12	0.0011862239
17	0x3b315343	0.0027057684
18	0xbc290e47	-0.010318345
19	0xbbd12ea9	-0.006383736
20	0xbc2ecaef	-0.0106685
21	0x3c6f38f2	0.014600979
22	0x3bbab423	0.0056977435
23	0xb9ae64bb	-0.00033262916
24	0xbc1b1d33	-0.009467411
25	0xbaafcdf1	-0.0013412816
26	0x3c5e9e72	0.013587581
27	0xbc73b39c	-0.014874365
28	0x3c12ff16	0.00897195
29	0xbc0d2769	-0.008615353
30	0x3c5ea649	0.01358945
31	0x3c341614	0.010991592
32	0x3c5aad59	0.013346993
33	0x3bbf8d8c	0.005845731
34	0x3c2b9325	0.010472094
35	0x3c2a6aff	0.010401486
36	0x3b2d1860	0.0026412234
37	0x3b2f4970	0.0026746653
38	0xbb610cf7	-0.0034340003
39	0xba8cfe0c	-0.0010756864
40	0x3c3e92a5	0.0116316425
41	0x3be1583a	0.0068769725
42	0x39bf3951	0.00036473063
43	0xbc00cf92	-0.007861989
44	0xbbb5d95a	-0.005549592
45	0xbc2d3e64	-0.010573957
46	0xbc6ff4ad	-0.014645738
47	0xbc4627b3	-0.012094426
48	0xbc86ccd0	-0.016455084
49	0xbbbcbb4e	-0.005759633

module.gcn_layers.0.bnEdges.W3.weight f4 [50, 50]
0	0x3c825e13	0.015913999
1	0x3d676602	0.056493767
2	0xbd040095	-0.032227118
3	0x3d044c36	0.032299243
4	0x3c9f5d82	0.019453768
5	0xbd62afd4	-0.055343464
6	0x3c3e416d	0.011612278
7	0x3db6f55f	0.089335196
8	0x3d04de51	0.03243858
9	0x3e05e80d	0.13076802
10	0x3dca81fe	0.09888075
11	0xbd09709d	-0.033554662
12	0x3c0624ae	0.008187456
13	0x3d8b3e68	0.067990124
14	0xbd7031ff	-0.05864143
15	0xbd8cbdf7	-0.068721704
16	0xbe17a490	-0.1480887
17	0xbdc78bdd	-0.09743474
18	0xbca0b556	-0.019617718
19	0xbe0c505b	-0.13702528
20	0x3dfd9b37	0.123831205
21	0xbc478fa5	-0.012180244
22	0x3d58b502	0.052906998
23	0x3dc5bbd7	0.09654968
24	0xbe171748	-0.14754975
25	0xbdbedc66	-0.093193814
26	0xbd1edb61	-0.038783435
27	0x3c2650e3	0.010151121
28	0xbdc716e1	-0.09721161
29	0xbde70768	-0.112807095
30	0xba154b4a	-0.0005695118
31	0x3d0f9ad0	0.03505975
32	0xbdff2af2	-0.12459363
33	0x3d353612	0.04424102
34	0xbd88c06d	-0.06677327
35	0xbb9be48a	-0.0047574686
36	0xbad6c3ab	-0.0016385218
37	0xbd79dee7	-0.061003592
38	0xbcedd65c	-0.029032879
39	0xbda1797b	-0.07884499
40	0x3dab6265	0.08368377
41	0xbdbb99fe	-0.09160231
42	0xbd6013a5	-0.054706234
43	0xbdeb9fb8	-0.11505073
44	0x3dc3c960	0.095598936
45	0xbda7a31a	-0.08185406
46	0xbdb89a83	-0.09013846
47	0xbdc44aba	-0.095845655
48	0x3d47f871	0.048820917
49	0xbdab0e23	-0.08352306
50	0x3df38081	0.118897445
51	0xbd3d89d7	-0.046274032
52	0xbdeb8054	-0.11499086
53	0xbda5885e	-0.080826506
54	0xbd376771	-0.044776384
55	0xbda0b1c6	-0.078464076
56	0x3cb33e34	0.021880247
57	0xbd95cc18	-0.073143184
58	0x3cd7d2a0	0.026345551
59	0xbd5d96fd	-0.05409907
60	0xbd0604e8	-0.032719523
61	0x3da4581c	0.08024618
62	0x3c6ee48d	0.014580858
63	0x3e19d816	0.15023836
64	0xbe00ed36	-0.12590489
65	0xbd0e0830	-0.034675777
66	0x3e0cd144	0.13751704
67	0xbdee5a98	-0.11638373
68	0xbd8537e9	-0.06504805
69	0xbcf59368	-0.029977515
70	0xbdf71002	-0.120636
71	0x3de3b718	0.11118907
72	0xbdcd7733	-0.10032501
73	0x3d2072a7	0.03917184
74	0x3d5caee9	0.053877745
75	0x3d1fb9ce	0.038995557
76	0x3e087bf9	0.13328542
77	0x3d13431b	0.03595267
78	0x3dbf1b92	0.093314305
79	0xbc3ff224	-0.011715446
80	0x3cb086f2	0.021548722
81	0xbdaccd70	-0.084376216
82	0xbe1cbb22	-0.1530576
83	0x3e1bb49c	0.15205616
84	0x3b430d3c	0.0029762527
85	0xbdbae77a	-0.09126182
86	0x3d3be1da	0.045869686
87	0x3e0415e3	0.12898974
88	0x3d6fc8ea	0.058541216
89	0x3d161195	0.03663786
90	0x3dcd1a73	0.100148104
91	0x3e05fe59	0.13085307
92	0x3e052b19	0.13004722
93	0x3cd1d4b3	0.025614118
94	0xbe06b854	-0.13156253
95	0xbd604b28	-0.054759175
96	0x3ddeb9ff	0.1087532
97	0x3d8bb18b	0.06820973
98	0xbd70cb53	-0.058787655
99	0x3c97455b	0.018465688
100	0xbdc24989	-0.09486682
101	0xbca6e69d	-0.020373637
102	0x3df8f33b	0.121557675
103	0x3cc01113	0.023445642
104	0xbd0130b8	-0.031540602
105	0xbc2ef028	-0.010677375
106	0xbdec95bb	-0.11551996
107	0x3daa18ca	0.083055094
108	0xbe03271f	-0.12807892
109	0xbda2c593	-0.079478405
110	0x3b00f487	0.0019677
111	0x3d5d104c	0.05397062
112	0x3d77c4b9	0.060490344
113	0xbc7593a4	-0.014988814
114	0x3de94701	0.11390496
115	0xbe146ff8	-0.14495838
116	0xbddfd684	-0.109295875
117	0xbd4c4718	-0.049872488
118	0x3dcf0dda	0.10110064
119	0x3d7b5822	0.061363347
120	0xbe04cf9d	-0.12969823
121	0xbe066d81	-0.1312771
122	0xbe0fe026	-0.1405035
123	0xbe002c55	-0.12516911
124	0x3dc57714	0.09641853
125	0x3bb45b91	0.0055040796
126	0xbca0c7bd	-0.019626493
127	0x3adbdcee	0.0016774216
128	0xbd9f9f4c	-0.07794055
129	0x3dbd9546	0.09256987
130	0xbd2b9704	-0.041892067
131	0x3de2797a	0.11058326
132	0xbde7b073	-0.11312952
133	0xbdc7ef11	-0.09762395
134	0x3dcab690	0.09898102
135	0x3baca795	0.005269001
136	0xbdf8745d	-0.121315695
137	0x3d027393	0.0318485
138	0xbcbc71da	-0.023003507
139	0xbd862bc6	-0.06551318
140	0x3e1047e3	0.14089923
141	0xbde9783c	-0.11399886
142	0x3d4cb4c2	0.04997707
143	0xbd790fd7	-0.06080612
144	0x3d7d6255	0.061861355
145	0xbdee862c	-0.11646685
146	0xbd5326fc	-0.05155085
147	0x3cf27a24	0.029599257
148	0xbd95a0c9	-0.07306058
149	0x3cd122dd	0.02552932
150	0x3dcc95e3	0.09989526
151	0xbd94d4d8	-0.07267159
152	0x3d53624f	0.051607426
153	0x3d6432f1	0.055712644
154	0x3ca72d72	0.020407412
155	0xbdb7fb23	-0.089834474
156	0xbd334dca	-0.043775357
157	0xbc9f2645	-0.019427428
158	0xba887a2c	-0.0010412387
159	0xbde16b1c	-0.110067576
160	0x3ddadb96	0.10686414
161	0x3d057cb0	0.032589614
162	0xbd22676e	-0.03964942
163	0x3d74c9f3	0.059762906
164	0xbc3dafa8	-0.011577524
165	0x3d944cfd	0.07241247
166	0x3e0727e0	0.13198805
167	0xbd13b4a8	-0.03606096
168	0xbd4bc623	-0.049749505
169	0x3db85419	0.09000415
170	0xbd247331	-0.040148918
171	0x3dd46811	0.103714116
172	0x3ac3a145	0.0014925381
173	0xbd8ce76c	-0.06880078
174	0x3e03c93e	0.12869737
175	0xbc398d85	-0.011325245
176	0x3dcb80fb	0.099367104
177	0x3d8b544f	0.0680319
178	0xbe0c83b7	-0.1372212
179	0x3cf7d2ac	0.030251823
180	0x3dcfcb88	0.101462424
181	0x3dd53e72	0.10412301
182	0x3e15c105	0.14624412
183	0xbdfe6639	-0.12421841
184	0x3d9e2803	0.077224754
185	0xbe0b094a	-0.13577762
186	0xbdfecde5	-0.12441615
187	0xbda62a01	-0.0811348
188	0xbd230bad	-0.039806057
189	0x3d2ee132	0.04269523
190	0xbd96839d	-0.07349322
191	0xbd4aa762	-0.049476035
192	0xbe0080ea	-0.12549177
193	0x3d372cf5	0.04472061
194	0x3c33ef9b	0.010982419
195	0x3c8e3d64	0.017363258
196	0x3d57283c	0.052528605
197	0xbc26cfd4	-0.010181386
198	0x3db8811e	0.09009002
199	0xbdb70630	-0.08936727
200	0x3d23a632	0.039953418
201	0x3e025a56	0.12729773
202	0x3d783f5a	0.06060729
203	0x3bcfb2ab	0.0063384376
204	0xbdd391cd	-0.10330544
205	0x3e0c22af	0.13685106
206	0xbdee0ab0	-0.11623132
207	0x3e1b6b5b	0.15177672
208	0x3d280e50	0.041029274
209	0x3e03ab81	0.12858392
210	0x3da263c7	0.07929187
211	0x3dbd35c2	0.09238769
212	0xbe06c8d9	-0.13162555
213	0xbda67a20	-0.08128762
214	0xbd799b91	-0.060939375
215	0x3d546ec5	0.05186345
216	0xbd50c45b	-0.05096851
217	0xbcb9cdbb	-0.022681108
218	0xbe19778c	-0.1498701
219	0x3d73e0cc	0.059540555
220	0xbd928cb9	-0.07155747
221	0x3d95fb8e	0.07323371
222	0xbd94f628	-0.07273513
223	0x3e161978	0.14658153
224	0xbb69fec6	-0.0035704835
225	0x3c3734fa	0.011182064
226	0x3cf226a3	0.029559439
227	0xbe09bfd4	-0.13452083
228	0xbb6548b9	-0.0034985973
229	0x3da0d53d	0.07853172
230	0xbc74089e	-0.014894633
231	0x3be4e37d	0.0069851265
232	0x3dc5c441	0.09656573
233	0x3e04f4a9	0.12983955
234	0xbe0d9bd5	-0.13828976
235	0x3dacab76	0.08431141
236	0x3cddcf19	0.02707629
237	0x3d307dd3	0.043088745
238	0xbd2d55b8	-0.042318076
239	0xbd9781f7	-0.07397836
240	0xbdc598ac	-0.096482605
241	0xbc92575c	-0.017863922
242	0x3cc2fa9b	0.023801139
243	0xbd7993b6	-0.060931884
244	0x3d89142f	0.06693303
245	0x3e05014e	0.12988779
246	0x3d22d40d	0.03975301
247	0x3dc6a035	0.09698526
248	0x3dbe16c6	0.092816874
249	0xbd35dd07	-0.04440024
250	0x3df3c88e	0.11903487
251	0xbdb655e3	-0.089031
252	0xbdef0ac4	-0.11671975
253	0xbb04270a	-0.002016487
254	0xbd62d069	-0.055374537
255	0x3d1d5165	0.038407702

module.gcn_layers.0.bnEdges.W4.weight f4 [50, 50]
0	0xbcd29363	-0.025705045
1	0x3dd44fa0	0.1036675
2	0x3dd46e67	0.1037262
3	0x3c218817	0.0098591065
4	0x3d8e5ab4	0.06950894
5	0x3d52ffc8	0.051513463
6	0x3d96ed3c	0.073694676
7	0x3d0e8544	0.03479506
8	0xbdd272bd	-0.10275791
9	0xbbb06e95	-0.005384276
10	0xbdd07137	-0.10177844
11	0x3db43cd3	0.08800664
12	0x3d17d480	0.03706789
13	0xbd92086a	-0.07130511
14	0x3ddf8d20	0.10915589
15	0xbda1b472	-0.07895745
16	0xbdcb165e	-0.099163756
17	0xbe02a36b	-0.12757652
18	0xbd449ef4	-0.048003152
19	0x3c86b945	0.016445765
20	0x3e184eea	0.14873853
21	0x3c50cbab	0.012743871
22	0xbd699783	-0.05702926
23	0x3da77f5c	0.08178589
24	0x3dfa76af	0.12229668
25	0x3dbb5f8c	0.091490835
26	0xbd5575b8	-0.05211422
27	0x3dcb82f4	0.09937087
28	0xbd028f93	-0.031875204
29	0xbc8f5c43	-0.017500049
30	0xbb079eed	-0.0020694092
31	0xbd64dbf8	-0.05587384
32	0xbdfd618e	-0.12372123
33	0xbddd6682	-0.108105674
34	0xbddf958a	-0.10917194
35	0x3dcedc0c	0.10100564
36	0x3d2a45c2	0.041570432
37	0x3d0aa9ae	0.033853225
38	0xbd90774d	-0.07054005
39	0xbdb2c7e3	-0.087295316
40	0xbdf513fe	-0.11966704
41	0x3d6afd62	0.05737055
42	0xbd1986e7	-0.03748217
43	0x3d7e119a	0.062028505
44	0x3d82a224	0.06378582
45	0xbddc518d	-0.10757742
46	0x3ca9100b	0.020637533
47	0x3e0d9d21	0.13829471
48	0xbafaaaec	-0.0019124425
49	0xbd8cc69c	-0.06873819
50	0x3d996e46	0.07491736
51	0x3e0da916	0.13834032
52	0xbdd35ba0	-0.103202105
53	0x3d889e55	0.066708244
54	0xbd0681c9	-0.032838617
55	0x3cd20a85	0.025639782
56	0x3dd30aaa	0.103047684
57	0x3dd6408c	0.1046153
58	0xbe076a62	-0.13224176
59	0xbbbc73b1	-0.005751096
60	0x3dc48314	0.09595314
61	0x3dfda9a0	0.12385869
62	0x3d9011b3	0.07034626
63	0x3d0c0959	0.034188602
64	0x3c97124d	0.018441344
65	0xbe039710	-0.12850595
66	0x3d716290	0.058931887
67	0xbda9c19f	-0.082888834
68	0x3ce0516a	0.027382571
69	0x3e06cae3	0.13163333
70	0x3d22f94d	0.039788533
71	0xbd34ca87	-0.044138458
72	0xbc0e832a	-0.008698264
73	0xbcff6a7b	-0.031178704
74	0x3dbc144c	0.09183559
75	0xbcfa551e	-0.030558165
76	0x3d2f36ed	0.04277699
77	0x3b9e7655	0.0048358836
78	0x3e014fef	0.12628148
79	0xbd46dca4	-0.048550263
80	0xbda9cb1b	-0.082906924
81	0xbd39b6e9	-0.045340452
82	0x3d3e4d21	0.046460275
83	0xbe0f5151	-0.13995863
84	0xbde34e54	-0.11098924
85	0x3cb3264b	0.021868845
86	0xbdab7fd6	-0.08373992
87	0xbd83ad95	-0.064295925
88	0x3d22d4f4	0.03975387
89	0x3db51633	0.08842125
90	0x3d96dae0	0.07365966
91	0xbde9955d	-0.11405442
92	0x3dcc21aa	0.099673584
93	0xbd9f3431	-0.077736266
94	0x3e06b2de	0.1315417
95	0x3de769ea	0.112994984
96	0xbc8c653a	-0.017138112
97	0x3d210dcd	0.039319802
98	0x3cd9555d	0.026529962
99	0xbd1d92da	-0.038470127
100	0xbb41a12f	-0.0029545536
101	0xbdb10e4a	-0.086453035
102	0x3d43bb25	0.047785897
103	0x3d85498b	0.06508168
104	0xbd8e9554	-0.06962076
105	0xbd4422a8	-0.047884613
106	0xbcccd0da	-0.025001932
107	0xbdaa9baa	-0.08330472
108	0xbdcfa456	-0.101387665
109	0x3d9c0c03	0.076194786
110	0xbd3b7692	-0.045767374
111	0xbd961934	-0.07329026
112	0x3dfe72dc	0.124242514
113	0xbd87486b	-0.066056095
114	0x3e098417	0.13429295
115	0xbde272df	-0.11057066
116	0x3d93ec68	0.07222825
117	0x3d9e27af	0.07722413
118	0x3e0cc174	0.13745672
119	0xbe067373	-0.13129978
120	0x3dba173d	0.090864636
121	0xbde96e5c	-0.113980025
122	0xbd301c9c	-0.042996034
123	0xbddbbb3f	-0.10729074
124	0x3c6ca290	0.014443055
125	0x3c5efd7a	0.013610238
126	0x3d20b083	0.039230835
127	0x3cc89ed6	0.024489801
128	0x3d2d9c72	0.042385526
129	0xbd1fce1e	-0.039014928
130	0x3dc1aa15	0.09456269
131	0xbb2a89ce	-0.002602208
132	0xbde87eaf	-0.11352288
133	0x3e09feab	0.13476054
134	0x3dbbeee2	0.09176423
135	0xbc85749b	-0.016290953
136	0x3d8d1f97	0.06890791
137	0xbd2a02d8	-0.04150662
138	0x3dde1082	0.10842992
139	0xbdfc7631	-0.12327231
140	0xbdfed13e	-0.124422535
141	0xbd8fcdaa	-0.07021649
142	0xbdd833e1	-0.1055677
143	0x3db96361	0.09052158
144	0x385af318	5.220165e-05
145	0xbd721af1	-0.059107725
146	0xbd8d1aeb	-0.068899
147	0xbde954c3	-0.1139312
148	0x3bf8114d	0.007570422
149	0xbe0642be	-0.13111398
150	0xbdf01d03	-0.117242835
151	0x3d1f2435	0.03885289
152	0xb80862fc	-3.2517113e-05
153	0x3db3d7c3	0.08781388
154	0x3c1a22bf	0.009407698
155	0xbdea6ce7	-0.11446553
156	0x3da9f08b	0.08297833
157	0x3dd780c0	0.10522604
158	0x3d04a8fa	0.03238771
159	0x3c8a6a66	0.016896438
160	0x3d1e1725	0.03859629
161	0x3cc898ce	0.024486925
162	0xbda0a0ad	-0.078431465
163	0xbd8a477f	-0.06751918
164	0x3cfd5283	0.030923134
165	0x3e10c65f	0.14138173
166	0x3bc88fc6	0.0061206548
167	0x3abd3edb	0.0014438288
168	0xbdb6d511	-0.08927358
169	0xbd6569df	-0.05600917
170	0x3d2acb1a	0.0416976
171	0x3c27f8c2	0.01025218
172	0x3e052d08	0.1300546
173	0x3d852b8b	0.06502446
174	0xbc47ea31	-0.012201832
175	0xbd62588e	-0.055260234
176	0xbdc5d802	-0.09660341
177	0x3c4b5b1b	0.012411858
178	0xbc1742a1	-0.009232194
179	0x3d8fe52f	0.07026135
180	0x3d61a7f8	0.055091828
181	0x3c18dbb7	0.009329728
182	0x3dc5f8c7	0.09666591
183	0x3cc44e61	0.023963155
184	0x3d7c9c52	0.061672516
185	0xbdde008b	-0.10839947
186	0xbd66add1	-0.056318108
187	0x3dba7757	0.091047935
188	0x3db08854	0.086197525
189	0x3da30785	0.079604186
190	0x3d4c6ee4	0.04991044
191	0xbb31ee23	-0.0027149997
192	0xbe17675f	-0.14785527
193	0xbda3cf64	-0.07998541
194	0x3dd6fc1c	0.10497305
195	0xbd4b76d9	-0.04967389
196	0x3de8b1c0	0.11362028
197	0xbdea7305	-0.114477195
198	0xbd654c99	-0.055981252
199	0x3c2fd46d	0.010731799
200	0xbd9f80dd	-0.077882506
201	0x3dd7c45b	0.10535499
202	0x3dd01c93	0.101617
203	0xbd4302cf	-0.0476101
204	0x3e0ddb29	0.13853134
205	0x3daeb856	0.08531253
206	0x3de05f10	0.10955632
207	0xbdd8a436	-0.10578196
208	0xbdf0d7ab	-0.117598854
209	0x3c95909f	0.018257437
210	0x3c8473b2	0.01616845
211	0x3d713d48	0.058896333
212	0xbdf65efa	-0.12029834
213	0x3df4a37a	0.11945243
214	0x3b720f33	0.003693533
215	0x3dbf391a	0.09337063
216	0x3d8e3403	0.06943514
217	0x3d98a719	0.07453746
218	0xbd5c7512	-0.053822584
219	0xbc546b09	-0.012964972
220	0xbdf1bcde	-0.11803602
221	0x3b8650e7	0.004099
222	0xbd5f424d	-0.05450659
223	0xbdd3c8e7	-0.103410535
224	0x3d3eb0d5	0.04655536
225	0xbdccd0b3	-0.10000744
226	0x3dafef43	0.085905574
227	0xbdc401bf	-0.095706455
228	0x3c0aaff8	0.008464806
229	0x3d3132fc	0.043261513
230	0x3e09da5c	0.13462204
231	0xbd70310f	-0.058640536
232	0xbded1e0b	-0.11577996
233	0xbdb7e31e	-0.08978866
234	0xbd8f9b70	-0.07012069
235	0xbd81c700	-0.06336784
236	0xbdd3bc73	-0.10338678
237	0x3e15e332	0.1463745
238	0x3b4d71ce	0.003134835
239	0xbdf343d8	-0.118781745
240	0x3d025e2c	0.03182809
241	0x3c4490ce	0.011997415
242	0x3c818a4b	0.015813014
243	0x3ce5f3cc	0.028070353
244	0x3d0933cb	0.03349666
245	0x3daf1b3e	0.08550118
246	0x3d83ca39	0.06435055
247	0x3cc91634	0.02454672
248	0x3dd50a39	0.104023404
249	0x3acd4858	0.0015661819
250	0xbd6fdef7	-0.058562245
251	0xbd1750ce	-0.036942296
252	0x3b37c609	0.0028041622
253	0xbd6dc471	-0.05804867
254	0x3e0a20f0	0.13489127
255	0x3d146492	0.036228724

module.gcn_layers.0.bnEdges.W5.weight f4 [50, 50]
0	0x3dc3c1d0	0.09558451
1	0xbda36ed0	-0.0798012
2	0xbca4eb74	-0.020131804
3	0x3c7d02be	0.015442548
4	0x3e0a38ae	0.13498184
5	0xbd6d9fc0	-0.058013678
6	0xbd8b6cd7	-0.06807869
7	0x3d2a763b	0.04161666
8	0x3caefb53	0.021360075
9	0x3d306200	0.04306221
10	0x3dfbfcf8	0.12304109
11	0xbdf5069c	-0.11964151
12	0x3b8dbbdf	0.0043253745
13	0xbd0f1351	-0.03493053
14	0xbdf755d3	-0.120769165
15	0xbc984b59	-0.018590616
16	0x3d35a02c	0.044342205
17	0x3d8be81b	0.0683138
18	0x3c622411	0.013802544
19	0xbdc99ae5	-0.09843997
20	0xbd1ad44f	-0.03780013
21	0x3da327d7	0.07966583
22	0x3d46b5df	0.04851329
23	0xbdf095e6	-0.11747341
24	0x3d2ae3f3	0.041721296
25	0xbd06a651	-0.032873455
26	0x3cb9b600	0.022669792
27	0x3dd75838	0.10514873
28	0xbda7caeb	-0.081930004
29	0xbc5bdc28	-0.013419189
30	0x3deecd4e	0.116602525
31	0xbca9b227	-0.020714832
32	0x3e1f3ddc	0.15550941
33	0xbcb582c1	-0.022157075
34	0x3c96d366	0.01841135
35	0xbcdf924a	-0.027291436
36	0x3cff2186	0.031143915
37	0xbd1b5a7b	-0.037928086
38	0x3e08e045	0.13366802
39	0x3defdd16	0.11712091
40	0x3ba9b4ea	0.0051790373
41	0xbdaf0b38	-0.08547062
42	0x3cee34cf	0.029077915
43	0xbc83db7a	-0.016095866
44	0xbdf453de	-0.11930059
45	0x3b25300f	0.0025205647
46	0xbdd00800	-0.10157776
47	0xbd31096c	-0.043221876
48	0xbdf19fc9	-0.11798055
49	0x3deae6c4	0.11469796
50	0x3d97fba8	0.074210465
51	0xbd86a09f	-0.06573605
52	0x3d99ec81	0.07515813
53	0xbdbbd9ec	-0.09172425
54	0x3cf7b11f	0.030235825
55	0xbe061895	-0.13095315
56	0x3d76fa7c	0.060297474
57	0xbd9ff92a	-0.07811196
58	0xbd5eb1bf	-0.05436873
59	0x3d402312	0.046908446
60	0xbdfb093d	-0.122576214
61	0x3d87d0d2	0.06631626
62	0xbbc18dfe	-0.0059068194
63	0xbde13e33	-0.10998192
64	0xbd112be6	-0.035442255
65	0xbdd2e1ef	-0.10297
66	0x3d40bcd2	0.047055073
67	0x3d0f078c	0.034919307
68	0xbdd0715b	-0.10177871
69	0x3db55726	0.08854513
70	0xbd350be6	-0.0442008
71	0x3de0dbe6	0.10979442
72	0xbafc609f	-0.001925487
73	0x3c7c5794	0.01540174
74	0xbd32ede2	-0.043683894
75	0xbb9a2e09	-0.004705195
76	0xba981ff9	-0.0011606208
77	0xbcdeecf1	-0.027212592
78	0xbdb35dcc	-0.08758125
79	0x3c7a3e4c	0.015273642
80	0xbde928f7	-0.113847665
81	0xbd897ef5	-0.06713668
82	0xbd20cf61	-0.039260272
83	0xbc3a3803	-0.011365893
84	0xbdc8cf92	-0.09805216
85	0xbd798f68	-0.06092778
86	0xbbc72a91	-0.0060780724
87	0x3c74d1d8	0.014942609
88	0x3caaaef7	0.020835383
89	0xbdb7df19	-0.089780994
90	0x3dbbbf5a	0.09167357
91	0xbd4a1ec7	-0.049345758
92	0xbe00f0ff	-0.12591933
93	0x3d9d8000	0.0769043
94	0xb88072f8	-6.12493e-05
95	0xbcaf508f	-0.021400718
96	0xbe150c70	-0.14555526
97	0xbd92db09	-0.07170684
98	0x3d8d6282	0.069035545
99	0xbd4ecc55	-0.050487835
100	0xbdcf9399	-0.10135574
101	0x3da353db	0.079749785
102	0xbde8c65a	-0.113659576
103	0x3da4b702	0.080427185
104	0xbd4f06f3	-0.050543737
105	0x3d7e3b87	0.06206849
106	0x3cb76069	0.02238484
107	0x3e0e6b61	0.1390815
108	0x3d649066	0.05580177
109	0xbc3d46fc	-0.0115525685
110	0x3e0645cb	0.13112561
111	0xbde7cc67	-0.113182835
112	0x3c951a87	0.018201126
113	0x3d3eb82f	0.04656237
114	0xbdddb39f	-0.10825276
115	0xbd959a0d	-0.073047735
116	0xbd8325ce	-0.06403695
117	0xbd94c0b0	-0.07263315
118	0xbc8ef4bb	-0.017450681
119	0xbdb0394d	-0.08604679
120	0x3e070a2f	0.13187478
121	0xba8bf33e	-0.001067735
122	0x3e0de9bc	0.13858694
123	0x3d11bd33	0.035580825
124	0xbcc59985	-0.024121055
125	0x3c34c1ea	0.011032561
126	0xbda84c15	-0.082176365
127	0xbdbe7c75	-0.09301082
128	0x3d5ffc11	0.05468375
129	0xbca73132	-0.0204092
130	0x3c486f12	0.0122335125
131	0xbc94b918	-0.018154666
132	0x3ddefa34	0.10887566
133	0xbe0f762d	-0.14009924
134	0xbdbb2cb5	-0.091393866
135	0xbd9ba8f3	-0.07600584
136	0xbd32f9dc	-0.043695316
137	0x3de5d288	0.11221796
138	0x3dbf0c1f	0.09328484
139	0xbdd5e351	-0.10443748
140	0xbd1c9ce5	-0.038235564
141	0x3deecee5	0.11660556
142	0xbdddcb8b	-0.10829838
143	0x3c84bfcf	0.016204743
144	0x3d642a86	0.055704616
145	0x3d8c77c6	0.068587825
146	0x3dceb6de	0.10093473
147	0x3db7efb2	0.08981265
148	0x3d16904a	0.0367587
149	0xbe06c763	-0.13161997
150	0xbd916c4c	-0.07100734
151	0xbd08d548	-0.033406526
152	0xbdc063e9	-0.09394056
153	0xbda6785c	-0.081284255
154	0x3cc5ea84	0.024159677
155	0xbd383f0e	-0.04498201
156	0x3d087b32	0.033320613
157	0x3d416089	0.047211204
158	0x3d9d9e6b	0.076962315
159	0xbddf2550	-0.10895789
160	0x3def9219	0.11697788
161	0x3d85eac0	0.06538916
162	0x3cb19b7b	0.021680584
163	0xbcf4cc0e	-0.029882457
164	0xbd1f386c	-0.038872167
165	0x3c210823	0.0098286
166	0xbca4ad6e	-0.020102229
167	0xbdfb8769	-0.12281687
168	0x3c7a0f9e	0.0152625125
169	0xbdc670be	-0.096894726
170	0xbdec2c63	-0.115319036
171	0x3dbb030b	0.0913144
172	0xbca6808d	-0.02032497
173	0xbcdffda2	-0.027342621
174	0xbcead64e	-0.028666642
175	0xbd583f50	-0.052794755
176	0x3d8638ae	0.065537795
177	0xbc59647e	-0.013268588
178	0xbd5d3808	-0.054008514
179	0x3e0c7acc	0.13718718
180	0x3dcb8f6e	0.099394664
181	0x3ddbb6fa	0.107282594
182	0xbe1abc48	-0.15110886
183	0x3d13339d	0.035937894
184	0x3caa3635	0.020777801
185	0x3e07be15	0.13256104
186	0x3d53e710	0.05173403
187	0x3cc4cd37	0.024023635
188	0x3db26c99	0.087121196
189	0x3d94989f	0.07255673
190	0xbdf26af8	-0.11836809
191	0xbe042d7f	-0.1290798
192	0xbd8173e3	-0.06320932
193	0xbcea6835	-0.028614143
194	0x3d2bde61	0.041960124
195	0x3dd0dafb	0.10198017
196	0xbdf530c4	-0.11972192
197	0xbcf0847e	-0.029360052
198	0xbdcf1bb4	-0.10112706
199	0x3df452ff	0.11929893
200	0x3d9384ef	0.072030894
201	0x3dba9d22	0.09112002
202	0xbc98c582	-0.018648867
203	0xbd9b89a9	-0.07594616
204	0xbdb19508	-0.086710036
205	0x3c4a93e8	0.012364365
206	0x3c8154f2	0.015787575
207	0x3c7fc6f1	0.015611396
208	0x3ddd6466	0.10810165
209	0xbdb2ea44	-0.08736089
210	0x3dc23eb6	0.094846174
211	0x3d531b7f	0.051539894
212	0xbdf5b2e7	-0.119970135
213	0xbd7fc023	-0.062439095
214	0xbd893a2c	-0.067005485
215	0x3c70755a	0.014676416
216	0x3db73e44	0.08947423
217	0x3da13642	0.07871677
218	0xbc510e90	-0.01275982
219	0x3e137e93	0.14403753
220	0x3d54f320	0.051989675
221	0x3d33dd19	0.043912027
222	0xbe0625a5	-0.13100298
223	0xbdef6d8b	-0.116908155
224	0x3dc2513f	0.09488153
225	0x3d73adb2	0.05949182
226	0xbd6ccac3	-0.057810556
227	0xbdca1605	-0.09867481
228	0xbc0440ad	-0.0080720605
229	0xbe150f05	-0.14556511
230	0x3de073a7	0.10959559
231	0x3d700c89	0.058605704
232	0x3d040ed7	0.032240715
233	0xbde031e8	-0.10947019
234	0xbd09e912	-0.03366954
235	0xbdaa1d65	-0.08306388
236	0x3d9a7b96	0.075431034
237	0x3e195623	0.14974265
238	0xbc0b3f8e	-0.008499039
239	0xbd4de450	-0.050266564
240	0x3deb7104	0.114961654
241	0xbd3fc0cb	-0.04681472
242	0xbd7f734a	-0.062365808
243	0xbdce308b	-0.100678526
244	0x3d11b2c5	0.03557088
245	0x3dd59c88	0.104302466
246	0x3ddb24c6	0.10700373
247	0x3d2ac03d	0.04168724
248	0x3dc938bc	0.09825274
249	0xbdc586d1	-0.09644855
250	0x3e023aa9	0.1271769
251	0xbd265e59	-0.04061732
252	0xbe085b67	-0.13316117
253	0x3d900dea	0.07033904
254	0x3cd4b4a5	0.025965044
255	0xbcacea7f	-0.02110791

module.gcn_layers.0.bnEdges.batch_norm.weight f4 [50]
0	0x3f814760	1.0099907
1	0x3f82a0e5	1.0205351
2	0x3f81c38a	1.0137799
3	0x3f7c56a5	0.9856971
4	0x3f7ea27e	0.99466693
5	0x3f8201b5	1.0156771
6	0x3f80bf95	1.0058466
7	0x3f8124e7	1.0089387
8	0x3f80939e	1.0045049
9	0x3f81f9ec	1.0154395
10	0x3f80eb27	1.0071763
11	0x3f811894	1.0085626
12	0x3f80c029	1.0058643
13	0x3f7f60ff	0.9975738
14	0x3f7f97f8	0.9984126
15	0x3f81aae5	1.0130278
16	0x3f7c9a6f	0.98673147
17	0x3f7e6026	0.9936546
18	0x3f7bc3e4	0.9834578
19	0x3f813cfe	1.0096738
20	0x3f80b80a	1.0056164
21	0x3f7e30a2	0.9929296
22	0x3f8171c5	1.0112845
23	0x3f8211e7	1.0161713
24	0x3f819b8b	1.0125593
25	0x3f7d0a3f	0.9884376
26	0x3f8059c7	1.0027398
27	0x3f7faf34	0.99876714
28	0x3f819c06	1.012574
29	0x3f7e97d2	0.9945041
30	0x3f80ba21	1.0056802
31	0x3f809492	1.004534
32	0x3f7f37ee	0.99694717
33	0x3f816e41	1.0111772
34	0x3f81c303	1.0137638
35	0x3f821b18	1.0164518
36	0x3f7fd727	0.9993767
37	0x3f821eab	1.0165609
38	0x3f811ce4	1.0086942
39	0x3f810b80	1.0081635
40	0x3f7c9165	0.98659354
41	0x3f820dad	1.0160424
42	0x3f7ea9e9	0.9947801
43	0x3f820c29	1.0159961
44	0x3f81a196	1.0127437
45	0x3f814687	1.0099648
46	0x3f80cc99	1.0062438
47	0x3f7efb00	0.99601746
48	0x3f8036d9	1.0016738
49	0x3f81806d	1.0117317

module.gcn_layers.0.bnEdges.batch_norm.bias f4 [50]
0	0x3c16232e	0.009163661
1	0x3c99f114	0.018791713
2	0x3baf1362	0.005342887
3	0xbc64708a	-0.013942847
4	0xbbdba34f	-0.0067028175
5	0x3c6bc136	0.014389327
6	0xbb39039a	-0.0028230906
7	0xbb141c71	-0.002259996
8	0xbba8fd67	-0.005157161
9	0x3c4204f9	0.011842006
10	0x3c42b80c	0.0118847005
11	0x3c1fff88	0.009765513
12	0x3aa3724e	0.0012469979
13	0x3bf75c04	0.007548811
14	0xb9a14433	-0.00030759125
15	0x3c6256a2	0.0138146
16	0xbc4fd6ea	-0.012685517
17	0xbb5c16c2	-0.00335829
18	0xbc69f011	-0.014278428
19	0x3c2d5668	0.010579683
20	0xbbd9b586	-0.0066439537
21	0xbbc60fb2	-0.0060443515
22	0x3c03625a	0.008019054
23	0x3c8118bf	0.01575887
24	0x3ac1c49e	0.0014783328
25	0x3b52d343	0.0032169379
26	0x3bde6674	0.0067871157
27	0xbc30e3f6	-0.010796538
28	0x3c6e88f2	0.0145590175
29	0xbc2d70dd	-0.010585991
30	0x3b11830e	0.0022203359
31	0x3c21bfba	0.009872371
32	0x3be9a6c0	0.007130474
33	0x3c318c8f	0.010836734
34	0x3c2aa504	0.010415319
35	0x3bb8fc44	0.005645307
36	0xbc29530a	-0.010334739
37	0x3c86cd40	0.016455293
38	0xba97dce9	-0.0011586222
39	0x3c6f6bf2	0.0146131385
40	0xbc34d17a	-0.011036271
41	0x3c7cde55	0.015433867
42	0xbc7d6b83	-0.015467527
43	0x3c7fae5f	0.015605538
44	0x3b177208	0.002310874
45	0x3c50d884	0.012746934
46	0x3be85355	0.007090012
47	0x3b6a8b31	0.003578853
48	0x3c19593c	0.009359654
49	0x3c167a34	0.009184409
