logs/deafult/last_train_checkpoint.tar (torch, 489841 bytes, 103 tensors)

module.NodesEncoding.A1.weight f4 [50, 2]
0	0xbf1c5d8d	-0.6108025
1	0xbe9d7eaa	-0.307607
2	0x3f31c0db	0.694349
3	0xbe07dd3c	-0.13267988
4	0xbf215d4b	-0.6303298
5	0xbdcb977e	-0.09941004
6	0xbe4594fb	-0.19295113
7	0xbf2b5827	-0.66931385
8	0x3e724647	0.23659621
9	0xbecb70d6	-0.39734524
10	0xbf287e4d	-0.6581772
11	0xbe919576	-0.28434342
12	0x3eb5fe9f	0.35545823
13	0xbf1c8aa9	-0.6114908
14	0x3e3c9679	0.18416776
15	0xbd445c96	-0.04793986
16	0x3cb63831	0.022243591
17	0xbed8955e	-0.42301458
18	0x3d9078ff	0.07054328
19	0x3f21b50f	0.631669
20	0xbd738d67	-0.059461024
21	0xbe8aea2e	-0.2713179
22	0xbc07af1e	-0.008281497
23	0x3bdeae26	0.0067956625
24	0x3f243acc	0.64152217
25	0x3eef150d	0.46695748
26	0xbe895108	-0.26819634
27	0x3eb80d93	0.35947856
28	0x3f213e79	0.6298595
29	0x3e0902a1	0.13379909
30	0xbee0e3f4	-0.43923914
31	0x3f024d59	0.50899273
32	0x3ee96008	0.4558108
33	0x3efafeca	0.49022514
34	0xbec23a3b	-0.3793505
35	0x3ea92447	0.3303549
36	0x3e84beec	0.25926912
37	0xbc2602da	-0.010132516
38	0x3d02169b	0.03175984
39	0x3d31c06c	0.0433964
40	0xbe25c236	-0.16187367
41	0x3e15154f	0.1455891
42	0xbf16c8e3	-0.5890028
43	0xbe0c2b3a	-0.13688365
44	0x3f19d1df	0.6008586
45	0xbedf0b39	-0.4356325
46	0x3e8bc70b	0.27300295
47	0x3f2068e5	0.62660056
48	0x3ebbf5af	0.3671088
49	0xbe724dea	-0.23662534
50	0xbe859678	-0.2609136
51	0xbe9b24fd	-0.30301657
52	0x3ec49f89	0.38402966
53	0x3db56984	0.08858016
54	0xbe85b417	-0.2611396
55	0xbebf1df8	-0.37327552
56	0xbec9a648	-0.39384675
57	0x3d8e1ff5	0.06939689
58	0xbe6320e1	-0.22180511
59	0xbf2c85ed	-0.67391855
60	0xbe99041a	-0.29885942
61	0x3efb1aa8	0.49043775
62	0x3e8275df	0.25480554
63	0x3e8497aa	0.2589696
64	0x3f279662	0.6546384
65	0x3b7da356	0.0038702092
66	0xbf19dc67	-0.6010193
67	0xbf2ec9b2	-0.6827651
68	0x3e67479a	0.22585908
69	0x3eb7c60a	0.3589328
70	0xbdcaeff8	-0.09909052
71	0x3f19faf5	0.60148555
72	0x3ecb5ae9	0.39717796
73	0xbef86f28	-0.48522305
74	0xbe49576b	-0.19662254
75	0x3ebff9b3	0.37495193
76	0xbe9ea6cc	-0.3098663
77	0xbea5f8b8	-0.3241632
78	0xbe186095	-0.14880593
79	0xbe825e73	-0.25462684
80	0x3dc26cbb	0.09493395
81	0xbe88af20	-0.2669611
82	0xbe8bef7c	-0.2733115
83	0xbf04c633	-0.5186493
84	0xbec08a55	-0.3760554
85	0x3ee637fa	0.44964582
86	0xbf2a50ae	-0.6652936
87	0x3f304af2	0.6886436
88	0x3f02e58f	0.5113153
89	0x3d060c10	0.032726347
90	0x3f030494	0.5117886
91	0x3f32e98e	0.69887626
92	0xbeaf1f28	-0.34203458
93	0x3d981867	0.074265294
94	0xbe4e85a6	-0.2016817
95	0xbe0d0558	-0.1377157
96	0x3cbaf38e	0.022821214
97	0x3f2825c8	0.6568265
98	0x3f1c4b8a	0.61052763
99	0x3ee6d469	0.4508393

module.NodesEncoding.A1.bias f4 [50]
0	0xbe076dcd	-0.1322548
1	0xbc89e6b3	-0.016833639
2	0xbe75a1b3	-0.23987465
3	0x3eed9020	0.4639902
4	0xbed8b64b	-0.42326578
5	0xb92b3bd0	-0.00016330113
6	0xbeafce3d	-0.34337035
7	0x3ec5b490	0.3861432
8	0x3d98f953	0.0746943
9	0xbee4c6d6	-0.4468295
10	0xbf2ed635	-0.68295604
11	0xbebc736e	-0.36806816
12	0x3f32b5e0	0.6980877
13	0x3e5deec4	0.21673113
14	0x3ebdd38f	0.3707547
15	0x3ed0d5bd	0.4078807
16	0x3f29f80e	0.66394126
17	0xbf2cc6c2	-0.6749078
18	0xbf108197	-0.5644774
19	0xbcbcf5e1	-0.023066463
20	0xbe6fd96c	-0.23422784
21	0xbeab7b0f	-0.33492324
22	0xbeac3d1f	-0.33640382
23	0xbdd74fcf	-0.10513269
24	0x3ef46ca5	0.4773914
25	0x3d8279e1	0.06370903
26	0x3ecc45aa	0.398969
27	0x3ea14475	0.3149754
28	0xbef2cc37	-0.4742143
29	0xbe14e9af	-0.14542268
30	0x3ee26818	0.44220042
31	0xbe993030	-0.29919577
32	0xbdfb0a8d	-0.12257872
33	0xbe81534f	-0.25258872
34	0x3e0d24f8	0.13783634
35	0x3e23bc6c	0.15989846
36	0xbe4bb0e9	-0.19891705
37	0x3e65aa3c	0.2242822
38	0x3d939080	0.072052956
39	0x3f27424f	0.65335554
40	0xbeab90df	-0.33508965
41	0x3eba2346	0.36355036
42	0x3e264afd	0.16239543
43	0xbe070511	-0.13185526
44	0x3ec38140	0.38184547
45	0x3e699868	0.22812045
46	0xbcab8e1f	-0.020941792
47	0x3dd88519	0.10572261
48	0x3e557006	0.20843515
49	0x3f30ef71	0.6911536

module.EdgesEncoding.A2.weight f4 [25, 1]
0	0x3f54b2be	0.8308524
1	0xbf18e331	-0.59721667
2	0x3f099d3f	0.53755563
3	0xbf27ac92	-0.65497696
4	0x3f5b9855	0.85779315
5	0xbf843431	-1.0328428
6	0x3f2a4341	0.6650887
7	0xbea984b7	-0.33109066
8	0x3f7ee5d6	0.9956945
9	0x3e4108a5	0.18850954
10	0x3ecec8a2	0.40387446
11	0x3f30ce29	0.69064575
12	0xbf43227d	-0.762245
13	0x3f57e6d4	0.8433659
14	0xbf16063e	-0.58603275
15	0xbf92224a	-1.1416714
16	0xbe437a75	-0.19089682
17	0xbf0b72c3	-0.5447199
18	0xbf730594	-0.94930387
19	0xbf64bd55	-0.893514
20	0x3e9ecff8	0.31018043
21	0x3f55b2f4	0.83476186
22	0xbf2a8f08	-0.666245
23	0x3d7624f1	0.060093824
24	0xbdd8470a	-0.105604246

module.EdgesEncoding.A2.bias f4 [25]
0	0x3f72e17d	0.9487532
1	0x3dbd4276	0.09241192
2	0x3eee192f	0.4650359
3	0xbf247258	-0.64236975
4	0x3ecf77e7	0.40521166
5	0xbf030f2d	-0.5119503
6	0x3de3e548	0.11127716
7	0xbe19dd37	-0.15025793
8	0xbe80c664	-0.2515136
9	0xbefe7299	-0.49696806
10	0x3f02b7ee	0.51061904
11	0xbeea00a9	-0.4570363
12	0x3ef27ac3	0.47359285
13	0x3f5505cb	0.83211964
14	0x3f0d025b	0.5508172
15	0x3e620f9c	0.22076267
16	0x3f3411fb	0.70339936
17	0xbf2ab463	-0.666815
18	0x3f67e9e0	0.9059124
19	0xbf3d84d0	-0.7403078
20	0xbeb38dc4	-0.35069096
21	0x3f81f87e	1.0153959
22	0xbf660430	-0.8985014
23	0xbe5cae64	-0.215509
24	0xbecf4283	-0.40480432

module.EdgesEncoding.A3.weight f4 [25, 1]
0	0x3e8de7ea	0.27716
1	0xbf07e4ae	-0.5308331
2	0xbf394822	-0.7237569
3	0xbe3363e3	-0.17518573
4	0x3e3545a5	0.17702349
5	0xbe880c65	-0.26571956
6	0xbf4e4119	-0.8056808
7	0x3e047a00	0.12937164
8	0xbf3fdd64	-0.7494719
9	0xbf830ce6	-1.0238311
10	0x3f84c3e9	1.0372287
11	0x3e3ec276	0.18628868
12	0xbe13b63f	-0.1442499
13	0x3f6bc990	0.92104435
14	0x3e97d365	0.2965347
15	0xbeadb9a0	-0.33930683
16	0x3efbd813	0.4918829
17	0xbf2ed8d0	-0.6829958
18	0xbf7b39e6	-0.9813522
19	0xbe82deca	-0.255606
20	0x3f381b86	0.71917
21	0x3e81a366	0.25319976
22	0xbda38f9b	-0.07986375
23	0xbf19a77c	-0.60021186
24	0xbeb43194	-0.35194075

module.EdgesEncoding.A3.bias f4 [25]
0	0xbf07c810	-0.53039646
1	0x3c59c60a	0.013291845
2	0x3e56be46	0.20971021
3	0xbf0a44db	-0.54011315
4	0x3f615619	0.88022
5	0x3f4093ab	0.75225323
6	0xbd11b496	-0.03557261
7	0xbf69e83e	-0.9137
8	0xbde118f3	-0.10991087
9	0x3f725d30	0.9467344
10	0xbee6a281	-0.45045856
11	0xbf795bcf	-0.97405714
12	0x3f724f27	0.94652027
13	0xbed7a1e9	-0.42115715
14	0xbef5a084	-0.47974026
15	0x3e5ce149	0.21570314
16	0xbd29597a	-0.041345097
17	0xbe3e1c46	-0.18565473
18	0x3eca8eec	0.39562166
19	0x3ead7182	0.33875662
20	0xbeead1ec	-0.45863283
21	0xbf621e57	-0.88327545
22	0x3e82d34e	0.25551838
23	0xbefaacff	-0.4896011
24	0x3c99e206	0.018784534

module.gcn_layers.0.bnNodes.W1.weight f4 [50, 50]
0	0xbb81de36	-0.003963257
1	0xbcb4c0d9	-0.022064613
2	0xbe22369d	-0.15841146
3	0x3dc101be	0.094241604
4	0x3c9a31ae	0.018822517
5	0xbdb49c5f	-0.08818888
6	0x3bdcdc61	0.0067401384
7	0x3b18a3d8	0.0023291018
8	0x3cf78fee	0.030219998
9	0x3d572bf9	0.05253217
10	0x3db47820	0.088119745
11	0xbdd34e46	-0.10317664
12	0xbd85533e	-0.06510018
13	0xbdadd18a	-0.08487232
14	0x3e2f3887	0.17111407
15	0xbd8e0dc5	-0.0693622
16	0x3e304fe9	0.17217983
17	0xbd0227bf	-0.031776186
18	0xbd1b8923	-0.03797258
19	0x3e08b657	0.13350807
20	0xbca81c03	-0.02052117
21	0x3d84e441	0.064888485
22	0x3d7f5108	0.062333137
23	0xbcf0e177	-0.029404385
24	0x3d8eef7e	0.06979273
25	0xbda79706	-0.08183102
26	0x3e16c0cd	0.14721985
27	0x3de3dafc	0.11125752
28	0xbdcdb9d3	-0.10045209
29	0x3bcf1b7e	0.006320416
30	0x3dd0c065	0.10192946
31	0x3ddec962	0.108782545
32	0xbdbd86c5	-0.09254221
33	0xbe2a1433	-0.16609268
34	0x3de9d85a	0.11418219
35	0xbd825dc4	-0.063655406
36	0x3d239956	0.039941154
37	0x3db31c26	0.08745603
38	0xbd8d9343	-0.069128536
39	0x3deb3715	0.114851154
40	0x3ddf38cd	0.10899506
41	0xbd4b0098	-0.049561113
42	0xbd7d007f	-0.06176805
43	0x3d1a91b7	0.03773662
44	0xbc9ad1d4	-0.018898882
45	0x3da5e52f	0.08100354
46	0x3d897906	0.067125365
47	0x3d0222f0	0.0317716
48	0x3d8de0d2	0.06927647
49	0x3e07a6c1	0.13247205
50	0xbd8f4eba	-0.06997438
51	0xbe4a4e4e	-0.19756433
52	0x3d8f0078	0.06982511
53	0x3e121dec	0.14269227
54	0xbd5efbd0	-0.054439366
55	0x3e193775	0.14962561
56	0xba8ffd38	-0.0010985499
57	0xbe4cf7f5	-0.20016463
58	0xbd2acfcd	-0.04170208
59	0xbabbc224	-0.0014324826
60	0xbd5011ed	-0.050798345
61	0x3e225159	0.15851344
62	0xbe0d0b52	-0.1377385
63	0x3dc02819	0.09382648
64	0xbd547750	-0.051871598
65	0xbb3937f2	-0.0028262106
66	0xbda0ccad	-0.07851539
67	0x3de4d30d	0.11173067
68	0xbd0c058d	-0.03418498
69	0xbce784eb	-0.028261622
70	0x3dd45cc6	0.10369258
71	0x3dfd4431	0.12366522
72	0xbd1726ad	-0.03690212
73	0xbd84544e	-0.06461392
74	0xbdbc1cc2	-0.091851726
75	0xbcfb3a58	-0.030667469
76	0xbd586b30	-0.052836597
77	0xbc35dcb0	-0.011099979
78	0x3d15d5c2	0.03658081
79	0x3e0b9cd1	0.1363404
80	0x3df3fa87	0.11913019
81	0x3db3d445	0.087807216
82	0xbc57c606	-0.013169771
83	0xbdad8426	-0.08472471
84	0x3d3df5e2	0.04637707
85	0x3dc02e13	0.09383788
86	0x3c8f775b	0.017512968
87	0x3e0ec5f4	0.139427
88	0x3d4b1323	0.049578797
89	0xbd142e65	-0.036177058
90	0xbd8ea676	-0.06965344
91	0xbde68f53	-0.11257806
92	0x3e163941	0.14670278
93	0x3b96daa1	0.0046036993
94	0x3dbaec1c	0.091270655
95	0xbd9d3521	-0.07676149
96	0xbc0db267	-0.008648491
97	0x3d191f07	0.037383106
98	0xbe02e34f	-0.12782024
99	0xbc56ce67	-0.013110734
100	0xbd9271f5	-0.07150642
101	0xbe162ed0	-0.14666295
102	0x3d5a1850	0.053245842
103	0xbe226a91	-0.15860964
104	0xbd959632	-0.07304038
105	0xbdbc70b1	-0.09201182
106	0x3d668363	0.056277644
107	0xbd64f873	-0.055901002
108	0xbe22598a	-0.15854469
109	0xbaaf19b5	-0.0013359102
110	0x3dba5a78	0.09099287
111	0x3dcee800	0.10102844
112	0x3d9e06cb	0.077161394
113	0x3d5c65bb	0.053807955
114	0xbd8063e9	-0.06269056
115	0x3d322e20	0.04350102
116	0x3de96000	0.11395264
117	0xbdc9e6e4	-0.09858492
118	0xbd7dbaf9	-0.06194589
119	0x3e08b3cc	0.13349837
120	0x3de2dd54	0.11077371
121	0x3d4a6200	0.049409866
122	0xbdc7842c	-0.09742007
123	0x3de04c01	0.109519966
124	0x3ddb8912	0.107195035
125	0xbd797fa5	-0.060912747
126	0x3a903a86	0.001100377
127	0x3d8c291c	0.068437785
128	0xbcd06de7	-0.02544303
129	0x3ab4b8b0	0.0013787951
130	0xbdb9667d	-0.09052751
131	0xbd9dce96	-0.07705419
132	0xbdfa9672	-0.122357264
133	0x3d917d02	0.071039215
134	0x3e10f327	0.14155255
135	0xbc8bee7b	-0.01708149
136	0xbe01cba2	-0.12675336
137	0xbcfa1429	-0.030527191
138	0x3ca2c2a1	0.019868197
139	0x3bd7c004	0.0065841693
140	0xbe1502e8	-0.1455189
141	0xbd3cc559	-0.046086643
142	0x3d9bea3a	0.076130345
143	0xbd9ff1f3	-0.0780982
144	0x3db60ba4	0.08888939
145	0x3e07ceea	0.13262525
146	0x3dc59b7a	0.096487954
147	0x3e037d4a	0.12840763
148	0x3da769e7	0.08174496
149	0x3dd1fafa	0.10252948
150	0xbe18b13d	-0.14911361
151	0x3cec1dbb	0.02882277
152	0xbc0c39c6	-0.008558696
153	0xba1a11f3	-0.00058773084
154	0x3d6b65db	0.057470184
155	0xbe08a636	-0.13344654
156	0x3cb6155b	0.02222698
157	0xbda4867d	-0.08033464
158	0xbd691c7d	-0.056911934
159	0xbd3046b1	-0.043036167
160	0x3dfe25ec	0.12409577
161	0xbd098568	-0.03357449
162	0x3dbfb3b0	0.093604445
163	0x3d98a29e	0.07452892
164	0x3e1e1104	0.15436178
165	0xbd524a32	-0.05134029
166	0xbd44314c	-0.047898576
167	0xbdd4ff28	-0.1040023
168	0x3dda6a4f	0.10664808
169	0xbc398b7a	-0.011324758
170	0xbdb83779	-0.089949556
171	0x3c063080	0.008190274
172	0xbd5ea295	-0.05435427
173	0xbe05e199	-0.1307434
174	0x3df76f24	0.12081745
175	0x3ded4167	0.1158474
176	0x3d465802	0.048423775
177	0x3bee5a2d	0.0072739334
178	0xbe102fa8	-0.1408068
179	0xbe13b83c	-0.14425749
180	0x3c75e3f3	0.015007961
181	0x3cf70c31	0.03015718
182	0x3d8ed526	0.069742486
183	0x3d731e63	0.05935515
184	0x3d708a66	0.058725737
185	0x3d4a99ae	0.049462967
186	0xbd609cf6	-0.05483719
187	0xbdaae4a7	-0.08344393
188	0xbc8dab63	-0.017293638
189	0xbdfc896b	-0.12330898
190	0xbde2c3cc	-0.110725015
191	0x3e06623a	0.13123408
192	0xbdc094c7	-0.09403377
193	0x3da270b5	0.079316534
194	0x3dcd987c	0.1003885
195	0x3d335bae	0.043788604
196	0xbd90e552	-0.070749894
197	0xbdce41f7	-0.100711755
198	0xbd3f1cda	-0.046658374
199	0xbd8bed7f	-0.06832408
200	0xbe1088e3	-0.14114718
201	0xbdd63d93	-0.10460963
202	0xbe2f21e0	-0.17102766
203	0xbe1875d5	-0.148887
204	0x3d775201	0.06038094
205	0xbe1f9ece	-0.15587923
206	0x3d0db312	0.034594603
207	0x3c868d40	0.016424775
208	0x3d112fe0	0.035446048
209	0xbd9037a8	-0.070418656
210	0xbdb4471b	-0.08802625
211	0x3d8cc38d	0.06873236
212	0xbd968056	-0.07348697
213	0xbe0398f8	-0.12851322
214	0xbdacdc2f	-0.08440434
215	0x3d9b4330	0.075811744
216	0xbddfe67e	-0.10932635
217	0xbd8d5253	-0.06900468
218	0x3e09ff29	0.13476242
219	0xbd47d39a	-0.048785783
220	0xbcc9232b	-0.024552902
221	0xbbe307aa	-0.006928404
222	0xbe04990a	-0.12949005
223	0xbce93be1	-0.028470935
224	0xbccd03fb	-0.025026312
225	0xbd80f991	-0.06297601
226	0x3e0ae182	0.13562587
227	0x3de7d9a8	0.113208115
228	0xbe09539d	-0.13410802
229	0x3dece1ce	0.11566506
230	0x3c8f9a7d	0.01752972
231	0x3dd24c1e	0.102684245
232	0x3dce366e	0.100689754
233	0xbddf6ea7	-0.10909777
234	0x3db0da21	0.08635355
235	0x3d45932a	0.04823605
236	0xbce596e0	-0.028026044
237	0xbcd13e95	-0.025542537
238	0xbdfa723a	-0.12228818
239	0x3d15030b	0.036379855
240	0xbd1cf44c	-0.038318917
241	0x3d2da023	0.042389046
242	0xbdc959d2	-0.09831585
243	0xbb071f92	-0.0020618183
244	0x3e096129	0.1341597
245	0x3d7ab72d	0.061209846
246	0x3d5b031b	0.05346976
247	0xbd0cace8	-0.034344584
248	0xbdb30385	-0.08740906
249	0x3d9c01b0	0.07617509
250	0x3dd938d7	0.106065445
251	0xbdea2386	-0.11432557
252	0x3dd675e5	0.10471705
253	0x3d1ce526	0.03830447
254	0xbe0a16e8	-0.134853
255	0x39c5fef5	0.00037764726

module.gcn_layers.0.bnNodes.W2.weight f4 [50, 50]
0	0xbd4cb3d9	-0.049976204
1	0xbdc590e8	-0.09646779
2	0x3db4dde8	0.08831388
3	0x3d5ebffd	0.054382313
4	0x3c927bda	0.017881323
5	0xbdcea2df	-0.10089659
6	0xbe2267f4	-0.15859967
7	0x3d3bfefd	0.045897473
8	0x3dcbdf3d	0.09954689
9	0xbdecafcf	-0.1155697
10	0x3e085d60	0.1331687
11	0xbd93f6a0	-0.07224774
12	0xbc769743	-0.015050712
13	0x3da56192	0.08075251
14	0x3ddb12bc	0.10696933
15	0x3dedb1fe	0.11606215
16	0x3dfdb681	0.123883255
17	0x3cec0eb3	0.028815603
18	0xbd3545ee	-0.044256143
19	0x3a2d16e7	0.0006602839
20	0x3d0a929b	0.03383122
21	0x3d47cea6	0.04878106
22	0x3c8a459e	0.0168789
23	0xbe022b10	-0.1271174
24	0xbd9d63f1	-0.07685078
25	0x3d9a2727	0.07526999
26	0x3c92b1d7	0.017907066
27	0xbdf2a3f5	-0.118476786
28	0x3ce10d46	0.02747215
29	0x3b2ccf2e	0.0026368606
30	0x3dbd54c4	0.092446834
31	0xbe0acaac	-0.13553876
32	0xbdb6a0b4	-0.089173704
33	0xbd9f062b	-0.07764848
34	0x3c85c097	0.016327186
35	0x3d4994b6	0.049214087
36	0x3d1ace64	0.037794486
37	0xbdee7780	-0.116438866
38	0x3db1214b	0.08648928
39	0xbd9df835	-0.07713357
40	0x3d34a244	0.04410006
41	0x3db4e5a0	0.0883286
42	0xbdc4038d	-0.0957099
43	0xbdcdc257	-0.10046833
44	0x3cb4a428	0.022050932
45	0x3dfd9d6a	0.1238354
46	0x3e3076a0	0.17232752
47	0xbe047eff	-0.1293907
48	0x3db751f5	0.08951179
49	0x3e037764	0.12838513
50	0xbd884282	-0.0665331
51	0xbd08bab5	-0.033381183
52	0x3db7975c	0.089644164
53	0xbd31436f	-0.0432772
54	0x3dc106f6	0.09425156
55	0xbd18893d	-0.037240256
56	0x3ce55d7a	0.027998675
57	0x3cffcb8d	0.03122499
58	0x3dcaa88a	0.098954275
59	0x3e03f85c	0.1288771
60	0xbd6ff938	-0.058587283
61	0xbe1ee27a	-0.15516081
62	0x3e281770	0.1641519
63	0xbdda8630	-0.106701255
64	0x3e02297c	0.12711138
65	0x3b3f85bd	0.0029224001
66	0xbbafa440	-0.0053601563
67	0x3d588100	0.0528574
68	0xbdc639a9	-0.096789666
69	0x3e06c98e	0.13162825
70	0xbd6f9c45	-0.05849864
71	0xbb282b3c	-0.0025660535
72	0x3d07c46f	0.033146318
73	0x3dde9612	0.108684674
74	0x3d0de479	0.034641717
75	0xbd3c2784	-0.045936123
76	0x3d9b7ffd	0.07592771
77	0xbe0e3a56	-0.13889441
78	0x3c2fa04f	0.010719373
79	0xbe0edf2d	-0.13952322
80	0xbd672fbd	-0.05644201
81	0x3dd038e0	0.10167098
82	0xbdbe7aa1	-0.09300733
83	0x3ddddae9	0.108327694
84	0x3ddb3d9f	0.10705113
85	0xbdc9cfb4	-0.09854069
86	0x3cf241ea	0.029572446
87	0x3d59f40f	0.053211268
88	0x3d5916fe	0.053000443
89	0xbcb99a38	-0.022656545
90	0x3e007ccd	0.12547608
91	0xbb6d699d	-0.003622628
92	0x3c7a136c	0.01526342
93	0x3d3b4bb8	0.045726508
94	0xbd3ce461	-0.046116237
95	0xbc12eb37	-0.008967212
96	0x3d26cf02	0.04072476
97	0x3db67cd7	0.0891053
98	0xbdae678e	-0.08515845
99	0x3d7b4b69	0.061351214
100	0x3e271ff5	0.16320784
101	0xbdbcf9d0	-0.092273355
102	0xbdf787af	-0.120864265
103	0x3d510a53	0.051035237
104	0x3ce48813	0.027896916
105	0xbdc12dc5	-0.09432558
106	0xbc98e833	-0.018665409
107	0x3dae45e0	0.08509421
108	0x3ddf3b5d	0.108999945
109	0xbe137e18	-0.1440357
110	0xbd53da14	-0.051721647
111	0xbdd1b95e	-0.10240434
112	0xbd59b98f	-0.053155478
113	0xbd103ed4	-0.035216168
114	0x3dcc28cb	0.09968718
115	0xbd871170	-0.06595123
116	0xbd1a51bf	-0.037675615
117	0xbd072a9b	-0.032999616
118	0xbdf5916e	-0.11990629
119	0xbd320912	-0.04346568
120	0xbe141016	-0.14459261
121	0x3d8c5060	0.06851268
122	0x3e2c0a08	0.16800702
123	0x361cc2f4	2.335929e-06
124	0x3d51ee29	0.051252518
125	0xbceaa034	-0.028640844
126	0xbddf7dbd	-0.109126545
127	0x3dee2a87	0.11629205
128	0xbdd127d3	-0.10212674
129	0xbd98e4c3	-0.07465508
130	0xbd83c0ae	-0.06433235
131	0x3da139ab	0.078723274
132	0x3d14e22b	0.036348503
133	0x3d87d318	0.0663206
134	0x3d84ec8d	0.06490431
135	0xbe3da65a	-0.1852049
136	0x3dcdb240	0.10043764
137	0xbde7a4a1	-0.11310697
138	0x3d44701e	0.047958486
139	0x3a7633fe	0.0009391903
140	0x3d4714a4	0.04860367
141	0x3c87646f	0.016527383
142	0x3c6d02e5	0.014466022
143	0x3d72dca0	0.059292436
144	0xbcd459c4	-0.02592171
145	0xbd2f593f	-0.04280972
146	0x3e038b50	0.12846112
147	0xbdc6fcf0	-0.09716213
148	0x3cd8ae5d	0.02645033
149	0x3d97aca8	0.074059784
150	0x3e14212b	0.14465778
151	0xbd070bb7	-0.032970157
152	0xbd2ea818	-0.042640775
153	0xbdd59d16	-0.104303524
154	0xbdc4c658	-0.096081436
155	0xbd953c5c	-0.07286903
156	0x3d8820d7	0.06646889
157	0x3c1519d8	0.0091004
158	0x3d8688bd	0.065690495
159	0xbc3461ca	-0.011009643
160	0xbd1ef395	-0.038806517
161	0xbd8a39e1	-0.06749321
162	0x3d83f75a	0.06443663
163	0xbc681952	-0.014166193
164	0x3dba038b	0.09082707
165	0xbd275172	-0.040849157
166	0xba1c4d53	-0.000596245
167	0xbd47865d	-0.048712123
168	0xbe3a8706	-0.1821557
169	0x3def3281	0.11679555
170	0xbd1a6e7c	-0.037703022
171	0xbdb3b2e3	-0.08774354
172	0xbe2b05d1	-0.16701438
173	0x3d075a90	0.03304535
174	0xbce6de81	-0.02818227
175	0xbda09c25	-0.07842282
176	0xbd53b2e9	-0.051684294
177	0x3db73979	0.08946509
178	0x3dfc6cab	0.12325414
179	0x3db1fa8c	0.08690366
180	0x3e28d770	0.16488433
181	0xbc50dd0b	-0.012748013
182	0x3cb6c8cd	0.022312546
183	0x3df7a005	0.12091068
184	0xbe035475	-0.12825187
185	0x3d830ead	0.063992836
186	0xbde88180	-0.11352825
187	0x3e1855eb	0.14876525
188	0xbd4784fa	-0.0487108
189	0x3d8b7590	0.06809533
190	0x3dcdcbda	0.10048647
191	0x3cc9eb2e	0.024648275
192	0x3df7bebe	0.12096928
193	0x3e413af6	0.18870148
194	0xbd46248f	-0.04837471
195	0xbc9c722b	-0.019097408
196	0xbd866e3a	-0.06563993
197	0x3e1a99fb	0.15097801
198	0x3d128461	0.035770778
199	0xbcf0b33a	-0.029382337
200	0x3b97e070	0.0046349093
201	0xbd8da604	-0.069164306
202	0x3daa2d17	0.083093815
203	0x3c8948c0	0.016758323
204	0x3cc0f0bc	0.023552291
205	0x3d9a9d42	0.07549526
206	0xbdbb4407	-0.091438346
207	0xbdcb5025	-0.09927396
208	0x3dbe56ca	0.092938974
209	0x3dd3172c	0.10307154
210	0x3dc9be0c	0.09850702
211	0x3db48bb2	0.08815707
212	0x3d8aa52c	0.06769785
213	0x3e2197f6	0.15780625
214	0x3d6fc819	0.058540437
215	0x3e2551c7	0.16144477
216	0xbd79ac60	-0.060955405
217	0xbd5a212c	-0.05325429
218	0xbd0cdebe	-0.03439211
219	0x3c891b21	0.016736569
220	0x3d451783	0.048118126
221	0x3c39a1ca	0.011330077
222	0xbe3c5e6e	-0.18395397
223	0xbdb36cb9	-0.087609716
224	0x3d0397cd	0.03212719
225	0xbdab331d	-0.083593585
226	0xbdacb6a1	-0.08433271
227	0x3d8726b4	0.06599179
228	0x3e1633b0	0.14668155
229	0xbdcfe5e2	-0.101512685
230	0xbdcd155b	-0.10013839
231	0xbd543324	-0.051806584
232	0xbdd2a06f	-0.102845065
233	0x3de55c8e	0.11199294
234	0xbe135440	-0.14387608
235	0x3bec2f08	0.007207755
236	0x3d9f55e8	0.07780057
237	0x3e032a19	0.12809028
238	0xbda2845d	-0.079354025
239	0xbd972477	-0.07380002
240	0xbe1fecb2	-0.15617636
241	0x3e1418d1	0.14462592
242	0x3ce5092b	0.027958473
243	0xbdc5ef6b	-0.09664806
244	0xbdcffb31	-0.10155333
245	0xbe0990e6	-0.1343418
246	0xbd6f198f	-0.058373984
247	0xbd5b9969	-0.0536131
248	0xbccb7cff	-0.024839876
249	0x3c8f9701	0.017528059
250	0xbe084b98	-0.13310087
251	0x3e0ba0dc	0.13635582
252	0xbe2f1a2f	-0.17099832
253	0x3e09f782	0.13473323
254	0x3d7ad371	0.061236802
255	0xbd869f46	-0.06573348

module.gcn_layers.0.bnNodes.batch_norm.weight f4 [50]
0	0x3f713851	0.94226557
1	0x3f79a44e	0.97516334
2	0x3f7e5750	0.9935198
3	0x3f78309e	0.96949184
4	0x3f7ca230	0.9868498
5	0x3f899589	1.074876
6	0x3f7b5ee2	0.98191655
7	0x3f731cc8	0.9496579
8	0x3f768a14	0.9630444
9	0x3f7284f4	0.9473412
10	0x3f7f4877	0.9971995
11	0x3f7693e7	0.9631943
12	0x3f7af421	0.9802876
13	0x3f845a9a	1.0340149
14	0x3f81376d	1.009504
15	0x3f83da5d	1.0301014
16	0x3f7b6d83	0.98213977
17	0x3f6baeda	0.9206368
18	0x3f6e956e	0.9319676
19	0x3f806434	1.003058
20	0x3f7e2565	0.9927581
21	0x3f7ee01c	0.99560714
22	0x3f80b07c	1.0053859
23	0x3f719e95	0.943826
24	0x3f74701e	0.9548358
25	0x3f7c4b67	0.98552555
26	0x3f6cd2ab	0.92508954
27	0x3f68b8b3	0.9090683
28	0x3f73503c	0.950443
29	0x3f8084c3	1.0040516
30	0x3f762a5f	0.96158403
31	0x3f7be176	0.983909
32	0x3f736e7d	0.95090467
33	0x3f7455c6	0.9544338
34	0x3f7cf212	0.9880687
35	0x3f81d13c	1.0141978
36	0x3f86e692	1.0539114
37	0x3f7879fe	0.97061145
38	0x3f72e70b	0.94883794
39	0x3f7fcd91	0.99923044
40	0x3f76ead8	0.96452093
41	0x3f8117e1	1.0085412
42	0x3f6c9ebd	0.92429715
43	0x3f7849db	0.96987695
44	0x3f8102e5	1.0079008
45	0x3f87fc0b	1.0623792
46	0x3f8047ff	1.0021971
47	0x3f778c10	0.96698093
48	0x3f7a8353	0.97856635
49	0x3f7ba7bc	0.9830282

module.gcn_layers.0.bnNodes.batch_norm.bias f4 [50]
0	0xbc4124c2	-0.011788549
1	0x3d514b4a	0.051097192
2	0x3c595376	0.013264528
3	0x3ce061e1	0.027390422
4	0x3d45272c	0.04813306
5	0x3dfab034	0.12240639
6	0xbceee4a9	-0.029161768
7	0x3d1b94d1	0.03798372
8	0x3c23dba6	0.010001099
9	0x3cf00e2f	0.029303638
10	0xbc11ec26	-0.0089064
11	0xbd1e1b22	-0.038600095
12	0x3d17cdb7	0.03706142
13	0x3cea10f6	0.02857254
14	0x3d49de44	0.049284235
15	0x3db29d31	0.08721388
16	0x3cb2adfc	0.021811478
17	0xbb80a99e	-0.00392647
18	0xbc8095b4	-0.015696384
19	0x3d9e2c84	0.077233344
20	0x3c9e50ed	0.019325698
21	0xbc97656b	-0.018480977
22	0x3e1380b8	0.14404571
23	0xbd39da8b	-0.045374434
24	0x3d159e0f	0.03652769
25	0x3d8aa512	0.06769766
26	0xbd0ed26a	-0.034868635
27	0xbc89d195	-0.01682357
28	0x3b65858d	0.003502223
29	0x3c2e5662	0.010640712
30	0x3d0e3c8f	0.034725722
31	0x3c5af52a	0.013364116
32	0xbcaf0d65	-0.021368692
33	0xbd21ec36	-0.03953191
34	0x3ccf463e	0.025302049
35	0x3db10f46	0.08645491
36	0x3d6f6a8e	0.058451228
37	0x3ca56f7b	0.02019476
38	0xbd0a5b4d	-0.033778477
39	0x3b2829c1	0.0025659653
40	0xbcf5bb36	-0.029996496
41	0x3cd06031	0.025436493
42	0xbd222092	-0.039581843
43	0xbae3cd1c	-0.0017379853
44	0x3d1ccd5d	0.038281787
45	0x3d6b9be4	0.057521716
46	0xbd29c311	-0.041445795
47	0x3d299f86	0.0414119
48	0xbc8223f2	-0.01588628
49	0x3cf52fb3	0.029929971

module.gcn_layers.0.bnEdges.W3.weight f4 [50, 50]
0	0x3dde6bec	0.10860428
1	0x3d79b4e1	0.060963515
2	0xbd9d1734	-0.07670441
3	0xbde1f5ef	-0.11033236
4	0x3e00803a	0.12548915
5	0x3da79147	0.08182006
6	0xbc8b5529	-0.017008381
7	0x3d58b764	0.05290927
8	0xbd2f7a4d	-0.042841244
9	0xbd18714d	-0.037217427
10	0x3c22a967	0.009928084
11	0x3cc3480e	0.02383807
12	0xbdfbb077	-0.122895174
13	0x3e042743	0.12905602
14	0xbdd94eb1	-0.10610712
15	0xbc8e2f32	-0.017356489
16	0x3c892caa	0.01674493
17	0xbdfe42a6	-0.12415056
18	0x3d9d89a6	0.0769227
19	0xbc91fe8d	-0.017821575
20	0x3d857f60	0.065184355
21	0x3daf01a6	0.08545236
22	0xbdbe77c2	-0.09300186
23	0x3dd4b913	0.103868626
24	0x3de6045d	0.11231301
25	0xbddf5833	-0.109054945
26	0xbdbab28f	-0.091160886
27	0xbe0c29e4	-0.13687855
28	0x3dc10c75	0.09426204
29	0x3db9638d	0.09052191
30	0xbda40722	-0.08009173
31	0xbd5eff92	-0.05444295
32	0xbdecb28a	-0.11557491
33	0xbd834772	-0.064101115
34	0x3defd878	0.1171121
35	0x3d5a2085	0.05325367
36	0xbc1bcd65	-0.009509419
37	0xbe0da80d	-0.13833638
38	0xbe04f6d3	-0.12984781
39	0x3925bc25	0.00015805716
40	0xbd8cc668	-0.068737805
41	0xbcc5fcec	-0.024168454
42	0x3d8b1ded	0.06792817
43	0x3d8b9e5e	0.068173155
44	0x3d13dad1	0.03609735
45	0xbded17ef	-0.115768306
46	0xbbf553e4	-0.007486807
47	0xbddaa32e	-0.10675655
48	0x3e0915fe	0.13387296
49	0x3b28a5d8	0.0025733616
50	0xbd9ce9c6	-0.07661776
51	0x3beb1423	0.0071740313
52	0x3dbab109	0.09115798
53	0xbd98c31e	-0.07459091
54	0x3e1ad8a3	0.15121703
55	0xbc44339f	-0.011975198
56	0xbd91e555	-0.0712382
57	0x3cddd2b7	0.027078016
58	0xbde4b99e	-0.11168216
59	0xbde9f602	-0.114238754
60	0x3cd774a9	0.026300745
61	0x3d33a526	0.04385867
62	0xbe1dc2c6	-0.15406331
63	0x3e016b64	0.12638623
64	0x3dc031a9	0.09384472
65	0x3c868d82	0.016424898
66	0x3d77eb7c	0.06052731
67	0x3cad5b44	0.021161683
68	0x3d8d3102	0.06894113
69	0x3ca20f5a	0.01978271
70	0xbdc36fca	-0.095428064
71	0x3cce0ceb	0.025152644
72	0xbce05384	-0.027383573
73	0xbdd69e85	-0.10479454
74	0xbb59d70c	-0.003323975
75	0x3d31fbe7	0.043453123
76	0xbd724e0d	-0.059156466
77	0xbe1924fe	-0.14955518
78	0xbb593418	-0.0033142623
79	0x3e36a9fb	0.1783828
80	0xbe0a4a38	-0.13504875
81	0xbdc87c38	-0.09789318
82	0x3b5d6dcc	0.0033787368
83	0xbdb57a22	-0.088611856
84	0x3d31b43b	0.04338477
85	0x3e41e0ff	0.18933485
86	0x3e170363	0.14747386
87	0xbcdc3a91	-0.026883395
88	0x3e1d28c0	0.15347576
89	0x3e0b813a	0.13623515
90	0xbdc71913	-0.097215794
91	0xbc86252a	-0.016375143
92	0xbd9c665a	-0.076367095
93	0x3cded60f	0.02720168
94	0xbd0b93a1	-0.034076337
95	0x3e4b741a	0.19868508
96	0x3e14b024	0.14520317
97	0xbe2695da	-0.16268101
98	0x3d862fee	0.065521106
99	0x3badb0f3	0.005300635
100	0x3df5ba59	0.119984336
101	0xbd9c737f	-0.07639217
102	0xbde99c0c	-0.11406717
103	0x3dd50db2	0.10403003
104	0xbc83171c	-0.01600223
105	0xbd399d16	-0.045315824
106	0x3df69fde	0.12042211
107	0x3dcbfddb	0.099605285
108	0x3dd4bc9b	0.10387536
109	0x3e028510	0.12746072
110	0xbda6b90c	-0.08140764
111	0x3dd651b3	0.10464802
112	0x3dcdff65	0.10058478
113	0xbdbc285e	-0.09187387
114	0x3c50d54d	0.012746167
115	0xbc8fae33	-0.01753912
116	0x3ca86376	0.02055524
117	0x3d99e6df	0.07514738
118	0x3da94e8c	0.08266935
119	0x3cd8e3d0	0.026475817
120	0xbcda8ec9	-0.026679413
121	0xbd4fb24f	-0.050707158
122	0xbe0bf811	-0.13668849
123	0xbd1c5915	-0.038170893
124	0xbe0d4d87	-0.13799106
125	0x3d8cc84c	0.06874141
126	0x3de5d1c4	0.1122165
127	0xbdd9b0f6	-0.10629456
128	0xbdef0939	-0.11671681
129	0xbcd581b3	-0.026062822
130	0xbbcd8965	-0.006272482
131	0xbd6139eb	-0.054986876
132	0xbe07271a	-0.1319851
133	0x3c9a3895	0.018825809
134	0x3e15cf53	0.14629869
135	0x3dc72d0d	0.0972539
136	0xbdef16e7	-0.1167429
137	0x3e0438df	0.1291232
138	0xbe0cf9bd	-0.13767143
139	0x3c3ae946	0.011408156
140	0xbdb9bc9c	-0.090691775
141	0xbdded93c	-0.10881278
142	0xbc220ffe	-0.009891508
143	0x3d2cb367	0.04216328
144	0x3e125f5a	0.14294186
145	0xbdb0201b	-0.08599874
146	0xbb58118e	-0.0032969448
147	0x3d0352db	0.03206144
148	0x3d4a43af	0.049380954
149	0xbd963a7c	-0.07335374
150	0xbe20707e	-0.15667912
151	0x3db8d012	0.09024061
152	0xbe2a16c0	-0.16610241
153	0xbd6e02ed	-0.05810826
154	0xbe363970	-0.17795348
155	0xbca3c8cf	-0.019993214
156	0xbd536ef9	-0.051619504
157	0x3e0cdf41	0.1375704
158	0xbe0d8c0e	-0.13822958
159	0x3c4225b0	0.011849806
160	0x3d7e7c44	0.062130228
161	0x3d9ad55a	0.07560225
162	0x3ce5fedb	0.028075626
163	0x3d5488dc	0.05188833
164	0x3df40c2f	0.11916386
165	0x3e177791	0.14791705
166	0x3c8170ad	0.015800798
167	0xbd88ff3d	-0.06689308
168	0x3b51a76e	0.0031990665
169	0x3d17ad5b	0.03703056
170	0x3d662aae	0.056193046
171	0xbe43b1d7	-0.1911081
172	0xbd938507	-0.07203107
173	0x3d630cb5	0.05543204
174	0x3e0b5aa3	0.13608794
175	0x3dc52a23	0.096271776
176	0xbcafcba8	-0.021459416
177	0xbbafd2dd	-0.005365713
178	0x3d14b1c4	0.036302343
179	0x3d8d8ef2	0.0691203
180	0x3d7e5d27	0.062100556
181	0xbdf75298	-0.120763004
182	0xbe1883dc	-0.1489405
183	0xbd2a6307	-0.041598346
184	0x3cc6742d	0.024225319
185	0x3c8da92c	0.017292581
186	0x3da86e28	0.08224136
187	0xbc3f9f19	-0.011695647
188	0xbd1147f3	-0.035469007
189	0x3dc4b493	0.09604754
190	0xbdc78869	-0.09742815
191	0xbdbee83e	-0.093216404
192	0x3da72ff1	0.08163441
193	0x3e194752	0.14968613
194	0x3ac166c8	0.0014755363
195	0x3d9dcec8	0.07705456
196	0x3dbd2ef8	0.09237474
197	0x3d45f368	0.048327833
198	0x3de1d888	0.11027628
199	0x3cef6552	0.029223118
200	0xbe175aba	-0.14780703
201	0xbd0e1d50	-0.034695923
202	0xbda40299	-0.08008308
203	0xbdc174eb	-0.094461285
204	0xbd3a3497	-0.04546031
205	0x3cbfbb35	0.023404697
206	0x3dd838bd	0.10557697
207	0x3db6ca42	0.08925296
208	0x3d68a221	0.056795243
209	0xbe128a3d	-0.14310546
210	0xbd896040	-0.06707811
211	0xbd6d87bc	-0.057990775
212	0x3cfddcec	0.030989133
213	0x3d313731	0.043265525
214	0xbdca9835	-0.098923124
215	0x3da05ee5	0.078306
216	0xbd9bd603	-0.07609179
217	0x3d62f803	0.055412304
218	0x3ce85ca0	0.02836448
219	0x3dab4567	0.08362847
220	0xbd49a7f3	-0.049232434
221	0x3d931663	0.07182004
222	0xbdddd716	-0.1083204
223	0xbdc38e9a	-0.095486835
224	0x3dec6159	0.11542005
225	0x3e0362b5	0.12830622
226	0x3d462327	0.048373368
227	0x3d35587d	0.044273842
228	0xbde4b334	-0.11166993
229	0x3d88549f	0.06656765
230	0x3d3e9b8e	0.046535067
231	0xbddc6f2d	-0.107633926
232	0x3d807d38	0.062738836
233	0xbe142e8b	-0.1447088
234	0x3d79099c	0.06080018
235	0xbd1e7552	-0.038686104
236	0xbcfae1a8	-0.03062518
237	0x3d05881e	0.032600515
238	0x3d6b6d86	0.057477497
239	0x3dd63e7c	0.10461137
240	0x3db91b09	0.0903836
241	0x3e069b91	0.13145281
242	0xbda24a54	-0.07924333
243	0x3dc33d8a	0.09533222
244	0xbdfa24ac	-0.12214026
245	0xbd683073	-0.05668683
246	0x3d643242	0.055711992
247	0xbda108e3	-0.07863023
248	0xbcd20e05	-0.02564145
249	0x3b00071b	0.0019535485
250	0xbd459898	-0.048241228
251	0xbdc2754c	-0.09495029
252	0xbd4aae55	-0.049482662
253	0x3dcc21cd	0.099673845
254	0xbd2f4570	-0.04279083
255	0xbd252f86	-0.040328525

module.gcn_layers.0.bnEdges.W4.weight f4 [50, 50]
0	0xbda5910c	-0.08084306
1	0xbde5e9fc	-0.112262696
2	0x3dceb884	0.10093787
3	0x3dce799a	0.100817874
4	0x3dff6e45	0.12472204
5	0x3d0ce145	0.03439452
6	0xbcdbc22e	-0.02682599
7	0xbd5f0e50	-0.05445701
8	0xbe011ba6	-0.12608203
9	0x3de6af4e	0.112639055
10	0x3d85e81b	0.06538411
11	0x3cf359bf	0.02970588
12	0x3dddc41c	0.108284205
13	0x3c903f5d	0.017608339
14	0x3df9a0d7	0.12188881
15	0x3c02390d	0.007948172
16	0x3de6fa17	0.112781696
17	0x3cc4afc4	0.024009593
18	0xbdc00e8b	-0.09377774
19	0xbdb05382	-0.08609678
20	0x3da21e42	0.079159275
21	0xbd1c0c9b	-0.03809796
22	0x3dfe9419	0.12430591
23	0x3da3f8c1	0.080064304
24	0xbcaa34c8	-0.020777121
25	0xbceacc7e	-0.028661963
26	0x3dccf205	0.10007099
27	0x3d74460f	0.059637126
28	0x3d10f1ce	0.035386853
29	0x3da7955d	0.08182786
30	0x3e04eebd	0.12981696
31	0x3df4d124	0.11953953
32	0xbddecbae	-0.108786926
33	0xbd8f2178	-0.069888055
34	0x3e0be8c1	0.13663007
35	0x3c8cbc5f	0.017179666
36	0xbdbd66d8	-0.092481315
37	0x3db51a73	0.088429354
38	0xbdf7b1d2	-0.120944634
39	0x3d865dc7	0.06560855
40	0x3bc73f07	0.0060805115
41	0xbdaa7c6d	-0.083245136
42	0x3e02d9d5	0.12778409
43	0x3d9b4288	0.07581049
44	0x3d171fdd	0.03689562
45	0x3d31633b	0.043307524
46	0xbe0f9acc	-0.14023894
47	0x3dec6ec4	0.11544564
48	0x3dcaa622	0.098949686
49	0x3dbf93d3	0.09354367
50	0x3dc87a6a	0.09788974
51	0xbdb4f584	-0.08835891
52	0xbd53e7c7	-0.051734712
53	0xbd24e0a0	-0.04025328
54	0x3d8244ee	0.063608035
55	0xbd459603	-0.048238765
56	0x3c9f64d2	0.019457255
57	0x3bd7d577	0.0065867263
58	0x3de55c6b	0.11199268
59	0x3c4d17e6	0.012517905
60	0x3d3f6767	0.04672947
61	0xbdd38b61	-0.10329319
62	0x3d95d29e	0.07315563
63	0x3e13441f	0.14381455
64	0xbd233df7	-0.039854016
65	0x3dd984b8	0.10621017
66	0x3cbfd41e	0.023416575
67	0x3c7316ee	0.01483701
68	0x3d9f548b	0.07779797
69	0xbcf7bbdd	-0.030240947
70	0xbdf3dd86	-0.119074866
71	0xbd969936	-0.073534414
72	0x3d62a983	0.05533744
73	0x3d00b75a	0.031424858
74	0xbe178a88	-0.14798939
75	0xbdfe0aae	-0.12404381
76	0x3dc636de	0.09678434
77	0xbd9053b2	-0.070472136
78	0x3d9d4316	0.07678811
79	0x3c1377d4	0.009000737
80	0x3db3b5b5	0.08774892
81	0x3d19d4ad	0.03755634
82	0x3d8122c4	0.06305459
83	0xbd41d6eb	-0.047324102
84	0xbcc636ff	-0.024196146
85	0xbd8cf11a	-0.06881924
86	0x3db236ea	0.0870188
87	0xbe0103d6	-0.1259912
88	0xbca58efe	-0.020209786
89	0x3dd8c4ae	0.10584389
90	0x3d9c011f	0.07617401
91	0xbd3fecac	-0.046856567
92	0xbcbae1a5	-0.022812674
93	0xbdffe308	-0.12494475
94	0xbcc40a11	-0.023930581
95	0xbcd9bf85	-0.026580581
96	0xbd4a9155	-0.049455006
97	0x3dcb051d	0.09913085
98	0x3bb0b2a3	0.005392389
99	0xbdbb89a3	-0.091571115
100	0xbd16eb47	-0.03684547
101	0x3c96f584	0.018427618
102	0x3cae1bc9	0.021253483
103	0xbe0da809	-0.13833632
104	0xbd4a075c	-0.049323425
105	0x3d0501b9	0.032472346
106	0xbd24b36b	-0.04021017
107	0xbdcbb02f	-0.09945714
108	0xbda052b4	-0.07828274
109	0x3dd3a70b	0.10334595
110	0x3bf8f031	0.0075969924
111	0x3dd2e6ab	0.10297903
112	0xbdf039b4	-0.11729756
113	0xbdcfa332	-0.10138549
114	0x3df2a022	0.11846949
115	0x3c8dafef	0.017295806
116	0x3df22370	0.118231654
117	0x3c3cb3c8	0.011517473
118	0x3e0a56aa	0.13509622
119	0xbda59ed8	-0.08086938
120	0x3c0a65e9	0.008447149
121	0xbcde6d4c	-0.027151726
122	0x3d1753c3	0.036945116
123	0x3d6e7456	0.058216415
124	0xbdaf6b5b	-0.08565398
125	0x3da8c00c	0.08239755
126	0xbd961b6b	-0.07329448
127	0x3d1b413c	0.03790401
128	0x3d96a753	0.07356133
129	0x3c955e2f	0.018233387
130	0xbe1490aa	-0.1450831
131	0x3d9977a5	0.074935235
132	0xbdd91797	-0.106002025
133	0x3cb614c5	0.0222267
134	0x3dee86d0	0.11646807
135	0x3dddbf56	0.1082751
136	0x3d86057b	0.06544014
137	0x3de4d9ea	0.11174376
138	0xbd824ce8	-0.06362325
139	0x3c24f415	0.010067959
140	0x3e07c4a1	0.13258602
141	0x3d7ab39d	0.06120645
142	0x3db2d133	0.08731308
143	0xbe0b93ad	-0.13630553
144	0xbb5128c0	-0.0031915158
145	0x3dfd438f	0.123664014
146	0x3bd537d8	0.0065069012
147	0xbda78894	-0.08180347
148	0xbd801404	-0.06253818
149	0x3d8c4be7	0.06850415
150	0x3df55c03	0.119804405
151	0x3b55148f	0.0032513475
152	0x3c7673f2	0.015042292
153	0xbd3bebcf	-0.04587918
154	0x3d69a006	0.057037376
155	0xbdacaae2	-0.08431031
156	0x3dbd7563	0.09250905
157	0xbd7d66a3	-0.06186546
158	0xbded40b0	-0.11584604
159	0xbde24fa7	-0.11050349
160	0xbd352b24	-0.044230595
161	0xbdb18245	-0.08667425
162	0x3cf51c7b	0.029920807
163	0xbd812bb3	-0.06307163
164	0xbc22c003	-0.0099334745
165	0x3d68c8c6	0.056832097
166	0x3e057fee	0.13037083
167	0xbdc60bab	-0.09670194
168	0x39395b25	0.00017676929
169	0xbcad4b68	-0.02115412
170	0xbd81c376	-0.06336109
171	0x3cde6a9b	0.027150443
172	0x3da2587e	0.07927035
173	0x3e1416ef	0.14461873
174	0xbdb8483d	-0.08998153
175	0xbd88e64d	-0.066845514
176	0xbdb8188b	-0.08989056
177	0xbd0b6afe	-0.034037583
178	0xbd5c468a	-0.05377821
179	0x3dff40a1	0.12463499
180	0x3d1b1c87	0.037869003
181	0xbc13bce9	-0.009017208
182	0xbdcf943e	-0.10135697
183	0xbd9cb309	-0.07651336
184	0xbc95aeaf	-0.018271772
185	0xbdbd7a49	-0.0925184
186	0xbd4d9165	-0.050187487
187	0x3d0607e1	0.032722358
188	0xbc02241e	-0.007943181
189	0xbdded3b8	-0.10880226
190	0xbc25216b	-0.010078768
191	0x3de7e259	0.11322469
192	0x3e1b1699	0.15145339
193	0xbc987a21	-0.018612923
194	0xbe09c4ba	-0.13453951
195	0xbd8db820	-0.06919885
196	0x3de0023f	0.109379284
197	0x3d242c9d	0.04008161
198	0xbde6b54a	-0.11265047
199	0x3df76854	0.12080446
200	0xbdbd2244	-0.09235051
201	0x3de1636b	0.110052906
202	0xbdd42dae	-0.10360275
203	0x3d63602c	0.05551164
204	0xbcbb4c86	-0.022863638
205	0xbdbe584e	-0.092941865
206	0xbdcbbb40	-0.099478245
207	0x3d33fb18	0.043940634
208	0xbd68919d	-0.056779493
209	0x3e27b210	0.16376519
210	0xbc8a47ca	-0.016879935
211	0xbc8355a6	-0.016032051
212	0x3df85d16	0.1212713
213	0x3bbb7dda	0.00572179
214	0xbc75a256	-0.014992317
215	0xbdb70348	-0.08936173
216	0xbd968b24	-0.07350758
217	0xbc087ca3	-0.008330497
218	0xbdbd82a5	-0.09253434
219	0x3e037fa5	0.12841661
220	0xbb03b62b	-0.0020097594
221	0xbd53fd8e	-0.05175548
222	0x3c932646	0.017962586
223	0xbcb00033	-0.02148447
224	0xbc6900d6	-0.014221391
225	0xbe1ac466	-0.15113983
226	0x3da1c802	0.078994766
227	0x3d88d142	0.06680538
228	0x3bb1f3b9	0.0054306653
229	0xbdf5fdd9	-0.12011308
230	0x3dca956b	0.098917805
231	0x3db7e2fa	0.08978839
232	0xbd64f19e	-0.055894487
233	0xbe31bf4b	-0.17358129
234	0x3d8a72ef	0.06760203
235	0x3d8d8a8a	0.0691119
236	0x3ba233a7	0.004950005
237	0x3dc3bafc	0.09557149
238	0x3d9236fd	0.071393944
239	0xbe1e1383	-0.1543713
240	0xbd0147e7	-0.031562712
241	0xbe2217d5	-0.15829404
242	0x3ba8a96d	0.0051471503
243	0xbdfcd208	-0.12344748
244	0xbbc53400	-0.006018162
245	0xbd9cc90e	-0.07655536
246	0x3dec1c56	0.11528842
247	0xbdf003f9	-0.11719508
248	0xbd5e93ce	-0.054340176
249	0x3ddd39d0	0.108020425
250	0xbc955093	-0.018226897
251	0xbd86ecfa	-0.065881684
252	0x3da1df54	0.079039246
253	0xbdfecca0	-0.12441373
254	0x3d528add	0.05140196
255	0xbd497d60	-0.049191833

module.gcn_layers.0.bnEdges.W5.weight f4 [50, 50]
0	0x3db56fae	0.08859192
1	0x3ae66dd8	0.0017580343
2	0x3e297250	0.16547513
3	0xbd53372f	-0.0515663
4	0x3df1f11c	0.11813566
5	0xbc9bff2e	-0.019042578
6	0xbdd20a4c	-0.1025587
7	0xbd315cd3	-0.043301415
8	0x3cf6a3b1	0.030107351
9	0xbe07a74d	-0.13247414
10	0x3d7ead19	0.062176798
11	0x3dfc913a	0.12332387
12	0xbd180a32	-0.037119098
13	0xbe077784	-0.13229185
14	0x3d9d0bea	0.07668288
15	0xbcce5f75	-0.025192002
16	0xbdd9f559	-0.106424995
17	0x3d9d65bf	0.07685422
18	0xbcad71b3	-0.02117238
19	0x3d87c20f	0.066288106
20	0x3da8e723	0.08247211
21	0xbd680e20	-0.056654096
22	0xbbfeae7a	-0.007772264
23	0x3d88c2ba	0.06677766
24	0xbe0c6847	-0.13711654
25	0x3dfd51c8	0.12369114
26	0xbbbed59f	-0.0058238055
27	0x3e0eadc3	0.13933472
28	0xbd953a9a	-0.07286568
29	0x3e1697b0	0.14706302
30	0xbc12c9d6	-0.008959254
31	0xbe24272e	-0.16030571
32	0xbc42791d	-0.011869696
33	0xbd1341e6	-0.035951518
34	0x3c2b508a	0.010456214
35	0x3dc8631f	0.09784531
36	0x3ce125aa	0.02748378
37	0xbd871243	-0.0659528
38	0x3dec4bd9	0.11537904
39	0x3e05f93c	0.13083357
40	0xbde67e79	-0.112545915
41	0xbd1ba184	-0.03799583
42	0xbd6901c8	-0.056886464
43	0xbdd122d7	-0.10211723
44	0x3d88120a	0.06644066
45	0xbdb65e61	-0.0890472
46	0xbdb18be0	-0.08669257
47	0x3dbae199	0.091250606
48	0xbdbb9912	-0.09160055
49	0x3b78d977	0.0037971416
50	0x3e041572	0.12898806
51	0x3d803650	0.06260359
52	0xbbab926d	-0.005235961
53	0xbdc24dc1	-0.09487487
54	0x3bf2e9bc	0.007413117
55	0x3deee275	0.11664287
56	0x3e0f2dde	0.1398234
57	0xbdb2f8a5	-0.087388314
58	0xbd7f4463	-0.062321078
59	0xbddad198	-0.10684508
60	0x3c038541	0.008027376
61	0x3d837571	0.064188845
62	0xbdd6bf8c	-0.104857534
63	0x3da60e6e	0.08108221
64	0xbdd854a5	-0.1056302
65	0x3dc5815d	0.09643815
66	0xbde33d3a	-0.110956624
67	0xbe0596c4	-0.13045794
68	0xbdea2cec	-0.114343494
69	0x3df08ad7	0.117452316
70	0x3dda0131	0.106447585
71	0xbda88ff9	-0.082305856
72	0xbd221b5f	-0.039576884
73	0x3c4a53f8	0.012349121
74	0x3db8b4b9	0.09018845
75	0x3d92ec5a	0.07173987
76	0xbdd5b5eb	-0.10435089
77	0xbdfcf1ce	-0.12350808
78	0xbc529358	-0.012852512
79	0xba16dbf9	-0.00057548244
80	0x3c9e3a23	0.019314831
81	0xbda55a61	-0.08073879
82	0x3df11c9e	0.117730364
83	0x3c09f194	0.008419413
84	0x3def16a5	0.11674241
85	0xbdf1f854	-0.11814943
86	0x3ddf9e92	0.10918917
87	0x3d76b077	0.060226884
88	0x3b7eba3b	0.0038868326
89	0x3a2245ca	0.0006190209
90	0xbcb6302f	-0.022239773
91	0xbdb9ac67	-0.09066086
92	0x3d034c8a	0.032055415
93	0x3db7e060	0.08978343
94	0x3c9e5a1f	0.019330082
95	0x3dc60d5f	0.09670519
96	0xbbdabfd4	-0.0066756997
97	0x3c981e74	0.018569209
98	0x3de4c857	0.11171024
99	0x3d0330e8	0.032029063
100	0xbd9e5cef	-0.077325694
101	0xbe01d44e	-0.12678644
102	0x3cad52cd	0.021157647
103	0x3db2403a	0.087036565
104	0x3dd1ba66	0.10240631
105	0xbdedf38d	-0.11618719
106	0x3c9ec72f	0.019382088
107	0x3ddbc44b	0.10730799
108	0xbc193b5a	-0.009352529
109	0x3dba5ebb	0.091001
110	0xbd75e785	-0.060035247
111	0xbc6833f6	-0.014172545
112	0x3dc073c7	0.09397083
113	0xbcb8ecd8	-0.022573873
114	0xbd804032	-0.06262244
115	0x3ce9c9a2	0.028538529
116	0x3c4a2507	0.01233793
117	0x3de8dd67	0.11370354
118	0x3dd4c0e4	0.103883535
119	0xbdb25060	-0.087067366
120	0xbc20dcf2	-0.0098183025
121	0x3df3c54d	0.119028665
122	0xbd58cc21	-0.052929047
123	0xbe2d9a94	-0.16953498
124	0x3e193a89	0.14963736
125	0x3d81768a	0.06321438
126	0x3d846c0c	0.06465921
127	0xbd933790	-0.07188332
128	0x3deae8fc	0.114702195
129	0x3dd8e351	0.10590232
130	0xbd3e3e0f	-0.046445902
131	0xbe10785e	-0.14108416
132	0xbde788b3	-0.1130537
133	0x3e0a4e2d	0.13506384
134	0x3d04507f	0.03230333
135	0xbe0dff34	-0.13866884
136	0x3d953200	0.07284927
137	0x39420f32	0.00018506942
138	0xbdb91e5d	-0.090389945
139	0xbdb18443	-0.08667805
140	0x3c5159fe	0.0127778035
141	0xbd91f6e9	-0.071271725
142	0x3dd7de1e	0.10540412
143	0xbda4826e	-0.0803269
144	0xbe0405a2	-0.12892774
145	0xbdb62b2b	-0.088949524
146	0x3d6fc7a9	0.05854002
147	0x3cb5c229	0.02218731
148	0xbd3b585d	-0.045738567
149	0xbdc1355b	-0.09434005
150	0x3e015fcf	0.12634204
151	0x3de5b7a0	0.11216664
152	0xbd290644	-0.04126574
153	0xbd7f6251	-0.06234962
154	0x3db376de	0.087629065
155	0x3d32581d	0.043541063
156	0xbe0483f4	-0.12940961
157	0xbcb2f337	-0.02184449
158	0x3e0ba775	0.13638099
159	0x3d8dfaf8	0.06932634
160	0x3d0b60a4	0.03402771
161	0xbd98c3a2	-0.07459189
162	0x3cee866d	0.029116834
163	0xbdbbe2d5	-0.09174124
164	0xbd889b82	-0.06670286
165	0x3db7a84e	0.089676484
166	0x3d705f18	0.05868444
167	0x3da93898	0.082627475
168	0x3bb2752d	0.0054460973
169	0x3d3e60db	0.046479087
170	0x3d691932	0.056908794
171	0x3e045707	0.12923823
172	0x3e176b4b	0.14787023
173	0x3d1a9cfc	0.03774737
174	0x3d0c4327	0.03424373
175	0xbc25f362	-0.010128828
176	0xbd89586a	-0.06706317
177	0x3dc8c1ac	0.09802565
178	0x3da62a40	0.08113527
179	0x3d498878	0.049202412
180	0x3d28f45b	0.04124866
181	0xbdcf6e0c	-0.10128412
182	0x3e0d3852	0.13791016
183	0xbd757e2b	-0.059934776
184	0x3dde41c6	0.10852389
185	0xbcd23d97	-0.025664134
186	0xbd1fbb31	-0.03899688
187	0x3d898888	0.067154944
188	0x3d95a4ec	0.07306847
189	0xbc1acfe6	-0.009448981
190	0x3dbafed2	0.09130634
191	0xbe0603e9	-0.13087429
192	0x3c9c927c	0.019112818
193	0xbdbde955	-0.0927302
194	0xbd790bb7	-0.060802188
195	0xbd05baa0	-0.032648683
196	0x3d9f7e87	0.07787805
197	0x3e0ece9f	0.13946007
198	0xbd9f76e8	-0.077863514
199	0x3dbe7cea	0.09301169
200	0xbdca3d7e	-0.0987501
201	0xbd076098	-0.033051103
202	0xbdf3e060	-0.119080305
203	0xbddf5af7	-0.10906022
204	0xbd8b330c	-0.06796846
205	0xbd802829	-0.0625766
206	0xbd07f3fe	-0.033191673
207	0x3dcc7742	0.09983684
208	0xbdbbe24a	-0.091740206
209	0x3d5a5554	0.05330403
210	0x3d067b5e	0.032832496
211	0xbcb0b866	-0.021572303
212	0xbdf3ea32	-0.119099036
213	0x3dc0a546	0.094065234
214	0x3daf41cb	0.08557471
215	0x3dca0e2c	0.09865984
216	0x3c0fae8a	0.008769641
217	0x3c837cb8	0.016050681
218	0xbe040387	-0.1289197
219	0x3e0172db	0.1264147
220	0xbde8151a	-0.1133215
221	0x3af754ba	0.0018869855
222	0xbde0cfd0	-0.10977137
223	0x3d46c293	0.048525404
224	0xbddf010f	-0.10888874
225	0xbd82d761	-0.063887365
226	0x3e07ccce	0.1326172
227	0x3dd5c615	0.10438172
228	0xbd722204	-0.05911447
229	0x3a24655c	0.0006271207
230	0xbd989d62	-0.074518934
231	0x3e0eb68c	0.13936824
232	0x3a315205	0.0006764236
233	0x3daf64e2	0.08564164
234	0x3d84c1cc	0.06482276
235	0x3ddaca94	0.1068317
236	0x3dfa5a7e	0.12224291
237	0x3da5aafd	0.08089254
238	0xbe0f5be0	-0.13999891
239	0xbcdf11f5	-0.027230242
240	0xbce05b52	-0.027387295
241	0xbe0fe9de	-0.14054057
242	0xbcd7c134	-0.026337244
243	0xbde7f18a	-0.11325367
244	0xbd36a0d7	-0.044586983
245	0xbd163086	-0.03666737
246	0xbdcbdbd4	-0.09954038
247	0x3d2a09d7	0.04151329
248	0xbbc74abc	-0.006081907
249	0x3d07a676	0.033117734
250	0xbe33a6cb	-0.17544095
251	0x3d143e95	0.036192495
252	0xbdb56ee4	-0.08859041
253	0x3d4bfc54	0.049801186
254	0xbe2b1570	-0.16707397
255	0xbe29c5e3	-0.16579394

module.gcn_layers.0.bnEdges.batch_norm.weight f4 [50]
0	0x3f75ff72	0.96092904
1	0x3f886ddc	1.0658526
2	0x3f80e077	1.0068501
3	0x3f8ef0dc	1.1167254
4	0x3f7b6362	0.9819852
5	0x3f7620d2	0.9614383
6	0x3f7c9de1	0.98678404
7	0x3f750e67	0.957251
8	0x3f7ed5be	0.99544895
9	0x3f7edb57	0.99553436
10	0x3f8119c1	1.0085984
11	0x3f755381	0.9583054
12	0x3f772eba	0.96555674
13	0x3f82d2ac	1.0220542
14	0x3f78bedb	0.9716622
15	0x3f7c3beb	0.9852893
16	0x3f808cd5	1.0042979
17	0x3f911c5b	1.1336778
18	0x3f8869e8	1.065732
19	0x3f75c057	0.9599661
20	0x3f7ae97c	0.9801252
21	0x3f85df20	1.0458717
22	0x3f783973	0.9696266
23	0x3f871ee4	1.0556302
24	0x3f7a536a	0.9778353
25	0x3f7cc4cd	0.98737794
26	0x3f7c18ec	0.9847553
27	0x3f8032bd	1.0015484
28	0x3f795a07	0.97402996
29	0x3f78519d	0.9699953
30	0x3f868b33	1.051123
31	0x3f8330da	1.0249283
32	0x3f7c9e15	0.98678714
33	0x3f83a541	1.0284806
34	0x3f82bee0	1.02145
35	0x3f7d4fae	0.98949707
36	0x3f7d9a50	0.9906359
37	0x3f801c2c	1.0008597
38	0x3f7bb27d	0.98319227
39	0x3f8075f0	1.0035992
40	0x3f7cc1b7	0.98733085
41	0x3f7fda0b	0.9994208
42	0x3f7cda54	0.9877064
43	0x3f7b5751	0.9818011
44	0x3f7aaa98	0.97916555
45	0x3f860ebb	1.0473245
46	0x3f7bd944	0.98378396
47	0x3f770334	0.9648926
48	0x3f7d92fe	0.9905242
49	0x3f80b7db	1.0056108

module.gcn_layers.0.bnEdges.batch_norm.bias f4 [50]
0	0xbbfd2e0e	-0.0077264374
1	0xbc89f646	-0.016841065
2	0x3c237dbb	0.009978707
3	0xb8c3f71c	-9.344352e-05
4	0x3bcd7e87	0.0062711868
5	0xbbf0ff52	-0.0073546553
6	0x3be746e9	0.0070580137
7	0xbd327f69	-0.04357854
8	0x3aaeaa05	0.0013325816
9	0x3d336366	0.043795966
10	0xbc66f977	-0.014097563
11	0xbc8fff2b	-0.017577728
12	0x3c67d8d7	0.01415082
13	0x3c07a5fe	0.008279322
14	0xba92d965	-0.0011203705
15	0xbbecc1de	-0.007225259
16	0xbc5a166c	-0.01331101
17	0xbd02ed74	-0.031964734
18	0x3ca73d5a	0.020414997
19	0xbd7604c4	-0.06006314
20	0xbc55f0b6	-0.013057878
21	0x3c9850e9	0.018593268
22	0xbbd0deb9	-0.006374207
23	0x3d3062af	0.043062862
24	0xbc95b5ce	-0.018275168
25	0xbbf4ed15	-0.0074745514
26	0x3d215a17	0.039392557
27	0x3d3ffd1c	0.046872243
28	0xbc3e9992	-0.011633294
29	0xbc850e1b	-0.016242078
30	0x3c71e60b	0.014764319
31	0x3dca4be8	0.09877759
32	0xbd059ad9	-0.032618377
33	0x3b0b895f	0.0021291596
34	0x3cd70d14	0.026251353
35	0xbd3c4a47	-0.045969274
36	0x3ca460a4	0.020065613
37	0xbbd0a9f2	-0.0063679153
38	0x3b38d991	0.0028205852
39	0x3bf28853	0.007401505
40	0xbcc51615	-0.024058381
41	0xbcd8b727	-0.026454521
42	0x3ab24844	0.0013601859
43	0x3bf3132b	0.0074180565
44	0x3c3c6c97	0.011500499
45	0x3cce4242	0.025178079
46	0xbd0a3f8c	-0.03375201
47	0xbc69a339	-0.014260107
48	0xbb381955	-0.002809127
49	0x3c6ff909	0.014646777
