logs/deafult/last_train_checkpoint.tar (torch, 489841 bytes, 103 tensors)

module.NodesEncoding.A1.weight f4 [50, 2]
000000 92 a7 14 bf 56 2d c0 3e 74 b4 13 bf 7e 2e 14 bf
       -0.5806819 0.3753459 -0.57697225 -0.5788344
000010 b0 8c cb 3e ac fa 83 3e 52 be c8 be 2f fb 2c bf
       0.39755774 0.25777185 -0.39207703 -0.67570776
000020 15 57 5b be d5 3d 3e 3e 38 77 af 3e 88 4e 11 be
       -0.21419938 0.18578275 0.34270644 -0.14190114
000030 6f 0c 04 3f b5 99 6c be 49 62 00 3e 83 f5 d8 be
       0.5158147 -0.2310551 0.12537493 -0.4237481
000040 af 98 94 bd 10 cc e8 3e 13 80 bf be 6c 02 10 3f
       -0.072556846 0.45468187 -0.374024 0.56253695
000050 52 f3 23 bf 0f fe 14 3e 38 6a f2 3e d0 da 29 3f
       -0.6404315 0.1455004 0.47346663 0.66349506
000060 a1 ac 1f 3f b9 00 34 3f 9c 52 5b 3e 2d d2 68 3d
       0.62372786 0.703136 0.21418232 0.056841064
000070 93 57 aa 3e 6d 42 b8 be 3e 36 be 3e 74 6a e8 be
       0.3326994 -0.3598818 0.37150759 -0.45393717
000080 fd 9b 6e be 21 cf f6 be 21 ba 27 3f f9 95 aa 3e
       -0.23301692 -0.48204902 0.65518385 0.33317545
000090 b1 44 38 be fb cf a0 be 36 91 22 3e b3 ef df be
       -0.17994954 -0.31408677 0.15875706 -0.43737563
0000a0 76 84 0d be 07 4e a3 3e fd 83 0d 3f e2 83 ca be
       -0.13820061 0.31895468 0.55279523 -0.39553744
0000b0 60 e0 91 be d7 69 01 3f ba d0 35 3f a2 ad 4a 3e
       -0.28491497 0.50552124 0.71021616 0.19792798
0000c0 eb 02 32 bf db ed f4 be ab c1 f0 bd d1 d8 12 3f
       -0.695357 -0.4783772 -0.11755689 0.57362086
0000d0 a2 14 d0 be 01 1c f0 be d7 c5 e0 be 6c 95 64 be
       -0.40640742 -0.46896365 -0.4390094 -0.22322625
0000e0 0b f9 b2 3d 59 f0 12 3f 71 db c3 be ce 78 13 3f
       0.087389074 0.5739799 -0.38253358 0.5760621
0000f0 00 ed 94 be 18 ec 17 bf 72 1e 23 bf af 39 2c 3f
       -0.29087067 -0.59344625 -0.6371833 0.6727552
000100 6a 6d 32 bf c7 91 4d bc aa 0b 84 3d 31 56 9a 3d
       -0.696982 -0.012546963 0.06447537 0.07535971
000110 89 d5 b2 3d c0 12 0c 3f c3 ba 54 be 08 61 dd 3e
       0.08732135 0.5471611 -0.20774369 0.4323809
000120 d7 c2 93 3e 5e aa 84 3c 33 4a f9 bd 44 57 ac be
       0.28859589 0.016194519 -0.121723555 -0.33660328
000130 1f 06 15 bf 51 f0 f4 3e e1 e1 b8 3e 95 39 21 3f
       -0.58212465 0.47839597 0.36109832 0.6297849
000140 87 49 a8 3e 8d b2 7d be 3b 02 ba 3e 4b aa 26 3f
       0.32868597 -0.24775143 0.36329827 0.65103596
000150 c8 87 27 3f 30 61 80 3d a6 1e fa 3d 87 8d ca be
       0.6544156 0.06268537 0.12212877 -0.39561102
000160 24 aa ae 3e 07 e4 99 be 50 17 34 3f 9d 9d ff 3e
       0.34114182 -0.30056784 0.7034807 0.49924937
000170 2f 0d 3e 3e 06 d9 16 be 8a f6 93 be b0 30 22 3e
       0.18559717 -0.14731225 -0.28899032 0.15838885
000180 80 fd 27 3f 80 1a 53 3e 2b 24 03 3e 0c d7 a2 be
       0.65621185 0.20615578 0.12806766 -0.31804693

module.NodesEncoding.A1.bias f4 [50]
000000 d4 8c 81 3e c6 f2 0f 3f 5f 10 24 3f 7f 2e 76 3e
       0.25302756 0.5622982 0.6408748 0.24041174
000010 e4 7e c4 bd 03 07 9c 3e cb 80 14 3f 44 93 9c be
       -0.09594515 0.304741 0.5800902 -0.30581105
000020 87 05 3d be d7 e0 8f be 5c f5 01 3c c6 a1 e9 3e
       -0.1845914 -0.28101227 0.007932033 0.45631236
000030 22 79 b7 3e 32 60 34 3f d7 18 0c bf dc e1 9d 3e
       0.35834605 0.7045928 -0.547254 0.3083638
000040 9a 56 ad be ee 70 1f 3f 06 4f 9d 3d 41 00 91 be
       -0.33855134 0.6228169 0.07681088 -0.28320506
000050 2e fe e7 be 50 a3 ef be b1 f2 77 be 6a 4c d9 be
       -0.4531111 -0.46804285 -0.24213673 -0.42441112
000060 f3 b4 b2 3e c1 a6 78 be 1c bf 07 bf d5 f1 07 3d
       0.34903678 -0.24282362 -0.53025985 0.033189613
000070 6c 73 04 be 04 04 cb 3e 55 24 b5 be 47 8c f9 bd
       -0.12934655 0.396515 -0.35379282 -0.12184959
000080 32 1f bb be 6e 91 c2 be 59 5d 44 be ee f0 e5 3e
       -0.36547238 -0.3800158 -0.19176234 0.44910377
000090 cb f0 10 bd c8 2a 91 be 44 4d 2e 3d 3d 7b 04 3f
       -0.035385888 -0.28352952 0.042554155 0.51750547
0000a0 34 1f 1e 3f 0b 28 72 3c 34 22 33 3f 56 f2 27 3e
       0.6176636 0.014780055 0.69974065 0.16401038
0000b0 9e 1e ff 3e 7d 12 33 3f 1b 8f ee be 1f be 86 3e
       0.49828047 0.69950086 -0.46593556 0.26316926
0000c0 d6 0b 29 bd a4 dd 3b 3e
       -0.041271053 0.18346268

module.EdgesEncoding.A2.weight f4 [25, 1]
000000 79 93 b6 3d b8 fc 3c bf 85 9b 6f 3f e4 89 27 bf
       0.08914847 -0.7382312 0.9359668 -0.6544478
000010 38 05 81 bf 9a f2 57 bf f1 64 8e 3e fb 31 81 bd
       -1.0079718 -0.84354556 0.27811387 -0.06308361
000020 3a db 20 3f 7a 40 10 be 5e 7d f9 3c 17 4e 15 3f
       0.62834513 -0.14087096 0.030455288 0.5832228
000030 e4 36 5b 3f 48 0d 9d 3d df 65 92 be bd 36 54 3f
       0.8563063 0.07668549 -0.28593346 0.82896024
000040 c9 4f 31 3f 87 87 12 3f 74 a1 b5 3d e1 54 f5 3e
       0.6926237 0.5723805 0.08868685 0.4791632
000050 e7 04 3a 3f 3f d3 68 3f 09 cc 22 3e 57 5e c6 be
       0.7266373 0.90947336 0.15898146 -0.3874385
000060 e1 83 bc 3e
       0.36819366

module.EdgesEncoding.A2.bias f4 [25]
000000 9a 54 0e be db 5a 86 3d 50 b9 66 bf 11 32 43 be
       -0.1389946 0.06560298 -0.90126514 -0.19062068
000010 f0 5b 1b 3f c1 17 14 3f d2 79 55 be 49 89 b1 3d
       0.6068716 0.57848746 -0.20847252 0.08668763
000020 0b f4 3b bf 2c 8c 14 3e 38 47 e7 be 74 27 3c 3f
       -0.73419255 0.14506596 -0.45171523 0.734977
000030 04 d2 4e be ee e4 01 be d3 35 a0 3e 10 a5 36 3f
       -0.20197302 -0.12684986 0.31291065 0.71345615
000040 b6 65 42 3f cc 1d 9d be 42 5d 19 3f 2c ed 1f 3e
       0.7593645 -0.30686796 0.59907925 0.15617818
000050 a1 d5 2d 3e 29 f7 a2 be f7 28 d8 3e 9f c9 26 3e
       0.16976024 -0.31829193 0.42218754 0.1628785
000060 0d a1 d0 3e
       0.40747872

module.EdgesEncoding.A3.weight f4 [25, 1]
000000 f9 80 e9 be 3f 3b 51 3d b1 26 6e bf ad 65 80 3d
       -0.4560621 0.051081892 -0.9302779 0.06269393
000010 25 f6 68 bf ac 6d 44 3e 3d fd 03 be ab 7b 0a bf
       -0.91000587 0.19182462 -0.12889571 -0.5409495
000020 5d 7a 60 3f de c6 3e bd 99 b9 4c 3e ff cd a2 bd
       0.8768671 -0.046576373 0.19992675 -0.07949447
000030 5d bd 29 3f 9b 38 c9 3e 3b 2b 85 3c 11 5b ab be
       0.6630457 0.39301 0.016255965 -0.33467916
000040 07 02 25 3f bf aa 84 3e 5f 0b 6a 3e d3 31 5c be
       0.6445622 0.2591152 0.228559 -0.21503381
000050 6e 57 2e bf 15 e0 2c bd 42 08 ad 3e ed 24 e4 be
       -0.6810216 -0.04220589 0.33795363 -0.44559422
000060 56 a8 c0 3e
       0.3762843

module.EdgesEncoding.A3.bias f4 [25]
000000 ce fa 23 3f 8b e8 2e 3f 4a 6f 0b be a0 36 91 3e
       0.6405457 0.6832358 -0.13616672 0.28361988
000010 18 f1 9f be 52 cf 99 be 67 8b 25 3f 52 3d 51 bf
       -0.31238627 -0.30040985 0.64665836 -0.8173419
000020 1d ad 20 3f cf 3d 82 be f8 ce 6b bf cb 0a 34 3f
       0.6276415 -0.2543778 -0.92112684 0.7032897
000030 71 80 62 3f 57 d7 3f bf 96 e0 7d 3e 12 b4 06 bf
       0.88477236 -0.7493796 0.24792704 -0.52618515
000040 04 d0 83 be 5b 83 7c bf 33 9e 9e be c1 5a 70 3e
       -0.2574464 -0.9863793 -0.3098007 0.2347212
000050 84 dc 7e 3f f8 61 3e 3e 6c 04 50 bf e5 f7 40 bf
       0.9955523 0.1859206 -0.8125675 -0.7537826
000060 68 6e 81 be
       -0.25279546

module.gcn_layers.0.bnNodes.W1.weight f4 [50, 50]
000000 f8 a6 12 3e b1 3a 32 3c eb c1 3c bd 91 e4 56 bb
       0.14321506 0.010878251 -0.046083372 -0.0032790045
000010 3d 93 ea 3d 0f a8 9c bd 04 e6 fa bd c1 6e 13 be
       0.11453865 -0.07649242 -0.12250903 -0.14397718
000020 34 89 92 3d 12 62 de 3d 15 02 15 3e ef 9b cd bd
       0.07155076 0.10858549 0.14551575 -0.100395076
000030 f4 fb af bc 45 72 bc 3c e2 98 88 3d 64 e2 96 bb
       -0.021482445 0.023003707 0.06669785 -0.0046046246
000040 99 5c 08 be e2 99 c4 bd d5 33 85 3d 43 82 0b 3d
       -0.13316573 -0.09599663 0.06504027 0.034059774
000050 e5 7c ff 3d a5 a8 6f 3d 5e a1 cc bc ad 0a c5 bd
       0.124749936 0.05851044 -0.02497929 -0.09621177
000060 12 26 39 bc 88 d5 54 bd d4 1b a9 3c 4c b9 c4 bd
       -0.011300581 -0.05196145 0.020643152 -0.09605655
000070 56 3a 93 bd e1 19 0b bd 53 9c 0a 3e ba 4b 8e bd
       -0.07188861 -0.033960227 0.13536195 -0.069480374
000080 62 7c b4 bd 82 7e 9a 3d f9 41 4e bd 0a 88 e3 bd
       -0.08812787 0.07543661 -0.050355885 -0.11109932
000090 de 25 f8 bc 57 e7 17 bd 10 36 01 3d b6 c5 89 3d
       -0.030291494 -0.037085857 0.0315457 0.067271635
0000a0 0d 35 27 3d 56 01 0b 3d 30 8d 9d 3d 26 a2 8e 3d
       0.040822078 0.03393682 0.07692945 0.06964521
0000b0 e4 56 01 3e 16 ee 09 be d3 92 22 3d 1f a1 b1 bd
       0.12630802 -0.13469729 0.039690804 -0.086733095
0000c0 49 8c 71 bd a0 a6 b4 bd d7 e2 4d bc 1a cb f4 bd
       -0.058971677 -0.08820844 -0.01256629 -0.11952801
0000d0 de 2f 0e 3e 09 b1 4b bd a0 b7 88 bc 50 13 2a 3d
       0.13885447 -0.04972938 -0.016689122 0.041522324
0000e0 69 b7 12 3d 00 f2 a6 3d 2f d4 f0 bd 0d ee d4 bd
       0.035819445 0.081516266 -0.11759221 -0.10396967
0000f0 09 71 94 3d 9c f8 03 3d fb 09 01 3e ff 5c 0e 3e
       0.07248122 0.032219514 0.12601463 0.13902663
000100 2e 66 bc bb 17 9b 65 bc ec 95 b6 bd 3d af f4 bd
       -0.0057494855 -0.014014027 -0.08915314 -0.119474865
000110 74 d8 0a be 68 d9 9a bd 81 5e d4 3c a2 d3 e9 bd
       -0.13559133 -0.07560998 0.02592397 -0.11417319
000120 a3 bd 49 3d 49 21 63 3c 0d bd 97 bc 9c 6c f4 3c
       0.049253117 0.013862916 -0.018522764 0.029836945
000130 3c 21 e7 3d 3e 2b 21 3c ae 89 10 be 05 ad 1b bd
       0.11285636 0.00983697 -0.1411502 -0.0380068
000140 e7 80 b2 bd b3 d7 2b 3c 95 41 b6 3d db 0a ce 3d
       -0.087159924 0.010488438 0.088992275 0.10060664
000150 b9 20 82 3d 0f ed 9e bd 0b 5e b3 bd fc f7 ff 3d
       0.063538976 -0.07760059 -0.08758172 0.12498471
000160 ad c9 b3 bd e6 98 0d 3e 90 fe f9 3d 16 37 f4 3d
       -0.08778701 0.13827857 0.12206757 0.11924569
000170 a0 a1 fa bc 80 be fc bc 35 08 0a be 67 34 08 be
       -0.030594647 -0.030852556 -0.13479693 -0.1330124
000180 1e 5e 7f bd 4a d7 d1 3b cb ee 0d 3e 17 18 39 bd
       -0.062345617 0.0064038383 0.13860624 -0.04518899
000190 c0 1e fa bd 69 2a 79 bd 52 3d 22 3c 49 4d 8c 3c
       -0.12212896 -0.06083146 0.009902315 0.017126696
0001a0 c4 d2 c3 bc df 84 62 3d 1a 92 b4 3d 5b 0d 05 be
       -0.023904212 0.055302497 0.08816929 -0.12993376
0001b0 64 0b 50 bd 52 20 f6 bd 94 f2 04 3d 14 8c e1 bc
       -0.050792113 -0.12017883 0.032457903 -0.027532615
0001c0 d5 0a a2 3d b0 ae 17 bd 2a 74 9a 3d e7 25 b9 3d
       0.07912222 -0.03703183 0.07541688 0.090404324
0001d0 14 fe c2 3d 0a 57 51 3b dc 0c dc bc cd 9d 60 bd
       0.09521118 0.0031942748 -0.0268616 -0.05483799
0001e0 3f 68 06 be 6e a1 cb bd 1a c8 c8 bd 84 30 36 3d
       -0.13125704 -0.099429 -0.09803791 0.04447986
0001f0 1c 5b c1 bd 7d e9 18 3e 4c 12 07 be 42 da d6 3d
       -0.09441206 0.14932819 -0.13190573 0.10490848
000200 fb b1 c4 bd b7 d9 71 bd 3c 40 00 3d 20 ed 0d bd
       -0.096042596 -0.05904552 0.03131126 -0.03464997
000210 03 b1 b6 bd ab 26 b4 3c e8 c7 ad 3d 14 af fc 3d
       -0.08920481 0.021991095 0.08485395 0.12338081
000220 4f db 0c 3e 2c ba 0f be 9c 35 0c 3d 60 20 02 3d
       0.13755535 -0.14035863 0.034230813 0.031769156
000230 ed 6d 13 bd f9 bc a7 bd 0e 07 80 3d 50 3b 94 3d
       -0.035993505 -0.081903405 0.062513456 0.072378755
000240 1c c8 dd bd 1e 86 13 bd 17 74 2b bd 11 98 7f 3d
       -0.108291835 -0.036016576 -0.04185876 0.06240088
000250 89 9b 89 bd 23 27 eb bd 36 67 f4 bd 36 57 c8 bd
       -0.06719119 -0.11482074 -0.119337484 -0.09782259
000260 91 fd c9 3d 1a 41 d3 bc 77 ab c8 ba b7 3e a2 bd
       0.09862817 -0.025787879 -0.001530989 -0.07922118
000270 73 48 e5 3c 30 a1 65 3d 9b ba 7a bd 64 80 f0 3d
       0.027988648 0.056061924 -0.061213117 0.117432386
000280 39 f0 69 3d aa 8a ab bd bd 9f ad 3c 32 b9 d1 3d
       0.05711386 -0.083760574 0.021194333 0.10240401
000290 b8 96 96 3d 2b 62 ad bd 45 de 89 3d f3 d9 2b 3d
       0.07352966 -0.0846599 0.06731848 0.0419559
0002a0 8a c4 06 3e 44 ab 7b bd 87 c0 0c 3d 99 97 00 3e
       0.13160911 -0.06144263 0.034363296 0.1255783
0002b0 c3 f6 bb 3d 08 31 bf 3c 5c 5b 91 3d 11 ed ba 3d
       0.091779254 0.02333881 0.070975035 0.09127248
0002c0 6b ab ac bc 06 00 8a bd 86 89 04 3e ef a4 e9 bb
       -0.021077832 -0.06738286 0.12943086 -0.0071302573
0002d0 71 df e0 3c 3a d3 c8 bc 24 db e5 bd 80 35 07 3e
       0.027450295 -0.024514783 -0.112234384 0.13204002
0002e0 bd ed 04 be c9 76 d2 bd 44 c1 03 3d d0 60 81 bb
       -0.12981315 -0.10276563 0.032166734 -0.0039483085
0002f0 1b cf 96 bd cd df d9 3d c9 f7 ca bd d4 c8 55 3d
       -0.07363721 0.1063839 -0.099105425 0.052193478
000300 64 74 9c bd d3 4d e8 3d 95 d7 07 be 29 76 68 3d
       -0.07639387 0.11342969 -0.13265832 0.05675331
000310 8c 35 9a 3d af 64 f0 3d 6a af 04 be 2b c6 96 bd
       0.075297445 0.11737954 -0.1295754 -0.07362016
000320 27 c4 aa 3c ee c0 1e bd 2b a0 04 be e0 b4 cc bd
       0.020845486 -0.03875821 -0.12951724 -0.09995437
000330 28 9f f6 bd 41 72 e0 3d b9 ed 9e 3b b0 bd 04 be
       -0.120420754 0.10959292 0.004850116 -0.12962985
000340 2a 7d 0a be f2 23 5c bd fa 6f 5d 3c f7 c1 37 bd
       -0.13524309 -0.053745218 0.013515467 -0.044862714
000350 71 e2 af bb 17 77 ab bd ac 81 62 bd 8d 31 ab bd
       -0.00536757 -0.08372324 -0.055299446 -0.083590604
000360 26 72 e4 3d d5 74 40 bd b0 4c cd bb ca 87 da 3d
       0.111545846 -0.04698642 -0.0062652454 0.10670431
000370 0e 0f 4f bd 12 e5 d7 bc a7 75 7e 3d e4 4a 06 3e
       -0.050551467 -0.026354346 0.06212392 0.13114506
000380 67 0e 36 3b ef 7b bc 3c 17 f6 d4 bd 26 14 e4 3d
       0.002777958 0.023008315 -0.103985004 0.111366555
000390 13 b7 8f bd ea 89 be 3d 55 7a f7 bd 0b 8f 92 bd
       -0.070173405 0.09303649 -0.1208388 -0.071561895
0003a0 17 ab ed bd b0 ef 9d 3d a1 eb 0a bd 31 1a aa bd
       -0.116048984 0.077117324 -0.03391612 -0.08305777
0003b0 2c ad ae bd 9b aa 6a 3d 07 f0 56 bd 4f 06 54 3d
       -0.08529124 0.05729161 -0.052475 0.05176383
0003c0 51 c0 9d 3d 3c a0 26 3d 6b c1 85 bd c8 1a 11 3e
       0.07702697 0.040680155 -0.06531032 0.14170372
0003d0 b1 6d d1 bd 5a c9 26 3d d7 57 0b 3e e9 7e a7 bd
       -0.10226 0.040719368 0.13607727 -0.08178503
0003e0 f4 24 b3 bc e4 4a bf 3d 5e d4 12 bd 46 84 06 be
       -0.021868207 0.09340456 -0.03584706 -0.13136396
0003f0 60 b8 a7 3d 59 76 b1 3c e1 3d cd 3b b2 2f f4 3d
       0.081894636 0.021662878 0.00626348 0.1192316

module.gcn_layers.0.bnNodes.W2.weight f4 [50, 50]
000000 ce 48 e1 bd 99 a2 d8 3d 7a 72 ad bc e9 b2 08 3e
       -0.110002145 0.10577888 -0.02117275 0.13349499
000010 e4 00 de bd 25 78 56 3d d2 5b 64 39 b3 bf 58 bc
       -0.108400136 0.052360673 0.0002177798 -0.013229298
000020 dd 52 c7 3d 17 3c 08 bd 5c 5b 68 3b b9 09 d0 bd
       0.09732602 -0.03326043 0.0035454845 -0.101581044
000030 61 5e f4 bd 74 a3 15 3e ec 99 d3 bc c2 f2 8d 3d
       -0.11932064 0.14613134 -0.025830232 0.06931068
000040 89 be 0b bc cb 5c cc bd 36 a3 04 3e 87 9c c5 3c
       -0.008529314 -0.09978636 0.12952885 0.02412249
000050 85 20 5b 3d a5 0e 41 3d 05 45 00 be e0 80 19 bd
       0.05349781 0.047133107 -0.12526329 -0.03747642
000060 e1 5f ae 3d ac c6 a1 bd 90 e8 ab bd cd 3a dc bd
       0.08514381 -0.07899222 -0.08393967 -0.10753403
000070 29 4e 74 bc de 22 d9 3c 10 0a f3 bd 23 c9 7a 3d
       -0.014911213 0.026505884 -0.11867154 0.061226975
000080 c9 a6 8b bd ef 2b 27 3d ea 66 b0 bd a4 9d e7 3d
       -0.06818921 0.040813383 -0.08613379 0.113093644
000090 af 57 b9 bd c2 4f 6c 3d 9c d5 c2 bd 83 41 8c bc
       -0.090499274 0.05769325 -0.09513399 -0.017121082
0000a0 ec a6 fe 3d dc 14 93 3d 7b 54 34 bd 44 54 9e 3d
       0.124341816 0.07181713 -0.04402588 0.07730916
0000b0 32 a3 05 bd 2c d6 81 bd d0 3e 7f bc 37 a5 d3 3d
       -0.03262634 -0.06339678 -0.0155789405 0.103342466
0000c0 bd c8 ac 3d 4a d7 d9 bd b7 7e d9 3d df 45 36 3c
       0.08436725 -0.10636766 0.10619872 0.011125057
0000d0 a6 36 f9 3d 35 0b a3 3c 74 ae e2 bc e0 34 91 bd
       0.121686265 0.019902805 -0.027671076 -0.07090163
0000e0 e1 ac fb bc 21 1f 20 bd 9e 96 2f 3d 6d b0 98 bd
       -0.030722084 -0.039092187 0.04286825 -0.074555255
0000f0 80 4d 0c be 26 7c c6 bd bf ee b9 3d 2a c8 78 3c
       -0.13701439 -0.09691648 0.0907874 0.015184442
000100 f0 50 83 bc f4 4a 58 bc 71 77 16 3e 04 27 98 3d
       -0.016029805 -0.013201464 0.14694001 0.07429317
000110 e2 1b ed 3b 75 04 e4 3d 23 b6 00 3e 78 bd 10 3e
       0.00723599 0.111336626 0.1256948 0.14134777
000120 a6 a3 4e bb 2d b8 aa 3d 49 42 1b bd bf 2d d0 3c
       -0.0031530648 0.0833591 -0.03790501 0.025412438
000130 48 0e 06 3e 2a cb fd bd dd b5 dd bc c2 a9 e2 3d
       0.13091385 -0.12392266 -0.027064258 0.11067535
000140 74 b4 d5 bd 79 b5 e5 bc b7 32 44 bd b6 bd 82 3d
       -0.10434809 -0.028040634 -0.047899928 0.06383841
000150 4d cc 10 bc 3f 1b 14 be 6c 0b d7 bd c4 f4 af 3d
       -0.008837772 -0.14463519 -0.105002254 0.08591607
000160 66 82 7c ba e1 58 f9 3d ef 70 b4 3c 7d e9 d1 3d
       -0.0009632468 0.121751554 0.022026507 0.102496125
000170 e6 22 70 3d 68 c7 f3 bd 82 3e ce 3d 68 29 b4 3c
       0.05862703 -0.11903268 0.10070516 0.0219924
000180 0a 3a 43 bd 1d d1 14 3d 79 56 77 bd d5 cb 28 bd
       -0.047662772 0.03633224 -0.0603852 -0.041210014
000190 49 7e cb bc 47 d6 a8 3d b6 de fb bd 39 e8 9c bd
       -0.02484049 0.08243995 -0.12298338 -0.076614805
0001a0 27 d3 0b 3e 42 5a d9 3d 26 7e 0d 3e 23 1d 56 bd
       0.13654767 0.106129184 0.13817653 -0.05227388
0001b0 c6 9d d4 bc 7f d5 0b be 68 78 ec bd 95 cd 8c 3c
       -0.025954138 -0.13655661 -0.11546403 0.017187873
0001c0 aa 0d 7d bb e5 c0 f0 bc e2 1d 77 bd ac be af bd
       -0.003861288 -0.029388854 -0.060331233 -0.0858129
0001d0 19 14 bc 3d cf cd 53 3d 28 6c 9b bc 50 88 0d 3e
       0.09183521 0.051709946 -0.018972471 0.1382153
0001e0 3e d3 9a 39 71 89 e3 3d da 24 43 bc 84 9d 34 bd
       0.00029530557 0.11110199 -0.011910642 -0.04409553
0001f0 4f 0b e5 bd fa 05 a5 bd 09 dc 9e bd cf 50 91 bd
       -0.111837976 -0.080577806 -0.07756812 -0.07095491
000200 62 4b 07 3e 0f 2b 0a be 9b f5 f5 3d b3 81 bb bd
       0.1321235 -0.13492988 0.12009736 -0.091555975
000210 db 44 12 be 0d 40 75 3d e8 6e d9 bd 9d 00 61 bd
       -0.14284079 0.059875537 -0.10616857 -0.054932225
000220 03 0c 58 3d 1b 10 81 bd 39 0a 06 3d 08 37 bd 3d
       0.05274583 -0.063019 0.032724593 0.09239012
000230 d0 9a c7 bb ce cb 8e bd db 00 98 bd 59 7c f2 3c
       -0.006091453 -0.069724664 -0.07422038 0.02960031
000240 0d 79 87 bd 2a 71 83 bd b7 1e 92 3d 9c 6b 0c 3c
       -0.066148855 -0.06418069 0.07134765 0.008570578
000250 70 11 6e 3d c2 cb 8f 3d 3f d9 08 be 9a fb 47 3c
       0.0581221 0.070212856 -0.13364123 0.012205983
000260 ee 8f 8e 3c e0 17 0d 38 5b c1 32 3b 9b f3 03 bd
       0.017402615 3.3639255e-05 0.0027275893 -0.032214742
000270 c2 b0 00 be a5 42 dd 3d c7 69 ff bb 0f 3a b3 bc
       -0.12567428 0.10803727 -0.007794592 -0.02187827
000280 0f 8a f5 3d 73 37 6c bd e8 f3 9f bd 01 f5 be bc
       0.11989223 -0.057670068 -0.07810193 -0.023310186
000290 cd a0 cf bd a5 00 a4 bd 9c ef 6b bd 45 e4 09 3e
       -0.10138092 -0.080079354 -0.057601556 0.13465984
0002a0 67 67 0a bd 56 10 07 be 11 a4 a6 bc 5a d6 87 bd
       -0.03379002 -0.13189825 -0.020341905 -0.06632681
0002b0 01 74 b8 bd b6 7f 59 bd 8b e3 09 be a9 ed 61 bd
       -0.09006501 -0.05310031 -0.13465707 -0.05515829
0002c0 b8 24 00 be 1b 6c 5b bd e9 87 0a be 16 3d d6 3c
       -0.12514007 -0.053569894 -0.13528408 0.026152175
0002d0 35 5d cb 3c 9b 6e 94 bd 82 b8 5c bb 16 d8 c1 bd
       0.024824718 -0.07247659 -0.003367931 -0.09465043
0002e0 ef fb e3 bd 46 8e d2 3a 41 a6 07 bd f2 e2 f3 bd
       -0.11132037 0.0016064129 -0.033117536 -0.11908521
0002f0 89 6e aa 3d aa 34 08 3d 8a 8e 18 be 34 b6 d3 bd
       0.08321864 0.03325335 -0.14898124 -0.10337487
000300 d7 da 77 3d 60 2c a9 3c 77 d5 a8 3d 32 96 d7 3a
       0.060511436 0.020651042 0.0824384 0.001644796
000310 2f 25 9b 39 a9 23 85 bd a6 d7 80 bd 24 b7 db bd
       0.00029591608 -0.06500942 -0.06291132 -0.10728291
000320 08 b3 54 3d 2b 1a fc 3d f3 2b 32 3d 1f 8d c3 bc
       0.05192855 0.12309679 0.043498944 -0.023871003
000330 8e ab 94 3c 37 28 1b be 0e ae f5 bc 8d b3 f4 3d
       0.01814821 -0.1515206 -0.029990222 0.11948309
000340 46 88 ba bc 56 de 01 3c d9 b0 14 3e 33 6d c5 3d
       -0.022770058 0.007926544 0.14520587 0.09639969
000350 c9 a1 d8 bc 8e 16 15 be 22 38 f7 3d 36 10 6e 3d
       -0.026444333 -0.14559385 0.12071253 0.05812093
000360 ab 35 a6 3b 35 59 e4 3d f1 6e 77 3d 97 2b 92 bc
       0.0050723157 0.111498274 0.060408536 -0.01784305
000370 7c d5 fd 3d 01 4d d5 3c 7b db 9e 3d ad ab 05 bc
       0.123942345 0.026037695 0.07756706 -0.0081586065
000380 f8 3a a4 3d 40 f4 fb bc ac ff 30 3d 57 97 07 be
       0.0801906 -0.030756116 0.043212578 -0.13241325
000390 b4 7c bf 3d 6f fa f9 3c 2b 94 b4 3d ef 27 a5 bd
       0.09349957 0.030514924 0.08817323 -0.08064257
0003a0 8a 30 c8 3a e3 bb a1 3c 83 9d ad bc 96 3f 1f bd
       0.0015273255 0.019742912 -0.021193272 -0.038879
0003b0 72 ef 61 3d 67 09 1e 3d d1 95 03 be 54 b3 58 3c
       0.055159993 0.038583186 -0.12850119 0.013226349
0003c0 3a c1 ad 3d 45 a0 da 3d 6e c2 b4 3d 7e c2 a7 3d
       0.08484121 0.106751 0.08826147 0.08191393
0003d0 c2 81 c1 bb b5 96 04 be 86 ab c3 bd 1a 5f 1a 3d
       -0.005905361 -0.12948115 -0.095542 0.037688352
0003e0 7d d6 5e bd d7 ef 82 bd 73 e5 04 bd 23 16 66 3d
       -0.05440377 -0.06393402 -0.032445382 0.056173455
0003f0 dd 6b 2d bd 7c c8 b2 bd 7c 20 06 bc 18 a9 17 3e
       -0.042339195 -0.087296456 -0.008186456 0.14810598

module.gcn_layers.0.bnNodes.batch_norm.weight f4 [50]
000000 d3 bd 7e 3f 07 c3 7c 3f d8 df 7b 3f 21 06 7e 3f
       0.995084 0.9873509 0.98388433 0.992281
000010 0a bc 80 3f e4 38 81 3f fe 01 80 3f a9 10 7d 3f
       1.0057385 1.0095487 1.0000608 0.98853546
000020 cf cb 7c 3f 76 a0 7e 3f 5c 2f 7e 3f 3d b1 80 3f
       0.9874849 0.99463594 0.99291015 1.0054089
000030 7e 34 7e 3f d5 32 81 3f 45 7c 81 3f ec 99 7e 3f
       0.99298847 1.0093638 1.0116049 0.99453616
000040 dd aa 7f 3f ac 27 7f 3f 40 f3 7b 3f ef 13 7d 3f
       0.9987009 0.9966991 0.98418045 0.9885854
000050 10 c2 7d 3f 2e f6 80 3f 9b b9 7f 3f b4 bd 7d 3f
       0.9912424 1.0075128 0.99892586 0.9911759
000060 16 51 7f 3f b3 a8 7e 3f 84 c5 7e 3f 20 6e 7b 3f
       0.997331 0.99476165 0.99520135 0.9821491
000070 54 2c 80 3f 6c bc 7f 3f 6d aa 80 3f cf 9b 7e 3f
       1.0013528 0.99896884 1.005201 0.99456495
000080 24 2e 81 3f 16 da 7e 3f 89 b9 7e 3f 3f 6e 7d 3f
       1.0092206 0.9955152 0.99501854 0.9899635
000090 24 89 80 3f 40 61 7f 3f b9 5e 7e 3f 12 c7 7e 3f
       1.0041852 0.99757767 0.99363285 0.9952251
0000a0 72 40 81 3f 8a ac 7f 3f 2e 54 80 3f 06 ef 7b 3f
       1.0097792 0.9987265 1.002569 0.98411596
0000b0 b8 aa 7c 3f bc 53 7e 3f 3e 74 7b 3f 4a 53 7d 3f
       0.98697996 0.9934652 0.98224247 0.98955214
0000c0 2e 82 7d 3f b8 32 7d 3f
       0.99026763 0.98905516

module.gcn_layers.0.bnNodes.batch_norm.bias f4 [50]
000000 19 8e 5f ba a4 3d 2f bc ed 99 75 bc 53 03 06 ba
       -0.0008527949 -0.010695849 -0.014990312 -0.00051121897
000010 2a 5e f4 3b f8 9a 5e 3c bb 9c c5 3b f5 03 4f bc
       0.0074575143 0.013586752 0.0060306466 -0.012635221
000020 a0 27 64 bc 9b c2 9a bb 0c 94 c3 bb 20 92 f6 3b
       -0.013925463 -0.004722906 -0.0059685763 0.0075247437
000030 bc 8a c8 3b c4 98 5b 3c da 18 42 3c ef db 4b ba
       0.006120054 0.013403121 0.011846745 -0.0007776608
000040 ed e9 0b 3b e6 37 e2 b9 f9 ca 57 bc e2 35 17 bc
       0.0021349147 -0.00043147727 -0.013170951 -0.009229155
000050 f0 6f 19 bb 5d 15 33 3c 63 32 10 bc b2 3a 1f bb
       -0.0023412667 0.010930386 -0.008801076 -0.002429646
000060 73 76 d6 ba 31 ff ed 3a 44 3e 34 bb 8c 59 5b bc
       -0.0016362205 0.0018157718 -0.0027502934 -0.013388049
000070 9d 16 24 3c d3 b6 f8 bb b5 4e 06 3c ea ed 59 3a
       0.010015157 -0.0075901537 0.008197476 0.0008313345
000080 d5 38 3f 3c 76 c3 1c 3b 22 d2 39 3a 89 45 b0 bb
       0.011671265 0.0023920215 0.0007088502 -0.005379383
000090 89 44 1c 3c 3c 22 be 3b cb de ae bb 55 ae 8b bb
       0.009537824 0.005802421 -0.0053366176 -0.0042627254
0000a0 66 86 a3 3b cd 5f 03 bb b8 26 bc 3a 46 d3 55 bc
       0.004990387 -0.0020046115 0.0014354801 -0.01305086
0000b0 c2 dc 2e bc 4f ec 9a ba 6c 8c 89 bc 4d ae 3c bc
       -0.01067275 -0.0011819693 -0.016790591 -0.011516166
0000c0 83 b0 74 bc 8d 9c 3a bc
       -0.014934662 -0.011389864

module.gcn_layers.0.bnEdges.W3.weight f4 [50, 50]
000000 f9 ca 8c 3c 15 2d 62 3d 91 68 fd bc 5d 2c fe 3c
       0.017186629 0.055218775 -0.03093365 0.031027013
000010 ef e4 94 3c 4f e9 67 bd c9 92 53 3c b0 62 b4 3d
       0.01817557 -0.056618985 0.012913414 0.08807886
000020 e4 13 0a 3d ca a9 04 3e 5f 3c cc 3d 88 1e 04 bd
       0.033710375 0.12955394 0.09972452 -0.03225568
000030 88 06 1b 3c d0 fd 8d 3d 7c 54 75 bd f0 21 8a bd
       0.009462006 0.069331765 -0.059895024 -0.06744754
000040 37 50 16 be 71 e2 c4 bd ed 8c 95 bc d9 fe 0a be
       -0.14679037 -0.09613503 -0.018255675 -0.13573779
000050 65 1b 00 3e 84 a3 32 bc 24 bc 5d 3d b3 0f c3 3d
       0.1251045 -0.010903243 0.054134503 0.09524479
000060 06 c0 15 be c6 18 b7 bd a0 e2 2e bd 1f 94 64 3c
       -0.14624032 -0.08940272 -0.042696595 0.01395133
000070 d4 0d cf bd 76 40 df bd de b2 8e bb 91 f1 1e 3d
       -0.101100594 -0.10900967 -0.0043548187 0.038804594
000080 2d 5b f7 bd ca a1 25 3d 8c 3d 81 bd 4b 93 0c bc
       -0.12077937 0.040437497 -0.06310567 -0.008580039
000090 a8 83 11 3b db b8 84 bd 38 8f 06 bd 43 ec a9 bd
       0.0022203717 -0.06480571 -0.032851428 -0.082970165
0000a0 25 2c b3 3d aa 62 c3 bd 3e c1 6f bd 09 6e f3 bd
       0.08748654 -0.09540303 -0.0585339 -0.11886222
0000b0 32 8a cb 3d 16 db 9f bd 60 9d b0 bd 99 0e cc bd
       0.09938468 -0.07805459 -0.08623767 -0.09963722
0000c0 ce 93 57 3d a8 d2 b2 bd ab 7d f6 3d 27 15 43 bd
       0.052631192 -0.08731586 0.12035688 -0.047627594
0000d0 65 c5 e8 bd 0c 4f a8 bd d6 f0 3c bd a1 77 a3 bd
       -0.11365775 -0.08218202 -0.046128117 -0.07981802
0000e0 aa 1f be 3c cf c6 98 bd 08 f3 e2 3c 13 66 63 bd
       0.023208458 -0.07459795 0.027703777 -0.055517267
0000f0 2e 9e fe bc 13 0f a7 3d 22 86 82 3c e3 45 1b 3e
       -0.031081285 0.08157172 0.0159331 0.15163378
000100 71 56 02 be 6c 7a 08 bd 15 2e 0e 3e ce a0 eb bd
       -0.12728287 -0.033319876 0.13884766 -0.115052804
000110 48 ab 82 bd 6b 75 ea bc 3c 4b f4 bd e8 78 e6 3d
       -0.063803256 -0.028620442 -0.11928412 0.1125353
000120 0a 9d ca bd 87 0d 1b 3d ee 15 62 3d 5c cc 24 3d
       -0.09893234 0.037854698 0.055196695 0.040233955
000130 65 68 07 3e 95 5c 18 3d c9 c7 bc 3d 8b 85 2b bc
       0.13223417 0.037197668 0.092177935 -0.010468851
000140 f5 47 a6 3c 23 57 aa bd f9 73 1b be 85 68 1a 3e
       0.020297984 -0.08317401 -0.15180959 0.15078934
000150 f0 f7 89 3b 53 50 bd bd 35 2b 40 3d c5 c9 02 3e
       0.0042104647 -0.09243836 0.046916205 0.12772281
000160 99 9e 6a 3d 32 04 10 3d cb aa cf 3d 86 b2 04 3e
       0.057280157 0.03516025 0.10139998 0.12958726
000170 43 e7 03 3e 81 ae c7 3c 8f 61 05 be f3 24 5b bd
       0.12881188 0.024375202 -0.13025497 -0.053502034
000180 28 47 e1 3d f8 08 89 3d ae c9 6b bd 46 bc 8c 3c
       0.109999 0.06691164 -0.057565384 0.01717962
000190 2f fd c2 bd a3 11 a4 bc 71 44 f8 3d 58 e6 c2 3c
       -0.09520947 -0.020027941 0.12122429 0.023791477
0001a0 88 8e ff bc bb 49 29 bc 13 48 ed bd 6a bc aa 3d
       -0.031195894 -0.01033252 -0.11586013 0.083367184
0001b0 d2 81 03 be 95 01 a2 bd cf fb bc 3a 4e b6 5b 3d
       -0.12842491 -0.07910458 0.0014418307 0.053640656
0001c0 2c 5b 76 3d 7d 21 79 bc 4d 02 ea 3d 98 ca 14 be
       0.060145542 -0.015205738 0.1142622 -0.14530408
0001d0 f7 84 e0 bd d6 a3 4d bd dd 73 ce 3d 81 fd 79 3d
       -0.10962861 -0.050205074 0.10080693 0.061032776
0001e0 4c 2b 05 be 3e c9 06 be af 3f 10 be d7 af ff bd
       -0.13004798 -0.13162705 -0.14086793 -0.12484711
0001f0 46 cc c4 3d d6 e5 ca 3b 59 00 a6 bc e9 15 1c 3b
       0.096092746 0.0061919494 -0.020263838 0.002381677
000200 85 36 a1 bd c0 fd be 3d 9b 3c 2e bd c2 d1 e3 3d
       -0.07871727 0.09325743 -0.042538267 0.111239925
000210 ec 4c e6 bd 51 52 c9 bd 48 d4 cb 3d 6b 1b 96 3b
       -0.112451404 -0.09830154 0.09952599 0.004580905
000220 54 11 f7 bd d0 31 ff 3c 94 38 c2 bc d3 ce 85 bd
       -0.12063852 0.031151682 -0.02370862 -0.06533589
000230 38 f6 10 3e 10 de ea bd 32 b9 49 3d 6f c1 7b bd
       0.14156425 -0.11468136 0.04924888 -0.06146377
000240 38 0f 80 3d 8a 21 ed bd ed 09 50 bd 5d e9 ec 3c
       0.06252903 -0.11578663 -0.050790716 0.02891987
000250 90 39 94 bd 83 8f cb 3c 9b 74 d4 3d cf 90 9c bd
       -0.07237542 0.024848705 0.10373803 -0.076448075
000260 42 d1 62 3d 72 bc 54 3d 53 3c 88 3c dc b6 bf bd
       0.055375345 0.051937528 0.016630327 -0.093610495
000270 e8 cd 23 bd 42 60 be bc 14 40 33 3b 59 2e e9 bd
       -0.03999129 -0.023239259 0.0027351426 -0.11385793
000280 2d a6 e2 3d 64 e8 14 3d d1 f0 12 bd a5 d2 81 3d
       0.11066852 0.036354437 -0.03587419 0.063390054
000290 8c ac 7b bc 0d 09 9c 3d da 03 0b 3e fa 42 04 bd
       -0.015360963 0.07618914 0.13575688 -0.032290436
0002a0 bb 6e 3c bd e4 08 c0 3d 69 f8 14 bd f4 27 dc 3d
       -0.04600404 0.09376696 -0.036369715 0.10749808
0002b0 8d dc ac 3b 85 98 94 bd 2a a4 07 3e ed d9 7d bc
       0.005275315 -0.07255653 0.13246217 -0.015493852
0002c0 52 06 d4 3d e1 c7 82 3d 20 28 08 be e7 ae d5 3c
       0.10352768 0.0638578 -0.13296556 0.026084376
0002d0 61 41 d8 3d c6 bb cc 3d ac 7d 11 3e fe e1 f5 bd
       0.10559345 0.099967524 0.14208096 -0.12005995
0002e0 e1 ec 95 3d 40 bd 06 be 4c b9 03 be 4f 9f 9d bd
       0.07320572 -0.1315813 -0.12863654 -0.07696401
0002f0 9c ec 11 bd 62 ad 3e 3d 1f 0a 9f bd 91 99 39 bd
       -0.03562604 0.04655207 -0.07765602 -0.045312468
000300 ca 65 f8 bd d8 47 48 3d e9 be e0 3b 0a 51 58 3c
       -0.1212879 0.04889664 0.0068586958 0.013202915
000310 8b 85 45 3d e8 0f c6 bb 07 f1 af 3d 9a 85 ae bd
       0.04822306 -0.0060443766 0.08590894 -0.08521576
000320 b5 e8 21 3d f7 bb 02 3e 39 b2 76 3d 32 e8 db 3b
       0.039528567 0.12767015 0.06022856 0.0067110294
000330 9d ce d2 bd 58 84 0c 3e ce d3 ee bd ac cb 1b 3e
       -0.102933146 0.1372236 -0.11661492 0.15214413
000340 f2 87 26 3d d5 09 04 3e f7 d4 a1 3d 91 6e bc 3d
       0.04065699 0.12894376 0.07901948 0.09200776
000350 e1 2a 07 be fc 06 a7 bd a0 1a 78 bd fe e4 52 3d
       -0.13199951 -0.08155629 -0.060572267 0.051487915
000360 b7 50 52 bd d1 e8 bc bc 06 e0 19 be 4b 62 72 3d
       -0.051346507 -0.023060234 -0.15026864 0.05917577
000370 ce 4e 93 bd 80 33 95 3d 9a b5 95 bd 4f 7e 16 3e
       -0.07192765 0.072852135 -0.073100284 0.1469662
000380 5a 76 81 bb f6 e3 76 3c a0 9f d3 3c 9a bf 05 be
       -0.003950876 0.015068999 0.025832951 -0.13061371
000390 3c 7c f7 bb de c8 a8 3d 8f 2c 99 bc a0 93 31 3c
       -0.0075526517 0.082414374 -0.018698005 0.010838419
0003a0 6f a9 cd 3d 2d 00 01 3e 53 f5 09 be c4 b3 a4 3d
       0.100420825 0.12597723 -0.1347249 0.080421
0003b0 83 72 fd 3c 6d 83 20 3d 88 5c 3d bd 61 71 9c bd
       0.030938393 0.039187837 -0.046230823 -0.07638813
0003c0 d5 b4 bd bd fd 12 b2 bc 94 7c a2 3c 14 ad 84 bd
       -0.092630066 -0.02173757 0.019834794 -0.064783245
0003d0 56 ed 90 3d 40 f7 08 3e eb 69 33 3d c9 be be 3d
       0.07076518 0.13375568 0.043802183 0.09313733
0003e0 90 0f c6 3d 6e b1 45 bd 24 b7 f5 3d 38 01 b8 bd
       0.09670937 -0.048264913 0.11997822 -0.089846075
0003f0 06 6d ed bd e1 d0 39 bb 2d 22 66 bd ae fa 19 3d
       -0.1159306 -0.0028353261 -0.056184936 0.037592582

module.gcn_layers.0.bnEdges.W4.weight f4 [50, 50]
000000 0e 53 e5 bc 72 59 dd 3d 55 61 d3 3d 1c 5b 97 3c
       -0.027993705 0.10808076 0.10321299 0.018476062
000010 98 6b 89 3d 31 98 5b 3d 0f 4b 9b 3d 6d 80 1b 3d
       0.06709975 0.053611938 0.07582676 0.037964273
000020 b4 ec d9 bd 0e 35 04 bc f1 3d d4 bd c2 33 a6 3d
       -0.10640851 -0.00806929 -0.10363377 0.08115341
000030 30 7c 03 3d 66 7e 90 bd 4c bc e4 3d 09 65 9c bd
       0.032100856 -0.070553586 0.11168727 -0.076364584
000040 54 1e b7 bd ad aa 02 be ed d0 22 bd 55 63 9f 3c
       -0.089413315 -0.1276042 -0.03975003 0.019456545
000050 96 5d 15 3e 84 2b 77 3c 2e e8 74 bd 89 24 a9 3d
       0.14586481 0.0150860585 -0.059791736 0.08258922
000060 45 e4 fb 3d bc 3b b4 3d 7a 49 40 bd 90 7e cb 3d
       0.12299398 0.08800456 -0.046945073 0.09936249
000070 04 85 35 bd 62 43 a5 bc 45 33 02 3c 82 2c 6f bd
       -0.044316307 -0.020173732 0.007946794 -0.058392055
000080 97 2a 00 be 72 6e e9 bd 0b f9 f8 bd d6 0f c9 3d
       -0.12516247 -0.11398019 -0.12156876 0.098174736
000090 5d e5 2f 3d 3d 2f 3d 3d 0d 62 95 bd c3 4f c4 bd
       0.042943347 0.046187628 -0.07294092 -0.09585526
0000a0 a7 43 f0 bd 84 6a 46 3d bb 21 14 bd c9 80 85 3d
       -0.11731654 0.048441425 -0.03616498 0.065187044
0000b0 30 99 87 3d a8 34 de bd e6 a5 bc 3c e1 5a 0b 3e
       0.06621015 -0.10849887 0.023028325 0.13608886
0000c0 f7 1a a1 ba ed d2 86 bd d1 a7 9d 3d f7 74 0b 3e
       -0.0012291361 -0.065832 0.07698024 0.13618837
0000d0 ec 5c d3 bd 66 bc 74 3d cc 8e f9 bc 8b c7 c2 3c
       -0.10320458 0.059749983 -0.030463599 0.02377679
0000e0 5b 29 cf 3d 96 dc c6 3d f3 d9 fe bd 18 5b 4b 39
       0.1011531 0.09710042 -0.12443914 0.00019393524
0000f0 1a 2e c8 3d e7 2b 05 3e 28 93 95 3d c9 1a 07 3d
       0.09774418 0.13005029 0.073034585 0.03298453
000100 ee 68 5f 3c 42 09 09 be 68 c6 53 3d b3 e4 aa bd
       0.013635857 -0.13382438 0.051702887 -0.08344402
000110 c8 d2 a8 3c e9 c8 fe 3d bf 4c 3f 3d 04 b4 3d bd
       0.02060832 0.12440664 0.04670405 -0.046314254
000120 02 37 15 bb 75 5c 05 bd 9e bd bb 3d 86 cf ba bc
       -0.0022768383 -0.032558877 0.09167026 -0.022804033
000130 ac 30 23 3d 29 39 b3 3b 6d 89 09 3e e1 e4 2e bd
       0.03984134 0.0054694605 0.1343133 -0.042698745
000140 19 bf b8 bd e8 2d 26 bd b4 1b 45 3d cb 8d 0b be
       -0.09020824 -0.040571123 0.048122123 -0.13628308
000150 1a ea d2 bd fb 15 eb 3c 90 e4 ae bd 7c 87 93 bd
       -0.102985576 0.028697005 -0.085396886 -0.07203576
000160 6e 73 2c 3d ce 4c c3 3d 86 54 92 3d 72 28 db bd
       0.04210227 0.09536134 0.07145028 -0.10701074
000170 c3 bf c8 3d a2 7f ae bd 2c 41 04 3e a8 4b e8 3d
       0.09802201 -0.08520438 0.12915486 0.11342555
000180 f8 5f 9f bc 73 2f 29 3d 05 eb ce 3c ef 64 3a bd
       -0.019454941 0.041305017 0.02525855 -0.045506414
000190 a2 91 be bb dc ed b2 bd 16 9d 47 3d 22 2f 84 3d
       -0.0058157006 -0.08736774 0.048733793 0.06454302
0001a0 cb 4f 93 bd 71 9b 34 bd 16 a8 af bc 9a ee a8 bd
       -0.07192954 -0.044093553 -0.021442454 -0.08248635
0001b0 ee e1 d0 bd ff 07 99 3d e0 6b 4f bd 12 b1 94 bd
       -0.10199343 0.07472228 -0.050639987 -0.07260336
0001c0 48 16 00 3e 4a 8a 89 bd ff 80 0b 3e 2e e3 de bd
       0.125085 -0.0671583 0.13623427 -0.10883175
0001d0 94 1e 93 3d e4 f9 9f 3d 5c 40 0c 3e e5 86 05 be
       0.07183567 0.07811335 0.13696426 -0.1303974
0001e0 dc eb b7 3d bc fb e3 bd 8c 79 35 bd 1e 3a de bd
       0.089805335 -0.11131999 -0.04430537 -0.10850929
0001f0 12 66 5c 3c c8 45 54 3c b6 6b 1d 3d 18 59 c1 3c
       0.01345207 0.01295609 0.0384328 0.023602054
000200 6b 56 2d 3d 51 f7 25 bd f4 d8 c0 3d f5 54 94 bb
       0.042318743 -0.040519062 0.094163805 -0.004526729
000210 75 87 ee bd bb d2 0a 3e 09 d9 bb 3d ca 17 8f bc
       -0.1164693 0.1355695 0.091722555 -0.017467398
000220 34 07 8d 3d 06 26 2b bd 02 3e d9 3d 63 61 fb bd
       0.068861395 -0.04178431 0.1060753 -0.122744344
000230 b1 78 f9 bd d2 c7 8e bd 49 53 d8 bd e6 25 bb 3d
       -0.12181223 -0.069717064 -0.105627604 0.09138088
000240 2b b8 14 3b 24 e2 6d bd 35 19 88 bd c6 d5 ef bd
       0.002269278 -0.058076993 -0.06645433 -0.11710696
000250 f4 4c cd 3b fa 46 05 be bb dd dc bd 41 04 25 3d
       0.006265277 -0.13015357 -0.10784479 0.04028726
000260 d5 84 19 bb c1 39 b1 3d b4 27 92 3c 8b 13 fc bd
       -0.0023425121 0.08653594 0.017841198 -0.12308415
000270 21 a0 97 3d 64 88 d7 3d 21 95 03 3d e3 9f a0 3c
       0.07403589 0.10524061 0.032124642 0.01960749
000280 dd 56 3c 3d 31 2e d1 3c d5 3f a3 bd e5 40 92 bd
       0.045981277 0.025534721 -0.07971159 -0.07141284
000290 f4 23 c9 3c a2 f4 0b 3e 3c 9d 9a 3b 68 e0 a8 ba
       0.024553277 0.13667539 0.004718451 -0.0012884261
0002a0 9b 74 b9 bd 1e 35 66 bd 99 36 2d 3d ae 48 7d 3a
       -0.09055444 -0.056203 0.042288397 0.0009662014
0002b0 28 ec 06 3e fb 8c 7a 3d 70 96 24 bc a1 02 63 bd
       0.13176024 0.061169606 -0.010045633 -0.05542243
0002c0 d7 5b c3 bd e6 76 78 3c 92 0b 1b bc dd df 95 3d
       -0.095390014 0.015165066 -0.009463208 0.07318089
0002d0 3e ea 5b 3d c6 a9 81 3c 6a 3f d1 3d 90 58 cb 3c
       0.053690188 0.015828025 0.102171734 0.024822503
0002e0 37 68 7b 3d a9 02 dc bd ba e5 7b bd 78 46 b7 3d
       0.061378684 -0.10742695 -0.06149838 0.08948988
0002f0 bd 22 c2 3d 26 a6 a5 3d e1 c0 26 3d 75 ec b6 ba
       0.09479282 0.08088331 0.040711287 -0.0013955968
000300 09 98 1c be 9a df a3 bd ed 77 c6 3d 06 d3 53 bd
       -0.15292372 -0.08001633 0.09690843 -0.05171492
000310 33 df d6 3d 7f 83 d7 bd ef 23 74 bd 8b 21 29 3c
       0.104917906 -0.10523128 -0.05960458 0.010322939
000320 10 5d a0 bd 80 00 d9 3d cb b3 cf 3d 94 99 3d bd
       -0.0783025 0.105957985 0.10141715 -0.04628904
000330 c1 a1 0d 3e 8e e2 af 3d 37 6f e1 3d d6 b5 c3 bd
       0.13831235 0.08588134 0.11007541 -0.09556167
000340 de 01 01 be d2 ef 85 3c f8 2a 80 3c ec 08 6d 3d
       -0.12598369 0.016349707 0.01564549 0.057869837
000350 a5 d0 f7 bd 68 ee f4 3d ed 78 de 3a 95 38 bf 3d
       -0.12100343 0.11959535 0.0016973295 0.09336964
000360 3d 53 91 3d 12 7d 98 3d 7b 4a 57 bd 50 19 02 bb
       0.070959546 0.0744573 -0.052561264 -0.0019851513
000370 9b 19 03 be 76 38 93 3b 84 e1 77 bd 39 71 d3 bd
       -0.12802736 0.0044928147 -0.060517803 -0.1032433
000380 1c af 3f 3d 02 11 df bd 13 72 b1 3d 43 db c3 bd
       0.046797857 -0.10891916 0.08664336 -0.09563305
000390 79 06 a6 3b 5e 63 2b 3d c6 74 0b 3e 5b 0f 68 bd
       0.0050666896 0.04184281 0.13618764 -0.05665527
0003a0 30 eb ed bd 7d a8 b9 bd d2 9d 96 bd f5 df 94 bd
       -0.11617124 -0.0906534 -0.073543206 -0.07269279
0003b0 5d fb d2 bd 03 16 18 3e 11 7e 3f 3b cb f7 f5 bd
       -0.1030185 0.14852147 0.0029219429 -0.120101534
0003c0 6b fe 03 3d ae f0 2d 3c 4a 64 84 3c 7c b0 1c 3d
       0.032225054 0.010616465 0.016161103 0.038254246
0003d0 eb ff 09 3d 9d 81 ae 3d 82 41 84 3d 25 d8 c4 3c
       0.033691328 0.085208155 0.06457807 0.024028847
0003e0 64 50 d5 3d 8a 69 46 3c 4a 7d 70 bd 95 91 0a bd
       0.10415724 0.012110123 -0.058713235 -0.033830244
0003f0 1a fb ea 39 7c b7 5d bd c8 69 09 3e 0e 12 11 3d
       0.00044819043 -0.054130062 0.13419259 0.03541761

module.gcn_layers.0.bnEdges.W5.weight f4 [50, 50]
000000 cc 37 c1 3d 7f f1 a3 bd 33 d6 9d bc fc 78 80 3c
       0.094344705 -0.08005046 -0.019267177 0.01568269
000010 1b ac 08 3e 85 31 6d bd 7a 14 88 bd 66 4d 35 3d
       0.13346903 -0.057908554 -0.066445306 0.044263266
000020 c2 49 99 3c 3d 62 27 3d 7a 2b f7 3d 9f 2d f5 bd
       0.018711928 0.04086517 0.12068839 -0.11971592
000030 43 b9 92 3b 65 e3 06 bd 21 ac f3 bd 3e e9 87 bc
       0.0044776513 -0.032931704 -0.11898065 -0.01659071
000040 9f d7 36 3d 80 48 8e 3d cb 73 65 3c 65 3f c4 bd
       0.044639226 0.06947422 0.014004658 -0.09582404
000050 78 fc 24 bd fe cc a5 3d 14 63 3d 3d b0 89 ec bd
       -0.040279835 0.0809574 0.046237066 -0.11549699
000060 39 bd 27 3d 7d 9f 11 bd 6f b0 b8 3c 1a f8 d4 3d
       0.04095194 -0.03555249 0.022545068 0.10398884
000070 28 0b a9 bd a0 84 7e bc 8a 6c ef 3d 5f b0 b8 bc
       -0.08254081 -0.01553455 0.11690624 -0.022545038
000080 bb 43 1c 3e 0f 79 b5 bc 2f e8 91 3c e5 44 f3 bc
       0.15260212 -0.022152452 0.01781091 -0.029695937
000090 eb cd 0a 3d f2 6b 19 bd ca 47 07 3e 60 60 ef 3d
       0.033887785 -0.03745646 0.13210979 0.11688304
0000a0 c5 d5 d3 3b 86 94 af bd 4e 4b 02 3d 57 bd 5c bc
       0.0064646923 -0.085732505 0.031810097 -0.0134728765
0000b0 d9 e8 f0 bd fa 76 51 3b 50 3e cd bd 10 61 36 bd
       -0.11763162 0.0031961785 -0.10021651 -0.04452616
0000c0 78 e2 ed bd e3 28 f0 3d 3e 71 93 3d 98 cb 87 bd
       -0.11615461 0.117265485 0.071993336 -0.06630629
0000d0 3f fa 9b 3d 5b 48 bc bd 54 75 e2 3c 5c 65 04 be
       0.0761609 -0.09193488 0.027643837 -0.1292929
0000e0 20 07 7e 3d bc 35 a0 bd 7a 7c 5c bd 30 54 42 3d
       0.062018514 -0.07822749 -0.053829648 0.04744357
0000f0 34 3e fd bd 51 76 88 3d 26 21 b2 bb ee e5 dd bd
       -0.1236538 0.06663192 -0.0054360805 -0.10834871
000100 95 d0 0e bd a9 70 d3 bd da f8 3f 3d e0 f3 13 3d
       -0.034866888 -0.103242226 0.046868183 0.03612125
000110 51 ea d0 bd ec 29 b6 3d 78 8f 35 bd 51 9f e5 3d
       -0.10200942 0.08894715 -0.044326276 0.11212028
000120 20 ef bc ba 48 12 8c 3c 60 dd 36 bd bc a6 8d bb
       -0.0014414527 0.01709856 -0.044644713 -0.004322855
000130 5a 55 d5 ba 63 fd e8 bc 41 ba b2 bd 32 ad 81 3c
       -0.0016276047 -0.028441137 -0.08726931 0.015829656
000140 44 93 e9 bd ef c2 8a bd b4 4e 22 bd 32 51 32 bc
       -0.11405042 -0.06775462 -0.03962584 -0.010883616
000150 d0 2e c8 bd 30 71 78 bd 3a 3b be bb 8a 69 73 3c
       -0.09774554 -0.06065482 -0.0058054 0.014856705
000160 6b 47 96 3c a1 74 b7 bd 0a b2 c0 3d 72 70 49 bd
       0.018344602 -0.08957792 0.09408958 -0.0491795
000170 9f c3 00 be 86 48 9d 3d 7c 9f 28 3b a8 f3 a7 bc
       -0.12574624 0.076798484 0.0025729826 -0.020501927
000180 23 9a 12 be 3a 05 97 bd 94 b1 90 3d e2 5e 4d bd
       -0.14316611 -0.07374044 0.0706512 -0.050139315
000190 a4 04 d3 bd 11 d6 ab 3d 53 f2 f0 bd 23 eb ac 3d
       -0.103036195 0.08390439 -0.1176497 0.08443286
0001a0 29 ca 57 bd c3 d6 7e 3d 1e 18 bd 3c f8 9e 11 3e
       -0.05268303 0.06221653 0.023082789 0.14220798
0001b0 ae 10 57 3d 2b d4 69 bc 20 1d 08 3e a3 2b f0 bd
       0.05250614 -0.014271776 0.1329236 -0.11727073
0001c0 28 b3 66 3c 10 38 3c 3d f4 cb d8 bd 10 6e 90 bd
       0.0140808 0.045951903 -0.10585776 -0.07052243
0001d0 6d fc 75 bd a4 3c 98 bd 94 e5 5b bc fd 20 aa bd
       -0.060055185 -0.07433441 -0.013421435 -0.08307073
0001e0 02 03 04 3e ac 80 44 3a 2f 0d 0b 3e be 92 0e 3d
       0.12891772 0.000749598 0.13579248 0.034807913
0001f0 3c 2b a4 bc b5 0f 00 3c 3f d7 9f bd ff d5 ba bd
       -0.020040147 0.007816245 -0.07804727 -0.09122848
000200 27 22 51 3d e2 4b bd bc be a3 84 3c 47 20 a8 bc
       0.05105796 -0.023107473 0.01619136 -0.020523204
000210 69 12 dd 3d e3 b3 13 be 3d ae c2 bd e9 8e a1 bd
       0.10794527 -0.1442409 -0.095058896 -0.07888586
000220 a5 4f 30 bd c1 ab ed 3d f6 ba ba 3d 10 22 de bd
       -0.043044705 0.11605025 0.09117691 -0.10846341
000230 9a 0c 15 bd 12 ad e6 3d 18 e2 dc bd f9 6f 9e 3c
       -0.03638897 0.11263479 -0.107853115 0.019340502
000240 1e 4d 6d 3d 49 0f 84 3d b6 25 d3 3d 0f c9 b5 3d
       0.057934873 0.06448228 0.10309927 0.088762395
000250 06 ad 12 3d 8c be 03 be 69 3b 8e bd 20 49 1f bd
       0.03580954 -0.12865657 -0.06944925 -0.038888097
000260 32 b5 b5 bd 9e a0 b1 bd 39 c6 d7 3c 5a b5 36 bd
       -0.08872451 -0.086732134 0.026339637 -0.044606544
000270 34 c8 08 3d 00 6d 3a 3d 0c 10 a2 3d 50 51 dd bd
       0.033394054 0.045514107 0.07913217 -0.10806525
000280 f1 91 eb 3d 05 3e 91 3d ca bb de 3c 18 38 d0 bc
       0.115024455 0.070919074 0.027189154 -0.025417373
000290 ca ee 29 bd 11 5e 17 3c d1 11 d1 bc 7c 30 f1 bd
       -0.041487493 0.009238736 -0.02552119 -0.11776826
0002a0 80 f8 20 3c d2 ca c9 bd 2a 54 e9 bd 1e 60 b7 3d
       0.009824872 -0.09853138 -0.11393006 0.0895388
0002b0 de 5d 9d bc e3 ff ba bc b0 fa 0a bd 6c 30 50 bd
       -0.019209798 -0.022827094 -0.03393048 -0.05082743
0002c0 c3 02 76 3d 68 a9 95 bc 82 1a 49 bd 97 70 0d 3e
       0.060061228 -0.018269256 -0.049097545 0.13812481
0002d0 8b 7d c0 3d aa ed e0 3d b0 3c 1e be 5d 79 29 3d
       0.093989454 0.10982831 -0.15452838 0.041375507
0002e0 1d 34 d3 3c 2a 01 09 3e 58 7f 62 3d 4b 13 99 3c
       0.025781685 0.1337935 0.055297226 0.018685957
0002f0 61 ad b6 3d 28 ce 9f 3d 08 5c f6 bd 2b 2d fd bd
       0.08919788 0.07802993 -0.12029272 -0.12362131
000300 c8 71 73 bd 07 0f f8 bc 0a 44 22 3d 5d b2 db 3d
       -0.059434682 -0.030280603 0.03961567 0.107273795
000310 1b 2a f9 bd 01 e2 ea bc 9d a2 c5 bd 41 47 f1 3d
       -0.12166234 -0.02867222 -0.09650157 0.11781169
000320 8b bc 95 3d 36 6a bb 3d df bc 8e bc 5c 88 9d bd
       0.07311352 0.091511175 -0.017424045 -0.07692024
000330 94 ee ae bd 64 e3 44 3c 20 5c 79 3c 19 03 69 3c
       -0.08541599 0.012017105 0.015219718 0.01422193
000340 5b 08 e0 3d 1e df af bd c3 8f c0 3d a3 66 4f 3d
       0.10939094 -0.08587478 0.0940242 0.05063499
000350 3b e8 f6 bd 47 6c 69 bd 50 29 8c bd 00 1e 58 3c
       -0.12056013 -0.056988027 -0.06843817 0.013190746
000360 3a 73 b5 3d 2b dc a9 3d 1a 78 5f bc 63 07 12 3e
       0.08859868 0.08293947 -0.013639474 0.1426063
000370 52 ca 5a 3d c3 e9 2e 3d 34 9d 04 be 1e a9 e4 bd
       0.053415604 0.0427034 -0.12950593 -0.11165069
000380 2a 7a c0 3d e7 15 79 3d 4b fb 69 bd 2c 86 d2 bd
       0.09398301 0.060811903 -0.057124417 -0.102794975
000390 3d ab e6 bb a4 8b 13 be 6b 8e de 3d 20 ce 75 3d
       -0.007039456 -0.14408737 0.10867008 0.06001103
0003a0 9c 2c ec 3c 9a 99 e1 bd 2e b8 05 bd 61 28 a7 bd
       0.028829865 -0.11015625 -0.03264635 -0.081619985
0003b0 bf 5f a2 3d 52 63 18 3e d5 a5 eb bb eb 19 4a bd
       0.07928418 0.14881638 -0.0071913996 -0.049341124
0003c0 5e 02 e9 3d 9a eb 3b bd 6f b4 6e bd 45 f1 d0 bd
       0.11377405 -0.045878984 -0.058277544 -0.102022685
0003d0 d1 7c 0c 3d 66 10 d7 3d 51 74 d8 3d 93 08 2e 3d
       0.03429872 0.10501175 0.105690606 0.042488646
0003e0 db 07 d4 3d db 68 c8 bd 5a aa 00 3e af f6 1e bd
       0.10353061 -0.097856246 0.12564984 -0.038809475
0003f0 94 b0 09 be 47 e4 93 3d 98 99 cf 3c b0 9a 91 bc
       -0.13446265 0.07221275 0.025341794 -0.017773956

module.gcn_layers.0.bnEdges.batch_norm.weight f4 [50]
000000 93 0f 81 3f 37 9e 82 3f 6f 02 82 3f 0f cc 7b 3f
       1.0082878 1.0204533 1.0156993 0.98358244
000010 7d 44 7e 3f a8 12 82 3f 80 e3 80 3f 83 a6 81 3f
       0.99323255 1.0161943 1.0069427 1.012894
000020 db c3 80 3f 11 eb 81 3f 03 eb 80 3f d8 c8 7f 3f
       1.005977 1.0149862 1.007172 0.9991584
000030 8f 7c 81 3f ce d8 80 3f f6 0e 7e 3f 2d a9 81 3f
       1.0116137 1.0066164 0.9924158 1.0129753
000040 9c cb 7c 3f 6d f0 7d 3f d2 99 7b 3f 1d eb 81 3f
       0.98748183 0.99194986 0.98281586 1.0149876
000050 80 50 80 3f f3 2c 80 3f 8f ab 80 3f a2 33 82 3f
       1.0024567 1.0013717 1.0052356 1.0172007
000060 8d a4 81 3f fd 11 7d 3f 48 8f 80 3f 77 43 7d 3f
       1.0128342 0.9885557 1.0043726 0.9893107
000070 df 6e 81 3f 7f 86 7e 3f 2e 67 81 3f 2e 87 80 3f
       1.011196 0.99423975 1.0109613 1.0041254
000080 12 9e 7d 3f ba 86 81 3f 9a 8e 81 3f 83 31 82 3f
       0.9906932 1.011924 1.0121644 1.017136
000090 e8 c2 80 3f ca a2 81 3f 79 0f 81 3f 04 13 82 3f
       1.0059481 1.0127804 1.0082847 1.0162053
0000a0 5d 85 7c 3f 25 12 82 3f 64 3d 7f 3f b0 f8 81 3f
       0.98640996 1.0161787 0.9970305 1.0154018
0000b0 d3 5d 81 3f 0e 82 81 3f a9 e2 80 3f 95 71 7e 3f
       1.0106758 1.0117815 1.0069171 0.9939206
0000c0 67 cf 7e 3f c9 c1 81 3f
       0.9953522 1.0137264

module.gcn_layers.0.bnEdges.batch_norm.bias f4 [50]
000000 dd 63 23 3c 5e 82 85 3c 0e c5 6a 3b 1f 52 7a bc
       0.00997254 0.016297515 0.003582302 -0.015278368
000010 77 ef 26 bc 27 37 86 3c 6c c9 46 ba d8 78 40 3a
       -0.010188929 0.01638372 -0.0007583115 0.0007342226
000020 f4 46 42 bb fe b6 23 3c b0 30 31 3b 17 b0 e1 bb
       -0.0029644342 0.009992359 0.0027037077 -0.0068874466
000030 f9 33 3c bb 86 87 45 3c e8 54 31 bc 15 96 4f 3c
       -0.0028717502 0.012056237 -0.010823466 0.01267006
000040 61 f9 76 bc ee c0 d9 bb 81 c2 7a bc cb 01 55 3c
       -0.015074105 -0.0066453135 -0.015305162 0.013000916
000050 51 b9 6b bb 64 39 ea ba 7f 61 57 3b cc 8b 83 3c
       -0.0035968611 -0.0017869887 0.0032864509 0.016057871
000060 68 e5 b6 3b c0 52 0d 3b 28 00 09 3c 02 73 63 bc
       0.0055815466 0.0021564215 0.008361854 -0.0138824005
000070 5e 73 5c 3c b9 ab 00 bc 22 d3 28 3c 7d de f0 3b
       0.01345524 -0.007853442 0.010304244 0.0073507414
000080 24 3b 68 3b 18 df 3c 3c 47 3b 17 3c a8 17 85 3c
       0.0035435641 0.011527799 0.009230441 0.016246632
000090 e8 0e d1 bb 14 0a 4e 3c 86 e4 81 3b 7d 0f 8b 3c
       -0.006379951 0.012575645 0.0039640097 0.016975159
0000a0 d5 d3 59 bc 61 6c 79 3c ab 62 4b bc 62 5c 5e 3c
       -0.013295134 0.015223593 -0.012413661 0.0135718305
0000b0 ed 94 7c bb db d2 64 3c d0 f4 16 3c 0c a7 d7 3a
       -0.0038540915 0.0139662875 0.009213641 0.0016452982
0000c0 5e f3 f5 bb ef 54 34 3c
       -0.0075058183 0.011006578
