logs/deafult/last_train_checkpoint.tar (torch, 489841 bytes, 103 tensors)

module.NodesEncoding.A1.weight f4 [50, 2]
0	0x3eb4d771	0.3532062
1	0xbeb06b9e	-0.34457105
2	0xbe0ca409	-0.1373445
3	0x3ea74a54	0.32673895
4	0xbf28da24	-0.65957856
5	0x3ed1b347	0.4095709
6	0xbe111bc4	-0.14170748
7	0x3eb9cfb8	0.3629129
8	0x3dd04028	0.10168487
9	0xbdbdebd9	-0.092735
10	0x3e45f4f6	0.19331726
11	0x3c83c421	0.016084732
12	0x3e7fab42	0.24967673
13	0xbe8c5bc4	-0.27413762
14	0xbd64926d	-0.055803705
15	0xbd841ba3	-0.06450584
16	0x3dd1f7b5	0.102523245
17	0xbbcdbadc	-0.006278379
18	0x3f1de5e7	0.6167893
19	0x3e6f5ae8	0.23374522
20	0xbe82874e	-0.25493854
21	0xbed73c39	-0.42038134
22	0xbdf7a9d2	-0.120929375
23	0xbe970f7c	-0.29504
24	0xbe5d33f4	-0.2160185
25	0x3cb841ec	0.022492371
26	0x3ecd15e4	0.40055764
27	0x3ebdfb22	0.37105662
28	0xbf2c9d12	-0.6742717
29	0x3edc1d92	0.4299131
30	0x3e54c071	0.20776536
31	0x3f2a3321	0.66484267
32	0x3ef05a55	0.46943918
33	0xbf223cff	-0.6337432
34	0xbf2be97b	-0.6715314
35	0xbeb708dc	-0.35748947
36	0x3f21366c	0.62973666
37	0xbdf630d9	-0.12021036
38	0x3ea114e2	0.31461245
39	0xbeb021fa	-0.34400922
40	0x3f32599f	0.69668
41	0xbe954e30	-0.29161215
42	0x3f0b4ea2	0.5441686
43	0x3ca5b5ee	0.020228352
44	0xbeb982cb	-0.362326
45	0x3ebbc1b1	0.36671212
46	0xbec1073d	-0.37700835
47	0x3e53e814	0.20694
48	0xbe3d2b2b	-0.18473499
49	0xbd8e262f	-0.06940877
50	0xbf316265	-0.69290763
51	0xbeaab150	-0.33338404
52	0x3eba4798	0.36382747
53	0xbe336ec6	-0.17522725
54	0x3f303e98	0.6884551
55	0x3f0cf777	0.550651
56	0xbcb6d191	-0.022316726
57	0xbef5c05c	-0.4799832
58	0x3ed48776	0.41509598
59	0x3e5b9244	0.21442515
60	0xbeef3f81	-0.46728137
61	0x3ee1e755	0.44121805
62	0x3ed8aa8b	0.42317614
63	0x3f2368dd	0.63831884
64	0xbed0c014	-0.40771544
65	0xbe00c35e	-0.12574527
66	0xbbe9f266	-0.007139492
67	0x3da56ce3	0.08077409
68	0xbf005872	-0.50134957
69	0xbf02569f	-0.50913423
70	0x3ec49b51	0.38399747
71	0xbe16ee95	-0.1473945
72	0x3eb0f6fd	0.34563437
73	0x3d6d7913	0.057976793
74	0x3e664b48	0.22489655
75	0x3e1b02fb	0.15137856
76	0x3e8725da	0.26396066
77	0x3eaea6d6	0.3411166
78	0xbf24bb8d	-0.6434868
79	0x3eb2c4fd	0.34915915
80	0xbef06a7c	-0.4695624
81	0xbf0c85fd	-0.5489195
82	0x3d1b62eb	0.037936132
83	0xbde34205	-0.110965766
84	0x3ed837a0	0.42229939
85	0xbed4b4a7	-0.41544077
86	0xbf1f90cb	-0.6233031
87	0x3f01f7fe	0.5076903
88	0xbdd9ffec	-0.10644516
89	0x3ec53816	0.38519353
90	0x3e6ead45	0.23308285
91	0xbf082d58	-0.5319419
92	0x3dff55ea	0.12467559
93	0x3e3b9284	0.1831761
94	0xbeec993e	-0.46210665
95	0xbeb8730c	-0.36025274
96	0x3e6b0795	0.22952111
97	0x3df655f3	0.12028112
98	0xbe9861b2	-0.29762036
99	0xbe603756	-0.21896109

module.NodesEncoding.A1.bias f4 [50]
0	0x3f278066	0.65430295
1	0xbe14bfb4	-0.14526254
2	0x3ecee912	0.40412194
3	0x3e9f6bb0	0.31136847
4	0xbeeaeaf8	-0.45882392
5	0xbf1c22f0	-0.6099081
6	0x3f2ca93b	0.67445725
7	0x3d3147bd	0.043281306
8	0x3efa9ff3	0.48950157
9	0x3e1b2847	0.15152083
10	0x3e672189	0.22571386
11	0x3f061a67	0.52384037
12	0x3f2c968c	0.67417216
13	0xbef284b5	-0.47366872
14	0x3daff1d8	0.0859105
15	0x3f03b6fb	0.5145108
16	0x3f030211	0.5117503
17	0x3ee0fe65	0.43944088
18	0xbf022b3c	-0.5084722
19	0xbf032b91	-0.5123835
20	0xbedc204c	-0.4299339
21	0x3dbc3595	0.091899075
22	0x3f322113	0.6958172
23	0xbee83476	-0.45352525
24	0x3ec29cc0	0.38010216
25	0xbecc8d01	-0.39951327
26	0xbf2b4617	-0.66903824
27	0xbe166688	-0.1468755
28	0x3ecbad4c	0.39780653
29	0x3f2a0c14	0.6642468
30	0xbee0b838	-0.43890548
31	0x3e24360d	0.16036244
32	0x3f1e67b4	0.6187699
33	0x3ef1836b	0.47170576
34	0x3ee4baa2	0.4467364
35	0x3eff42c0	0.49855614
36	0x3ee33c09	0.4438174
37	0x3e347294	0.17621833
38	0xbef736f1	-0.48284104
39	0xbf176ce0	-0.59150505
40	0xbea4a0de	-0.32153982
41	0xbdbcad6e	-0.092127666
42	0xbedca8b0	-0.43097448
43	0x3e877723	0.26458082
44	0x3e62912b	0.2212569
45	0xbe1934d3	-0.14961557
46	0x3e8ca14d	0.27466813
47	0x3e6f98d4	0.23398143
48	0x3edc5109	0.43030575
49	0x3ef14b75	0.47127882

module.EdgesEncoding.A2.weight f4 [25, 1]
0	0xbebd4070	-0.36963224
1	0x3f78d864	0.97205186
2	0xbe0955b5	-0.13411601
3	0xbd44a740	-0.048011065
4	0xbf782ead	-0.9694622
5	0xbf2b3aad	-0.6688641
6	0xbf114eb0	-0.5676069
7	0xbeee4ad4	-0.46541464
8	0x3f364448	0.7119794
9	0xbeb43b53	-0.3520151
10	0xbf39a825	-0.72522193
11	0x3ed3255a	0.41239434
12	0x3eb3c247	0.3510916
13	0x3f2c98a3	0.67420405
14	0xbf011558	-0.5042319
15	0x3e5ccf1e	0.21563384
16	0xbec3201c	-0.38110435
17	0xbe665aaf	-0.2249553
18	0xbf50e69f	-0.816019
19	0xbeea94b4	-0.45816576
20	0xbeadca7d	-0.3394355
21	0x3ed9f92c	0.42572916
22	0x3e56fa63	0.20993952
23	0x3e700411	0.23439051
24	0x3f82636c	1.0186591

module.EdgesEncoding.A2.bias f4 [25]
0	0x3f76aeea	0.9636065
1	0x3f2da572	0.67830575
2	0x3d09d275	0.033647973
3	0xbf301319	-0.6877914
4	0x3f470cfa	0.77754176
5	0xbe7cfbf8	-0.24705493
6	0xbd379f5a	-0.044829704
7	0xbf61f40a	-0.88263
8	0xbe522698	-0.20522535
9	0xbf28a641	-0.65878683
10	0x3f6d3c3e	0.9267005
11	0xbf5bfdef	-0.85934347
12	0xbf423c51	-0.75873286
13	0xbd12b993	-0.03582151
14	0xbf06cd78	-0.5265727
15	0x3eb4ce67	0.35313722
16	0xbebdfc45	-0.3710653
17	0xbee8de4b	-0.45482096
18	0x3d2c3ffc	0.042053208
19	0x3f3ba320	0.73295784
20	0xbf2eff84	-0.68358636
21	0x3ef04e22	0.4693461
22	0x3f225d69	0.6342378
23	0x3f77f770	0.96861935
24	0xbf364b6a	-0.7120882

module.EdgesEncoding.A3.weight f4 [25, 1]
0	0x3e83eb8e	0.2576565
1	0xbf39f785	-0.7264331
2	0x3f58c9ec	0.8468311
3	0xbecb40a7	-0.39697763
4	0x3f16311c	0.58668685
5	0x3cc7a153	0.024368918
6	0xbd3d4982	-0.04621268
7	0xbcd48f2a	-0.025947172
8	0x3e2b0b2a	0.16703478
9	0x3effc05f	0.49951455
10	0x3e1fbd71	0.1559961
11	0x3ea6e0a7	0.3259327
12	0xbf66ff8a	-0.9023367
13	0x3f366fdd	0.7126444
14	0x3f5ee3af	0.8706617
15	0x3f564e62	0.8371335
16	0x3f3e6c02	0.74383557
17	0xbf394f35	-0.72386485
18	0xbeb936c4	-0.36174595
19	0x3f63a1c8	0.88918734
20	0xbf4513c2	-0.76983273
21	0x3f660958	0.8985801
22	0xbf4e12de	-0.8049754
23	0xbf335216	-0.7004713
24	0x3ef6ac2b	0.4817823

module.EdgesEncoding.A3.bias f4 [25]
0	0xbf3a10e9	-0.7268205
1	0xbe57cf13	-0.21075086
2	0x3f39174f	0.7230119
3	0x3f4d3308	0.8015599
4	0x3f79de5d	0.97604924
5	0xbe4f42e3	-0.20240359
6	0xbf450b4d	-0.7697037
7	0x3f7d8b4f	0.99040693
8	0xbe6c0743	-0.23049645
9	0xbed859bd	-0.42255965
10	0x3e79058c	0.24318522
11	0xbf362227	-0.7114586
12	0x3f291727	0.6605095
13	0x3f1f97a2	0.6234075
14	0xbf5e1b2a	-0.867602
15	0xbf5cb59a	-0.862146
16	0xbda49d0c	-0.08037767
17	0x3edc96bb	0.43083748
18	0xbca6562f	-0.020304767
19	0xbf01fbab	-0.5077464
20	0x3d0272d1	0.03184778
21	0xbf7a9e96	-0.9789823
22	0xbf31f1a6	-0.6950935
23	0xbf2bbe6c	-0.67087436
24	0x3f4dabad	0.8034008

module.gcn_layers.0.bnNodes.W1.weight f4 [50, 50]
0	0x3dfa993f	0.122362606
1	0xbd254722	-0.04035104
2	0x3bd0d085	0.0063725137
3	0x3d918f73	0.07107439
4	0x3c7334b8	0.014844112
5	0xbd81d59a	-0.063395694
6	0x3da0afb4	0.07846013
7	0x3d8fee14	0.07027832
8	0xbb02066f	-0.001984026
9	0xbbf024b5	-0.0073285946
10	0x3ddd7f2d	0.108152725
11	0x3dd310c4	0.10305932
12	0xbdadd43a	-0.08487745
13	0x3e1cc756	0.15310416
14	0x3d0fbae5	0.035090346
15	0xbd984a99	-0.074361034
16	0x3d955326	0.0729125
17	0xbdef9a09	-0.11699302
18	0x3e09f900	0.13473892
19	0xbdc0a405	-0.09406284
20	0x3d2aea42	0.041727312
21	0x3d4affb0	0.04956025
22	0x3d14335a	0.036181785
23	0x3dee4c36	0.1163563
24	0xbd8c361c	-0.06846258
25	0xbd9149d9	-0.070941634
26	0xbdf81db8	-0.121150434
27	0x3c073852	0.008253174
28	0xbda882f2	-0.08228101
29	0x3c8b6a64	0.017018504
30	0xbcd89a6e	-0.026440825
31	0x3d88d7da	0.066817954
32	0x3de735f0	0.11289585
33	0x3d59b99c	0.053155527
34	0xbd794bae	-0.06086319
35	0xbd8a2316	-0.06744973
36	0xbdec7263	-0.11545255
37	0x3e06d239	0.13166131
38	0xbbef10da	-0.00729571
39	0x3ce44d51	0.027868899
40	0xbc351ee7	-0.011054731
41	0xbdca084e	-0.09864865
42	0x3d9e1f12	0.0772077
43	0x3da54a94	0.08070865
44	0x3c88ae51	0.016684683
45	0xbdb373f0	-0.08762348
46	0xbd2f004c	-0.042724892
47	0xbc3c6084	-0.0114976205
48	0xbd8d8d95	-0.0691177
49	0xbdbc64e3	-0.0919893
50	0xbca90e26	-0.02063663
51	0xbd368212	-0.04455764
52	0x3d201dba	0.03909085
53	0xbd29bf76	-0.041442357
54	0xbc9abaad	-0.018887842
55	0xbd78e42f	-0.060764488
56	0xbe058432	-0.1303871
57	0x3e05c74c	0.13064307
58	0x3ca7e30b	0.020494005
59	0x3df491d4	0.11941877
60	0xbc838ed5	-0.016059319
61	0xbcec83a8	-0.028871372
62	0xbe016e4a	-0.12639728
63	0xbd777545	-0.06041457
64	0x3dc66c24	0.09688595
65	0xbe14a923	-0.14517646
66	0xbd4cf724	-0.05004038
67	0x3dbf0f67	0.0932911
68	0x3d9943c0	0.074836254
69	0x3d5098d8	0.050927013
70	0xbd0a930d	-0.033831645
71	0xbc91cac7	-0.017796887
72	0xbce17e21	-0.027525963
73	0xbd40e91e	-0.047097318
74	0x3d85db89	0.06536014
75	0xbd284c6d	-0.04108851
76	0xbdac89aa	-0.08424695
77	0x3ccf62c9	0.02531566
78	0xbdc49d99	-0.09600372
79	0xbd1795e5	-0.037008185
80	0x3d96b6e3	0.073591016
81	0x3d3c0e6a	0.045912184
82	0x3e02bfbf	0.12768458
83	0xbdcf2af7	-0.10115617
84	0x3c02e4d2	0.007989125
85	0xbd4466a6	-0.047949456
86	0xbdb07326	-0.08615713
87	0xbdb113ce	-0.086463556
88	0x3ceaf004	0.028678901
89	0x3ca23a5b	0.019803217
90	0xbd85f14b	-0.065401636
91	0xbdc2e0e8	-0.09515554
92	0xbdf02f1c	-0.117277354
93	0x3e1001f1	0.1406324
94	0xbcec2fa5	-0.028831312
95	0xbcf0aa27	-0.02937801
96	0xbd7007c0	-0.05860114
97	0xbd825631	-0.06364096
98	0xbe0b343f	-0.13594149
99	0xbd9bd131	-0.076082595
100	0x3ddb33b6	0.107032225
101	0x3c9327f2	0.017963383
102	0xbd94fe61	-0.072750814
103	0xbd87811f	-0.06616425
104	0x3de29287	0.11063104
105	0x3e04e64d	0.12978478
106	0x3e1f5a4b	0.15561788
107	0x3d07151b	0.032979112
108	0x3dca7582	0.09885694
109	0x3c09710f	0.008388772
110	0xbdb1e23f	-0.08685731
111	0xbe0f2d9c	-0.13982242
112	0x3d6106b7	0.054938044
113	0xbc2e8f71	-0.010654316
114	0x3d107cca	0.035275258
115	0x3bde799f	0.0067894007
116	0xbdea27a1	-0.1143334
117	0xbdafb578	-0.08579534
118	0x3d8e97ea	0.06962569
119	0xbc16e58e	-0.009210004
120	0xbde404d3	-0.11133733
121	0x3da3f111	0.08004964
122	0xbc6f32ba	-0.0145994965
123	0xbd8e14fc	-0.06937596
124	0x3d187d37	0.03722879
125	0x3c558f75	0.013034691
126	0xbce43924	-0.027859278
127	0x3e0d53a1	0.13801433
128	0x3d98e3c9	0.074653216
129	0x3d0bae8f	0.03410202
130	0xbd4208a6	-0.04737153
131	0xbdeac755	-0.11463801
132	0x3db200f3	0.08691587
133	0xbd309526	-0.04311099
134	0xbdcdab41	-0.1004243
135	0x3dedeb88	0.1161719
136	0x3d9d6f6f	0.0768727
137	0x3d47521f	0.0486623
138	0xbcb4dc1e	-0.022077616
139	0xbd8aa478	-0.06769651
140	0x3c855847	0.016277445
141	0x3df8add9	0.12142534
142	0x3d258bb0	0.04041642
143	0xbdb47501	-0.08811379
144	0x3e04ceea	0.12969556
145	0x3c85ae60	0.0163185
146	0x3df158e7	0.11784535
147	0x3cb64745	0.02225078
148	0x3e11f319	0.1425289
149	0x3d8ddbcb	0.06926688
150	0xbdae59a2	-0.0851319
151	0x3dde6da8	0.10860759
152	0x3cb19b5a	0.021680523
153	0xbdd57459	-0.10422582
154	0xbd2bbf84	-0.04193069
155	0xbdfd985e	-0.12382577
156	0xbdadfc85	-0.0849543
157	0xbdda4b98	-0.106589496
158	0x3dcec2ce	0.1009575
159	0xbcc46db3	-0.02397809
160	0xbd012e49	-0.03153828
161	0x3d77afff	0.060470577
162	0x3d63e61e	0.05563938
163	0xbdb24772	-0.08705033
164	0x3d93a621	0.07209421
165	0x3d8a862b	0.06763872
166	0xbdfbf04c	-0.12301692
167	0x3defda26	0.117115304
168	0xbdb3f81f	-0.0878756
169	0xbd8948bd	-0.06703327
170	0xbe16a644	-0.14711863
171	0x3e08beae	0.13353989
172	0x3d21a457	0.039463367
173	0x3e15788a	0.14596763
174	0x3b8850b0	0.0041600093
175	0x3d91849e	0.07105373
176	0xbd9d8964	-0.07692221
177	0xbdd9e984	-0.10640243
178	0x3c723694	0.01478352
179	0xbbdc16da	-0.0067165913
180	0xbacf91b7	-0.0015836273
181	0xbd801c9d	-0.062554576
182	0xbb215703	-0.0024618513
183	0x3d43bc32	0.0477869
184	0x3d35a964	0.044350997
185	0xbe119963	-0.14218669
186	0x3d9607cd	0.07325707
187	0x3ca849d6	0.02054302
188	0x3dd5b157	0.104342155
189	0x3e0184a2	0.12648252
190	0xbdf1ff8a	-0.11816318
191	0x3e019749	0.12655367
192	0xbe1b440f	-0.15162681
193	0x3dc419b6	0.095752165
194	0x3c97f28b	0.01854827
195	0x3d6c2301	0.05765057
196	0xbd8e0ef1	-0.069364436
197	0x3da0fbf2	0.07860555
198	0xbd8321b8	-0.06402916
199	0xbe06536e	-0.13117763
200	0x3d6b1c62	0.057400115
201	0x3d86991d	0.06572173
202	0x3e0922f9	0.13392247
203	0xbcd9701b	-0.026542714
204	0x3e159fe0	0.14611769
205	0x3d6db87d	0.05803727
206	0xbd747468	-0.059681326
207	0xbdbfe289	-0.0936938
208	0x3d4d7241	0.05015779
209	0xbdceabb1	-0.10091341
210	0x3da2e40e	0.07953654
211	0xbddb5eb5	-0.10711423
212	0x3df5f9be	0.12010525
213	0x3cd802ba	0.026368488
214	0xbcb9cf1f	-0.02268177
215	0x3d514c94	0.05109842
216	0xbdb7f79f	-0.08982777
217	0xbc39f9be	-0.011351047
218	0xbc20c48c	-0.009812485
219	0xbd91e8b6	-0.07124464
220	0xbd04fe4a	-0.03246907
221	0xbdbc9469	-0.092079945
222	0x3dff6e37	0.12472194
223	0x3dec036f	0.115240924
224	0x3e1479f9	0.14499654
225	0x3e0b3ab5	0.13596614
226	0xbe0613c2	-0.13093475
227	0x3cfa0ad9	0.03052275
228	0x3d853119	0.06503505
229	0xbdfc9bd3	-0.123344086
230	0x3d40f58c	0.04710917
231	0xbdbb5073	-0.09146204
232	0x3d4dcdce	0.0502451
233	0x3d0d54c7	0.034504678
234	0x3e0d35b5	0.13790019
235	0xbd914f4e	-0.07095204
236	0xbe180546	-0.14845762
237	0x3de779db	0.11302539
238	0x3d35b08f	0.044357833
239	0x3d81c125	0.063356675
240	0x3d87e15c	0.06634781
241	0xbd1b0f91	-0.037856642
242	0x3dc27d04	0.09496501
243	0xbe08176b	-0.13290183
244	0x3c002433	0.007821131
245	0x3d9a8967	0.07545739
246	0x3da7016a	0.081545666
247	0xbd5b6ecb	-0.053572457
248	0xbdec1443	-0.11527302
249	0x3d8f2b20	0.06990647
250	0xbdf818e4	-0.121141225
251	0xbde8a2da	-0.113591865
252	0xbdea1619	-0.11429996
253	0xbd84dc97	-0.06487387
254	0xbd130b14	-0.035899237
255	0xbdd9e866	-0.106400296

module.gcn_layers.0.bnNodes.W2.weight f4 [50, 50]
0	0x3dbf2875	0.093338884
1	0xbd938edd	-0.072049834
2	0xbda33a1b	-0.07970067
3	0xbd1c6e10	-0.0381909
4	0x3c05f77b	0.00817668
5	0xbbbe9004	-0.005815508
6	0xbc6c19e3	-0.014410469
7	0x3d07015e	0.03296029
8	0x3dc9a54b	0.0984598
9	0xbdc3db11	-0.09563268
10	0x3db15e12	0.086605206
11	0xbe004ee3	-0.12530093
12	0xb93f8539	-0.00018264809
13	0xbe1278c8	-0.14303887
14	0x3dff06a5	0.12452439
15	0xbe0a01a3	-0.13477187
16	0xbd8798c5	-0.06620935
17	0x3dcd877a	0.10035606
18	0x3dae8ed4	0.08523336
19	0x3dfdc87c	0.12391755
20	0x3d4d86db	0.050177436
21	0xbdf2075d	-0.11817811
22	0xbde4a50a	-0.11164291
23	0x3dae3f58	0.085081756
24	0xbe0e25d1	-0.13881613
25	0x3e08be63	0.13353877
26	0xbc48e867	-0.01226244
27	0x3c45c0ca	0.01206989
28	0x3c06a97b	0.008219118
29	0xbd2e43cd	-0.04254513
30	0xbd413561	-0.047170047
31	0x3cdf5cee	0.027265992
32	0xbce9a004	-0.028518684
33	0x3c23e6ee	0.010003788
34	0x3e08320e	0.13300344
35	0x3cc4fcd0	0.024046332
36	0xbdd2e2fc	-0.102972
37	0xbdf3ad6f	-0.11898314
38	0x3d9a145f	0.07523417
39	0x3d1a743e	0.037708513
40	0x3d2bd333	0.041949462
41	0xbd69a230	-0.05703944
42	0xbdd3acf0	-0.103357196
43	0x3ddffe3a	0.10937162
44	0xbe15e819	-0.1463932
45	0xbd69d8b6	-0.057091437
46	0x3d2532f4	0.040331796
47	0x3e0a6d5b	0.13518278
48	0xbd68251d	-0.05667602
49	0xbdfe371c	-0.12412855
50	0x3d46aaaf	0.04850262
51	0xbc1601f5	-0.00915574
52	0xbd231111	-0.039811198
53	0xbe062b40	-0.13102436
54	0x3dea43be	0.11438702
55	0x3d57fcaa	0.052731194
56	0x3d619cb9	0.055081103
57	0x3d817610	0.06321347
58	0x3e1c8b89	0.15287603
59	0xba8a8d2e	-0.0010570639
60	0xbbac5c96	-0.0052600605
61	0xbdd2e126	-0.1029685
62	0xbe0a2548	-0.13490784
63	0xbd3edbd1	-0.046596352
64	0x3b54626d	0.00324073
65	0xbd9fb673	-0.07798471
66	0x3dbc48df	0.091935866
67	0x3c894fb4	0.016761638
68	0xbca12d39	-0.019674884
69	0x3dab8b79	0.08376212
70	0x3e029e04	0.1275559
71	0xbc7e9297	-0.015537879
72	0x3d821c70	0.0635308
73	0x3d8be854	0.068314224
74	0x3dcbc5ab	0.099498115
75	0xbe0bdef8	-0.13659275
76	0x3e08bd88	0.1335355
77	0x3cda20f2	0.026627038
78	0x3b833362	0.004003928
79	0x3d0269f7	0.031839337
80	0xbddb07f2	-0.10694875
81	0xbd0554be	-0.03255152
82	0xbe199586	-0.14998445
83	0xbc902138	-0.017593965
84	0x3c34c976	0.01103436
85	0xbda0216e	-0.07818876
86	0x3db51a7e	0.088429436
87	0xbddfcde2	-0.10927941
88	0x3db56369	0.088568516
89	0xbe223c83	-0.15843396
90	0xbcdce0e3	-0.026962703
91	0x3ddd1eec	0.107969135
92	0xbde6ef38	-0.11276096
93	0xbe01f1fd	-0.12689967
94	0xbd91c002	-0.07116701
95	0xbd4c1001	-0.04981995
96	0xbd677b77	-0.05651423
97	0x3dc39d66	0.09551506
98	0xbd8e5711	-0.069502
99	0x3d12a375	0.035800416
100	0xbe057193	-0.13031606
101	0xbcf84a03	-0.030308729
102	0xbda244ff	-0.07923316
103	0xbdf706e4	-0.12061861
104	0xbdd8f32c	-0.10593256
105	0xbd3bb2bd	-0.045824755
106	0x3d4c8f7d	0.04994153
107	0x3db89052	0.09011902
108	0x3bf85865	0.007578897
109	0x3d8cbd06	0.06871991
110	0x3c98d58e	0.018656518
111	0x3e1f674e	0.15566751
112	0xbd9ee4b0	-0.077584624
113	0xbdd66378	-0.10468191
114	0xbda37618	-0.07981509
115	0xbde18466	-0.11011581
116	0xbe0364b2	-0.12831381
117	0xbdae77d6	-0.08518951
118	0x3db4b1c5	0.08822969
119	0x3a282176	0.00064136775
120	0x3d053ddd	0.0325297
121	0xbdc2d623	-0.095134996
122	0x3d75ea64	0.060037985
123	0xbd21c6ad	-0.039496113
124	0xbdb757f8	-0.089523256
125	0x3d7e1d3c	0.0620396
126	0x3d4aa8f2	0.049477525
127	0xbd81f26b	-0.06345066
128	0x3d3871a6	0.04503026
129	0x3c341f96	0.010993859
130	0x3e05d45d	0.13069291
131	0xbe248fb9	-0.16070451
132	0xbbda8cf2	-0.006669634
133	0x3c5c9f52	0.013465719
134	0x3e310129	0.17285599
135	0x3dc82500	0.09772682
136	0xbe160712	-0.14651135
137	0xbe0d6a02	-0.1380997
138	0x3dd6e247	0.10492378
139	0x3ccfb4d4	0.02535478
140	0xbd4819ea	-0.04885284
141	0xbdadeb29	-0.08492119
142	0x3d5da56d	0.05411284
143	0x3df23ee5	0.118284024
144	0x3e0571c4	0.1303168
145	0xbd38da61	-0.045130137
146	0xbd93337b	-0.071875535
147	0x3d16b287	0.03679135
148	0x3d9c09df	0.0761907
149	0xbda81270	-0.08206642
150	0x3db76bd3	0.08956113
151	0xbdf095b1	-0.11747301
152	0xbd05e068	-0.032684714
153	0x3dcd2eca	0.1001869
154	0xbd05ae26	-0.032636784
155	0xbd3b9da9	-0.045804653
156	0x3c598d6a	0.013278345
157	0x3d7cf87d	0.061760414
158	0x3e02e214	0.12781554
159	0xbe00ec7f	-0.12590216
160	0x3decbc72	0.115593806
161	0xbd109603	-0.035299312
162	0x3ba49cad	0.00502356
163	0xbd9a4755	-0.07533137
164	0x3c9521a6	0.018204521
165	0xbe1da580	-0.15395164
166	0xbd938fae	-0.07205139
167	0xbd92ec57	-0.071739845
168	0x3dd58f26	0.10427694
169	0x3d630269	0.05542222
170	0xbdaa1920	-0.083055735
171	0x3d0ac370	0.03387779
172	0x3df4649f	0.119332545
173	0xbe1d8e15	-0.15386231
174	0x3de97d82	0.11400892
175	0x3dd29e98	0.102841556
176	0x3cc99fd0	0.024612337
177	0xbd8b8042	-0.068115726
178	0x3dab84a1	0.08374906
179	0x3d987f9e	0.07446216
180	0xbd95f687	-0.07322412
181	0xbda98a1f	-0.08278298
182	0xbdd45399	-0.103675075
183	0xbd95e01c	-0.07318136
184	0x3ce004a9	0.027345972
185	0x3d9e73e1	0.07736946
186	0x3c16d2cd	0.009205532
187	0x3e02c04c	0.12768668
188	0x3d1f5877	0.038902726
189	0x3cc5fdf0	0.024168938
190	0xbd90f49f	-0.07077908
191	0xbcb7cd7e	-0.022436853
192	0x3de66449	0.112495966
193	0x3d5f2e2d	0.054487396
194	0xbd1303f4	-0.035892442
195	0xbd9b4ef4	-0.075834185
196	0xbe087a5d	-0.13327928
197	0x3b317a47	0.002708094
198	0xbdaae801	-0.083450325
199	0xbcdbbef7	-0.026824458
200	0xbc89911b	-0.016792824
201	0xbe120874	-0.14261037
202	0x3dbe720f	0.09299099
203	0xbd15a204	-0.036531463
204	0xbe077337	-0.13227545
205	0xbe0aa34b	-0.13538854
206	0xbdd7c2d5	-0.10535208
207	0xbd28858c	-0.041142985
208	0xbc23ef6d	-0.010005814
209	0x3d471970	0.048608243
210	0x3c22a853	0.009927827
211	0xbdf7a591	-0.12092126
212	0xbde78994	-0.11305538
213	0xbdb0307a	-0.08602996
214	0x3dd95612	0.1061212
215	0xbca7f183	-0.020500904
216	0xbdfabade	-0.12242673
217	0xbd440c31	-0.04786319
218	0xbdd13508	-0.10215193
219	0x3cdb3aba	0.026761401
220	0xbc0ee05a	-0.008720482
221	0xbcc50387	-0.024049534
222	0x3dd2678e	0.10273658
223	0xbdb7771e	-0.08958267
224	0x3cc9c100	0.024628162
225	0xbd24c20f	-0.04022413
226	0x3cea2597	0.028582377
227	0xbe00a93b	-0.12564556
228	0xbd2b815c	-0.041871414
229	0x3d638217	0.055543985
230	0xbdcf275b	-0.10114928
231	0xbda219af	-0.07915055
232	0xbc22fda7	-0.009948171
233	0xbdfa96f2	-0.12235822
234	0xbd9df0dd	-0.07711957
235	0xbd2f4340	-0.042788744
236	0xbca858a2	-0.020550076
237	0xbd2fa215	-0.042879183
238	0xbbd73f6b	-0.0065688393
239	0xbe091add	-0.13389154
240	0xbc0d2f87	-0.008617288
241	0xbde88c1d	-0.113548495
242	0x3da64667	0.08118897
243	0x3dfb5259	0.12271566
244	0xbdfb45a5	-0.12269143
245	0xbdbc64da	-0.091989234
246	0x3dfb3f37	0.12267917
247	0x3dfbd65f	0.122967474
248	0x3d5a4b7a	0.053294636
249	0xbd9c8580	-0.076426506
250	0x3d84c26c	0.064823955
251	0xbca71034	-0.020393468
252	0x3daec05b	0.08532783
253	0x3d945547	0.07242828
254	0x3b9c23bb	0.0047650016
255	0x3d8c49e0	0.06850028

module.gcn_layers.0.bnNodes.batch_norm.weight f4 [50]
0	0x3f7882b7	0.97074455
1	0x3f7c13c1	0.9846764
2	0x3f7e767c	0.9939954
3	0x3f7bb6dc	0.98325896
4	0x3f7dccce	0.9914063
5	0x3f80381f	1.0017127
6	0x3f7a62de	0.9780711
7	0x3f7a9bd0	0.97894
8	0x3f7fc0dd	0.9990366
9	0x3f82fa94	1.023272
10	0x3f788de2	0.97091496
11	0x3f7d67b1	0.98986346
12	0x3f7c8f2c	0.9865596
13	0x3f787b12	0.9706279
14	0x3f80e055	1.0068461
15	0x3f7a1171	0.97682863
16	0x3f7ae13b	0.97999924
17	0x3f802430	1.0011044
18	0x3f810b33	1.0081543
19	0x3f78d72f	0.97203344
20	0x3f7bf8c2	0.9842645
21	0x3f7d5c37	0.98968834
22	0x3f7afe61	0.980444
23	0x3f81218e	1.0088365
24	0x3f8163c4	1.0108571
25	0x3f75d883	0.96033496
26	0x3f7fdf20	0.99949837
27	0x3f7f9c78	0.9984813
28	0x3f7ec9a2	0.9952642
29	0x3f7fe999	0.99965817
30	0x3f7a7a42	0.978428
31	0x3f8024e5	1.0011259
32	0x3f78f707	0.97251934
33	0x3f82594a	1.0183499
34	0x3f7c28f4	0.9849999
35	0x3f7d472f	0.9893674
36	0x3f7b450a	0.9815222
37	0x3f7ee636	0.99570024
38	0x3f7cef49	0.9880262
39	0x3f7d3dfb	0.989227
40	0x3f8154f2	1.0104048
41	0x3f7a969c	0.9788606
42	0x3f783fcb	0.9697234
43	0x3f7e35ee	0.9930104
44	0x3f796c2d	0.9743069
45	0x3f7edb05	0.9955295
46	0x3f7a29d7	0.9772009
47	0x3f7f3f09	0.9970556
48	0x3f7fc4ee	0.99909866
49	0x3f81e7fc	1.0148921

module.gcn_layers.0.bnNodes.batch_norm.bias f4 [50]
0	0xbd36a611	-0.044591967
1	0xbca02bca	-0.01955213
2	0xbd0f6408	-0.035007507
3	0x3c8afe5c	0.016966991
4	0xbc77d1e6	-0.015125727
5	0x3c0f7b2b	0.008757393
6	0xbcc6e02a	-0.024276812
7	0xbd1365a6	-0.03598561
8	0xbc2a4857	-0.010393224
9	0x3c845e83	0.016158348
10	0xbcce2137	-0.025162322
11	0xbd014254	-0.031557396
12	0xbb1fec4b	-0.0024402316
13	0xbd086594	-0.033299997
14	0xbc58915a	-0.013218248
15	0x3c4f76e3	0.012662622
16	0x3bd0570f	0.0063580344
17	0x3bb3412a	0.0054704146
18	0x3c2e29fd	0.010630128
19	0xbc721156	-0.014774641
20	0xb9fe66aa	-0.00048523146
21	0xbc9ea846	-0.019367348
22	0xbc313b69	-0.010817387
23	0x3c3d1dc9	0.011542746
24	0xbc273622	-0.010205777
25	0x3b65ffa7	0.0035095008
26	0xba5a26e6	-0.00083218364
27	0x3a8a91ae	0.001057198
28	0x3c80a2be	0.015702602
29	0x3c89def7	0.01682995
30	0xbcaa590b	-0.020794412
31	0x3be0c2c4	0.0068591554
32	0x3c59df54	0.0132978745
33	0x3d054fa0	0.03254664
34	0xbc3e4dda	-0.011615241
35	0xbcb508ed	-0.022098983
36	0xbbbb9315	-0.0057243207
37	0x37735df8	1.45058075e-05
38	0xbcdd2eef	-0.026999919
39	0x3a306ba5	0.00067299075
40	0xbb25240c	-0.0025198488
41	0xbc32ad11	-0.01090552
42	0xb909d6e4	-0.00013145391
43	0x3c25929e	0.010105757
44	0xbc5ac0f4	-0.013351668
45	0x3974bcf3	0.00023340042
46	0x3c48f889	0.012266287
47	0x3c043d55	0.008071263
48	0xbbf2df6e	-0.007411889
49	0x3cb3562c	0.021891676

module.gcn_layers.0.bnEdges.W3.weight f4 [50, 50]
0	0xbdc37ca6	-0.09545259
1	0xbce0b9ce	-0.027432349
2	0x3ba30d04	0.004975917
3	0xbe0a5215	-0.13507874
4	0x3dc4fa23	0.09618022
5	0x3dd391af	0.10330521
6	0xbe1209e7	-0.1426159
7	0xbcedfa87	-0.029050125
8	0x3d05d759	0.032676075
9	0x3d9e7cf6	0.07738678
10	0x3d4f90f1	0.050675336
11	0xbbb417b5	-0.00549599
12	0x3e067556	0.13130698
13	0xbcba766c	-0.022761546
14	0xb994f0f1	-0.00028408275
15	0xbda96161	-0.08270527
16	0xbdb62aa9	-0.088948555
17	0xbd46a2f7	-0.04849526
18	0xbe0c3a6f	-0.13694166
19	0xbcd8f518	-0.026484057
20	0x3cb575a8	0.02215083
21	0xbdb839b2	-0.089953795
22	0xbde260b3	-0.110536
23	0x3e07fe8b	0.13280694
24	0xbd5d6a9b	-0.054056745
25	0xbda4b583	-0.08042433
26	0xbd7031e2	-0.058641322
27	0xbd31d20d	-0.04341321
28	0xbe226192	-0.15857533
29	0x3b81dcc4	0.003963085
30	0xbd345faf	-0.044036563
31	0xbd8362b3	-0.0641531
32	0x3d2c1703	0.042014133
33	0x3ceeb6de	0.029139932
34	0x3e116154	0.14197284
35	0xbdf2b1f0	-0.11850345
36	0x3e1764d3	0.14784555
37	0x3d5e40ec	0.054261133
38	0xbc8399f4	-0.016064622
39	0x3df7ae0d	0.120937444
40	0x3e1f6be2	0.15568498
41	0x3d1892cf	0.037249383
42	0x3c827b93	0.015928065
43	0xbd809756	-0.06278865
44	0x3c51e187	0.012810118
45	0xbcf7d307	-0.030251993
46	0xbd467773	-0.04845376
47	0x3a662917	0.00087799266
48	0xbdab200e	-0.08355723
49	0x3dc30997	0.095233135
50	0x3d5ed3f0	0.054401338
51	0xbe112053	-0.14172487
52	0x3e2387ae	0.15969726
53	0x3d9e891c	0.07740995
54	0x3dcc4658	0.099743545
55	0xbddc7f9d	-0.10766528
56	0x3e1d0081	0.15332223
57	0x3d9a149f	0.075234644
58	0xbd310fa4	-0.043227807
59	0xbd74cd5d	-0.059766162
60	0x3d73e8d6	0.05954822
61	0x3cae46c7	0.021273984
62	0x3c24a10c	0.010048162
63	0x3d8fcdd2	0.07021679
64	0xbdc67721	-0.09690691
65	0xbe118760	-0.14211798
66	0x3e2d25c4	0.16908938
67	0x3e1aeee1	0.15130188
68	0x3ca19553	0.019724524
69	0x3de2787d	0.110581376
70	0x3e091683	0.13387494
71	0x3d8ed57b	0.06974312
72	0xbdcd8493	-0.10035052
73	0xbdac37e4	-0.08409098
74	0xbdd98df2	-0.10622777
75	0xbd27565a	-0.040853836
76	0x3e0a08ee	0.13479969
77	0xbb970b6b	-0.0046095154
78	0xbde3815f	-0.1110866
79	0x3dd79849	0.10527093
80	0x3d5a824c	0.053346917
81	0x3cc5fcce	0.024168398
82	0xbd958aa9	-0.07301838
83	0x3dce2f54	0.10067621
84	0xbdefa66a	-0.11701663
85	0x3d8c81ac	0.068606704
86	0xbc9c1a7d	-0.0190556
87	0xbd4b2346	-0.049594186
88	0xbe04260e	-0.12905142
89	0x3c90a90b	0.017658731
90	0xbd8bfcae	-0.06835304
91	0xbd6cabf8	-0.05778119
92	0x3da791e1	0.08182121
93	0xbdb663c0	-0.089057446
94	0x3e071fdb	0.13195746
95	0x3deeaac5	0.116536655
96	0x3dcefff2	0.101074114
97	0x3c873096	0.01650266
98	0xbdd9af44	-0.106291324
99	0xbd0cd5cc	-0.03438358
100	0xbd8added	-0.0678061
101	0xbca5b74b	-0.020229002
102	0xbe05aa79	-0.13053311
103	0xbd804f84	-0.062651664
104	0xbcc51c68	-0.024061397
105	0x3a12221b	0.000557454
106	0xbd144f4b	-0.036208432
107	0x3cf84530	0.030306429
108	0xbd9eab0a	-0.07747467
109	0xbdc40c55	-0.09572665
110	0xbdd28065	-0.102783956
111	0x3e055149	0.13019289
112	0x3daa4bca	0.08315237
113	0xbe00585f	-0.12533711
114	0xbdf44ea7	-0.11929064
115	0xbbc7d249	-0.006098066
116	0xbd9a2232	-0.075260535
117	0x3d45d42e	0.048298053
118	0xbd4cb540	-0.04997754
119	0x3c65760f	0.014005198
120	0xbd1017a6	-0.035178803
121	0xbde1b7f1	-0.11021412
122	0xbc665064	-0.014057253
123	0x3e03c2de	0.12867305
124	0x3de09462	0.10965802
125	0xbdd5d3ec	-0.104408115
126	0x3d4c2054	0.049835518
127	0x3deb9254	0.11502519
128	0x3c8577a5	0.016292403
129	0xbcb02449	-0.021501677
130	0x3de488e0	0.11158919
131	0x3c1825d5	0.009286364
132	0xbc9c22a5	-0.019059489
133	0x3dfb68d8	0.12275857
134	0x3d536d36	0.051617824
135	0xbdc7916c	-0.09744534
136	0x3dc57d24	0.09643009
137	0x3dfefe88	0.12450892
138	0x3dd7ca90	0.105366826
139	0xbd990246	-0.07471137
140	0xbd7aee79	-0.06126258
141	0x3da9c4b5	0.08289472
142	0x3de8073b	0.11329504
143	0xbddda3c5	-0.10822252
144	0x3de130e0	0.1099565
145	0x3da074a6	0.07834749
146	0x3d0d3b82	0.03448058
147	0xbd07dd26	-0.033169888
148	0xbc2de765	-0.010614251
149	0x3da0b62d	0.07847247
150	0x3c66bc9a	0.014083052
151	0x3df74044	0.120728046
152	0xbdc60aa2	-0.09669997
153	0xbd777e17	-0.060422983
154	0xbccd75ef	-0.02508065
155	0x3d466428	0.04843536
156	0x3d26acbf	0.040692087
157	0x3d87a356	0.06622951
158	0xbd8ec722	-0.06971575
159	0xbd0bad98	-0.0341011
160	0x3d3e61fa	0.046480156
161	0xbd5b3f54	-0.05352719
162	0x3de1a6d7	0.1101815
163	0x3dde6922	0.10859896
164	0x3d8ef8cc	0.06981048
165	0x3dac36b4	0.08408871
166	0x3d9c82f9	0.076421686
167	0xbe036105	-0.12829979
168	0xbd552337	-0.052035537
169	0x3dc7b257	0.097508125
170	0xbd8aa097	-0.06768911
171	0x3ca8451e	0.02054077
172	0xbd1ecadb	-0.038767677
173	0x3b3b8744	0.002861456
174	0xbc7f57a0	-0.015584856
175	0xbc190df4	-0.009341706
176	0xbbc5294c	-0.006016886
177	0x3e24f05b	0.16107313
178	0xbce92a0a	-0.028462429
179	0xbc1be0f1	-0.009514079
180	0x3e14efc5	0.1454459
181	0xbdc1c4cf	-0.094613664
182	0x3ba51b34	0.0050386433
183	0x3d0af7df	0.033927795
184	0x3d954a3a	0.07289548
185	0x3de9877a	0.11402793
186	0x3d8ce48f	0.068795316
187	0xbd287e54	-0.0411361
188	0x3dbbe5e9	0.09174711
189	0x3d53dafb	0.051722508
190	0x3be29b53	0.0069154887
191	0x3d7cff58	0.061766952
192	0xbdd29f85	-0.10284332
193	0xbc971e7d	-0.018447155
194	0xbd580635	-0.052740294
195	0x3d051c4b	0.032497685
196	0x3e2c5b12	0.16831616
197	0xbd9e3821	-0.077255495
198	0xbe216276	-0.15760216
199	0x3e172329	0.14759506
200	0xbdad38b9	-0.084580846
201	0x3dd75dc7	0.105159335
202	0x3db0bdc4	0.08629945
203	0xbd7d3cbd	-0.061825503
204	0xbc03058f	-0.007996931
205	0xbd925c58	-0.071465194
206	0x3ddaadc1	0.10677672
207	0xbde84cdf	-0.11342787
208	0x3cdf68e9	0.027271705
209	0xbdbaa9ba	-0.09114404
210	0x3dccafa5	0.09994439
211	0x3da48127	0.08032446
212	0x3e0919bf	0.13388728
213	0xbd5a5e24	-0.053312436
214	0x3d14eb11	0.03635699
215	0xbddf5e97	-0.109067135
216	0x3d9467e3	0.07246377
217	0xbd6f4be8	-0.058422
218	0x3d11b87e	0.035576336
219	0x3d6a2be2	0.057170756
220	0xbdcd63b6	-0.10028784
221	0x3dba5fdd	0.09100316
222	0xbd3cb4a6	-0.046070717
223	0x3d8724a5	0.06598786
224	0xbd167eff	-0.036742207
225	0xbc2880b6	-0.010284593
226	0x3cfad765	0.030620286
227	0x3dd861d8	0.10565537
228	0x3d68efbf	0.056869265
229	0x3c0a7863	0.008451554
230	0xbd25cf64	-0.040480986
231	0xbe00aea8	-0.12566626
232	0xbd41db22	-0.047328122
233	0xbd8349d0	-0.06410563
234	0x3d14f554	0.036366776
235	0xbcd6a0e7	-0.026199771
236	0x3ce244ee	0.027620759
237	0xbd6970b5	-0.05699225
238	0xbe20ac7a	-0.15690795
239	0x3d1191c4	0.035539404
240	0x3d75cc16	0.060009085
241	0x3d6f3805	0.058403034
242	0x3e08d44f	0.1336224
243	0xbdf972a9	-0.12180073
244	0x3cd2c955	0.025730768
245	0x3e03cf9c	0.12872165
246	0xbdb55079	-0.088532396
247	0x3dc3416f	0.09533965
248	0x3db71e98	0.08941382
249	0x3c632c2b	0.013865511
250	0xbe0c6744	-0.13711268
251	0x3d8b9104	0.06814769
252	0x3dff2070	0.12457359
253	0xbcad4b2a	-0.021154005
254	0x3d5f5a45	0.054529447
255	0x3dd8a757	0.105787925

module.gcn_layers.0.bnEdges.W4.weight f4 [50, 50]
0	0x3d0cf38e	0.03441196
1	0xba81e6d0	-0.0009910706
2	0xbda228d4	-0.079179436
3	0xbd790a0d	-0.0608006
4	0xbd6baea8	-0.057539612
5	0x3dcd1f7b	0.1001577
6	0xbd56c86f	-0.052437242
7	0x3dd780ff	0.10522651
8	0xbded11ba	-0.11575647
9	0xbdfe9601	-0.12430955
10	0x3e0330cb	0.12811582
11	0x3da55d83	0.080744766
12	0xbe0488e8	-0.1294285
13	0xbdacb2c9	-0.08432538
14	0x3e109bb6	0.14121899
15	0xbda5ffa0	-0.08105397
16	0x3ba6c0a7	0.005088884
17	0x3d05deae	0.032683067
18	0xbb835959	-0.004008454
19	0xbc9b85dd	-0.01898473
20	0x3c0dd4f7	0.008656732
21	0xbce8c451	-0.028413923
22	0x3dc5dd88	0.09661394
23	0xbba38cf9	-0.0049911705
24	0x3df86466	0.121285245
25	0x3debc577	0.11512273
26	0x3cb48932	0.022038076
27	0x3d9fbabb	0.07799288
28	0x3bbd8301	0.005783439
29	0x3cbe2a1a	0.023213435
30	0x3ddfa7da	0.10920687
31	0xbd90abb2	-0.07063998
32	0x3df6feed	0.12060342
33	0x3ca93a75	0.020657757
34	0xbe0ef341	-0.13959982
35	0x3d9bcb31	0.07607115
36	0x3dade9f8	0.084918916
37	0xbd03e8a8	-0.0322043
38	0xbd4347d1	-0.04767591
39	0xbe09fd3c	-0.13475507
40	0x3dca9006	0.098907515
41	0xbd9e863d	-0.07740448
42	0xbdceb6ba	-0.10093446
43	0xbd4e66d6	-0.05039104
44	0xbd0f9e9b	-0.035063367
45	0xbd0ee7ed	-0.03488915
46	0xbdeba27d	-0.115056016
47	0xbd968112	-0.07348837
48	0xbc94f234	-0.018181898
49	0xbe04d0f8	-0.1297034
50	0x3ca3ac94	0.019979753
51	0x3b46df2c	0.0030345423
52	0x3cf1092b	0.029423317
53	0xbcbc40bf	-0.022980092
54	0xbdb8d667	-0.09025269
55	0x3d9bc6d5	0.076062836
56	0x3dc6065d	0.096691824
57	0x3d7e9a08	0.062158614
58	0xbd3b1e43	-0.045683157
59	0xbd05706d	-0.03257792
60	0xbdd52924	-0.104082376
61	0x3c4d6ade	0.012537686
62	0xbdcf1d82	-0.1011305
63	0x3d4e8c74	0.050426915
64	0xbb52954d	-0.0032132447
65	0x3b6f8496	0.0036547533
66	0xbd708d9f	-0.05872881
67	0xbdf7b2d0	-0.12094653
68	0xbddc3ed4	-0.10754171
69	0x3d9222b3	0.071355246
70	0xbd60aa34	-0.05484982
71	0xbcefef70	-0.029288977
72	0xbdb832e4	-0.089940816
73	0x3bf1b763	0.0073765977
74	0xbded9d1e	-0.11602233
75	0xbc542cbe	-0.0129501205
76	0xbe0b2d84	-0.13591582
77	0x3d1ea1ef	0.03872865
78	0x3dcfeaea	0.10152228
79	0xbde1e7bf	-0.1103053
80	0x3d971bd6	0.07378356
81	0xbd87b0d2	-0.06625523
82	0x3d7768f0	0.06040281
83	0xbdc8a56f	-0.09797179
84	0x3d8bed1f	0.06832337
85	0x3d7e0518	0.062016577
86	0x3e12d173	0.14337711
87	0x3d31a9ad	0.043374706
88	0x3d07590e	0.033043914
89	0xbdba7c22	-0.09105708
90	0x3dd3b786	0.10337739
91	0xbc571cad	-0.013129395
92	0x3dc36f6f	0.09542739
93	0x3da70786	0.08155732
94	0xbdd72724	-0.10505512
95	0x3ddd3c55	0.10802523
96	0x3ca9197d	0.020642037
97	0x3c8b883e	0.017032739
98	0xbda7d695	-0.08195225
99	0x3d1c9a2a	0.03823296
100	0xbc74cd13	-0.014941472
101	0xbd70ee6e	-0.058821134
102	0xbd11f481	-0.035633568
103	0x3d45507e	0.048172466
104	0x3d89a493	0.06720843
105	0x3d3fd776	0.04683634
106	0x3ddac61c	0.106823176
107	0x3dfee5d3	0.12446179
108	0x3ca439e7	0.020047141
109	0x3ddec321	0.10877062
110	0x3d756f7e	0.05992078
111	0xbd6e5377	-0.058185067
112	0xbe255a8a	-0.16147819
113	0x3c96477e	0.018344637
114	0xbdcdb059	-0.10043401
115	0xbdb9c77b	-0.09071251
116	0xbd987fb5	-0.07446233
117	0xbe23b675	-0.1598757
118	0xbd545686	-0.051840328
119	0xbcca3bb2	-0.024686668
120	0x3cbcbfe8	0.023040727
121	0x3dfb9bab	0.12285551
122	0x3ca0bf33	0.01962242
123	0x3d1e7302	0.0386839
124	0xbd8fd067	-0.070221715
125	0xbb977e7a	-0.0046232315
126	0x3e3063bc	0.17225546
127	0x3daccea8	0.08437854
128	0x3dc03e41	0.09386874
129	0xbbdf10de	-0.0068074306
130	0x3dbe44df	0.0929048
131	0xbd491389	-0.049090896
132	0xbd1c06af	-0.03809231
133	0xbdaf4841	-0.08558703
134	0xbe17fc0e	-0.14842245
135	0x3df9d579	0.1219892
136	0x3e123078	0.14276302
137	0x3d9fd4f4	0.078042895
138	0x3cd72360	0.026261985
139	0xbe2b4d33	-0.16728668
140	0xbde44499	-0.111458965
141	0x3c94b050	0.018150479
142	0x3dce03fc	0.10059354
143	0xbd6d8a0c	-0.05799298
144	0xbdf36de7	-0.118861966
145	0x3cee05a0	0.029055417
146	0x3d9d6c1e	0.07686637
147	0xbd5facc1	-0.05460811
148	0x3dde3c4c	0.108513445
149	0xbda07562	-0.07834889
150	0xbd855be7	-0.065116696
151	0x3d09bee5	0.033629317
152	0xbe08b3a7	-0.13349782
153	0x3cfed146	0.031105649
154	0x3cf21121	0.029549183
155	0x3e096c59	0.13420238
156	0xbd82168b	-0.06351956
157	0xbd074c67	-0.033031847
158	0xbd8fcdea	-0.07021697
159	0x3d03e7b4	0.03220339
160	0xbdf5e357	-0.12006252
161	0xbdd0ad65	-0.101893224
162	0xbd0677e4	-0.03282918
163	0x3e1320b9	0.14367951
164	0xbd06f72b	-0.03295056
165	0xbc4872c3	-0.012234393
166	0xbdef282b	-0.11677583
167	0xbe06341f	-0.1310582
168	0x3c53f25f	0.012936204
169	0xbc8e1622	-0.017344538
170	0x3da1f721	0.07908464
171	0xbd9547eb	-0.07289108
172	0xbc47002e	-0.012146039
173	0xbc97420a	-0.018464107
174	0xbdbf7cd5	-0.09349982
175	0xbc2e1e32	-0.010627316
176	0xbd8c8bf5	-0.06862632
177	0x3d30096b	0.04297773
178	0x3d225877	0.039635148
179	0xbdc69b54	-0.09697595
180	0xbde86c74	-0.11348811
181	0xbde0b8ee	-0.109727725
182	0x3d460548	0.04834488
183	0x3dc06b60	0.0939548
184	0xbdc09c5f	-0.094048254
185	0xbd758174	-0.05993791
186	0xbe094308	-0.13404477
187	0xbde743c9	-0.11292226
188	0x3d8058eb	0.0626696
189	0x3cf4ab39	0.029866802
190	0x3e0d8ccc	0.13823241
191	0x3dce5c18	0.10076159
192	0xbd96f951	-0.07371772
193	0x3c819fe6	0.015823316
194	0x3dda82ee	0.10669504
195	0x3c7da3c4	0.015480939
196	0xbd0e1a18	-0.034692854
197	0x3a1f9142	0.0006087014
198	0xbcfa36f4	-0.030543782
199	0x3d9368e2	0.07197739
200	0xbd88e8a2	-0.06684996
201	0xbdab0fbb	-0.0835261
202	0xbd2f7daf	-0.04284447
203	0xbd5672bf	-0.052355524
204	0x3db3c854	0.08778444
205	0xbd988e17	-0.074489765
206	0xbddbf1fe	-0.10739516
207	0x3c590576	0.013245931
208	0xbce2c376	-0.027681094
209	0xbcb2e5c3	-0.021838075
210	0x3de08b85	0.10964111
211	0xbdb5b263	-0.08871915
212	0xbd87f698	-0.06638831
213	0xbcde5579	-0.027140366
214	0xbd5078c0	-0.050896406
215	0x3dcd5af3	0.10027113
216	0x3e0d0902	0.13772967
217	0xbd80db38	-0.06291813
218	0xbbb10bba	-0.0054030092
219	0x3c273d9e	0.010207562
220	0xbde68233	-0.11255302
221	0x3e173cdb	0.14769308
222	0x3df93178	0.121676385
223	0xbd5a4810	-0.05329138
224	0x3e02b4c2	0.12764266
225	0xbd949774	-0.0725545
226	0xbdfb0b14	-0.12257972
227	0x3dce40cd	0.100709535
228	0x3da52101	0.080629356
229	0xbd00c9e8	-0.031442553
230	0xbde33b81	-0.11095334
231	0x3da038ed	0.07823358
232	0xbd9ebc1a	-0.07750721
233	0xbe0ddb93	-0.13853292
234	0xbd1fd0ee	-0.03901761
235	0xbd7c060d	-0.061529208
236	0xbd80add9	-0.06283159
237	0x3bc667b9	0.006054845
238	0x3da6ba05	0.08140949
239	0xbe102e1b	-0.14080088
240	0x3d0aed89	0.033917937
241	0x3d9fe9dc	0.07808277
242	0xbb978025	-0.0046234303
243	0x3d90dc22	0.07073237
244	0x3d8ae6e4	0.0678232
245	0xbdc19f27	-0.09454184
246	0xbd051954	-0.032494858
247	0x3da5e3fb	0.081001244
248	0x3da53006	0.080658
249	0x3d332c9f	0.043743726
250	0x3dabf8d7	0.08397072
251	0x3d9cc898	0.07655448
252	0xbc9545c1	-0.018221738
253	0xbdb6028e	-0.08887206
254	0xbe16ca4c	-0.14725608
255	0xbdc22d51	-0.094813

module.gcn_layers.0.bnEdges.W5.weight f4 [50, 50]
0	0xbd9a2e9c	-0.07528421
1	0x3caf5a2e	0.021405306
2	0x3dc13be8	0.09435254
3	0x3d5e9538	0.054341525
4	0xbd3cca94	-0.04609163
5	0x3dc6515c	0.09683487
6	0xbde757c7	-0.11296039
7	0xbd8879aa	-0.066638306
8	0x3b2c299e	0.0026269923
9	0x3e0c8fbc	0.13726705
10	0x3cd3f824	0.025875159
11	0xbd43e672	-0.04782719
12	0x3ca4d036	0.020118814
13	0xbc7e2d87	-0.015513784
14	0xbc1dc675	-0.009629835
15	0xbdc7eb79	-0.0976171
16	0x3d98925a	0.07449789
17	0xbe0dcd09	-0.13847746
18	0x3da68fdc	0.08132908
19	0xbd9c84a9	-0.076424904
20	0xbda1ee6b	-0.07906803
21	0xbc93dc81	-0.01804948
22	0xbe030554	-0.12795001
23	0xbda0c7d1	-0.07850612
24	0x3d762f01	0.06010342
25	0xbe0b9741	-0.13631918
26	0x3e0466be	0.12929818
27	0x3ceab712	0.028651748
28	0x3dfff4cb	0.124978624
29	0xbd0dfd16	-0.03466519
30	0xbd40de6f	-0.04708713
31	0xbd9f49ea	-0.0777777
32	0x3c1836d0	0.009290412
33	0x3c4ff9f4	0.012693871
34	0x3d81180a	0.06303413
35	0xbe08e764	-0.13369519
36	0x3d38b0a6	0.04509034
37	0x3c3df76e	0.011594636
38	0x3d56ac55	0.052410442
39	0xbd70091d	-0.05860244
40	0xbdf9b451	-0.12192596
41	0xbe106584	-0.14101225
42	0x3d448eaa	0.047987618
43	0xbd8e0f6d	-0.06936536
44	0xbdc557cb	-0.09635886
45	0xbdb4ed4c	-0.08834323
46	0x3cca732e	0.024713125
47	0xbd2c4741	-0.04206014
48	0x3d3075bf	0.04308104
49	0xbd4d0238	-0.050050944
50	0xbdd72c16	-0.105064556
51	0xbe1d9a36	-0.15390858
52	0x3d594d19	0.05305204
53	0x3d01c0dd	0.03167807
54	0x3d9c1475	0.07621089
55	0xbde49b57	-0.11162441
56	0xbcb2e413	-0.02183727
57	0xbd9b1c49	-0.07573754
58	0xbc6fa5ce	-0.014626933
59	0xbe0e6f38	-0.13909614
60	0xbdf21d16	-0.11821954
61	0xbdedab9b	-0.11604997
62	0xbddb251a	-0.10700436
63	0xbdf53452	-0.1197287
64	0xbdb8beff	-0.090208046
65	0x3dd57dd2	0.10424389
66	0x3c8e37f4	0.017360665
67	0x3e1e4cb2	0.15458944
68	0x3b97c391	0.0046314676
69	0x3cdbeb5f	0.026845632
70	0x3dca477f	0.09876918
71	0xbe04b6d1	-0.12960364
72	0x3d2392a4	0.03993477
73	0x3e048a7c	0.12943453
74	0xbd8e07e9	-0.069351025
75	0xbdb0b16b	-0.0862759
76	0xbd2f165b	-0.04274593
77	0x3ddefc66	0.10887985
78	0x3e233d8b	0.15941446
79	0x3d81116f	0.06302153
80	0xbdbf0f0f	-0.09329044
81	0xbdab7373	-0.083716296
82	0xbdecfb4a	-0.11571367
83	0x3b4c3bf0	0.0031163655
84	0x3d5300a1	0.05151427
85	0xbbe3e749	-0.0069550616
86	0x3da8a787	0.08235078
87	0x3d67044e	0.05640059
88	0xbe1ec825	-0.15506037
89	0x3dd92183	0.10602095
90	0x3e0274c7	0.1273986
91	0x3e14d8df	0.14535855
92	0x3e0f69ee	0.14005253
93	0xbd18d6f0	-0.037314355
94	0x3dcf0807	0.10108953
95	0x3dcabad3	0.09898915
96	0x3cd71ba6	0.026258301
97	0xbc90977f	-0.017650364
98	0xbc1553c3	-0.009114209
99	0xbcadcf00	-0.02121687
100	0x3d9cc9fd	0.07655714
101	0xbdcdfa96	-0.10057561
102	0x3d53d70a	0.05171875
103	0x3ddcb5a6	0.10776834
104	0x3e03c38d	0.12867565
105	0x3dd31eee	0.10308634
106	0x3b76bc86	0.003764899
107	0x3d966c2f	0.07344853
108	0x3db7dad1	0.08977283
109	0x3ca51643	0.020152217
110	0xbdb5bb52	-0.08873619
111	0xbdf5beb6	-0.11999266
112	0x3d7bf2fb	0.06151102
113	0x3e0c632d	0.13709708
114	0xbd2e67b6	-0.042579375
115	0x3d863009	0.06552131
116	0xbc76cde5	-0.0150637375
117	0x3d38b1f8	0.0450916
118	0x3db8090b	0.089861
119	0xbd97e5cb	-0.074168764
120	0x3d310628	0.04321876
121	0xbc7e391d	-0.015516547
122	0xbd50f13f	-0.05101132
123	0xbbd980ac	-0.0066376533
124	0x3db78533	0.089609526
125	0x3db4d546	0.08829741
126	0xbd5f3bcc	-0.054500386
127	0x3def459b	0.11683198
128	0xbd842f79	-0.06454367
129	0x3d670d20	0.056409
130	0x3db74ab5	0.08949796
131	0xbb8a4da6	-0.004220682
132	0xbcb4f151	-0.022087725
133	0x3d6d3afd	0.057917584
134	0x3e07c9f9	0.1326064
135	0xbd118b1b	-0.035533052
136	0x3d847651	0.064678796
137	0xbd3087be	-0.043098204
138	0xbe007f3f	-0.1254854
139	0x3c4e7b95	0.012602706
140	0x3d644f81	0.055739883
141	0xbe03049c	-0.12794727
142	0xbde0c587	-0.10975175
143	0xbe086a07	-0.13321696
144	0xbc8e2ee1	-0.017356338
145	0xbdd84486	-0.10559945
146	0xbd814968	-0.06312829
147	0xbe1166be	-0.1419935
148	0x3d51982e	0.05117052
149	0x3d5430b2	0.051804252
150	0xbd9370ba	-0.07199235
151	0x3dbf5bb1	0.093436606
152	0x3d06e768	0.03293553
153	0xbdf2e454	-0.118599564
154	0x3e0bebdd	0.13664193
155	0x3dff3199	0.12460632
156	0x3ce85473	0.028360581
157	0xbcf5b04b	-0.02999129
158	0xbe0432f8	-0.12910068
159	0x3cf16613	0.029467618
160	0x3df856d8	0.12125939
161	0xbe070ff0	-0.13189673
162	0xbd7e4449	-0.06207684
163	0x3cd1ab1e	0.02559429
164	0xbe0937db	-0.13400213
165	0x3db62942	0.08894588
166	0x3df3fb4b	0.11913165
167	0x3df1c10e	0.118044004
168	0x3a422265	0.0007405638
169	0xbe0afff3	-0.135742
170	0xbd184f45	-0.037184972
171	0xbc2efc77	-0.0106803095
172	0x3c8708b4	0.016483642
173	0x3ded80c0	0.11596823
174	0xbc588dad	-0.013217372
175	0x3e0781bb	0.13233082
176	0x3e13cf03	0.14434437
177	0xbdd2e1d3	-0.10296979
178	0xbe16b7b5	-0.14718516
179	0xbd96f828	-0.07371551
180	0xbdf7061e	-0.12061714
181	0xbccb9997	-0.02485351
182	0xbdf0929e	-0.11746715
183	0xbd2494b8	-0.04018089
184	0xbdf82b9a	-0.12117691
185	0x3dacb2b1	0.0843252
186	0xbc1d2f2c	-0.009593766
187	0x3dad9c66	0.08477096
188	0x3d02217d	0.03177022
189	0x3d8262d7	0.063665085
190	0x3bea6070	0.0071526095
191	0xbcc5280e	-0.024066951
192	0xbd73158c	-0.05934672
193	0xbd95e747	-0.07319503
194	0xbc5252a2	-0.012837084
195	0x3da6c495	0.08142964
196	0x3dbfc3d8	0.09363526
197	0xbe0ca113	-0.1373332
198	0xbd18698e	-0.03721004
199	0x3d3c0f84	0.045913234
200	0xbdaad146	-0.08340697
201	0x3dc49324	0.09598377
202	0x3d8a740f	0.06760418
203	0xbd5229aa	-0.051309265
204	0xbddaf77d	-0.10691736
205	0x3ceb2319	0.02870326
206	0x3e0602ca	0.13087001
207	0x3df4e50d	0.119577505
208	0x3e098005	0.13427742
209	0x3b50e441	0.0031874331
210	0x3e104a23	0.14090781
211	0xbd8a5204	-0.067539245
212	0xbd352696	-0.04422625
213	0xbcd32a04	-0.02577687
214	0xbdc3d2a0	-0.09561658
215	0xbd357bda	-0.044307567
216	0xbdca21f1	-0.09869755
217	0x3e028771	0.1274698
218	0x3d2db740	0.04241109
219	0xbd0bddfa	-0.03414724
220	0xbc702342	-0.014656844
221	0xbdaf5dbe	-0.08562802
222	0xbe1d765b	-0.1537718
223	0xbd7b9c9f	-0.061428662
224	0x3da73fc9	0.08166463
225	0x3c08c576	0.00834786
226	0x3b813580	0.0039431453
227	0x3d938f37	0.072050504
228	0xbc4c0f12	-0.012454765
229	0xbd942efe	-0.072355255
230	0x3c1ee8af	0.009699031
231	0xbd02dfba	-0.031951644
232	0xbcd014fe	-0.025400635
233	0x3c74293f	0.014902412
234	0x3bb6fce1	0.0055843447
235	0xbc3f823f	-0.011688768
236	0x3d34e1cd	0.044160653
237	0xbd1b4650	-0.037908852
238	0x3d6ffe72	0.058592267
239	0xbd134d12	-0.03596217
240	0x3d0ff8aa	0.035149254
241	0x3e0de22b	0.13855807
242	0xbd1e9db1	-0.038724605
243	0xbdba14e0	-0.09086013
244	0x3c8cbf29	0.017180996
245	0xbc9cf53e	-0.01915991
246	0xbde4daf1	-0.11174572
247	0x3dad5fdc	0.08465549
248	0x3dbf5168	0.09341699
249	0x3d81fc6b	0.06346973
250	0x3c18585f	0.009298413
251	0x3ac59757	0.001507501
252	0xbe0ff7c4	-0.14059359
253	0xbd880089	-0.06640727
254	0x3cd0fef1	0.02551219
255	0x3d65664b	0.056005757

module.gcn_layers.0.bnEdges.batch_norm.weight f4 [50]
0	0x3f81f300	1.0152283
1	0x3f81322a	1.0093434
2	0x3f798b8a	0.97478545
3	0x3f83fcd3	1.0311531
4	0x3f7e7a37	0.99405235
5	0x3f8102d0	1.0078983
6	0x3f8002ee	1.0000894
7	0x3f7cd9f1	0.9877005
8	0x3f84e77c	1.0383143
9	0x3f7bee88	0.98410845
10	0x3f808dd2	1.004328
11	0x3f827854	1.0192971
12	0x3f809793	1.0046257
13	0x3f82b945	1.021279
14	0x3f8398b2	1.0280974
15	0x3f7ded3f	0.99190134
16	0x3f84ab2b	1.0364736
17	0x3f820767	1.0158509
18	0x3f80388d	1.0017258
19	0x3f84275f	1.0324515
20	0x3f80b98c	1.0056624
21	0x3f7da1c7	0.9907498
22	0x3f807072	1.0034316
23	0x3f7c9ae9	0.98673874
24	0x3f80c8ab	1.0061239
25	0x3f81d8d3	1.0144295
26	0x3f866648	1.0499964
27	0x3f804aaf	1.0022792
28	0x3f7c4dd7	0.98556274
29	0x3f80ee71	1.0072767
30	0x3f7fd181	0.9992905
31	0x3f849823	1.0358928
32	0x3f7b88e0	0.9825573
33	0x3f78ec21	0.97235304
34	0x3f822df6	1.0170276
35	0x3f814efa	1.0102227
36	0x3f7fca5e	0.9991816
37	0x3f7f802f	0.9980497
38	0x3f7bc947	0.98354
39	0x3f81de35	1.0145937
40	0x3f7e4126	0.9931816
41	0x3f829ae8	1.0203524
42	0x3f82b11f	1.0210303
43	0x3f82c524	1.0216413
44	0x3f7f978c	0.9984062
45	0x3f7f282d	0.9967068
46	0x3f7f6b41	0.9977303
47	0x3f8288c7	1.0197991
48	0x3f85d500	1.0455627
49	0x3f8213d2	1.0162299

module.gcn_layers.0.bnEdges.batch_norm.bias f4 [50]
0	0xbc348e28	-0.011020221
1	0x3ba1f008	0.004941944
2	0x3bc677cc	0.0060567614
3	0x3998acec	0.00029120536
4	0xbc500c99	-0.012698316
5	0xbbfae14a	-0.007656251
6	0xbb6ca9f6	-0.0036112047
7	0xbc673126	-0.014110839
8	0xbb9f6203	-0.004863979
9	0xbc318107	-0.010833985
10	0x3be680ad	0.0070343823
11	0x3d0414c5	0.03224637
12	0x3b81e9cf	0.0039646397
13	0x3c5fe005	0.01366425
14	0x3d120247	0.035646703
15	0xbbe94aac	-0.0071194973
16	0xbb9b7baf	-0.004744969
17	0x3c863e0e	0.016387012
18	0xbc931943	-0.017956382
19	0x3d21e35a	0.03952346
20	0xbc022483	-0.007943275
21	0xbc596851	-0.0132695
22	0xbc3eaae0	-0.011637419
23	0xbc9c98c8	-0.01911582
24	0x3c57a26b	0.013161282
25	0x3c99ba43	0.018765574
26	0xbc76160f	-0.015019908
27	0xba6a1486	-0.000892945
28	0xbaf4ef63	-0.0018687065
29	0x3c3e45d5	0.011613329
30	0xbc9711e8	-0.018441156
31	0x3cf46a76	0.02983592
32	0xbc88361c	-0.016627364
33	0xbc8e074b	-0.017337462
34	0x3c1a1b50	0.009405926
35	0x3b9018c0	0.0043974817
36	0x3b9e5a7b	0.0048325635
37	0x3c35f469	0.011105635
38	0xbc890210	-0.016724616
39	0xbc56c98d	-0.013109577
40	0xbc1ee2a8	-0.009697594
41	0x3cc453bf	0.023965714
42	0x3c8b585f	0.017009912
43	0xbaca01fa	-0.0015411966
44	0x3c6ea1df	0.01456496
45	0xbc30c60c	-0.010789406
46	0xbcc8fce3	-0.024534648
47	0x3d1b7e85	0.037962455
48	0x3c04cd81	0.008105637
49	0x3cd66c04	0.026174553
